{"config": {"name": "link-resnet18", "input_layers": [["data", 0, 0]], "layers": [{"name": "data", "class_name": "InputLayer", "inbound_nodes": [], "config": {"batch_input_shape": [null, null, null, 3], "dtype": "float32", "sparse": false, "name": "data"}}, {"name": "bn_data", "class_name": "BatchNormalization", "inbound_nodes": [[["data", 0, 0, {}]]], "config": {"gamma_regularizer": null, "beta_regularizer": null, "beta_initializer": {"config": {}, "class_name": "Zeros"}, "axis": 3, "trainable": true, "momentum": 0.99, "gamma_initializer": {"config": {}, "class_name": "Ones"}, "moving_mean_initializer": {"config": {}, "class_name": "Zeros"}, "name": "bn_data", "moving_variance_initializer": {"config": {}, "class_name": "Ones"}, "scale": false, "gamma_constraint": null, "beta_constraint": null, "epsilon": 2e-05, "center": true}}, {"name": "zero_padding2d_91", "class_name": "ZeroPadding2D", "inbound_nodes": [[["bn_data", 0, 0, {}]]], "config": {"name": "zero_padding2d_91", "trainable": true, "data_format": "channels_last", "padding": [[3, 3], [3, 3]]}}, {"name": "conv0", "class_name": "Conv2D", "inbound_nodes": [[["zero_padding2d_91", 0, 0, {}]]], "config": {"name": "conv0", "bias_initializer": {"config": {}, "class_name": "Zeros"}, "kernel_initializer": {"config": {"distribution": "uniform", "seed": null, "mode": "fan_in", "scale": 2.0}, "class_name": "VarianceScaling"}, "trainable": true, "filters": 64, "data_format": "channels_last", "bias_constraint": null, "use_bias": false, "activity_regularizer": null, "kernel_size": [7, 7], "bias_regularizer": null, "dilation_rate": [1, 1], "padding": "valid", "activation": "linear", "strides": [2, 2], "kernel_constraint": null, "kernel_regularizer": null}}, {"name": "bn0", "class_name": "BatchNormalization", "inbound_nodes": [[["conv0", 0, 0, {}]]], "config": {"gamma_regularizer": null, "beta_regularizer": null, "beta_initializer": {"config": {}, "class_name": "Zeros"}, "axis": 3, "trainable": true, "momentum": 0.99, "gamma_initializer": {"config": {}, "class_name": "Ones"}, "moving_mean_initializer": {"config": {}, "class_name": "Zeros"}, "name": "bn0", "moving_variance_initializer": {"config": {}, "class_name": "Ones"}, "scale": true, "gamma_constraint": null, "beta_constraint": null, "epsilon": 2e-05, "center": true}}, {"name": "relu0", "class_name": "Activation", "inbound_nodes": [[["bn0", 0, 0, {}]]], "config": {"name": "relu0", "trainable": true, "activation": "relu"}}, {"name": "zero_padding2d_92", "class_name": "ZeroPadding2D", "inbound_nodes": [[["relu0", 0, 0, {}]]], "config": {"name": "zero_padding2d_92", "trainable": true, "data_format": "channels_last", "padding": [[1, 1], [1, 1]]}}, {"name": "pooling0", "class_name": "MaxPooling2D", "inbound_nodes": [[["zero_padding2d_92", 0, 0, {}]]], "config": {"name": "pooling0", "strides": [2, 2], "trainable": true, "pool_size": [3, 3], "padding": "valid", "data_format": "channels_last"}}, {"name": "stage1_unit1_bn1", "class_name": "BatchNormalization", "inbound_nodes": [[["pooling0", 0, 0, {}]]], "config": {"gamma_regularizer": null, "beta_regularizer": null, "beta_initializer": {"config": {}, "class_name": "Zeros"}, "axis": 3, "trainable": true, "momentum": 0.99, "gamma_initializer": {"config": {}, "class_name": "Ones"}, "moving_mean_initializer": {"config": {}, "class_name": "Zeros"}, "name": "stage1_unit1_bn1", "moving_variance_initializer": {"config": {}, "class_name": "Ones"}, "scale": true, "gamma_constraint": null, "beta_constraint": null, "epsilon": 2e-05, "center": true}}, {"name": "stage1_unit1_relu1", "class_name": "Activation", "inbound_nodes": [[["stage1_unit1_bn1", 0, 0, {}]]], "config": {"name": "stage1_unit1_relu1", "trainable": true, "activation": "relu"}}, {"name": "zero_padding2d_93", "class_name": "ZeroPadding2D", "inbound_nodes": [[["stage1_unit1_relu1", 0, 0, {}]]], "config": {"name": "zero_padding2d_93", "trainable": true, "data_format": "channels_last", "padding": [[1, 1], [1, 1]]}}, {"name": "stage1_unit1_conv1", "class_name": "Conv2D", "inbound_nodes": [[["zero_padding2d_93", 0, 0, {}]]], "config": {"name": "stage1_unit1_conv1", "bias_initializer": {"config": {}, "class_name": "Zeros"}, "kernel_initializer": {"config": {"distribution": "uniform", "seed": null, "mode": "fan_in", "scale": 2.0}, "class_name": "VarianceScaling"}, "trainable": true, "filters": 64, "data_format": "channels_last", "bias_constraint": null, "use_bias": false, "activity_regularizer": null, "kernel_size": [3, 3], "bias_regularizer": null, "dilation_rate": [1, 1], "padding": "valid", "activation": "linear", "strides": [1, 1], "kernel_constraint": null, "kernel_regularizer": null}}, {"name": "stage1_unit1_bn2", "class_name": "BatchNormalization", "inbound_nodes": [[["stage1_unit1_conv1", 0, 0, {}]]], "config": {"gamma_regularizer": null, "beta_regularizer": null, "beta_initializer": {"config": {}, "class_name": "Zeros"}, "axis": 3, "trainable": true, "momentum": 0.99, "gamma_initializer": {"config": {}, "class_name": "Ones"}, "moving_mean_initializer": {"config": {}, "class_name": "Zeros"}, "name": "stage1_unit1_bn2", "moving_variance_initializer": {"config": {}, "class_name": "Ones"}, "scale": true, "gamma_constraint": null, "beta_constraint": null, "epsilon": 2e-05, "center": true}}, {"name": "stage1_unit1_relu2", "class_name": "Activation", "inbound_nodes": [[["stage1_unit1_bn2", 0, 0, {}]]], "config": {"name": "stage1_unit1_relu2", "trainable": true, "activation": "relu"}}, {"name": "zero_padding2d_94", "class_name": "ZeroPadding2D", "inbound_nodes": [[["stage1_unit1_relu2", 0, 0, {}]]], "config": {"name": "zero_padding2d_94", "trainable": true, "data_format": "channels_last", "padding": [[1, 1], [1, 1]]}}, {"name": "stage1_unit1_conv2", "class_name": "Conv2D", "inbound_nodes": [[["zero_padding2d_94", 0, 0, {}]]], "config": {"name": "stage1_unit1_conv2", "bias_initializer": {"config": {}, "class_name": "Zeros"}, "kernel_initializer": {"config": {"distribution": "uniform", "seed": null, "mode": "fan_in", "scale": 2.0}, "class_name": "VarianceScaling"}, "trainable": true, "filters": 64, "data_format": "channels_last", "bias_constraint": null, "use_bias": false, "activity_regularizer": null, "kernel_size": [3, 3], "bias_regularizer": null, "dilation_rate": [1, 1], "padding": "valid", "activation": "linear", "strides": [1, 1], "kernel_constraint": null, "kernel_regularizer": null}}, {"name": "stage1_unit1_sc", "class_name": "Conv2D", "inbound_nodes": [[["stage1_unit1_relu1", 0, 0, {}]]], "config": {"name": "stage1_unit1_sc", "bias_initializer": {"config": {}, "class_name": "Zeros"}, "kernel_initializer": {"config": {"distribution": "uniform", "seed": null, "mode": "fan_in", "scale": 2.0}, "class_name": "VarianceScaling"}, "trainable": true, "filters": 64, "data_format": "channels_last", "bias_constraint": null, "use_bias": false, "activity_regularizer": null, "kernel_size": [1, 1], "bias_regularizer": null, "dilation_rate": [1, 1], "padding": "valid", "activation": "linear", "strides": [1, 1], "kernel_constraint": null, "kernel_regularizer": null}}, {"name": "add_49", "class_name": "Add", "inbound_nodes": [[["stage1_unit1_conv2", 0, 0, {}], ["stage1_unit1_sc", 0, 0, {}]]], "config": {"name": "add_49", "trainable": true}}, {"name": "stage1_unit2_bn1", "class_name": "BatchNormalization", "inbound_nodes": [[["add_49", 0, 0, {}]]], "config": {"gamma_regularizer": null, "beta_regularizer": null, "beta_initializer": {"config": {}, "class_name": "Zeros"}, "axis": 3, "trainable": true, "momentum": 0.99, "gamma_initializer": {"config": {}, "class_name": "Ones"}, "moving_mean_initializer": {"config": {}, "class_name": "Zeros"}, "name": "stage1_unit2_bn1", "moving_variance_initializer": {"config": {}, "class_name": "Ones"}, "scale": true, "gamma_constraint": null, "beta_constraint": null, "epsilon": 2e-05, "center": true}}, {"name": "stage1_unit2_relu1", "class_name": "Activation", "inbound_nodes": [[["stage1_unit2_bn1", 0, 0, {}]]], "config": {"name": "stage1_unit2_relu1", "trainable": true, "activation": "relu"}}, {"name": "zero_padding2d_95", "class_name": "ZeroPadding2D", "inbound_nodes": [[["stage1_unit2_relu1", 0, 0, {}]]], "config": {"name": "zero_padding2d_95", "trainable": true, "data_format": "channels_last", "padding": [[1, 1], [1, 1]]}}, {"name": "stage1_unit2_conv1", "class_name": "Conv2D", "inbound_nodes": [[["zero_padding2d_95", 0, 0, {}]]], "config": {"name": "stage1_unit2_conv1", "bias_initializer": {"config": {}, "class_name": "Zeros"}, "kernel_initializer": {"config": {"distribution": "uniform", "seed": null, "mode": "fan_in", "scale": 2.0}, "class_name": "VarianceScaling"}, "trainable": true, "filters": 64, "data_format": "channels_last", "bias_constraint": null, "use_bias": false, "activity_regularizer": null, "kernel_size": [3, 3], "bias_regularizer": null, "dilation_rate": [1, 1], "padding": "valid", "activation": "linear", "strides": [1, 1], "kernel_constraint": null, "kernel_regularizer": null}}, {"name": "stage1_unit2_bn2", "class_name": "BatchNormalization", "inbound_nodes": [[["stage1_unit2_conv1", 0, 0, {}]]], "config": {"gamma_regularizer": null, "beta_regularizer": null, "beta_initializer": {"config": {}, "class_name": "Zeros"}, "axis": 3, "trainable": true, "momentum": 0.99, "gamma_initializer": {"config": {}, "class_name": "Ones"}, "moving_mean_initializer": {"config": {}, "class_name": "Zeros"}, "name": "stage1_unit2_bn2", "moving_variance_initializer": {"config": {}, "class_name": "Ones"}, "scale": true, "gamma_constraint": null, "beta_constraint": null, "epsilon": 2e-05, "center": true}}, {"name": "stage1_unit2_relu2", "class_name": "Activation", "inbound_nodes": [[["stage1_unit2_bn2", 0, 0, {}]]], "config": {"name": "stage1_unit2_relu2", "trainable": true, "activation": "relu"}}, {"name": "zero_padding2d_96", "class_name": "ZeroPadding2D", "inbound_nodes": [[["stage1_unit2_relu2", 0, 0, {}]]], "config": {"name": "zero_padding2d_96", "trainable": true, "data_format": "channels_last", "padding": [[1, 1], [1, 1]]}}, {"name": "stage1_unit2_conv2", "class_name": "Conv2D", "inbound_nodes": [[["zero_padding2d_96", 0, 0, {}]]], "config": {"name": "stage1_unit2_conv2", "bias_initializer": {"config": {}, "class_name": "Zeros"}, "kernel_initializer": {"config": {"distribution": "uniform", "seed": null, "mode": "fan_in", "scale": 2.0}, "class_name": "VarianceScaling"}, "trainable": true, "filters": 64, "data_format": "channels_last", "bias_constraint": null, "use_bias": false, "activity_regularizer": null, "kernel_size": [3, 3], "bias_regularizer": null, "dilation_rate": [1, 1], "padding": "valid", "activation": "linear", "strides": [1, 1], "kernel_constraint": null, "kernel_regularizer": null}}, {"name": "add_50", "class_name": "Add", "inbound_nodes": [[["stage1_unit2_conv2", 0, 0, {}], ["add_49", 0, 0, {}]]], "config": {"name": "add_50", "trainable": true}}, {"name": "stage2_unit1_bn1", "class_name": "BatchNormalization", "inbound_nodes": [[["add_50", 0, 0, {}]]], "config": {"gamma_regularizer": null, "beta_regularizer": null, "beta_initializer": {"config": {}, "class_name": "Zeros"}, "axis": 3, "trainable": true, "momentum": 0.99, "gamma_initializer": {"config": {}, "class_name": "Ones"}, "moving_mean_initializer": {"config": {}, "class_name": "Zeros"}, "name": "stage2_unit1_bn1", "moving_variance_initializer": {"config": {}, "class_name": "Ones"}, "scale": true, "gamma_constraint": null, "beta_constraint": null, "epsilon": 2e-05, "center": true}}, {"name": "stage2_unit1_relu1", "class_name": "Activation", "inbound_nodes": [[["stage2_unit1_bn1", 0, 0, {}]]], "config": {"name": "stage2_unit1_relu1", "trainable": true, "activation": "relu"}}, {"name": "zero_padding2d_97", "class_name": "ZeroPadding2D", "inbound_nodes": [[["stage2_unit1_relu1", 0, 0, {}]]], "config": {"name": "zero_padding2d_97", "trainable": true, "data_format": "channels_last", "padding": [[1, 1], [1, 1]]}}, {"name": "stage2_unit1_conv1", "class_name": "Conv2D", "inbound_nodes": [[["zero_padding2d_97", 0, 0, {}]]], "config": {"name": "stage2_unit1_conv1", "bias_initializer": {"config": {}, "class_name": "Zeros"}, "kernel_initializer": {"config": {"distribution": "uniform", "seed": null, "mode": "fan_in", "scale": 2.0}, "class_name": "VarianceScaling"}, "trainable": true, "filters": 128, "data_format": "channels_last", "bias_constraint": null, "use_bias": false, "activity_regularizer": null, "kernel_size": [3, 3], "bias_regularizer": null, "dilation_rate": [1, 1], "padding": "valid", "activation": "linear", "strides": [2, 2], "kernel_constraint": null, "kernel_regularizer": null}}, {"name": "stage2_unit1_bn2", "class_name": "BatchNormalization", "inbound_nodes": [[["stage2_unit1_conv1", 0, 0, {}]]], "config": {"gamma_regularizer": null, "beta_regularizer": null, "beta_initializer": {"config": {}, "class_name": "Zeros"}, "axis": 3, "trainable": true, "momentum": 0.99, "gamma_initializer": {"config": {}, "class_name": "Ones"}, "moving_mean_initializer": {"config": {}, "class_name": "Zeros"}, "name": "stage2_unit1_bn2", "moving_variance_initializer": {"config": {}, "class_name": "Ones"}, "scale": true, "gamma_constraint": null, "beta_constraint": null, "epsilon": 2e-05, "center": true}}, {"name": "stage2_unit1_relu2", "class_name": "Activation", "inbound_nodes": [[["stage2_unit1_bn2", 0, 0, {}]]], "config": {"name": "stage2_unit1_relu2", "trainable": true, "activation": "relu"}}, {"name": "zero_padding2d_98", "class_name": "ZeroPadding2D", "inbound_nodes": [[["stage2_unit1_relu2", 0, 0, {}]]], "config": {"name": "zero_padding2d_98", "trainable": true, "data_format": "channels_last", "padding": [[1, 1], [1, 1]]}}, {"name": "stage2_unit1_conv2", "class_name": "Conv2D", "inbound_nodes": [[["zero_padding2d_98", 0, 0, {}]]], "config": {"name": "stage2_unit1_conv2", "bias_initializer": {"config": {}, "class_name": "Zeros"}, "kernel_initializer": {"config": {"distribution": "uniform", "seed": null, "mode": "fan_in", "scale": 2.0}, "class_name": "VarianceScaling"}, "trainable": true, "filters": 128, "data_format": "channels_last", "bias_constraint": null, "use_bias": false, "activity_regularizer": null, "kernel_size": [3, 3], "bias_regularizer": null, "dilation_rate": [1, 1], "padding": "valid", "activation": "linear", "strides": [1, 1], "kernel_constraint": null, "kernel_regularizer": null}}, {"name": "stage2_unit1_sc", "class_name": "Conv2D", "inbound_nodes": [[["stage2_unit1_relu1", 0, 0, {}]]], "config": {"name": "stage2_unit1_sc", "bias_initializer": {"config": {}, "class_name": "Zeros"}, "kernel_initializer": {"config": {"distribution": "uniform", "seed": null, "mode": "fan_in", "scale": 2.0}, "class_name": "VarianceScaling"}, "trainable": true, "filters": 128, "data_format": "channels_last", "bias_constraint": null, "use_bias": false, "activity_regularizer": null, "kernel_size": [1, 1], "bias_regularizer": null, "dilation_rate": [1, 1], "padding": "valid", "activation": "linear", "strides": [2, 2], "kernel_constraint": null, "kernel_regularizer": null}}, {"name": "add_51", "class_name": "Add", "inbound_nodes": [[["stage2_unit1_conv2", 0, 0, {}], ["stage2_unit1_sc", 0, 0, {}]]], "config": {"name": "add_51", "trainable": true}}, {"name": "stage2_unit2_bn1", "class_name": "BatchNormalization", "inbound_nodes": [[["add_51", 0, 0, {}]]], "config": {"gamma_regularizer": null, "beta_regularizer": null, "beta_initializer": {"config": {}, "class_name": "Zeros"}, "axis": 3, "trainable": true, "momentum": 0.99, "gamma_initializer": {"config": {}, "class_name": "Ones"}, "moving_mean_initializer": {"config": {}, "class_name": "Zeros"}, "name": "stage2_unit2_bn1", "moving_variance_initializer": {"config": {}, "class_name": "Ones"}, "scale": true, "gamma_constraint": null, "beta_constraint": null, "epsilon": 2e-05, "center": true}}, {"name": "stage2_unit2_relu1", "class_name": "Activation", "inbound_nodes": [[["stage2_unit2_bn1", 0, 0, {}]]], "config": {"name": "stage2_unit2_relu1", "trainable": true, "activation": "relu"}}, {"name": "zero_padding2d_99", "class_name": "ZeroPadding2D", "inbound_nodes": [[["stage2_unit2_relu1", 0, 0, {}]]], "config": {"name": "zero_padding2d_99", "trainable": true, "data_format": "channels_last", "padding": [[1, 1], [1, 1]]}}, {"name": "stage2_unit2_conv1", "class_name": "Conv2D", "inbound_nodes": [[["zero_padding2d_99", 0, 0, {}]]], "config": {"name": "stage2_unit2_conv1", "bias_initializer": {"config": {}, "class_name": "Zeros"}, "kernel_initializer": {"config": {"distribution": "uniform", "seed": null, "mode": "fan_in", "scale": 2.0}, "class_name": "VarianceScaling"}, "trainable": true, "filters": 128, "data_format": "channels_last", "bias_constraint": null, "use_bias": false, "activity_regularizer": null, "kernel_size": [3, 3], "bias_regularizer": null, "dilation_rate": [1, 1], "padding": "valid", "activation": "linear", "strides": [1, 1], "kernel_constraint": null, "kernel_regularizer": null}}, {"name": "stage2_unit2_bn2", "class_name": "BatchNormalization", "inbound_nodes": [[["stage2_unit2_conv1", 0, 0, {}]]], "config": {"gamma_regularizer": null, "beta_regularizer": null, "beta_initializer": {"config": {}, "class_name": "Zeros"}, "axis": 3, "trainable": true, "momentum": 0.99, "gamma_initializer": {"config": {}, "class_name": "Ones"}, "moving_mean_initializer": {"config": {}, "class_name": "Zeros"}, "name": "stage2_unit2_bn2", "moving_variance_initializer": {"config": {}, "class_name": "Ones"}, "scale": true, "gamma_constraint": null, "beta_constraint": null, "epsilon": 2e-05, "center": true}}, {"name": "stage2_unit2_relu2", "class_name": "Activation", "inbound_nodes": [[["stage2_unit2_bn2", 0, 0, {}]]], "config": {"name": "stage2_unit2_relu2", "trainable": true, "activation": "relu"}}, {"name": "zero_padding2d_100", "class_name": "ZeroPadding2D", "inbound_nodes": [[["stage2_unit2_relu2", 0, 0, {}]]], "config": {"name": "zero_padding2d_100", "trainable": true, "data_format": "channels_last", "padding": [[1, 1], [1, 1]]}}, {"name": "stage2_unit2_conv2", "class_name": "Conv2D", "inbound_nodes": [[["zero_padding2d_100", 0, 0, {}]]], "config": {"name": "stage2_unit2_conv2", "bias_initializer": {"config": {}, "class_name": "Zeros"}, "kernel_initializer": {"config": {"distribution": "uniform", "seed": null, "mode": "fan_in", "scale": 2.0}, "class_name": "VarianceScaling"}, "trainable": true, "filters": 128, "data_format": "channels_last", "bias_constraint": null, "use_bias": false, "activity_regularizer": null, "kernel_size": [3, 3], "bias_regularizer": null, "dilation_rate": [1, 1], "padding": "valid", "activation": "linear", "strides": [1, 1], "kernel_constraint": null, "kernel_regularizer": null}}, {"name": "add_52", "class_name": "Add", "inbound_nodes": [[["stage2_unit2_conv2", 0, 0, {}], ["add_51", 0, 0, {}]]], "config": {"name": "add_52", "trainable": true}}, {"name": "stage3_unit1_bn1", "class_name": "BatchNormalization", "inbound_nodes": [[["add_52", 0, 0, {}]]], "config": {"gamma_regularizer": null, "beta_regularizer": null, "beta_initializer": {"config": {}, "class_name": "Zeros"}, "axis": 3, "trainable": true, "momentum": 0.99, "gamma_initializer": {"config": {}, "class_name": "Ones"}, "moving_mean_initializer": {"config": {}, "class_name": "Zeros"}, "name": "stage3_unit1_bn1", "moving_variance_initializer": {"config": {}, "class_name": "Ones"}, "scale": true, "gamma_constraint": null, "beta_constraint": null, "epsilon": 2e-05, "center": true}}, {"name": "stage3_unit1_relu1", "class_name": "Activation", "inbound_nodes": [[["stage3_unit1_bn1", 0, 0, {}]]], "config": {"name": "stage3_unit1_relu1", "trainable": true, "activation": "relu"}}, {"name": "zero_padding2d_101", "class_name": "ZeroPadding2D", "inbound_nodes": [[["stage3_unit1_relu1", 0, 0, {}]]], "config": {"name": "zero_padding2d_101", "trainable": true, "data_format": "channels_last", "padding": [[1, 1], [1, 1]]}}, {"name": "stage3_unit1_conv1", "class_name": "Conv2D", "inbound_nodes": [[["zero_padding2d_101", 0, 0, {}]]], "config": {"name": "stage3_unit1_conv1", "bias_initializer": {"config": {}, "class_name": "Zeros"}, "kernel_initializer": {"config": {"distribution": "uniform", "seed": null, "mode": "fan_in", "scale": 2.0}, "class_name": "VarianceScaling"}, "trainable": true, "filters": 256, "data_format": "channels_last", "bias_constraint": null, "use_bias": false, "activity_regularizer": null, "kernel_size": [3, 3], "bias_regularizer": null, "dilation_rate": [1, 1], "padding": "valid", "activation": "linear", "strides": [2, 2], "kernel_constraint": null, "kernel_regularizer": null}}, {"name": "stage3_unit1_bn2", "class_name": "BatchNormalization", "inbound_nodes": [[["stage3_unit1_conv1", 0, 0, {}]]], "config": {"gamma_regularizer": null, "beta_regularizer": null, "beta_initializer": {"config": {}, "class_name": "Zeros"}, "axis": 3, "trainable": true, "momentum": 0.99, "gamma_initializer": {"config": {}, "class_name": "Ones"}, "moving_mean_initializer": {"config": {}, "class_name": "Zeros"}, "name": "stage3_unit1_bn2", "moving_variance_initializer": {"config": {}, "class_name": "Ones"}, "scale": true, "gamma_constraint": null, "beta_constraint": null, "epsilon": 2e-05, "center": true}}, {"name": "stage3_unit1_relu2", "class_name": "Activation", "inbound_nodes": [[["stage3_unit1_bn2", 0, 0, {}]]], "config": {"name": "stage3_unit1_relu2", "trainable": true, "activation": "relu"}}, {"name": "zero_padding2d_102", "class_name": "ZeroPadding2D", "inbound_nodes": [[["stage3_unit1_relu2", 0, 0, {}]]], "config": {"name": "zero_padding2d_102", "trainable": true, "data_format": "channels_last", "padding": [[1, 1], [1, 1]]}}, {"name": "stage3_unit1_conv2", "class_name": "Conv2D", "inbound_nodes": [[["zero_padding2d_102", 0, 0, {}]]], "config": {"name": "stage3_unit1_conv2", "bias_initializer": {"config": {}, "class_name": "Zeros"}, "kernel_initializer": {"config": {"distribution": "uniform", "seed": null, "mode": "fan_in", "scale": 2.0}, "class_name": "VarianceScaling"}, "trainable": true, "filters": 256, "data_format": "channels_last", "bias_constraint": null, "use_bias": false, "activity_regularizer": null, "kernel_size": [3, 3], "bias_regularizer": null, "dilation_rate": [1, 1], "padding": "valid", "activation": "linear", "strides": [1, 1], "kernel_constraint": null, "kernel_regularizer": null}}, {"name": "stage3_unit1_sc", "class_name": "Conv2D", "inbound_nodes": [[["stage3_unit1_relu1", 0, 0, {}]]], "config": {"name": "stage3_unit1_sc", "bias_initializer": {"config": {}, "class_name": "Zeros"}, "kernel_initializer": {"config": {"distribution": "uniform", "seed": null, "mode": "fan_in", "scale": 2.0}, "class_name": "VarianceScaling"}, "trainable": true, "filters": 256, "data_format": "channels_last", "bias_constraint": null, "use_bias": false, "activity_regularizer": null, "kernel_size": [1, 1], "bias_regularizer": null, "dilation_rate": [1, 1], "padding": "valid", "activation": "linear", "strides": [2, 2], "kernel_constraint": null, "kernel_regularizer": null}}, {"name": "add_53", "class_name": "Add", "inbound_nodes": [[["stage3_unit1_conv2", 0, 0, {}], ["stage3_unit1_sc", 0, 0, {}]]], "config": {"name": "add_53", "trainable": true}}, {"name": "stage3_unit2_bn1", "class_name": "BatchNormalization", "inbound_nodes": [[["add_53", 0, 0, {}]]], "config": {"gamma_regularizer": null, "beta_regularizer": null, "beta_initializer": {"config": {}, "class_name": "Zeros"}, "axis": 3, "trainable": true, "momentum": 0.99, "gamma_initializer": {"config": {}, "class_name": "Ones"}, "moving_mean_initializer": {"config": {}, "class_name": "Zeros"}, "name": "stage3_unit2_bn1", "moving_variance_initializer": {"config": {}, "class_name": "Ones"}, "scale": true, "gamma_constraint": null, "beta_constraint": null, "epsilon": 2e-05, "center": true}}, {"name": "stage3_unit2_relu1", "class_name": "Activation", "inbound_nodes": [[["stage3_unit2_bn1", 0, 0, {}]]], "config": {"name": "stage3_unit2_relu1", "trainable": true, "activation": "relu"}}, {"name": "zero_padding2d_103", "class_name": "ZeroPadding2D", "inbound_nodes": [[["stage3_unit2_relu1", 0, 0, {}]]], "config": {"name": "zero_padding2d_103", "trainable": true, "data_format": "channels_last", "padding": [[1, 1], [1, 1]]}}, {"name": "stage3_unit2_conv1", "class_name": "Conv2D", "inbound_nodes": [[["zero_padding2d_103", 0, 0, {}]]], "config": {"name": "stage3_unit2_conv1", "bias_initializer": {"config": {}, "class_name": "Zeros"}, "kernel_initializer": {"config": {"distribution": "uniform", "seed": null, "mode": "fan_in", "scale": 2.0}, "class_name": "VarianceScaling"}, "trainable": true, "filters": 256, "data_format": "channels_last", "bias_constraint": null, "use_bias": false, "activity_regularizer": null, "kernel_size": [3, 3], "bias_regularizer": null, "dilation_rate": [1, 1], "padding": "valid", "activation": "linear", "strides": [1, 1], "kernel_constraint": null, "kernel_regularizer": null}}, {"name": "stage3_unit2_bn2", "class_name": "BatchNormalization", "inbound_nodes": [[["stage3_unit2_conv1", 0, 0, {}]]], "config": {"gamma_regularizer": null, "beta_regularizer": null, "beta_initializer": {"config": {}, "class_name": "Zeros"}, "axis": 3, "trainable": true, "momentum": 0.99, "gamma_initializer": {"config": {}, "class_name": "Ones"}, "moving_mean_initializer": {"config": {}, "class_name": "Zeros"}, "name": "stage3_unit2_bn2", "moving_variance_initializer": {"config": {}, "class_name": "Ones"}, "scale": true, "gamma_constraint": null, "beta_constraint": null, "epsilon": 2e-05, "center": true}}, {"name": "stage3_unit2_relu2", "class_name": "Activation", "inbound_nodes": [[["stage3_unit2_bn2", 0, 0, {}]]], "config": {"name": "stage3_unit2_relu2", "trainable": true, "activation": "relu"}}, {"name": "zero_padding2d_104", "class_name": "ZeroPadding2D", "inbound_nodes": [[["stage3_unit2_relu2", 0, 0, {}]]], "config": {"name": "zero_padding2d_104", "trainable": true, "data_format": "channels_last", "padding": [[1, 1], [1, 1]]}}, {"name": "stage3_unit2_conv2", "class_name": "Conv2D", "inbound_nodes": [[["zero_padding2d_104", 0, 0, {}]]], "config": {"name": "stage3_unit2_conv2", "bias_initializer": {"config": {}, "class_name": "Zeros"}, "kernel_initializer": {"config": {"distribution": "uniform", "seed": null, "mode": "fan_in", "scale": 2.0}, "class_name": "VarianceScaling"}, "trainable": true, "filters": 256, "data_format": "channels_last", "bias_constraint": null, "use_bias": false, "activity_regularizer": null, "kernel_size": [3, 3], "bias_regularizer": null, "dilation_rate": [1, 1], "padding": "valid", "activation": "linear", "strides": [1, 1], "kernel_constraint": null, "kernel_regularizer": null}}, {"name": "add_54", "class_name": "Add", "inbound_nodes": [[["stage3_unit2_conv2", 0, 0, {}], ["add_53", 0, 0, {}]]], "config": {"name": "add_54", "trainable": true}}, {"name": "stage4_unit1_bn1", "class_name": "BatchNormalization", "inbound_nodes": [[["add_54", 0, 0, {}]]], "config": {"gamma_regularizer": null, "beta_regularizer": null, "beta_initializer": {"config": {}, "class_name": "Zeros"}, "axis": 3, "trainable": true, "momentum": 0.99, "gamma_initializer": {"config": {}, "class_name": "Ones"}, "moving_mean_initializer": {"config": {}, "class_name": "Zeros"}, "name": "stage4_unit1_bn1", "moving_variance_initializer": {"config": {}, "class_name": "Ones"}, "scale": true, "gamma_constraint": null, "beta_constraint": null, "epsilon": 2e-05, "center": true}}, {"name": "stage4_unit1_relu1", "class_name": "Activation", "inbound_nodes": [[["stage4_unit1_bn1", 0, 0, {}]]], "config": {"name": "stage4_unit1_relu1", "trainable": true, "activation": "relu"}}, {"name": "zero_padding2d_105", "class_name": "ZeroPadding2D", "inbound_nodes": [[["stage4_unit1_relu1", 0, 0, {}]]], "config": {"name": "zero_padding2d_105", "trainable": true, "data_format": "channels_last", "padding": [[1, 1], [1, 1]]}}, {"name": "stage4_unit1_conv1", "class_name": "Conv2D", "inbound_nodes": [[["zero_padding2d_105", 0, 0, {}]]], "config": {"name": "stage4_unit1_conv1", "bias_initializer": {"config": {}, "class_name": "Zeros"}, "kernel_initializer": {"config": {"distribution": "uniform", "seed": null, "mode": "fan_in", "scale": 2.0}, "class_name": "VarianceScaling"}, "trainable": true, "filters": 512, "data_format": "channels_last", "bias_constraint": null, "use_bias": false, "activity_regularizer": null, "kernel_size": [3, 3], "bias_regularizer": null, "dilation_rate": [1, 1], "padding": "valid", "activation": "linear", "strides": [2, 2], "kernel_constraint": null, "kernel_regularizer": null}}, {"name": "stage4_unit1_bn2", "class_name": "BatchNormalization", "inbound_nodes": [[["stage4_unit1_conv1", 0, 0, {}]]], "config": {"gamma_regularizer": null, "beta_regularizer": null, "beta_initializer": {"config": {}, "class_name": "Zeros"}, "axis": 3, "trainable": true, "momentum": 0.99, "gamma_initializer": {"config": {}, "class_name": "Ones"}, "moving_mean_initializer": {"config": {}, "class_name": "Zeros"}, "name": "stage4_unit1_bn2", "moving_variance_initializer": {"config": {}, "class_name": "Ones"}, "scale": true, "gamma_constraint": null, "beta_constraint": null, "epsilon": 2e-05, "center": true}}, {"name": "stage4_unit1_relu2", "class_name": "Activation", "inbound_nodes": [[["stage4_unit1_bn2", 0, 0, {}]]], "config": {"name": "stage4_unit1_relu2", "trainable": true, "activation": "relu"}}, {"name": "zero_padding2d_106", "class_name": "ZeroPadding2D", "inbound_nodes": [[["stage4_unit1_relu2", 0, 0, {}]]], "config": {"name": "zero_padding2d_106", "trainable": true, "data_format": "channels_last", "padding": [[1, 1], [1, 1]]}}, {"name": "stage4_unit1_conv2", "class_name": "Conv2D", "inbound_nodes": [[["zero_padding2d_106", 0, 0, {}]]], "config": {"name": "stage4_unit1_conv2", "bias_initializer": {"config": {}, "class_name": "Zeros"}, "kernel_initializer": {"config": {"distribution": "uniform", "seed": null, "mode": "fan_in", "scale": 2.0}, "class_name": "VarianceScaling"}, "trainable": true, "filters": 512, "data_format": "channels_last", "bias_constraint": null, "use_bias": false, "activity_regularizer": null, "kernel_size": [3, 3], "bias_regularizer": null, "dilation_rate": [1, 1], "padding": "valid", "activation": "linear", "strides": [1, 1], "kernel_constraint": null, "kernel_regularizer": null}}, {"name": "stage4_unit1_sc", "class_name": "Conv2D", "inbound_nodes": [[["stage4_unit1_relu1", 0, 0, {}]]], "config": {"name": "stage4_unit1_sc", "bias_initializer": {"config": {}, "class_name": "Zeros"}, "kernel_initializer": {"config": {"distribution": "uniform", "seed": null, "mode": "fan_in", "scale": 2.0}, "class_name": "VarianceScaling"}, "trainable": true, "filters": 512, "data_format": "channels_last", "bias_constraint": null, "use_bias": false, "activity_regularizer": null, "kernel_size": [1, 1], "bias_regularizer": null, "dilation_rate": [1, 1], "padding": "valid", "activation": "linear", "strides": [2, 2], "kernel_constraint": null, "kernel_regularizer": null}}, {"name": "add_55", "class_name": "Add", "inbound_nodes": [[["stage4_unit1_conv2", 0, 0, {}], ["stage4_unit1_sc", 0, 0, {}]]], "config": {"name": "add_55", "trainable": true}}, {"name": "stage4_unit2_bn1", "class_name": "BatchNormalization", "inbound_nodes": [[["add_55", 0, 0, {}]]], "config": {"gamma_regularizer": null, "beta_regularizer": null, "beta_initializer": {"config": {}, "class_name": "Zeros"}, "axis": 3, "trainable": true, "momentum": 0.99, "gamma_initializer": {"config": {}, "class_name": "Ones"}, "moving_mean_initializer": {"config": {}, "class_name": "Zeros"}, "name": "stage4_unit2_bn1", "moving_variance_initializer": {"config": {}, "class_name": "Ones"}, "scale": true, "gamma_constraint": null, "beta_constraint": null, "epsilon": 2e-05, "center": true}}, {"name": "stage4_unit2_relu1", "class_name": "Activation", "inbound_nodes": [[["stage4_unit2_bn1", 0, 0, {}]]], "config": {"name": "stage4_unit2_relu1", "trainable": true, "activation": "relu"}}, {"name": "zero_padding2d_107", "class_name": "ZeroPadding2D", "inbound_nodes": [[["stage4_unit2_relu1", 0, 0, {}]]], "config": {"name": "zero_padding2d_107", "trainable": true, "data_format": "channels_last", "padding": [[1, 1], [1, 1]]}}, {"name": "stage4_unit2_conv1", "class_name": "Conv2D", "inbound_nodes": [[["zero_padding2d_107", 0, 0, {}]]], "config": {"name": "stage4_unit2_conv1", "bias_initializer": {"config": {}, "class_name": "Zeros"}, "kernel_initializer": {"config": {"distribution": "uniform", "seed": null, "mode": "fan_in", "scale": 2.0}, "class_name": "VarianceScaling"}, "trainable": true, "filters": 512, "data_format": "channels_last", "bias_constraint": null, "use_bias": false, "activity_regularizer": null, "kernel_size": [3, 3], "bias_regularizer": null, "dilation_rate": [1, 1], "padding": "valid", "activation": "linear", "strides": [1, 1], "kernel_constraint": null, "kernel_regularizer": null}}, {"name": "stage4_unit2_bn2", "class_name": "BatchNormalization", "inbound_nodes": [[["stage4_unit2_conv1", 0, 0, {}]]], "config": {"gamma_regularizer": null, "beta_regularizer": null, "beta_initializer": {"config": {}, "class_name": "Zeros"}, "axis": 3, "trainable": true, "momentum": 0.99, "gamma_initializer": {"config": {}, "class_name": "Ones"}, "moving_mean_initializer": {"config": {}, "class_name": "Zeros"}, "name": "stage4_unit2_bn2", "moving_variance_initializer": {"config": {}, "class_name": "Ones"}, "scale": true, "gamma_constraint": null, "beta_constraint": null, "epsilon": 2e-05, "center": true}}, {"name": "stage4_unit2_relu2", "class_name": "Activation", "inbound_nodes": [[["stage4_unit2_bn2", 0, 0, {}]]], "config": {"name": "stage4_unit2_relu2", "trainable": true, "activation": "relu"}}, {"name": "zero_padding2d_108", "class_name": "ZeroPadding2D", "inbound_nodes": [[["stage4_unit2_relu2", 0, 0, {}]]], "config": {"name": "zero_padding2d_108", "trainable": true, "data_format": "channels_last", "padding": [[1, 1], [1, 1]]}}, {"name": "stage4_unit2_conv2", "class_name": "Conv2D", "inbound_nodes": [[["zero_padding2d_108", 0, 0, {}]]], "config": {"name": "stage4_unit2_conv2", "bias_initializer": {"config": {}, "class_name": "Zeros"}, "kernel_initializer": {"config": {"distribution": "uniform", "seed": null, "mode": "fan_in", "scale": 2.0}, "class_name": "VarianceScaling"}, "trainable": true, "filters": 512, "data_format": "channels_last", "bias_constraint": null, "use_bias": false, "activity_regularizer": null, "kernel_size": [3, 3], "bias_regularizer": null, "dilation_rate": [1, 1], "padding": "valid", "activation": "linear", "strides": [1, 1], "kernel_constraint": null, "kernel_regularizer": null}}, {"name": "add_56", "class_name": "Add", "inbound_nodes": [[["stage4_unit2_conv2", 0, 0, {}], ["add_55", 0, 0, {}]]], "config": {"name": "add_56", "trainable": true}}, {"name": "bn1", "class_name": "BatchNormalization", "inbound_nodes": [[["add_56", 0, 0, {}]]], "config": {"gamma_regularizer": null, "beta_regularizer": null, "beta_initializer": {"config": {}, "class_name": "Zeros"}, "axis": 3, "trainable": true, "momentum": 0.99, "gamma_initializer": {"config": {}, "class_name": "Ones"}, "moving_mean_initializer": {"config": {}, "class_name": "Zeros"}, "name": "bn1", "moving_variance_initializer": {"config": {}, "class_name": "Ones"}, "scale": true, "gamma_constraint": null, "beta_constraint": null, "epsilon": 2e-05, "center": true}}, {"name": "relu1", "class_name": "Activation", "inbound_nodes": [[["bn1", 0, 0, {}]]], "config": {"name": "relu1", "trainable": true, "activation": "relu"}}, {"name": "decoder_stage0_conv1", "class_name": "Conv2D", "inbound_nodes": [[["relu1", 0, 0, {}]]], "config": {"name": "decoder_stage0_conv1", "bias_initializer": {"config": {}, "class_name": "Zeros"}, "kernel_initializer": {"config": {"distribution": "uniform", "seed": null, "mode": "fan_avg", "scale": 1.0}, "class_name": "VarianceScaling"}, "trainable": true, "filters": 128, "data_format": "channels_last", "bias_constraint": null, "use_bias": false, "activity_regularizer": null, "kernel_size": [1, 1], "bias_regularizer": null, "dilation_rate": [1, 1], "padding": "same", "activation": "linear", "strides": [1, 1], "kernel_constraint": null, "kernel_regularizer": null}}, {"name": "decoder_stage0_bn1", "class_name": "BatchNormalization", "inbound_nodes": [[["decoder_stage0_conv1", 0, 0, {}]]], "config": {"gamma_regularizer": null, "beta_regularizer": null, "beta_initializer": {"config": {}, "class_name": "Zeros"}, "axis": -1, "trainable": true, "momentum": 0.99, "gamma_initializer": {"config": {}, "class_name": "Ones"}, "moving_mean_initializer": {"config": {}, "class_name": "Zeros"}, "name": "decoder_stage0_bn1", "moving_variance_initializer": {"config": {}, "class_name": "Ones"}, "scale": true, "gamma_constraint": null, "beta_constraint": null, "epsilon": 0.001, "center": true}}, {"name": "decoder_stage0_relu1", "class_name": "Activation", "inbound_nodes": [[["decoder_stage0_bn1", 0, 0, {}]]], "config": {"name": "decoder_stage0_relu1", "trainable": true, "activation": "relu"}}, {"name": "decoder_stage0_upsample2", "class_name": "UpSampling2D", "inbound_nodes": [[["decoder_stage0_relu1", 0, 0, {}]]], "config": {"name": "decoder_stage0_upsample2", "trainable": true, "interpolation": "nearest", "size": [2, 2], "data_format": "channels_last"}}, {"name": "decoder_stage0_conv2", "class_name": "Conv2D", "inbound_nodes": [[["decoder_stage0_upsample2", 0, 0, {}]]], "config": {"name": "decoder_stage0_conv2", "bias_initializer": {"config": {}, "class_name": "Zeros"}, "kernel_initializer": {"config": {"distribution": "uniform", "seed": null, "mode": "fan_avg", "scale": 1.0}, "class_name": "VarianceScaling"}, "trainable": true, "filters": 128, "data_format": "channels_last", "bias_constraint": null, "use_bias": false, "activity_regularizer": null, "kernel_size": [3, 3], "bias_regularizer": null, "dilation_rate": [1, 1], "padding": "same", "activation": "linear", "strides": [1, 1], "kernel_constraint": null, "kernel_regularizer": null}}, {"name": "decoder_stage0_bn2", "class_name": "BatchNormalization", "inbound_nodes": [[["decoder_stage0_conv2", 0, 0, {}]]], "config": {"gamma_regularizer": null, "beta_regularizer": null, "beta_initializer": {"config": {}, "class_name": "Zeros"}, "axis": -1, "trainable": true, "momentum": 0.99, "gamma_initializer": {"config": {}, "class_name": "Ones"}, "moving_mean_initializer": {"config": {}, "class_name": "Zeros"}, "name": "decoder_stage0_bn2", "moving_variance_initializer": {"config": {}, "class_name": "Ones"}, "scale": true, "gamma_constraint": null, "beta_constraint": null, "epsilon": 0.001, "center": true}}, {"name": "decoder_stage0_relu2", "class_name": "Activation", "inbound_nodes": [[["decoder_stage0_bn2", 0, 0, {}]]], "config": {"name": "decoder_stage0_relu2", "trainable": true, "activation": "relu"}}, {"name": "decoder_stage0_conv3", "class_name": "Conv2D", "inbound_nodes": [[["decoder_stage0_relu2", 0, 0, {}]]], "config": {"name": "decoder_stage0_conv3", "bias_initializer": {"config": {}, "class_name": "Zeros"}, "kernel_initializer": {"config": {"distribution": "uniform", "seed": null, "mode": "fan_avg", "scale": 1.0}, "class_name": "VarianceScaling"}, "trainable": true, "filters": 256, "data_format": "channels_last", "bias_constraint": null, "use_bias": false, "activity_regularizer": null, "kernel_size": [1, 1], "bias_regularizer": null, "dilation_rate": [1, 1], "padding": "same", "activation": "linear", "strides": [1, 1], "kernel_constraint": null, "kernel_regularizer": null}}, {"name": "decoder_stage0_bn3", "class_name": "BatchNormalization", "inbound_nodes": [[["decoder_stage0_conv3", 0, 0, {}]]], "config": {"gamma_regularizer": null, "beta_regularizer": null, "beta_initializer": {"config": {}, "class_name": "Zeros"}, "axis": -1, "trainable": true, "momentum": 0.99, "gamma_initializer": {"config": {}, "class_name": "Ones"}, "moving_mean_initializer": {"config": {}, "class_name": "Zeros"}, "name": "decoder_stage0_bn3", "moving_variance_initializer": {"config": {}, "class_name": "Ones"}, "scale": true, "gamma_constraint": null, "beta_constraint": null, "epsilon": 0.001, "center": true}}, {"name": "decoder_stage0_relu3", "class_name": "Activation", "inbound_nodes": [[["decoder_stage0_bn3", 0, 0, {}]]], "config": {"name": "decoder_stage0_relu3", "trainable": true, "activation": "relu"}}, {"name": "add_57", "class_name": "Add", "inbound_nodes": [[["decoder_stage0_relu3", 0, 0, {}], ["stage4_unit1_relu1", 0, 0, {}]]], "config": {"name": "add_57", "trainable": true}}, {"name": "decoder_stage1_conv1", "class_name": "Conv2D", "inbound_nodes": [[["add_57", 0, 0, {}]]], "config": {"name": "decoder_stage1_conv1", "bias_initializer": {"config": {}, "class_name": "Zeros"}, "kernel_initializer": {"config": {"distribution": "uniform", "seed": null, "mode": "fan_avg", "scale": 1.0}, "class_name": "VarianceScaling"}, "trainable": true, "filters": 64, "data_format": "channels_last", "bias_constraint": null, "use_bias": false, "activity_regularizer": null, "kernel_size": [1, 1], "bias_regularizer": null, "dilation_rate": [1, 1], "padding": "same", "activation": "linear", "strides": [1, 1], "kernel_constraint": null, "kernel_regularizer": null}}, {"name": "decoder_stage1_bn1", "class_name": "BatchNormalization", "inbound_nodes": [[["decoder_stage1_conv1", 0, 0, {}]]], "config": {"gamma_regularizer": null, "beta_regularizer": null, "beta_initializer": {"config": {}, "class_name": "Zeros"}, "axis": -1, "trainable": true, "momentum": 0.99, "gamma_initializer": {"config": {}, "class_name": "Ones"}, "moving_mean_initializer": {"config": {}, "class_name": "Zeros"}, "name": "decoder_stage1_bn1", "moving_variance_initializer": {"config": {}, "class_name": "Ones"}, "scale": true, "gamma_constraint": null, "beta_constraint": null, "epsilon": 0.001, "center": true}}, {"name": "decoder_stage1_relu1", "class_name": "Activation", "inbound_nodes": [[["decoder_stage1_bn1", 0, 0, {}]]], "config": {"name": "decoder_stage1_relu1", "trainable": true, "activation": "relu"}}, {"name": "decoder_stage1_upsample2", "class_name": "UpSampling2D", "inbound_nodes": [[["decoder_stage1_relu1", 0, 0, {}]]], "config": {"name": "decoder_stage1_upsample2", "trainable": true, "interpolation": "nearest", "size": [2, 2], "data_format": "channels_last"}}, {"name": "decoder_stage1_conv2", "class_name": "Conv2D", "inbound_nodes": [[["decoder_stage1_upsample2", 0, 0, {}]]], "config": {"name": "decoder_stage1_conv2", "bias_initializer": {"config": {}, "class_name": "Zeros"}, "kernel_initializer": {"config": {"distribution": "uniform", "seed": null, "mode": "fan_avg", "scale": 1.0}, "class_name": "VarianceScaling"}, "trainable": true, "filters": 64, "data_format": "channels_last", "bias_constraint": null, "use_bias": false, "activity_regularizer": null, "kernel_size": [3, 3], "bias_regularizer": null, "dilation_rate": [1, 1], "padding": "same", "activation": "linear", "strides": [1, 1], "kernel_constraint": null, "kernel_regularizer": null}}, {"name": "decoder_stage1_bn2", "class_name": "BatchNormalization", "inbound_nodes": [[["decoder_stage1_conv2", 0, 0, {}]]], "config": {"gamma_regularizer": null, "beta_regularizer": null, "beta_initializer": {"config": {}, "class_name": "Zeros"}, "axis": -1, "trainable": true, "momentum": 0.99, "gamma_initializer": {"config": {}, "class_name": "Ones"}, "moving_mean_initializer": {"config": {}, "class_name": "Zeros"}, "name": "decoder_stage1_bn2", "moving_variance_initializer": {"config": {}, "class_name": "Ones"}, "scale": true, "gamma_constraint": null, "beta_constraint": null, "epsilon": 0.001, "center": true}}, {"name": "decoder_stage1_relu2", "class_name": "Activation", "inbound_nodes": [[["decoder_stage1_bn2", 0, 0, {}]]], "config": {"name": "decoder_stage1_relu2", "trainable": true, "activation": "relu"}}, {"name": "decoder_stage1_conv3", "class_name": "Conv2D", "inbound_nodes": [[["decoder_stage1_relu2", 0, 0, {}]]], "config": {"name": "decoder_stage1_conv3", "bias_initializer": {"config": {}, "class_name": "Zeros"}, "kernel_initializer": {"config": {"distribution": "uniform", "seed": null, "mode": "fan_avg", "scale": 1.0}, "class_name": "VarianceScaling"}, "trainable": true, "filters": 128, "data_format": "channels_last", "bias_constraint": null, "use_bias": false, "activity_regularizer": null, "kernel_size": [1, 1], "bias_regularizer": null, "dilation_rate": [1, 1], "padding": "same", "activation": "linear", "strides": [1, 1], "kernel_constraint": null, "kernel_regularizer": null}}, {"name": "decoder_stage1_bn3", "class_name": "BatchNormalization", "inbound_nodes": [[["decoder_stage1_conv3", 0, 0, {}]]], "config": {"gamma_regularizer": null, "beta_regularizer": null, "beta_initializer": {"config": {}, "class_name": "Zeros"}, "axis": -1, "trainable": true, "momentum": 0.99, "gamma_initializer": {"config": {}, "class_name": "Ones"}, "moving_mean_initializer": {"config": {}, "class_name": "Zeros"}, "name": "decoder_stage1_bn3", "moving_variance_initializer": {"config": {}, "class_name": "Ones"}, "scale": true, "gamma_constraint": null, "beta_constraint": null, "epsilon": 0.001, "center": true}}, {"name": "decoder_stage1_relu3", "class_name": "Activation", "inbound_nodes": [[["decoder_stage1_bn3", 0, 0, {}]]], "config": {"name": "decoder_stage1_relu3", "trainable": true, "activation": "relu"}}, {"name": "add_58", "class_name": "Add", "inbound_nodes": [[["decoder_stage1_relu3", 0, 0, {}], ["stage3_unit1_relu1", 0, 0, {}]]], "config": {"name": "add_58", "trainable": true}}, {"name": "decoder_stage2_conv1", "class_name": "Conv2D", "inbound_nodes": [[["add_58", 0, 0, {}]]], "config": {"name": "decoder_stage2_conv1", "bias_initializer": {"config": {}, "class_name": "Zeros"}, "kernel_initializer": {"config": {"distribution": "uniform", "seed": null, "mode": "fan_avg", "scale": 1.0}, "class_name": "VarianceScaling"}, "trainable": true, "filters": 32, "data_format": "channels_last", "bias_constraint": null, "use_bias": false, "activity_regularizer": null, "kernel_size": [1, 1], "bias_regularizer": null, "dilation_rate": [1, 1], "padding": "same", "activation": "linear", "strides": [1, 1], "kernel_constraint": null, "kernel_regularizer": null}}, {"name": "decoder_stage2_bn1", "class_name": "BatchNormalization", "inbound_nodes": [[["decoder_stage2_conv1", 0, 0, {}]]], "config": {"gamma_regularizer": null, "beta_regularizer": null, "beta_initializer": {"config": {}, "class_name": "Zeros"}, "axis": -1, "trainable": true, "momentum": 0.99, "gamma_initializer": {"config": {}, "class_name": "Ones"}, "moving_mean_initializer": {"config": {}, "class_name": "Zeros"}, "name": "decoder_stage2_bn1", "moving_variance_initializer": {"config": {}, "class_name": "Ones"}, "scale": true, "gamma_constraint": null, "beta_constraint": null, "epsilon": 0.001, "center": true}}, {"name": "decoder_stage2_relu1", "class_name": "Activation", "inbound_nodes": [[["decoder_stage2_bn1", 0, 0, {}]]], "config": {"name": "decoder_stage2_relu1", "trainable": true, "activation": "relu"}}, {"name": "decoder_stage2_upsample2", "class_name": "UpSampling2D", "inbound_nodes": [[["decoder_stage2_relu1", 0, 0, {}]]], "config": {"name": "decoder_stage2_upsample2", "trainable": true, "interpolation": "nearest", "size": [2, 2], "data_format": "channels_last"}}, {"name": "decoder_stage2_conv2", "class_name": "Conv2D", "inbound_nodes": [[["decoder_stage2_upsample2", 0, 0, {}]]], "config": {"name": "decoder_stage2_conv2", "bias_initializer": {"config": {}, "class_name": "Zeros"}, "kernel_initializer": {"config": {"distribution": "uniform", "seed": null, "mode": "fan_avg", "scale": 1.0}, "class_name": "VarianceScaling"}, "trainable": true, "filters": 32, "data_format": "channels_last", "bias_constraint": null, "use_bias": false, "activity_regularizer": null, "kernel_size": [3, 3], "bias_regularizer": null, "dilation_rate": [1, 1], "padding": "same", "activation": "linear", "strides": [1, 1], "kernel_constraint": null, "kernel_regularizer": null}}, {"name": "decoder_stage2_bn2", "class_name": "BatchNormalization", "inbound_nodes": [[["decoder_stage2_conv2", 0, 0, {}]]], "config": {"gamma_regularizer": null, "beta_regularizer": null, "beta_initializer": {"config": {}, "class_name": "Zeros"}, "axis": -1, "trainable": true, "momentum": 0.99, "gamma_initializer": {"config": {}, "class_name": "Ones"}, "moving_mean_initializer": {"config": {}, "class_name": "Zeros"}, "name": "decoder_stage2_bn2", "moving_variance_initializer": {"config": {}, "class_name": "Ones"}, "scale": true, "gamma_constraint": null, "beta_constraint": null, "epsilon": 0.001, "center": true}}, {"name": "decoder_stage2_relu2", "class_name": "Activation", "inbound_nodes": [[["decoder_stage2_bn2", 0, 0, {}]]], "config": {"name": "decoder_stage2_relu2", "trainable": true, "activation": "relu"}}, {"name": "decoder_stage2_conv3", "class_name": "Conv2D", "inbound_nodes": [[["decoder_stage2_relu2", 0, 0, {}]]], "config": {"name": "decoder_stage2_conv3", "bias_initializer": {"config": {}, "class_name": "Zeros"}, "kernel_initializer": {"config": {"distribution": "uniform", "seed": null, "mode": "fan_avg", "scale": 1.0}, "class_name": "VarianceScaling"}, "trainable": true, "filters": 64, "data_format": "channels_last", "bias_constraint": null, "use_bias": false, "activity_regularizer": null, "kernel_size": [1, 1], "bias_regularizer": null, "dilation_rate": [1, 1], "padding": "same", "activation": "linear", "strides": [1, 1], "kernel_constraint": null, "kernel_regularizer": null}}, {"name": "decoder_stage2_bn3", "class_name": "BatchNormalization", "inbound_nodes": [[["decoder_stage2_conv3", 0, 0, {}]]], "config": {"gamma_regularizer": null, "beta_regularizer": null, "beta_initializer": {"config": {}, "class_name": "Zeros"}, "axis": -1, "trainable": true, "momentum": 0.99, "gamma_initializer": {"config": {}, "class_name": "Ones"}, "moving_mean_initializer": {"config": {}, "class_name": "Zeros"}, "name": "decoder_stage2_bn3", "moving_variance_initializer": {"config": {}, "class_name": "Ones"}, "scale": true, "gamma_constraint": null, "beta_constraint": null, "epsilon": 0.001, "center": true}}, {"name": "decoder_stage2_relu3", "class_name": "Activation", "inbound_nodes": [[["decoder_stage2_bn3", 0, 0, {}]]], "config": {"name": "decoder_stage2_relu3", "trainable": true, "activation": "relu"}}, {"name": "add_59", "class_name": "Add", "inbound_nodes": [[["decoder_stage2_relu3", 0, 0, {}], ["stage2_unit1_relu1", 0, 0, {}]]], "config": {"name": "add_59", "trainable": true}}, {"name": "decoder_stage3_conv1", "class_name": "Conv2D", "inbound_nodes": [[["add_59", 0, 0, {}]]], "config": {"name": "decoder_stage3_conv1", "bias_initializer": {"config": {}, "class_name": "Zeros"}, "kernel_initializer": {"config": {"distribution": "uniform", "seed": null, "mode": "fan_avg", "scale": 1.0}, "class_name": "VarianceScaling"}, "trainable": true, "filters": 16, "data_format": "channels_last", "bias_constraint": null, "use_bias": false, "activity_regularizer": null, "kernel_size": [1, 1], "bias_regularizer": null, "dilation_rate": [1, 1], "padding": "same", "activation": "linear", "strides": [1, 1], "kernel_constraint": null, "kernel_regularizer": null}}, {"name": "decoder_stage3_bn1", "class_name": "BatchNormalization", "inbound_nodes": [[["decoder_stage3_conv1", 0, 0, {}]]], "config": {"gamma_regularizer": null, "beta_regularizer": null, "beta_initializer": {"config": {}, "class_name": "Zeros"}, "axis": -1, "trainable": true, "momentum": 0.99, "gamma_initializer": {"config": {}, "class_name": "Ones"}, "moving_mean_initializer": {"config": {}, "class_name": "Zeros"}, "name": "decoder_stage3_bn1", "moving_variance_initializer": {"config": {}, "class_name": "Ones"}, "scale": true, "gamma_constraint": null, "beta_constraint": null, "epsilon": 0.001, "center": true}}, {"name": "decoder_stage3_relu1", "class_name": "Activation", "inbound_nodes": [[["decoder_stage3_bn1", 0, 0, {}]]], "config": {"name": "decoder_stage3_relu1", "trainable": true, "activation": "relu"}}, {"name": "decoder_stage3_upsample2", "class_name": "UpSampling2D", "inbound_nodes": [[["decoder_stage3_relu1", 0, 0, {}]]], "config": {"name": "decoder_stage3_upsample2", "trainable": true, "interpolation": "nearest", "size": [2, 2], "data_format": "channels_last"}}, {"name": "decoder_stage3_conv2", "class_name": "Conv2D", "inbound_nodes": [[["decoder_stage3_upsample2", 0, 0, {}]]], "config": {"name": "decoder_stage3_conv2", "bias_initializer": {"config": {}, "class_name": "Zeros"}, "kernel_initializer": {"config": {"distribution": "uniform", "seed": null, "mode": "fan_avg", "scale": 1.0}, "class_name": "VarianceScaling"}, "trainable": true, "filters": 16, "data_format": "channels_last", "bias_constraint": null, "use_bias": false, "activity_regularizer": null, "kernel_size": [3, 3], "bias_regularizer": null, "dilation_rate": [1, 1], "padding": "same", "activation": "linear", "strides": [1, 1], "kernel_constraint": null, "kernel_regularizer": null}}, {"name": "decoder_stage3_bn2", "class_name": "BatchNormalization", "inbound_nodes": [[["decoder_stage3_conv2", 0, 0, {}]]], "config": {"gamma_regularizer": null, "beta_regularizer": null, "beta_initializer": {"config": {}, "class_name": "Zeros"}, "axis": -1, "trainable": true, "momentum": 0.99, "gamma_initializer": {"config": {}, "class_name": "Ones"}, "moving_mean_initializer": {"config": {}, "class_name": "Zeros"}, "name": "decoder_stage3_bn2", "moving_variance_initializer": {"config": {}, "class_name": "Ones"}, "scale": true, "gamma_constraint": null, "beta_constraint": null, "epsilon": 0.001, "center": true}}, {"name": "decoder_stage3_relu2", "class_name": "Activation", "inbound_nodes": [[["decoder_stage3_bn2", 0, 0, {}]]], "config": {"name": "decoder_stage3_relu2", "trainable": true, "activation": "relu"}}, {"name": "decoder_stage3_conv3", "class_name": "Conv2D", "inbound_nodes": [[["decoder_stage3_relu2", 0, 0, {}]]], "config": {"name": "decoder_stage3_conv3", "bias_initializer": {"config": {}, "class_name": "Zeros"}, "kernel_initializer": {"config": {"distribution": "uniform", "seed": null, "mode": "fan_avg", "scale": 1.0}, "class_name": "VarianceScaling"}, "trainable": true, "filters": 64, "data_format": "channels_last", "bias_constraint": null, "use_bias": false, "activity_regularizer": null, "kernel_size": [1, 1], "bias_regularizer": null, "dilation_rate": [1, 1], "padding": "same", "activation": "linear", "strides": [1, 1], "kernel_constraint": null, "kernel_regularizer": null}}, {"name": "decoder_stage3_bn3", "class_name": "BatchNormalization", "inbound_nodes": [[["decoder_stage3_conv3", 0, 0, {}]]], "config": {"gamma_regularizer": null, "beta_regularizer": null, "beta_initializer": {"config": {}, "class_name": "Zeros"}, "axis": -1, "trainable": true, "momentum": 0.99, "gamma_initializer": {"config": {}, "class_name": "Ones"}, "moving_mean_initializer": {"config": {}, "class_name": "Zeros"}, "name": "decoder_stage3_bn3", "moving_variance_initializer": {"config": {}, "class_name": "Ones"}, "scale": true, "gamma_constraint": null, "beta_constraint": null, "epsilon": 0.001, "center": true}}, {"name": "decoder_stage3_relu3", "class_name": "Activation", "inbound_nodes": [[["decoder_stage3_bn3", 0, 0, {}]]], "config": {"name": "decoder_stage3_relu3", "trainable": true, "activation": "relu"}}, {"name": "add_60", "class_name": "Add", "inbound_nodes": [[["decoder_stage3_relu3", 0, 0, {}], ["relu0", 0, 0, {}]]], "config": {"name": "add_60", "trainable": true}}, {"name": "decoder_stage4_conv1", "class_name": "Conv2D", "inbound_nodes": [[["add_60", 0, 0, {}]]], "config": {"name": "decoder_stage4_conv1", "bias_initializer": {"config": {}, "class_name": "Zeros"}, "kernel_initializer": {"config": {"distribution": "uniform", "seed": null, "mode": "fan_avg", "scale": 1.0}, "class_name": "VarianceScaling"}, "trainable": true, "filters": 16, "data_format": "channels_last", "bias_constraint": null, "use_bias": false, "activity_regularizer": null, "kernel_size": [1, 1], "bias_regularizer": null, "dilation_rate": [1, 1], "padding": "same", "activation": "linear", "strides": [1, 1], "kernel_constraint": null, "kernel_regularizer": null}}, {"name": "decoder_stage4_bn1", "class_name": "BatchNormalization", "inbound_nodes": [[["decoder_stage4_conv1", 0, 0, {}]]], "config": {"gamma_regularizer": null, "beta_regularizer": null, "beta_initializer": {"config": {}, "class_name": "Zeros"}, "axis": -1, "trainable": true, "momentum": 0.99, "gamma_initializer": {"config": {}, "class_name": "Ones"}, "moving_mean_initializer": {"config": {}, "class_name": "Zeros"}, "name": "decoder_stage4_bn1", "moving_variance_initializer": {"config": {}, "class_name": "Ones"}, "scale": true, "gamma_constraint": null, "beta_constraint": null, "epsilon": 0.001, "center": true}}, {"name": "decoder_stage4_relu1", "class_name": "Activation", "inbound_nodes": [[["decoder_stage4_bn1", 0, 0, {}]]], "config": {"name": "decoder_stage4_relu1", "trainable": true, "activation": "relu"}}, {"name": "decoder_stage4_upsample2", "class_name": "UpSampling2D", "inbound_nodes": [[["decoder_stage4_relu1", 0, 0, {}]]], "config": {"name": "decoder_stage4_upsample2", "trainable": true, "interpolation": "nearest", "size": [2, 2], "data_format": "channels_last"}}, {"name": "decoder_stage4_conv2", "class_name": "Conv2D", "inbound_nodes": [[["decoder_stage4_upsample2", 0, 0, {}]]], "config": {"name": "decoder_stage4_conv2", "bias_initializer": {"config": {}, "class_name": "Zeros"}, "kernel_initializer": {"config": {"distribution": "uniform", "seed": null, "mode": "fan_avg", "scale": 1.0}, "class_name": "VarianceScaling"}, "trainable": true, "filters": 16, "data_format": "channels_last", "bias_constraint": null, "use_bias": false, "activity_regularizer": null, "kernel_size": [3, 3], "bias_regularizer": null, "dilation_rate": [1, 1], "padding": "same", "activation": "linear", "strides": [1, 1], "kernel_constraint": null, "kernel_regularizer": null}}, {"name": "decoder_stage4_bn2", "class_name": "BatchNormalization", "inbound_nodes": [[["decoder_stage4_conv2", 0, 0, {}]]], "config": {"gamma_regularizer": null, "beta_regularizer": null, "beta_initializer": {"config": {}, "class_name": "Zeros"}, "axis": -1, "trainable": true, "momentum": 0.99, "gamma_initializer": {"config": {}, "class_name": "Ones"}, "moving_mean_initializer": {"config": {}, "class_name": "Zeros"}, "name": "decoder_stage4_bn2", "moving_variance_initializer": {"config": {}, "class_name": "Ones"}, "scale": true, "gamma_constraint": null, "beta_constraint": null, "epsilon": 0.001, "center": true}}, {"name": "decoder_stage4_relu2", "class_name": "Activation", "inbound_nodes": [[["decoder_stage4_bn2", 0, 0, {}]]], "config": {"name": "decoder_stage4_relu2", "trainable": true, "activation": "relu"}}, {"name": "decoder_stage4_conv3", "class_name": "Conv2D", "inbound_nodes": [[["decoder_stage4_relu2", 0, 0, {}]]], "config": {"name": "decoder_stage4_conv3", "bias_initializer": {"config": {}, "class_name": "Zeros"}, "kernel_initializer": {"config": {"distribution": "uniform", "seed": null, "mode": "fan_avg", "scale": 1.0}, "class_name": "VarianceScaling"}, "trainable": true, "filters": 16, "data_format": "channels_last", "bias_constraint": null, "use_bias": false, "activity_regularizer": null, "kernel_size": [1, 1], "bias_regularizer": null, "dilation_rate": [1, 1], "padding": "same", "activation": "linear", "strides": [1, 1], "kernel_constraint": null, "kernel_regularizer": null}}, {"name": "decoder_stage4_bn3", "class_name": "BatchNormalization", "inbound_nodes": [[["decoder_stage4_conv3", 0, 0, {}]]], "config": {"gamma_regularizer": null, "beta_regularizer": null, "beta_initializer": {"config": {}, "class_name": "Zeros"}, "axis": -1, "trainable": true, "momentum": 0.99, "gamma_initializer": {"config": {}, "class_name": "Ones"}, "moving_mean_initializer": {"config": {}, "class_name": "Zeros"}, "name": "decoder_stage4_bn3", "moving_variance_initializer": {"config": {}, "class_name": "Ones"}, "scale": true, "gamma_constraint": null, "beta_constraint": null, "epsilon": 0.001, "center": true}}, {"name": "decoder_stage4_relu3", "class_name": "Activation", "inbound_nodes": [[["decoder_stage4_bn3", 0, 0, {}]]], "config": {"name": "decoder_stage4_relu3", "trainable": true, "activation": "relu"}}, {"name": "final_conv", "class_name": "Conv2D", "inbound_nodes": [[["decoder_stage4_relu3", 0, 0, {}]]], "config": {"name": "final_conv", "bias_initializer": {"config": {}, "class_name": "Zeros"}, "kernel_initializer": {"config": {"distribution": "uniform", "seed": null, "mode": "fan_avg", "scale": 1.0}, "class_name": "VarianceScaling"}, "trainable": true, "filters": 1, "data_format": "channels_last", "bias_constraint": null, "use_bias": true, "activity_regularizer": null, "kernel_size": [3, 3], "bias_regularizer": null, "dilation_rate": [1, 1], "padding": "same", "activation": "linear", "strides": [1, 1], "kernel_constraint": null, "kernel_regularizer": null}}, {"name": "sigmoid", "class_name": "Activation", "inbound_nodes": [[["final_conv", 0, 0, {}]]], "config": {"name": "sigmoid", "trainable": true, "activation": "sigmoid"}}], "output_layers": [["sigmoid", 0, 0]]}, "class_name": "Model", "backend": "tensorflow", "keras_version": "2.2.4"}