{"backend": "tensorflow", "keras_version": "2.2.4", "config": {"input_layers": [["data", 0, 0]], "name": "link-resnet34", "layers": [{"inbound_nodes": [], "name": "data", "config": {"dtype": "float32", "name": "data", "sparse": false, "batch_input_shape": [null, null, null, 3]}, "class_name": "InputLayer"}, {"inbound_nodes": [[["data", 0, 0, {}]]], "name": "bn_data", "config": {"gamma_regularizer": null, "axis": 3, "scale": false, "name": "bn_data", "trainable": true, "gamma_constraint": null, "moving_mean_initializer": {"config": {}, "class_name": "Zeros"}, "moving_variance_initializer": {"config": {}, "class_name": "Ones"}, "beta_initializer": {"config": {}, "class_name": "Zeros"}, "momentum": 0.99, "beta_constraint": null, "center": true, "beta_regularizer": null, "gamma_initializer": {"config": {}, "class_name": "Ones"}, "epsilon": 2e-05}, "class_name": "BatchNormalization"}, {"inbound_nodes": [[["bn_data", 0, 0, {}]]], "name": "zero_padding2d_1", "config": {"padding": [[3, 3], [3, 3]], "trainable": true, "data_format": "channels_last", "name": "zero_padding2d_1"}, "class_name": "ZeroPadding2D"}, {"inbound_nodes": [[["zero_padding2d_1", 0, 0, {}]]], "name": "conv0", "config": {"dilation_rate": [1, 1], "activity_regularizer": null, "bias_initializer": {"config": {}, "class_name": "Zeros"}, "filters": 64, "trainable": true, "use_bias": false, "name": "conv0", "bias_regularizer": null, "bias_constraint": null, "kernel_regularizer": null, "padding": "valid", "kernel_initializer": {"config": {"seed": null, "scale": 2.0, "distribution": "uniform", "mode": "fan_in"}, "class_name": "VarianceScaling"}, "activation": "linear", "data_format": "channels_last", "strides": [2, 2], "kernel_size": [7, 7], "kernel_constraint": null}, "class_name": "Conv2D"}, {"inbound_nodes": [[["conv0", 0, 0, {}]]], "name": "bn0", "config": {"gamma_regularizer": null, "axis": 3, "scale": true, "name": "bn0", "trainable": true, "gamma_constraint": null, "moving_mean_initializer": {"config": {}, "class_name": "Zeros"}, "moving_variance_initializer": {"config": {}, "class_name": "Ones"}, "beta_initializer": {"config": {}, "class_name": "Zeros"}, "momentum": 0.99, "beta_constraint": null, "center": true, "beta_regularizer": null, "gamma_initializer": {"config": {}, "class_name": "Ones"}, "epsilon": 2e-05}, "class_name": "BatchNormalization"}, {"inbound_nodes": [[["bn0", 0, 0, {}]]], "name": "relu0", "config": {"name": "relu0", "trainable": true, "activation": "relu"}, "class_name": "Activation"}, {"inbound_nodes": [[["relu0", 0, 0, {}]]], "name": "zero_padding2d_2", "config": {"padding": [[1, 1], [1, 1]], "trainable": true, "data_format": "channels_last", "name": "zero_padding2d_2"}, "class_name": "ZeroPadding2D"}, {"inbound_nodes": [[["zero_padding2d_2", 0, 0, {}]]], "name": "pooling0", "config": {"pool_size": [3, 3], "padding": "valid", "data_format": "channels_last", "trainable": true, "name": "pooling0", "strides": [2, 2]}, "class_name": "MaxPooling2D"}, {"inbound_nodes": [[["pooling0", 0, 0, {}]]], "name": "stage1_unit1_bn1", "config": {"gamma_regularizer": null, "axis": 3, "scale": true, "name": "stage1_unit1_bn1", "trainable": true, "gamma_constraint": null, "moving_mean_initializer": {"config": {}, "class_name": "Zeros"}, "moving_variance_initializer": {"config": {}, "class_name": "Ones"}, "beta_initializer": {"config": {}, "class_name": "Zeros"}, "momentum": 0.99, "beta_constraint": null, "center": true, "beta_regularizer": null, "gamma_initializer": {"config": {}, "class_name": "Ones"}, "epsilon": 2e-05}, "class_name": "BatchNormalization"}, {"inbound_nodes": [[["stage1_unit1_bn1", 0, 0, {}]]], "name": "stage1_unit1_relu1", "config": {"name": "stage1_unit1_relu1", "trainable": true, "activation": "relu"}, "class_name": "Activation"}, {"inbound_nodes": [[["stage1_unit1_relu1", 0, 0, {}]]], "name": "zero_padding2d_3", "config": {"padding": [[1, 1], [1, 1]], "trainable": true, "data_format": "channels_last", "name": "zero_padding2d_3"}, "class_name": "ZeroPadding2D"}, {"inbound_nodes": [[["zero_padding2d_3", 0, 0, {}]]], "name": "stage1_unit1_conv1", "config": {"dilation_rate": [1, 1], "activity_regularizer": null, "bias_initializer": {"config": {}, "class_name": "Zeros"}, "filters": 64, "trainable": true, "use_bias": false, "name": "stage1_unit1_conv1", "bias_regularizer": null, "bias_constraint": null, "kernel_regularizer": null, "padding": "valid", "kernel_initializer": {"config": {"seed": null, "scale": 2.0, "distribution": "uniform", "mode": "fan_in"}, "class_name": "VarianceScaling"}, "activation": "linear", "data_format": "channels_last", "strides": [1, 1], "kernel_size": [3, 3], "kernel_constraint": null}, "class_name": "Conv2D"}, {"inbound_nodes": [[["stage1_unit1_conv1", 0, 0, {}]]], "name": "stage1_unit1_bn2", "config": {"gamma_regularizer": null, "axis": 3, "scale": true, "name": "stage1_unit1_bn2", "trainable": true, "gamma_constraint": null, "moving_mean_initializer": {"config": {}, "class_name": "Zeros"}, "moving_variance_initializer": {"config": {}, "class_name": "Ones"}, "beta_initializer": {"config": {}, "class_name": "Zeros"}, "momentum": 0.99, "beta_constraint": null, "center": true, "beta_regularizer": null, "gamma_initializer": {"config": {}, "class_name": "Ones"}, "epsilon": 2e-05}, "class_name": "BatchNormalization"}, {"inbound_nodes": [[["stage1_unit1_bn2", 0, 0, {}]]], "name": "stage1_unit1_relu2", "config": {"name": "stage1_unit1_relu2", "trainable": true, "activation": "relu"}, "class_name": "Activation"}, {"inbound_nodes": [[["stage1_unit1_relu2", 0, 0, {}]]], "name": "zero_padding2d_4", "config": {"padding": [[1, 1], [1, 1]], "trainable": true, "data_format": "channels_last", "name": "zero_padding2d_4"}, "class_name": "ZeroPadding2D"}, {"inbound_nodes": [[["zero_padding2d_4", 0, 0, {}]]], "name": "stage1_unit1_conv2", "config": {"dilation_rate": [1, 1], "activity_regularizer": null, "bias_initializer": {"config": {}, "class_name": "Zeros"}, "filters": 64, "trainable": true, "use_bias": false, "name": "stage1_unit1_conv2", "bias_regularizer": null, "bias_constraint": null, "kernel_regularizer": null, "padding": "valid", "kernel_initializer": {"config": {"seed": null, "scale": 2.0, "distribution": "uniform", "mode": "fan_in"}, "class_name": "VarianceScaling"}, "activation": "linear", "data_format": "channels_last", "strides": [1, 1], "kernel_size": [3, 3], "kernel_constraint": null}, "class_name": "Conv2D"}, {"inbound_nodes": [[["stage1_unit1_relu1", 0, 0, {}]]], "name": "stage1_unit1_sc", "config": {"dilation_rate": [1, 1], "activity_regularizer": null, "bias_initializer": {"config": {}, "class_name": "Zeros"}, "filters": 64, "trainable": true, "use_bias": false, "name": "stage1_unit1_sc", "bias_regularizer": null, "bias_constraint": null, "kernel_regularizer": null, "padding": "valid", "kernel_initializer": {"config": {"seed": null, "scale": 2.0, "distribution": "uniform", "mode": "fan_in"}, "class_name": "VarianceScaling"}, "activation": "linear", "data_format": "channels_last", "strides": [1, 1], "kernel_size": [1, 1], "kernel_constraint": null}, "class_name": "Conv2D"}, {"inbound_nodes": [[["stage1_unit1_conv2", 0, 0, {}], ["stage1_unit1_sc", 0, 0, {}]]], "name": "add_1", "config": {"name": "add_1", "trainable": true}, "class_name": "Add"}, {"inbound_nodes": [[["add_1", 0, 0, {}]]], "name": "stage1_unit2_bn1", "config": {"gamma_regularizer": null, "axis": 3, "scale": true, "name": "stage1_unit2_bn1", "trainable": true, "gamma_constraint": null, "moving_mean_initializer": {"config": {}, "class_name": "Zeros"}, "moving_variance_initializer": {"config": {}, "class_name": "Ones"}, "beta_initializer": {"config": {}, "class_name": "Zeros"}, "momentum": 0.99, "beta_constraint": null, "center": true, "beta_regularizer": null, "gamma_initializer": {"config": {}, "class_name": "Ones"}, "epsilon": 2e-05}, "class_name": "BatchNormalization"}, {"inbound_nodes": [[["stage1_unit2_bn1", 0, 0, {}]]], "name": "stage1_unit2_relu1", "config": {"name": "stage1_unit2_relu1", "trainable": true, "activation": "relu"}, "class_name": "Activation"}, {"inbound_nodes": [[["stage1_unit2_relu1", 0, 0, {}]]], "name": "zero_padding2d_5", "config": {"padding": [[1, 1], [1, 1]], "trainable": true, "data_format": "channels_last", "name": "zero_padding2d_5"}, "class_name": "ZeroPadding2D"}, {"inbound_nodes": [[["zero_padding2d_5", 0, 0, {}]]], "name": "stage1_unit2_conv1", "config": {"dilation_rate": [1, 1], "activity_regularizer": null, "bias_initializer": {"config": {}, "class_name": "Zeros"}, "filters": 64, "trainable": true, "use_bias": false, "name": "stage1_unit2_conv1", "bias_regularizer": null, "bias_constraint": null, "kernel_regularizer": null, "padding": "valid", "kernel_initializer": {"config": {"seed": null, "scale": 2.0, "distribution": "uniform", "mode": "fan_in"}, "class_name": "VarianceScaling"}, "activation": "linear", "data_format": "channels_last", "strides": [1, 1], "kernel_size": [3, 3], "kernel_constraint": null}, "class_name": "Conv2D"}, {"inbound_nodes": [[["stage1_unit2_conv1", 0, 0, {}]]], "name": "stage1_unit2_bn2", "config": {"gamma_regularizer": null, "axis": 3, "scale": true, "name": "stage1_unit2_bn2", "trainable": true, "gamma_constraint": null, "moving_mean_initializer": {"config": {}, "class_name": "Zeros"}, "moving_variance_initializer": {"config": {}, "class_name": "Ones"}, "beta_initializer": {"config": {}, "class_name": "Zeros"}, "momentum": 0.99, "beta_constraint": null, "center": true, "beta_regularizer": null, "gamma_initializer": {"config": {}, "class_name": "Ones"}, "epsilon": 2e-05}, "class_name": "BatchNormalization"}, {"inbound_nodes": [[["stage1_unit2_bn2", 0, 0, {}]]], "name": "stage1_unit2_relu2", "config": {"name": "stage1_unit2_relu2", "trainable": true, "activation": "relu"}, "class_name": "Activation"}, {"inbound_nodes": [[["stage1_unit2_relu2", 0, 0, {}]]], "name": "zero_padding2d_6", "config": {"padding": [[1, 1], [1, 1]], "trainable": true, "data_format": "channels_last", "name": "zero_padding2d_6"}, "class_name": "ZeroPadding2D"}, {"inbound_nodes": [[["zero_padding2d_6", 0, 0, {}]]], "name": "stage1_unit2_conv2", "config": {"dilation_rate": [1, 1], "activity_regularizer": null, "bias_initializer": {"config": {}, "class_name": "Zeros"}, "filters": 64, "trainable": true, "use_bias": false, "name": "stage1_unit2_conv2", "bias_regularizer": null, "bias_constraint": null, "kernel_regularizer": null, "padding": "valid", "kernel_initializer": {"config": {"seed": null, "scale": 2.0, "distribution": "uniform", "mode": "fan_in"}, "class_name": "VarianceScaling"}, "activation": "linear", "data_format": "channels_last", "strides": [1, 1], "kernel_size": [3, 3], "kernel_constraint": null}, "class_name": "Conv2D"}, {"inbound_nodes": [[["stage1_unit2_conv2", 0, 0, {}], ["add_1", 0, 0, {}]]], "name": "add_2", "config": {"name": "add_2", "trainable": true}, "class_name": "Add"}, {"inbound_nodes": [[["add_2", 0, 0, {}]]], "name": "stage1_unit3_bn1", "config": {"gamma_regularizer": null, "axis": 3, "scale": true, "name": "stage1_unit3_bn1", "trainable": true, "gamma_constraint": null, "moving_mean_initializer": {"config": {}, "class_name": "Zeros"}, "moving_variance_initializer": {"config": {}, "class_name": "Ones"}, "beta_initializer": {"config": {}, "class_name": "Zeros"}, "momentum": 0.99, "beta_constraint": null, "center": true, "beta_regularizer": null, "gamma_initializer": {"config": {}, "class_name": "Ones"}, "epsilon": 2e-05}, "class_name": "BatchNormalization"}, {"inbound_nodes": [[["stage1_unit3_bn1", 0, 0, {}]]], "name": "stage1_unit3_relu1", "config": {"name": "stage1_unit3_relu1", "trainable": true, "activation": "relu"}, "class_name": "Activation"}, {"inbound_nodes": [[["stage1_unit3_relu1", 0, 0, {}]]], "name": "zero_padding2d_7", "config": {"padding": [[1, 1], [1, 1]], "trainable": true, "data_format": "channels_last", "name": "zero_padding2d_7"}, "class_name": "ZeroPadding2D"}, {"inbound_nodes": [[["zero_padding2d_7", 0, 0, {}]]], "name": "stage1_unit3_conv1", "config": {"dilation_rate": [1, 1], "activity_regularizer": null, "bias_initializer": {"config": {}, "class_name": "Zeros"}, "filters": 64, "trainable": true, "use_bias": false, "name": "stage1_unit3_conv1", "bias_regularizer": null, "bias_constraint": null, "kernel_regularizer": null, "padding": "valid", "kernel_initializer": {"config": {"seed": null, "scale": 2.0, "distribution": "uniform", "mode": "fan_in"}, "class_name": "VarianceScaling"}, "activation": "linear", "data_format": "channels_last", "strides": [1, 1], "kernel_size": [3, 3], "kernel_constraint": null}, "class_name": "Conv2D"}, {"inbound_nodes": [[["stage1_unit3_conv1", 0, 0, {}]]], "name": "stage1_unit3_bn2", "config": {"gamma_regularizer": null, "axis": 3, "scale": true, "name": "stage1_unit3_bn2", "trainable": true, "gamma_constraint": null, "moving_mean_initializer": {"config": {}, "class_name": "Zeros"}, "moving_variance_initializer": {"config": {}, "class_name": "Ones"}, "beta_initializer": {"config": {}, "class_name": "Zeros"}, "momentum": 0.99, "beta_constraint": null, "center": true, "beta_regularizer": null, "gamma_initializer": {"config": {}, "class_name": "Ones"}, "epsilon": 2e-05}, "class_name": "BatchNormalization"}, {"inbound_nodes": [[["stage1_unit3_bn2", 0, 0, {}]]], "name": "stage1_unit3_relu2", "config": {"name": "stage1_unit3_relu2", "trainable": true, "activation": "relu"}, "class_name": "Activation"}, {"inbound_nodes": [[["stage1_unit3_relu2", 0, 0, {}]]], "name": "zero_padding2d_8", "config": {"padding": [[1, 1], [1, 1]], "trainable": true, "data_format": "channels_last", "name": "zero_padding2d_8"}, "class_name": "ZeroPadding2D"}, {"inbound_nodes": [[["zero_padding2d_8", 0, 0, {}]]], "name": "stage1_unit3_conv2", "config": {"dilation_rate": [1, 1], "activity_regularizer": null, "bias_initializer": {"config": {}, "class_name": "Zeros"}, "filters": 64, "trainable": true, "use_bias": false, "name": "stage1_unit3_conv2", "bias_regularizer": null, "bias_constraint": null, "kernel_regularizer": null, "padding": "valid", "kernel_initializer": {"config": {"seed": null, "scale": 2.0, "distribution": "uniform", "mode": "fan_in"}, "class_name": "VarianceScaling"}, "activation": "linear", "data_format": "channels_last", "strides": [1, 1], "kernel_size": [3, 3], "kernel_constraint": null}, "class_name": "Conv2D"}, {"inbound_nodes": [[["stage1_unit3_conv2", 0, 0, {}], ["add_2", 0, 0, {}]]], "name": "add_3", "config": {"name": "add_3", "trainable": true}, "class_name": "Add"}, {"inbound_nodes": [[["add_3", 0, 0, {}]]], "name": "stage2_unit1_bn1", "config": {"gamma_regularizer": null, "axis": 3, "scale": true, "name": "stage2_unit1_bn1", "trainable": true, "gamma_constraint": null, "moving_mean_initializer": {"config": {}, "class_name": "Zeros"}, "moving_variance_initializer": {"config": {}, "class_name": "Ones"}, "beta_initializer": {"config": {}, "class_name": "Zeros"}, "momentum": 0.99, "beta_constraint": null, "center": true, "beta_regularizer": null, "gamma_initializer": {"config": {}, "class_name": "Ones"}, "epsilon": 2e-05}, "class_name": "BatchNormalization"}, {"inbound_nodes": [[["stage2_unit1_bn1", 0, 0, {}]]], "name": "stage2_unit1_relu1", "config": {"name": "stage2_unit1_relu1", "trainable": true, "activation": "relu"}, "class_name": "Activation"}, {"inbound_nodes": [[["stage2_unit1_relu1", 0, 0, {}]]], "name": "zero_padding2d_9", "config": {"padding": [[1, 1], [1, 1]], "trainable": true, "data_format": "channels_last", "name": "zero_padding2d_9"}, "class_name": "ZeroPadding2D"}, {"inbound_nodes": [[["zero_padding2d_9", 0, 0, {}]]], "name": "stage2_unit1_conv1", "config": {"dilation_rate": [1, 1], "activity_regularizer": null, "bias_initializer": {"config": {}, "class_name": "Zeros"}, "filters": 128, "trainable": true, "use_bias": false, "name": "stage2_unit1_conv1", "bias_regularizer": null, "bias_constraint": null, "kernel_regularizer": null, "padding": "valid", "kernel_initializer": {"config": {"seed": null, "scale": 2.0, "distribution": "uniform", "mode": "fan_in"}, "class_name": "VarianceScaling"}, "activation": "linear", "data_format": "channels_last", "strides": [2, 2], "kernel_size": [3, 3], "kernel_constraint": null}, "class_name": "Conv2D"}, {"inbound_nodes": [[["stage2_unit1_conv1", 0, 0, {}]]], "name": "stage2_unit1_bn2", "config": {"gamma_regularizer": null, "axis": 3, "scale": true, "name": "stage2_unit1_bn2", "trainable": true, "gamma_constraint": null, "moving_mean_initializer": {"config": {}, "class_name": "Zeros"}, "moving_variance_initializer": {"config": {}, "class_name": "Ones"}, "beta_initializer": {"config": {}, "class_name": "Zeros"}, "momentum": 0.99, "beta_constraint": null, "center": true, "beta_regularizer": null, "gamma_initializer": {"config": {}, "class_name": "Ones"}, "epsilon": 2e-05}, "class_name": "BatchNormalization"}, {"inbound_nodes": [[["stage2_unit1_bn2", 0, 0, {}]]], "name": "stage2_unit1_relu2", "config": {"name": "stage2_unit1_relu2", "trainable": true, "activation": "relu"}, "class_name": "Activation"}, {"inbound_nodes": [[["stage2_unit1_relu2", 0, 0, {}]]], "name": "zero_padding2d_10", "config": {"padding": [[1, 1], [1, 1]], "trainable": true, "data_format": "channels_last", "name": "zero_padding2d_10"}, "class_name": "ZeroPadding2D"}, {"inbound_nodes": [[["zero_padding2d_10", 0, 0, {}]]], "name": "stage2_unit1_conv2", "config": {"dilation_rate": [1, 1], "activity_regularizer": null, "bias_initializer": {"config": {}, "class_name": "Zeros"}, "filters": 128, "trainable": true, "use_bias": false, "name": "stage2_unit1_conv2", "bias_regularizer": null, "bias_constraint": null, "kernel_regularizer": null, "padding": "valid", "kernel_initializer": {"config": {"seed": null, "scale": 2.0, "distribution": "uniform", "mode": "fan_in"}, "class_name": "VarianceScaling"}, "activation": "linear", "data_format": "channels_last", "strides": [1, 1], "kernel_size": [3, 3], "kernel_constraint": null}, "class_name": "Conv2D"}, {"inbound_nodes": [[["stage2_unit1_relu1", 0, 0, {}]]], "name": "stage2_unit1_sc", "config": {"dilation_rate": [1, 1], "activity_regularizer": null, "bias_initializer": {"config": {}, "class_name": "Zeros"}, "filters": 128, "trainable": true, "use_bias": false, "name": "stage2_unit1_sc", "bias_regularizer": null, "bias_constraint": null, "kernel_regularizer": null, "padding": "valid", "kernel_initializer": {"config": {"seed": null, "scale": 2.0, "distribution": "uniform", "mode": "fan_in"}, "class_name": "VarianceScaling"}, "activation": "linear", "data_format": "channels_last", "strides": [2, 2], "kernel_size": [1, 1], "kernel_constraint": null}, "class_name": "Conv2D"}, {"inbound_nodes": [[["stage2_unit1_conv2", 0, 0, {}], ["stage2_unit1_sc", 0, 0, {}]]], "name": "add_4", "config": {"name": "add_4", "trainable": true}, "class_name": "Add"}, {"inbound_nodes": [[["add_4", 0, 0, {}]]], "name": "stage2_unit2_bn1", "config": {"gamma_regularizer": null, "axis": 3, "scale": true, "name": "stage2_unit2_bn1", "trainable": true, "gamma_constraint": null, "moving_mean_initializer": {"config": {}, "class_name": "Zeros"}, "moving_variance_initializer": {"config": {}, "class_name": "Ones"}, "beta_initializer": {"config": {}, "class_name": "Zeros"}, "momentum": 0.99, "beta_constraint": null, "center": true, "beta_regularizer": null, "gamma_initializer": {"config": {}, "class_name": "Ones"}, "epsilon": 2e-05}, "class_name": "BatchNormalization"}, {"inbound_nodes": [[["stage2_unit2_bn1", 0, 0, {}]]], "name": "stage2_unit2_relu1", "config": {"name": "stage2_unit2_relu1", "trainable": true, "activation": "relu"}, "class_name": "Activation"}, {"inbound_nodes": [[["stage2_unit2_relu1", 0, 0, {}]]], "name": "zero_padding2d_11", "config": {"padding": [[1, 1], [1, 1]], "trainable": true, "data_format": "channels_last", "name": "zero_padding2d_11"}, "class_name": "ZeroPadding2D"}, {"inbound_nodes": [[["zero_padding2d_11", 0, 0, {}]]], "name": "stage2_unit2_conv1", "config": {"dilation_rate": [1, 1], "activity_regularizer": null, "bias_initializer": {"config": {}, "class_name": "Zeros"}, "filters": 128, "trainable": true, "use_bias": false, "name": "stage2_unit2_conv1", "bias_regularizer": null, "bias_constraint": null, "kernel_regularizer": null, "padding": "valid", "kernel_initializer": {"config": {"seed": null, "scale": 2.0, "distribution": "uniform", "mode": "fan_in"}, "class_name": "VarianceScaling"}, "activation": "linear", "data_format": "channels_last", "strides": [1, 1], "kernel_size": [3, 3], "kernel_constraint": null}, "class_name": "Conv2D"}, {"inbound_nodes": [[["stage2_unit2_conv1", 0, 0, {}]]], "name": "stage2_unit2_bn2", "config": {"gamma_regularizer": null, "axis": 3, "scale": true, "name": "stage2_unit2_bn2", "trainable": true, "gamma_constraint": null, "moving_mean_initializer": {"config": {}, "class_name": "Zeros"}, "moving_variance_initializer": {"config": {}, "class_name": "Ones"}, "beta_initializer": {"config": {}, "class_name": "Zeros"}, "momentum": 0.99, "beta_constraint": null, "center": true, "beta_regularizer": null, "gamma_initializer": {"config": {}, "class_name": "Ones"}, "epsilon": 2e-05}, "class_name": "BatchNormalization"}, {"inbound_nodes": [[["stage2_unit2_bn2", 0, 0, {}]]], "name": "stage2_unit2_relu2", "config": {"name": "stage2_unit2_relu2", "trainable": true, "activation": "relu"}, "class_name": "Activation"}, {"inbound_nodes": [[["stage2_unit2_relu2", 0, 0, {}]]], "name": "zero_padding2d_12", "config": {"padding": [[1, 1], [1, 1]], "trainable": true, "data_format": "channels_last", "name": "zero_padding2d_12"}, "class_name": "ZeroPadding2D"}, {"inbound_nodes": [[["zero_padding2d_12", 0, 0, {}]]], "name": "stage2_unit2_conv2", "config": {"dilation_rate": [1, 1], "activity_regularizer": null, "bias_initializer": {"config": {}, "class_name": "Zeros"}, "filters": 128, "trainable": true, "use_bias": false, "name": "stage2_unit2_conv2", "bias_regularizer": null, "bias_constraint": null, "kernel_regularizer": null, "padding": "valid", "kernel_initializer": {"config": {"seed": null, "scale": 2.0, "distribution": "uniform", "mode": "fan_in"}, "class_name": "VarianceScaling"}, "activation": "linear", "data_format": "channels_last", "strides": [1, 1], "kernel_size": [3, 3], "kernel_constraint": null}, "class_name": "Conv2D"}, {"inbound_nodes": [[["stage2_unit2_conv2", 0, 0, {}], ["add_4", 0, 0, {}]]], "name": "add_5", "config": {"name": "add_5", "trainable": true}, "class_name": "Add"}, {"inbound_nodes": [[["add_5", 0, 0, {}]]], "name": "stage2_unit3_bn1", "config": {"gamma_regularizer": null, "axis": 3, "scale": true, "name": "stage2_unit3_bn1", "trainable": true, "gamma_constraint": null, "moving_mean_initializer": {"config": {}, "class_name": "Zeros"}, "moving_variance_initializer": {"config": {}, "class_name": "Ones"}, "beta_initializer": {"config": {}, "class_name": "Zeros"}, "momentum": 0.99, "beta_constraint": null, "center": true, "beta_regularizer": null, "gamma_initializer": {"config": {}, "class_name": "Ones"}, "epsilon": 2e-05}, "class_name": "BatchNormalization"}, {"inbound_nodes": [[["stage2_unit3_bn1", 0, 0, {}]]], "name": "stage2_unit3_relu1", "config": {"name": "stage2_unit3_relu1", "trainable": true, "activation": "relu"}, "class_name": "Activation"}, {"inbound_nodes": [[["stage2_unit3_relu1", 0, 0, {}]]], "name": "zero_padding2d_13", "config": {"padding": [[1, 1], [1, 1]], "trainable": true, "data_format": "channels_last", "name": "zero_padding2d_13"}, "class_name": "ZeroPadding2D"}, {"inbound_nodes": [[["zero_padding2d_13", 0, 0, {}]]], "name": "stage2_unit3_conv1", "config": {"dilation_rate": [1, 1], "activity_regularizer": null, "bias_initializer": {"config": {}, "class_name": "Zeros"}, "filters": 128, "trainable": true, "use_bias": false, "name": "stage2_unit3_conv1", "bias_regularizer": null, "bias_constraint": null, "kernel_regularizer": null, "padding": "valid", "kernel_initializer": {"config": {"seed": null, "scale": 2.0, "distribution": "uniform", "mode": "fan_in"}, "class_name": "VarianceScaling"}, "activation": "linear", "data_format": "channels_last", "strides": [1, 1], "kernel_size": [3, 3], "kernel_constraint": null}, "class_name": "Conv2D"}, {"inbound_nodes": [[["stage2_unit3_conv1", 0, 0, {}]]], "name": "stage2_unit3_bn2", "config": {"gamma_regularizer": null, "axis": 3, "scale": true, "name": "stage2_unit3_bn2", "trainable": true, "gamma_constraint": null, "moving_mean_initializer": {"config": {}, "class_name": "Zeros"}, "moving_variance_initializer": {"config": {}, "class_name": "Ones"}, "beta_initializer": {"config": {}, "class_name": "Zeros"}, "momentum": 0.99, "beta_constraint": null, "center": true, "beta_regularizer": null, "gamma_initializer": {"config": {}, "class_name": "Ones"}, "epsilon": 2e-05}, "class_name": "BatchNormalization"}, {"inbound_nodes": [[["stage2_unit3_bn2", 0, 0, {}]]], "name": "stage2_unit3_relu2", "config": {"name": "stage2_unit3_relu2", "trainable": true, "activation": "relu"}, "class_name": "Activation"}, {"inbound_nodes": [[["stage2_unit3_relu2", 0, 0, {}]]], "name": "zero_padding2d_14", "config": {"padding": [[1, 1], [1, 1]], "trainable": true, "data_format": "channels_last", "name": "zero_padding2d_14"}, "class_name": "ZeroPadding2D"}, {"inbound_nodes": [[["zero_padding2d_14", 0, 0, {}]]], "name": "stage2_unit3_conv2", "config": {"dilation_rate": [1, 1], "activity_regularizer": null, "bias_initializer": {"config": {}, "class_name": "Zeros"}, "filters": 128, "trainable": true, "use_bias": false, "name": "stage2_unit3_conv2", "bias_regularizer": null, "bias_constraint": null, "kernel_regularizer": null, "padding": "valid", "kernel_initializer": {"config": {"seed": null, "scale": 2.0, "distribution": "uniform", "mode": "fan_in"}, "class_name": "VarianceScaling"}, "activation": "linear", "data_format": "channels_last", "strides": [1, 1], "kernel_size": [3, 3], "kernel_constraint": null}, "class_name": "Conv2D"}, {"inbound_nodes": [[["stage2_unit3_conv2", 0, 0, {}], ["add_5", 0, 0, {}]]], "name": "add_6", "config": {"name": "add_6", "trainable": true}, "class_name": "Add"}, {"inbound_nodes": [[["add_6", 0, 0, {}]]], "name": "stage2_unit4_bn1", "config": {"gamma_regularizer": null, "axis": 3, "scale": true, "name": "stage2_unit4_bn1", "trainable": true, "gamma_constraint": null, "moving_mean_initializer": {"config": {}, "class_name": "Zeros"}, "moving_variance_initializer": {"config": {}, "class_name": "Ones"}, "beta_initializer": {"config": {}, "class_name": "Zeros"}, "momentum": 0.99, "beta_constraint": null, "center": true, "beta_regularizer": null, "gamma_initializer": {"config": {}, "class_name": "Ones"}, "epsilon": 2e-05}, "class_name": "BatchNormalization"}, {"inbound_nodes": [[["stage2_unit4_bn1", 0, 0, {}]]], "name": "stage2_unit4_relu1", "config": {"name": "stage2_unit4_relu1", "trainable": true, "activation": "relu"}, "class_name": "Activation"}, {"inbound_nodes": [[["stage2_unit4_relu1", 0, 0, {}]]], "name": "zero_padding2d_15", "config": {"padding": [[1, 1], [1, 1]], "trainable": true, "data_format": "channels_last", "name": "zero_padding2d_15"}, "class_name": "ZeroPadding2D"}, {"inbound_nodes": [[["zero_padding2d_15", 0, 0, {}]]], "name": "stage2_unit4_conv1", "config": {"dilation_rate": [1, 1], "activity_regularizer": null, "bias_initializer": {"config": {}, "class_name": "Zeros"}, "filters": 128, "trainable": true, "use_bias": false, "name": "stage2_unit4_conv1", "bias_regularizer": null, "bias_constraint": null, "kernel_regularizer": null, "padding": "valid", "kernel_initializer": {"config": {"seed": null, "scale": 2.0, "distribution": "uniform", "mode": "fan_in"}, "class_name": "VarianceScaling"}, "activation": "linear", "data_format": "channels_last", "strides": [1, 1], "kernel_size": [3, 3], "kernel_constraint": null}, "class_name": "Conv2D"}, {"inbound_nodes": [[["stage2_unit4_conv1", 0, 0, {}]]], "name": "stage2_unit4_bn2", "config": {"gamma_regularizer": null, "axis": 3, "scale": true, "name": "stage2_unit4_bn2", "trainable": true, "gamma_constraint": null, "moving_mean_initializer": {"config": {}, "class_name": "Zeros"}, "moving_variance_initializer": {"config": {}, "class_name": "Ones"}, "beta_initializer": {"config": {}, "class_name": "Zeros"}, "momentum": 0.99, "beta_constraint": null, "center": true, "beta_regularizer": null, "gamma_initializer": {"config": {}, "class_name": "Ones"}, "epsilon": 2e-05}, "class_name": "BatchNormalization"}, {"inbound_nodes": [[["stage2_unit4_bn2", 0, 0, {}]]], "name": "stage2_unit4_relu2", "config": {"name": "stage2_unit4_relu2", "trainable": true, "activation": "relu"}, "class_name": "Activation"}, {"inbound_nodes": [[["stage2_unit4_relu2", 0, 0, {}]]], "name": "zero_padding2d_16", "config": {"padding": [[1, 1], [1, 1]], "trainable": true, "data_format": "channels_last", "name": "zero_padding2d_16"}, "class_name": "ZeroPadding2D"}, {"inbound_nodes": [[["zero_padding2d_16", 0, 0, {}]]], "name": "stage2_unit4_conv2", "config": {"dilation_rate": [1, 1], "activity_regularizer": null, "bias_initializer": {"config": {}, "class_name": "Zeros"}, "filters": 128, "trainable": true, "use_bias": false, "name": "stage2_unit4_conv2", "bias_regularizer": null, "bias_constraint": null, "kernel_regularizer": null, "padding": "valid", "kernel_initializer": {"config": {"seed": null, "scale": 2.0, "distribution": "uniform", "mode": "fan_in"}, "class_name": "VarianceScaling"}, "activation": "linear", "data_format": "channels_last", "strides": [1, 1], "kernel_size": [3, 3], "kernel_constraint": null}, "class_name": "Conv2D"}, {"inbound_nodes": [[["stage2_unit4_conv2", 0, 0, {}], ["add_6", 0, 0, {}]]], "name": "add_7", "config": {"name": "add_7", "trainable": true}, "class_name": "Add"}, {"inbound_nodes": [[["add_7", 0, 0, {}]]], "name": "stage3_unit1_bn1", "config": {"gamma_regularizer": null, "axis": 3, "scale": true, "name": "stage3_unit1_bn1", "trainable": true, "gamma_constraint": null, "moving_mean_initializer": {"config": {}, "class_name": "Zeros"}, "moving_variance_initializer": {"config": {}, "class_name": "Ones"}, "beta_initializer": {"config": {}, "class_name": "Zeros"}, "momentum": 0.99, "beta_constraint": null, "center": true, "beta_regularizer": null, "gamma_initializer": {"config": {}, "class_name": "Ones"}, "epsilon": 2e-05}, "class_name": "BatchNormalization"}, {"inbound_nodes": [[["stage3_unit1_bn1", 0, 0, {}]]], "name": "stage3_unit1_relu1", "config": {"name": "stage3_unit1_relu1", "trainable": true, "activation": "relu"}, "class_name": "Activation"}, {"inbound_nodes": [[["stage3_unit1_relu1", 0, 0, {}]]], "name": "zero_padding2d_17", "config": {"padding": [[1, 1], [1, 1]], "trainable": true, "data_format": "channels_last", "name": "zero_padding2d_17"}, "class_name": "ZeroPadding2D"}, {"inbound_nodes": [[["zero_padding2d_17", 0, 0, {}]]], "name": "stage3_unit1_conv1", "config": {"dilation_rate": [1, 1], "activity_regularizer": null, "bias_initializer": {"config": {}, "class_name": "Zeros"}, "filters": 256, "trainable": true, "use_bias": false, "name": "stage3_unit1_conv1", "bias_regularizer": null, "bias_constraint": null, "kernel_regularizer": null, "padding": "valid", "kernel_initializer": {"config": {"seed": null, "scale": 2.0, "distribution": "uniform", "mode": "fan_in"}, "class_name": "VarianceScaling"}, "activation": "linear", "data_format": "channels_last", "strides": [2, 2], "kernel_size": [3, 3], "kernel_constraint": null}, "class_name": "Conv2D"}, {"inbound_nodes": [[["stage3_unit1_conv1", 0, 0, {}]]], "name": "stage3_unit1_bn2", "config": {"gamma_regularizer": null, "axis": 3, "scale": true, "name": "stage3_unit1_bn2", "trainable": true, "gamma_constraint": null, "moving_mean_initializer": {"config": {}, "class_name": "Zeros"}, "moving_variance_initializer": {"config": {}, "class_name": "Ones"}, "beta_initializer": {"config": {}, "class_name": "Zeros"}, "momentum": 0.99, "beta_constraint": null, "center": true, "beta_regularizer": null, "gamma_initializer": {"config": {}, "class_name": "Ones"}, "epsilon": 2e-05}, "class_name": "BatchNormalization"}, {"inbound_nodes": [[["stage3_unit1_bn2", 0, 0, {}]]], "name": "stage3_unit1_relu2", "config": {"name": "stage3_unit1_relu2", "trainable": true, "activation": "relu"}, "class_name": "Activation"}, {"inbound_nodes": [[["stage3_unit1_relu2", 0, 0, {}]]], "name": "zero_padding2d_18", "config": {"padding": [[1, 1], [1, 1]], "trainable": true, "data_format": "channels_last", "name": "zero_padding2d_18"}, "class_name": "ZeroPadding2D"}, {"inbound_nodes": [[["zero_padding2d_18", 0, 0, {}]]], "name": "stage3_unit1_conv2", "config": {"dilation_rate": [1, 1], "activity_regularizer": null, "bias_initializer": {"config": {}, "class_name": "Zeros"}, "filters": 256, "trainable": true, "use_bias": false, "name": "stage3_unit1_conv2", "bias_regularizer": null, "bias_constraint": null, "kernel_regularizer": null, "padding": "valid", "kernel_initializer": {"config": {"seed": null, "scale": 2.0, "distribution": "uniform", "mode": "fan_in"}, "class_name": "VarianceScaling"}, "activation": "linear", "data_format": "channels_last", "strides": [1, 1], "kernel_size": [3, 3], "kernel_constraint": null}, "class_name": "Conv2D"}, {"inbound_nodes": [[["stage3_unit1_relu1", 0, 0, {}]]], "name": "stage3_unit1_sc", "config": {"dilation_rate": [1, 1], "activity_regularizer": null, "bias_initializer": {"config": {}, "class_name": "Zeros"}, "filters": 256, "trainable": true, "use_bias": false, "name": "stage3_unit1_sc", "bias_regularizer": null, "bias_constraint": null, "kernel_regularizer": null, "padding": "valid", "kernel_initializer": {"config": {"seed": null, "scale": 2.0, "distribution": "uniform", "mode": "fan_in"}, "class_name": "VarianceScaling"}, "activation": "linear", "data_format": "channels_last", "strides": [2, 2], "kernel_size": [1, 1], "kernel_constraint": null}, "class_name": "Conv2D"}, {"inbound_nodes": [[["stage3_unit1_conv2", 0, 0, {}], ["stage3_unit1_sc", 0, 0, {}]]], "name": "add_8", "config": {"name": "add_8", "trainable": true}, "class_name": "Add"}, {"inbound_nodes": [[["add_8", 0, 0, {}]]], "name": "stage3_unit2_bn1", "config": {"gamma_regularizer": null, "axis": 3, "scale": true, "name": "stage3_unit2_bn1", "trainable": true, "gamma_constraint": null, "moving_mean_initializer": {"config": {}, "class_name": "Zeros"}, "moving_variance_initializer": {"config": {}, "class_name": "Ones"}, "beta_initializer": {"config": {}, "class_name": "Zeros"}, "momentum": 0.99, "beta_constraint": null, "center": true, "beta_regularizer": null, "gamma_initializer": {"config": {}, "class_name": "Ones"}, "epsilon": 2e-05}, "class_name": "BatchNormalization"}, {"inbound_nodes": [[["stage3_unit2_bn1", 0, 0, {}]]], "name": "stage3_unit2_relu1", "config": {"name": "stage3_unit2_relu1", "trainable": true, "activation": "relu"}, "class_name": "Activation"}, {"inbound_nodes": [[["stage3_unit2_relu1", 0, 0, {}]]], "name": "zero_padding2d_19", "config": {"padding": [[1, 1], [1, 1]], "trainable": true, "data_format": "channels_last", "name": "zero_padding2d_19"}, "class_name": "ZeroPadding2D"}, {"inbound_nodes": [[["zero_padding2d_19", 0, 0, {}]]], "name": "stage3_unit2_conv1", "config": {"dilation_rate": [1, 1], "activity_regularizer": null, "bias_initializer": {"config": {}, "class_name": "Zeros"}, "filters": 256, "trainable": true, "use_bias": false, "name": "stage3_unit2_conv1", "bias_regularizer": null, "bias_constraint": null, "kernel_regularizer": null, "padding": "valid", "kernel_initializer": {"config": {"seed": null, "scale": 2.0, "distribution": "uniform", "mode": "fan_in"}, "class_name": "VarianceScaling"}, "activation": "linear", "data_format": "channels_last", "strides": [1, 1], "kernel_size": [3, 3], "kernel_constraint": null}, "class_name": "Conv2D"}, {"inbound_nodes": [[["stage3_unit2_conv1", 0, 0, {}]]], "name": "stage3_unit2_bn2", "config": {"gamma_regularizer": null, "axis": 3, "scale": true, "name": "stage3_unit2_bn2", "trainable": true, "gamma_constraint": null, "moving_mean_initializer": {"config": {}, "class_name": "Zeros"}, "moving_variance_initializer": {"config": {}, "class_name": "Ones"}, "beta_initializer": {"config": {}, "class_name": "Zeros"}, "momentum": 0.99, "beta_constraint": null, "center": true, "beta_regularizer": null, "gamma_initializer": {"config": {}, "class_name": "Ones"}, "epsilon": 2e-05}, "class_name": "BatchNormalization"}, {"inbound_nodes": [[["stage3_unit2_bn2", 0, 0, {}]]], "name": "stage3_unit2_relu2", "config": {"name": "stage3_unit2_relu2", "trainable": true, "activation": "relu"}, "class_name": "Activation"}, {"inbound_nodes": [[["stage3_unit2_relu2", 0, 0, {}]]], "name": "zero_padding2d_20", "config": {"padding": [[1, 1], [1, 1]], "trainable": true, "data_format": "channels_last", "name": "zero_padding2d_20"}, "class_name": "ZeroPadding2D"}, {"inbound_nodes": [[["zero_padding2d_20", 0, 0, {}]]], "name": "stage3_unit2_conv2", "config": {"dilation_rate": [1, 1], "activity_regularizer": null, "bias_initializer": {"config": {}, "class_name": "Zeros"}, "filters": 256, "trainable": true, "use_bias": false, "name": "stage3_unit2_conv2", "bias_regularizer": null, "bias_constraint": null, "kernel_regularizer": null, "padding": "valid", "kernel_initializer": {"config": {"seed": null, "scale": 2.0, "distribution": "uniform", "mode": "fan_in"}, "class_name": "VarianceScaling"}, "activation": "linear", "data_format": "channels_last", "strides": [1, 1], "kernel_size": [3, 3], "kernel_constraint": null}, "class_name": "Conv2D"}, {"inbound_nodes": [[["stage3_unit2_conv2", 0, 0, {}], ["add_8", 0, 0, {}]]], "name": "add_9", "config": {"name": "add_9", "trainable": true}, "class_name": "Add"}, {"inbound_nodes": [[["add_9", 0, 0, {}]]], "name": "stage3_unit3_bn1", "config": {"gamma_regularizer": null, "axis": 3, "scale": true, "name": "stage3_unit3_bn1", "trainable": true, "gamma_constraint": null, "moving_mean_initializer": {"config": {}, "class_name": "Zeros"}, "moving_variance_initializer": {"config": {}, "class_name": "Ones"}, "beta_initializer": {"config": {}, "class_name": "Zeros"}, "momentum": 0.99, "beta_constraint": null, "center": true, "beta_regularizer": null, "gamma_initializer": {"config": {}, "class_name": "Ones"}, "epsilon": 2e-05}, "class_name": "BatchNormalization"}, {"inbound_nodes": [[["stage3_unit3_bn1", 0, 0, {}]]], "name": "stage3_unit3_relu1", "config": {"name": "stage3_unit3_relu1", "trainable": true, "activation": "relu"}, "class_name": "Activation"}, {"inbound_nodes": [[["stage3_unit3_relu1", 0, 0, {}]]], "name": "zero_padding2d_21", "config": {"padding": [[1, 1], [1, 1]], "trainable": true, "data_format": "channels_last", "name": "zero_padding2d_21"}, "class_name": "ZeroPadding2D"}, {"inbound_nodes": [[["zero_padding2d_21", 0, 0, {}]]], "name": "stage3_unit3_conv1", "config": {"dilation_rate": [1, 1], "activity_regularizer": null, "bias_initializer": {"config": {}, "class_name": "Zeros"}, "filters": 256, "trainable": true, "use_bias": false, "name": "stage3_unit3_conv1", "bias_regularizer": null, "bias_constraint": null, "kernel_regularizer": null, "padding": "valid", "kernel_initializer": {"config": {"seed": null, "scale": 2.0, "distribution": "uniform", "mode": "fan_in"}, "class_name": "VarianceScaling"}, "activation": "linear", "data_format": "channels_last", "strides": [1, 1], "kernel_size": [3, 3], "kernel_constraint": null}, "class_name": "Conv2D"}, {"inbound_nodes": [[["stage3_unit3_conv1", 0, 0, {}]]], "name": "stage3_unit3_bn2", "config": {"gamma_regularizer": null, "axis": 3, "scale": true, "name": "stage3_unit3_bn2", "trainable": true, "gamma_constraint": null, "moving_mean_initializer": {"config": {}, "class_name": "Zeros"}, "moving_variance_initializer": {"config": {}, "class_name": "Ones"}, "beta_initializer": {"config": {}, "class_name": "Zeros"}, "momentum": 0.99, "beta_constraint": null, "center": true, "beta_regularizer": null, "gamma_initializer": {"config": {}, "class_name": "Ones"}, "epsilon": 2e-05}, "class_name": "BatchNormalization"}, {"inbound_nodes": [[["stage3_unit3_bn2", 0, 0, {}]]], "name": "stage3_unit3_relu2", "config": {"name": "stage3_unit3_relu2", "trainable": true, "activation": "relu"}, "class_name": "Activation"}, {"inbound_nodes": [[["stage3_unit3_relu2", 0, 0, {}]]], "name": "zero_padding2d_22", "config": {"padding": [[1, 1], [1, 1]], "trainable": true, "data_format": "channels_last", "name": "zero_padding2d_22"}, "class_name": "ZeroPadding2D"}, {"inbound_nodes": [[["zero_padding2d_22", 0, 0, {}]]], "name": "stage3_unit3_conv2", "config": {"dilation_rate": [1, 1], "activity_regularizer": null, "bias_initializer": {"config": {}, "class_name": "Zeros"}, "filters": 256, "trainable": true, "use_bias": false, "name": "stage3_unit3_conv2", "bias_regularizer": null, "bias_constraint": null, "kernel_regularizer": null, "padding": "valid", "kernel_initializer": {"config": {"seed": null, "scale": 2.0, "distribution": "uniform", "mode": "fan_in"}, "class_name": "VarianceScaling"}, "activation": "linear", "data_format": "channels_last", "strides": [1, 1], "kernel_size": [3, 3], "kernel_constraint": null}, "class_name": "Conv2D"}, {"inbound_nodes": [[["stage3_unit3_conv2", 0, 0, {}], ["add_9", 0, 0, {}]]], "name": "add_10", "config": {"name": "add_10", "trainable": true}, "class_name": "Add"}, {"inbound_nodes": [[["add_10", 0, 0, {}]]], "name": "stage3_unit4_bn1", "config": {"gamma_regularizer": null, "axis": 3, "scale": true, "name": "stage3_unit4_bn1", "trainable": true, "gamma_constraint": null, "moving_mean_initializer": {"config": {}, "class_name": "Zeros"}, "moving_variance_initializer": {"config": {}, "class_name": "Ones"}, "beta_initializer": {"config": {}, "class_name": "Zeros"}, "momentum": 0.99, "beta_constraint": null, "center": true, "beta_regularizer": null, "gamma_initializer": {"config": {}, "class_name": "Ones"}, "epsilon": 2e-05}, "class_name": "BatchNormalization"}, {"inbound_nodes": [[["stage3_unit4_bn1", 0, 0, {}]]], "name": "stage3_unit4_relu1", "config": {"name": "stage3_unit4_relu1", "trainable": true, "activation": "relu"}, "class_name": "Activation"}, {"inbound_nodes": [[["stage3_unit4_relu1", 0, 0, {}]]], "name": "zero_padding2d_23", "config": {"padding": [[1, 1], [1, 1]], "trainable": true, "data_format": "channels_last", "name": "zero_padding2d_23"}, "class_name": "ZeroPadding2D"}, {"inbound_nodes": [[["zero_padding2d_23", 0, 0, {}]]], "name": "stage3_unit4_conv1", "config": {"dilation_rate": [1, 1], "activity_regularizer": null, "bias_initializer": {"config": {}, "class_name": "Zeros"}, "filters": 256, "trainable": true, "use_bias": false, "name": "stage3_unit4_conv1", "bias_regularizer": null, "bias_constraint": null, "kernel_regularizer": null, "padding": "valid", "kernel_initializer": {"config": {"seed": null, "scale": 2.0, "distribution": "uniform", "mode": "fan_in"}, "class_name": "VarianceScaling"}, "activation": "linear", "data_format": "channels_last", "strides": [1, 1], "kernel_size": [3, 3], "kernel_constraint": null}, "class_name": "Conv2D"}, {"inbound_nodes": [[["stage3_unit4_conv1", 0, 0, {}]]], "name": "stage3_unit4_bn2", "config": {"gamma_regularizer": null, "axis": 3, "scale": true, "name": "stage3_unit4_bn2", "trainable": true, "gamma_constraint": null, "moving_mean_initializer": {"config": {}, "class_name": "Zeros"}, "moving_variance_initializer": {"config": {}, "class_name": "Ones"}, "beta_initializer": {"config": {}, "class_name": "Zeros"}, "momentum": 0.99, "beta_constraint": null, "center": true, "beta_regularizer": null, "gamma_initializer": {"config": {}, "class_name": "Ones"}, "epsilon": 2e-05}, "class_name": "BatchNormalization"}, {"inbound_nodes": [[["stage3_unit4_bn2", 0, 0, {}]]], "name": "stage3_unit4_relu2", "config": {"name": "stage3_unit4_relu2", "trainable": true, "activation": "relu"}, "class_name": "Activation"}, {"inbound_nodes": [[["stage3_unit4_relu2", 0, 0, {}]]], "name": "zero_padding2d_24", "config": {"padding": [[1, 1], [1, 1]], "trainable": true, "data_format": "channels_last", "name": "zero_padding2d_24"}, "class_name": "ZeroPadding2D"}, {"inbound_nodes": [[["zero_padding2d_24", 0, 0, {}]]], "name": "stage3_unit4_conv2", "config": {"dilation_rate": [1, 1], "activity_regularizer": null, "bias_initializer": {"config": {}, "class_name": "Zeros"}, "filters": 256, "trainable": true, "use_bias": false, "name": "stage3_unit4_conv2", "bias_regularizer": null, "bias_constraint": null, "kernel_regularizer": null, "padding": "valid", "kernel_initializer": {"config": {"seed": null, "scale": 2.0, "distribution": "uniform", "mode": "fan_in"}, "class_name": "VarianceScaling"}, "activation": "linear", "data_format": "channels_last", "strides": [1, 1], "kernel_size": [3, 3], "kernel_constraint": null}, "class_name": "Conv2D"}, {"inbound_nodes": [[["stage3_unit4_conv2", 0, 0, {}], ["add_10", 0, 0, {}]]], "name": "add_11", "config": {"name": "add_11", "trainable": true}, "class_name": "Add"}, {"inbound_nodes": [[["add_11", 0, 0, {}]]], "name": "stage3_unit5_bn1", "config": {"gamma_regularizer": null, "axis": 3, "scale": true, "name": "stage3_unit5_bn1", "trainable": true, "gamma_constraint": null, "moving_mean_initializer": {"config": {}, "class_name": "Zeros"}, "moving_variance_initializer": {"config": {}, "class_name": "Ones"}, "beta_initializer": {"config": {}, "class_name": "Zeros"}, "momentum": 0.99, "beta_constraint": null, "center": true, "beta_regularizer": null, "gamma_initializer": {"config": {}, "class_name": "Ones"}, "epsilon": 2e-05}, "class_name": "BatchNormalization"}, {"inbound_nodes": [[["stage3_unit5_bn1", 0, 0, {}]]], "name": "stage3_unit5_relu1", "config": {"name": "stage3_unit5_relu1", "trainable": true, "activation": "relu"}, "class_name": "Activation"}, {"inbound_nodes": [[["stage3_unit5_relu1", 0, 0, {}]]], "name": "zero_padding2d_25", "config": {"padding": [[1, 1], [1, 1]], "trainable": true, "data_format": "channels_last", "name": "zero_padding2d_25"}, "class_name": "ZeroPadding2D"}, {"inbound_nodes": [[["zero_padding2d_25", 0, 0, {}]]], "name": "stage3_unit5_conv1", "config": {"dilation_rate": [1, 1], "activity_regularizer": null, "bias_initializer": {"config": {}, "class_name": "Zeros"}, "filters": 256, "trainable": true, "use_bias": false, "name": "stage3_unit5_conv1", "bias_regularizer": null, "bias_constraint": null, "kernel_regularizer": null, "padding": "valid", "kernel_initializer": {"config": {"seed": null, "scale": 2.0, "distribution": "uniform", "mode": "fan_in"}, "class_name": "VarianceScaling"}, "activation": "linear", "data_format": "channels_last", "strides": [1, 1], "kernel_size": [3, 3], "kernel_constraint": null}, "class_name": "Conv2D"}, {"inbound_nodes": [[["stage3_unit5_conv1", 0, 0, {}]]], "name": "stage3_unit5_bn2", "config": {"gamma_regularizer": null, "axis": 3, "scale": true, "name": "stage3_unit5_bn2", "trainable": true, "gamma_constraint": null, "moving_mean_initializer": {"config": {}, "class_name": "Zeros"}, "moving_variance_initializer": {"config": {}, "class_name": "Ones"}, "beta_initializer": {"config": {}, "class_name": "Zeros"}, "momentum": 0.99, "beta_constraint": null, "center": true, "beta_regularizer": null, "gamma_initializer": {"config": {}, "class_name": "Ones"}, "epsilon": 2e-05}, "class_name": "BatchNormalization"}, {"inbound_nodes": [[["stage3_unit5_bn2", 0, 0, {}]]], "name": "stage3_unit5_relu2", "config": {"name": "stage3_unit5_relu2", "trainable": true, "activation": "relu"}, "class_name": "Activation"}, {"inbound_nodes": [[["stage3_unit5_relu2", 0, 0, {}]]], "name": "zero_padding2d_26", "config": {"padding": [[1, 1], [1, 1]], "trainable": true, "data_format": "channels_last", "name": "zero_padding2d_26"}, "class_name": "ZeroPadding2D"}, {"inbound_nodes": [[["zero_padding2d_26", 0, 0, {}]]], "name": "stage3_unit5_conv2", "config": {"dilation_rate": [1, 1], "activity_regularizer": null, "bias_initializer": {"config": {}, "class_name": "Zeros"}, "filters": 256, "trainable": true, "use_bias": false, "name": "stage3_unit5_conv2", "bias_regularizer": null, "bias_constraint": null, "kernel_regularizer": null, "padding": "valid", "kernel_initializer": {"config": {"seed": null, "scale": 2.0, "distribution": "uniform", "mode": "fan_in"}, "class_name": "VarianceScaling"}, "activation": "linear", "data_format": "channels_last", "strides": [1, 1], "kernel_size": [3, 3], "kernel_constraint": null}, "class_name": "Conv2D"}, {"inbound_nodes": [[["stage3_unit5_conv2", 0, 0, {}], ["add_11", 0, 0, {}]]], "name": "add_12", "config": {"name": "add_12", "trainable": true}, "class_name": "Add"}, {"inbound_nodes": [[["add_12", 0, 0, {}]]], "name": "stage3_unit6_bn1", "config": {"gamma_regularizer": null, "axis": 3, "scale": true, "name": "stage3_unit6_bn1", "trainable": true, "gamma_constraint": null, "moving_mean_initializer": {"config": {}, "class_name": "Zeros"}, "moving_variance_initializer": {"config": {}, "class_name": "Ones"}, "beta_initializer": {"config": {}, "class_name": "Zeros"}, "momentum": 0.99, "beta_constraint": null, "center": true, "beta_regularizer": null, "gamma_initializer": {"config": {}, "class_name": "Ones"}, "epsilon": 2e-05}, "class_name": "BatchNormalization"}, {"inbound_nodes": [[["stage3_unit6_bn1", 0, 0, {}]]], "name": "stage3_unit6_relu1", "config": {"name": "stage3_unit6_relu1", "trainable": true, "activation": "relu"}, "class_name": "Activation"}, {"inbound_nodes": [[["stage3_unit6_relu1", 0, 0, {}]]], "name": "zero_padding2d_27", "config": {"padding": [[1, 1], [1, 1]], "trainable": true, "data_format": "channels_last", "name": "zero_padding2d_27"}, "class_name": "ZeroPadding2D"}, {"inbound_nodes": [[["zero_padding2d_27", 0, 0, {}]]], "name": "stage3_unit6_conv1", "config": {"dilation_rate": [1, 1], "activity_regularizer": null, "bias_initializer": {"config": {}, "class_name": "Zeros"}, "filters": 256, "trainable": true, "use_bias": false, "name": "stage3_unit6_conv1", "bias_regularizer": null, "bias_constraint": null, "kernel_regularizer": null, "padding": "valid", "kernel_initializer": {"config": {"seed": null, "scale": 2.0, "distribution": "uniform", "mode": "fan_in"}, "class_name": "VarianceScaling"}, "activation": "linear", "data_format": "channels_last", "strides": [1, 1], "kernel_size": [3, 3], "kernel_constraint": null}, "class_name": "Conv2D"}, {"inbound_nodes": [[["stage3_unit6_conv1", 0, 0, {}]]], "name": "stage3_unit6_bn2", "config": {"gamma_regularizer": null, "axis": 3, "scale": true, "name": "stage3_unit6_bn2", "trainable": true, "gamma_constraint": null, "moving_mean_initializer": {"config": {}, "class_name": "Zeros"}, "moving_variance_initializer": {"config": {}, "class_name": "Ones"}, "beta_initializer": {"config": {}, "class_name": "Zeros"}, "momentum": 0.99, "beta_constraint": null, "center": true, "beta_regularizer": null, "gamma_initializer": {"config": {}, "class_name": "Ones"}, "epsilon": 2e-05}, "class_name": "BatchNormalization"}, {"inbound_nodes": [[["stage3_unit6_bn2", 0, 0, {}]]], "name": "stage3_unit6_relu2", "config": {"name": "stage3_unit6_relu2", "trainable": true, "activation": "relu"}, "class_name": "Activation"}, {"inbound_nodes": [[["stage3_unit6_relu2", 0, 0, {}]]], "name": "zero_padding2d_28", "config": {"padding": [[1, 1], [1, 1]], "trainable": true, "data_format": "channels_last", "name": "zero_padding2d_28"}, "class_name": "ZeroPadding2D"}, {"inbound_nodes": [[["zero_padding2d_28", 0, 0, {}]]], "name": "stage3_unit6_conv2", "config": {"dilation_rate": [1, 1], "activity_regularizer": null, "bias_initializer": {"config": {}, "class_name": "Zeros"}, "filters": 256, "trainable": true, "use_bias": false, "name": "stage3_unit6_conv2", "bias_regularizer": null, "bias_constraint": null, "kernel_regularizer": null, "padding": "valid", "kernel_initializer": {"config": {"seed": null, "scale": 2.0, "distribution": "uniform", "mode": "fan_in"}, "class_name": "VarianceScaling"}, "activation": "linear", "data_format": "channels_last", "strides": [1, 1], "kernel_size": [3, 3], "kernel_constraint": null}, "class_name": "Conv2D"}, {"inbound_nodes": [[["stage3_unit6_conv2", 0, 0, {}], ["add_12", 0, 0, {}]]], "name": "add_13", "config": {"name": "add_13", "trainable": true}, "class_name": "Add"}, {"inbound_nodes": [[["add_13", 0, 0, {}]]], "name": "stage4_unit1_bn1", "config": {"gamma_regularizer": null, "axis": 3, "scale": true, "name": "stage4_unit1_bn1", "trainable": true, "gamma_constraint": null, "moving_mean_initializer": {"config": {}, "class_name": "Zeros"}, "moving_variance_initializer": {"config": {}, "class_name": "Ones"}, "beta_initializer": {"config": {}, "class_name": "Zeros"}, "momentum": 0.99, "beta_constraint": null, "center": true, "beta_regularizer": null, "gamma_initializer": {"config": {}, "class_name": "Ones"}, "epsilon": 2e-05}, "class_name": "BatchNormalization"}, {"inbound_nodes": [[["stage4_unit1_bn1", 0, 0, {}]]], "name": "stage4_unit1_relu1", "config": {"name": "stage4_unit1_relu1", "trainable": true, "activation": "relu"}, "class_name": "Activation"}, {"inbound_nodes": [[["stage4_unit1_relu1", 0, 0, {}]]], "name": "zero_padding2d_29", "config": {"padding": [[1, 1], [1, 1]], "trainable": true, "data_format": "channels_last", "name": "zero_padding2d_29"}, "class_name": "ZeroPadding2D"}, {"inbound_nodes": [[["zero_padding2d_29", 0, 0, {}]]], "name": "stage4_unit1_conv1", "config": {"dilation_rate": [1, 1], "activity_regularizer": null, "bias_initializer": {"config": {}, "class_name": "Zeros"}, "filters": 512, "trainable": true, "use_bias": false, "name": "stage4_unit1_conv1", "bias_regularizer": null, "bias_constraint": null, "kernel_regularizer": null, "padding": "valid", "kernel_initializer": {"config": {"seed": null, "scale": 2.0, "distribution": "uniform", "mode": "fan_in"}, "class_name": "VarianceScaling"}, "activation": "linear", "data_format": "channels_last", "strides": [2, 2], "kernel_size": [3, 3], "kernel_constraint": null}, "class_name": "Conv2D"}, {"inbound_nodes": [[["stage4_unit1_conv1", 0, 0, {}]]], "name": "stage4_unit1_bn2", "config": {"gamma_regularizer": null, "axis": 3, "scale": true, "name": "stage4_unit1_bn2", "trainable": true, "gamma_constraint": null, "moving_mean_initializer": {"config": {}, "class_name": "Zeros"}, "moving_variance_initializer": {"config": {}, "class_name": "Ones"}, "beta_initializer": {"config": {}, "class_name": "Zeros"}, "momentum": 0.99, "beta_constraint": null, "center": true, "beta_regularizer": null, "gamma_initializer": {"config": {}, "class_name": "Ones"}, "epsilon": 2e-05}, "class_name": "BatchNormalization"}, {"inbound_nodes": [[["stage4_unit1_bn2", 0, 0, {}]]], "name": "stage4_unit1_relu2", "config": {"name": "stage4_unit1_relu2", "trainable": true, "activation": "relu"}, "class_name": "Activation"}, {"inbound_nodes": [[["stage4_unit1_relu2", 0, 0, {}]]], "name": "zero_padding2d_30", "config": {"padding": [[1, 1], [1, 1]], "trainable": true, "data_format": "channels_last", "name": "zero_padding2d_30"}, "class_name": "ZeroPadding2D"}, {"inbound_nodes": [[["zero_padding2d_30", 0, 0, {}]]], "name": "stage4_unit1_conv2", "config": {"dilation_rate": [1, 1], "activity_regularizer": null, "bias_initializer": {"config": {}, "class_name": "Zeros"}, "filters": 512, "trainable": true, "use_bias": false, "name": "stage4_unit1_conv2", "bias_regularizer": null, "bias_constraint": null, "kernel_regularizer": null, "padding": "valid", "kernel_initializer": {"config": {"seed": null, "scale": 2.0, "distribution": "uniform", "mode": "fan_in"}, "class_name": "VarianceScaling"}, "activation": "linear", "data_format": "channels_last", "strides": [1, 1], "kernel_size": [3, 3], "kernel_constraint": null}, "class_name": "Conv2D"}, {"inbound_nodes": [[["stage4_unit1_relu1", 0, 0, {}]]], "name": "stage4_unit1_sc", "config": {"dilation_rate": [1, 1], "activity_regularizer": null, "bias_initializer": {"config": {}, "class_name": "Zeros"}, "filters": 512, "trainable": true, "use_bias": false, "name": "stage4_unit1_sc", "bias_regularizer": null, "bias_constraint": null, "kernel_regularizer": null, "padding": "valid", "kernel_initializer": {"config": {"seed": null, "scale": 2.0, "distribution": "uniform", "mode": "fan_in"}, "class_name": "VarianceScaling"}, "activation": "linear", "data_format": "channels_last", "strides": [2, 2], "kernel_size": [1, 1], "kernel_constraint": null}, "class_name": "Conv2D"}, {"inbound_nodes": [[["stage4_unit1_conv2", 0, 0, {}], ["stage4_unit1_sc", 0, 0, {}]]], "name": "add_14", "config": {"name": "add_14", "trainable": true}, "class_name": "Add"}, {"inbound_nodes": [[["add_14", 0, 0, {}]]], "name": "stage4_unit2_bn1", "config": {"gamma_regularizer": null, "axis": 3, "scale": true, "name": "stage4_unit2_bn1", "trainable": true, "gamma_constraint": null, "moving_mean_initializer": {"config": {}, "class_name": "Zeros"}, "moving_variance_initializer": {"config": {}, "class_name": "Ones"}, "beta_initializer": {"config": {}, "class_name": "Zeros"}, "momentum": 0.99, "beta_constraint": null, "center": true, "beta_regularizer": null, "gamma_initializer": {"config": {}, "class_name": "Ones"}, "epsilon": 2e-05}, "class_name": "BatchNormalization"}, {"inbound_nodes": [[["stage4_unit2_bn1", 0, 0, {}]]], "name": "stage4_unit2_relu1", "config": {"name": "stage4_unit2_relu1", "trainable": true, "activation": "relu"}, "class_name": "Activation"}, {"inbound_nodes": [[["stage4_unit2_relu1", 0, 0, {}]]], "name": "zero_padding2d_31", "config": {"padding": [[1, 1], [1, 1]], "trainable": true, "data_format": "channels_last", "name": "zero_padding2d_31"}, "class_name": "ZeroPadding2D"}, {"inbound_nodes": [[["zero_padding2d_31", 0, 0, {}]]], "name": "stage4_unit2_conv1", "config": {"dilation_rate": [1, 1], "activity_regularizer": null, "bias_initializer": {"config": {}, "class_name": "Zeros"}, "filters": 512, "trainable": true, "use_bias": false, "name": "stage4_unit2_conv1", "bias_regularizer": null, "bias_constraint": null, "kernel_regularizer": null, "padding": "valid", "kernel_initializer": {"config": {"seed": null, "scale": 2.0, "distribution": "uniform", "mode": "fan_in"}, "class_name": "VarianceScaling"}, "activation": "linear", "data_format": "channels_last", "strides": [1, 1], "kernel_size": [3, 3], "kernel_constraint": null}, "class_name": "Conv2D"}, {"inbound_nodes": [[["stage4_unit2_conv1", 0, 0, {}]]], "name": "stage4_unit2_bn2", "config": {"gamma_regularizer": null, "axis": 3, "scale": true, "name": "stage4_unit2_bn2", "trainable": true, "gamma_constraint": null, "moving_mean_initializer": {"config": {}, "class_name": "Zeros"}, "moving_variance_initializer": {"config": {}, "class_name": "Ones"}, "beta_initializer": {"config": {}, "class_name": "Zeros"}, "momentum": 0.99, "beta_constraint": null, "center": true, "beta_regularizer": null, "gamma_initializer": {"config": {}, "class_name": "Ones"}, "epsilon": 2e-05}, "class_name": "BatchNormalization"}, {"inbound_nodes": [[["stage4_unit2_bn2", 0, 0, {}]]], "name": "stage4_unit2_relu2", "config": {"name": "stage4_unit2_relu2", "trainable": true, "activation": "relu"}, "class_name": "Activation"}, {"inbound_nodes": [[["stage4_unit2_relu2", 0, 0, {}]]], "name": "zero_padding2d_32", "config": {"padding": [[1, 1], [1, 1]], "trainable": true, "data_format": "channels_last", "name": "zero_padding2d_32"}, "class_name": "ZeroPadding2D"}, {"inbound_nodes": [[["zero_padding2d_32", 0, 0, {}]]], "name": "stage4_unit2_conv2", "config": {"dilation_rate": [1, 1], "activity_regularizer": null, "bias_initializer": {"config": {}, "class_name": "Zeros"}, "filters": 512, "trainable": true, "use_bias": false, "name": "stage4_unit2_conv2", "bias_regularizer": null, "bias_constraint": null, "kernel_regularizer": null, "padding": "valid", "kernel_initializer": {"config": {"seed": null, "scale": 2.0, "distribution": "uniform", "mode": "fan_in"}, "class_name": "VarianceScaling"}, "activation": "linear", "data_format": "channels_last", "strides": [1, 1], "kernel_size": [3, 3], "kernel_constraint": null}, "class_name": "Conv2D"}, {"inbound_nodes": [[["stage4_unit2_conv2", 0, 0, {}], ["add_14", 0, 0, {}]]], "name": "add_15", "config": {"name": "add_15", "trainable": true}, "class_name": "Add"}, {"inbound_nodes": [[["add_15", 0, 0, {}]]], "name": "stage4_unit3_bn1", "config": {"gamma_regularizer": null, "axis": 3, "scale": true, "name": "stage4_unit3_bn1", "trainable": true, "gamma_constraint": null, "moving_mean_initializer": {"config": {}, "class_name": "Zeros"}, "moving_variance_initializer": {"config": {}, "class_name": "Ones"}, "beta_initializer": {"config": {}, "class_name": "Zeros"}, "momentum": 0.99, "beta_constraint": null, "center": true, "beta_regularizer": null, "gamma_initializer": {"config": {}, "class_name": "Ones"}, "epsilon": 2e-05}, "class_name": "BatchNormalization"}, {"inbound_nodes": [[["stage4_unit3_bn1", 0, 0, {}]]], "name": "stage4_unit3_relu1", "config": {"name": "stage4_unit3_relu1", "trainable": true, "activation": "relu"}, "class_name": "Activation"}, {"inbound_nodes": [[["stage4_unit3_relu1", 0, 0, {}]]], "name": "zero_padding2d_33", "config": {"padding": [[1, 1], [1, 1]], "trainable": true, "data_format": "channels_last", "name": "zero_padding2d_33"}, "class_name": "ZeroPadding2D"}, {"inbound_nodes": [[["zero_padding2d_33", 0, 0, {}]]], "name": "stage4_unit3_conv1", "config": {"dilation_rate": [1, 1], "activity_regularizer": null, "bias_initializer": {"config": {}, "class_name": "Zeros"}, "filters": 512, "trainable": true, "use_bias": false, "name": "stage4_unit3_conv1", "bias_regularizer": null, "bias_constraint": null, "kernel_regularizer": null, "padding": "valid", "kernel_initializer": {"config": {"seed": null, "scale": 2.0, "distribution": "uniform", "mode": "fan_in"}, "class_name": "VarianceScaling"}, "activation": "linear", "data_format": "channels_last", "strides": [1, 1], "kernel_size": [3, 3], "kernel_constraint": null}, "class_name": "Conv2D"}, {"inbound_nodes": [[["stage4_unit3_conv1", 0, 0, {}]]], "name": "stage4_unit3_bn2", "config": {"gamma_regularizer": null, "axis": 3, "scale": true, "name": "stage4_unit3_bn2", "trainable": true, "gamma_constraint": null, "moving_mean_initializer": {"config": {}, "class_name": "Zeros"}, "moving_variance_initializer": {"config": {}, "class_name": "Ones"}, "beta_initializer": {"config": {}, "class_name": "Zeros"}, "momentum": 0.99, "beta_constraint": null, "center": true, "beta_regularizer": null, "gamma_initializer": {"config": {}, "class_name": "Ones"}, "epsilon": 2e-05}, "class_name": "BatchNormalization"}, {"inbound_nodes": [[["stage4_unit3_bn2", 0, 0, {}]]], "name": "stage4_unit3_relu2", "config": {"name": "stage4_unit3_relu2", "trainable": true, "activation": "relu"}, "class_name": "Activation"}, {"inbound_nodes": [[["stage4_unit3_relu2", 0, 0, {}]]], "name": "zero_padding2d_34", "config": {"padding": [[1, 1], [1, 1]], "trainable": true, "data_format": "channels_last", "name": "zero_padding2d_34"}, "class_name": "ZeroPadding2D"}, {"inbound_nodes": [[["zero_padding2d_34", 0, 0, {}]]], "name": "stage4_unit3_conv2", "config": {"dilation_rate": [1, 1], "activity_regularizer": null, "bias_initializer": {"config": {}, "class_name": "Zeros"}, "filters": 512, "trainable": true, "use_bias": false, "name": "stage4_unit3_conv2", "bias_regularizer": null, "bias_constraint": null, "kernel_regularizer": null, "padding": "valid", "kernel_initializer": {"config": {"seed": null, "scale": 2.0, "distribution": "uniform", "mode": "fan_in"}, "class_name": "VarianceScaling"}, "activation": "linear", "data_format": "channels_last", "strides": [1, 1], "kernel_size": [3, 3], "kernel_constraint": null}, "class_name": "Conv2D"}, {"inbound_nodes": [[["stage4_unit3_conv2", 0, 0, {}], ["add_15", 0, 0, {}]]], "name": "add_16", "config": {"name": "add_16", "trainable": true}, "class_name": "Add"}, {"inbound_nodes": [[["add_16", 0, 0, {}]]], "name": "bn1", "config": {"gamma_regularizer": null, "axis": 3, "scale": true, "name": "bn1", "trainable": true, "gamma_constraint": null, "moving_mean_initializer": {"config": {}, "class_name": "Zeros"}, "moving_variance_initializer": {"config": {}, "class_name": "Ones"}, "beta_initializer": {"config": {}, "class_name": "Zeros"}, "momentum": 0.99, "beta_constraint": null, "center": true, "beta_regularizer": null, "gamma_initializer": {"config": {}, "class_name": "Ones"}, "epsilon": 2e-05}, "class_name": "BatchNormalization"}, {"inbound_nodes": [[["bn1", 0, 0, {}]]], "name": "relu1", "config": {"name": "relu1", "trainable": true, "activation": "relu"}, "class_name": "Activation"}, {"inbound_nodes": [[["relu1", 0, 0, {}]]], "name": "decoder_stage0_conv1", "config": {"dilation_rate": [1, 1], "activity_regularizer": null, "bias_initializer": {"config": {}, "class_name": "Zeros"}, "filters": 128, "trainable": true, "use_bias": false, "name": "decoder_stage0_conv1", "bias_regularizer": null, "bias_constraint": null, "kernel_regularizer": null, "padding": "same", "kernel_initializer": {"config": {"seed": null, "scale": 1.0, "distribution": "uniform", "mode": "fan_avg"}, "class_name": "VarianceScaling"}, "activation": "linear", "data_format": "channels_last", "strides": [1, 1], "kernel_size": [1, 1], "kernel_constraint": null}, "class_name": "Conv2D"}, {"inbound_nodes": [[["decoder_stage0_conv1", 0, 0, {}]]], "name": "decoder_stage0_bn1", "config": {"gamma_regularizer": null, "axis": -1, "scale": true, "name": "decoder_stage0_bn1", "trainable": true, "gamma_constraint": null, "moving_mean_initializer": {"config": {}, "class_name": "Zeros"}, "moving_variance_initializer": {"config": {}, "class_name": "Ones"}, "beta_initializer": {"config": {}, "class_name": "Zeros"}, "momentum": 0.99, "beta_constraint": null, "center": true, "beta_regularizer": null, "gamma_initializer": {"config": {}, "class_name": "Ones"}, "epsilon": 0.001}, "class_name": "BatchNormalization"}, {"inbound_nodes": [[["decoder_stage0_bn1", 0, 0, {}]]], "name": "decoder_stage0_relu1", "config": {"name": "decoder_stage0_relu1", "trainable": true, "activation": "relu"}, "class_name": "Activation"}, {"inbound_nodes": [[["decoder_stage0_relu1", 0, 0, {}]]], "name": "decoder_stage0_upsample2", "config": {"trainable": true, "name": "decoder_stage0_upsample2", "size": [2, 2], "data_format": "channels_last", "interpolation": "nearest"}, "class_name": "UpSampling2D"}, {"inbound_nodes": [[["decoder_stage0_upsample2", 0, 0, {}]]], "name": "decoder_stage0_conv2", "config": {"dilation_rate": [1, 1], "activity_regularizer": null, "bias_initializer": {"config": {}, "class_name": "Zeros"}, "filters": 128, "trainable": true, "use_bias": false, "name": "decoder_stage0_conv2", "bias_regularizer": null, "bias_constraint": null, "kernel_regularizer": null, "padding": "same", "kernel_initializer": {"config": {"seed": null, "scale": 1.0, "distribution": "uniform", "mode": "fan_avg"}, "class_name": "VarianceScaling"}, "activation": "linear", "data_format": "channels_last", "strides": [1, 1], "kernel_size": [3, 3], "kernel_constraint": null}, "class_name": "Conv2D"}, {"inbound_nodes": [[["decoder_stage0_conv2", 0, 0, {}]]], "name": "decoder_stage0_bn2", "config": {"gamma_regularizer": null, "axis": -1, "scale": true, "name": "decoder_stage0_bn2", "trainable": true, "gamma_constraint": null, "moving_mean_initializer": {"config": {}, "class_name": "Zeros"}, "moving_variance_initializer": {"config": {}, "class_name": "Ones"}, "beta_initializer": {"config": {}, "class_name": "Zeros"}, "momentum": 0.99, "beta_constraint": null, "center": true, "beta_regularizer": null, "gamma_initializer": {"config": {}, "class_name": "Ones"}, "epsilon": 0.001}, "class_name": "BatchNormalization"}, {"inbound_nodes": [[["decoder_stage0_bn2", 0, 0, {}]]], "name": "decoder_stage0_relu2", "config": {"name": "decoder_stage0_relu2", "trainable": true, "activation": "relu"}, "class_name": "Activation"}, {"inbound_nodes": [[["decoder_stage0_relu2", 0, 0, {}]]], "name": "decoder_stage0_conv3", "config": {"dilation_rate": [1, 1], "activity_regularizer": null, "bias_initializer": {"config": {}, "class_name": "Zeros"}, "filters": 256, "trainable": true, "use_bias": false, "name": "decoder_stage0_conv3", "bias_regularizer": null, "bias_constraint": null, "kernel_regularizer": null, "padding": "same", "kernel_initializer": {"config": {"seed": null, "scale": 1.0, "distribution": "uniform", "mode": "fan_avg"}, "class_name": "VarianceScaling"}, "activation": "linear", "data_format": "channels_last", "strides": [1, 1], "kernel_size": [1, 1], "kernel_constraint": null}, "class_name": "Conv2D"}, {"inbound_nodes": [[["decoder_stage0_conv3", 0, 0, {}]]], "name": "decoder_stage0_bn3", "config": {"gamma_regularizer": null, "axis": -1, "scale": true, "name": "decoder_stage0_bn3", "trainable": true, "gamma_constraint": null, "moving_mean_initializer": {"config": {}, "class_name": "Zeros"}, "moving_variance_initializer": {"config": {}, "class_name": "Ones"}, "beta_initializer": {"config": {}, "class_name": "Zeros"}, "momentum": 0.99, "beta_constraint": null, "center": true, "beta_regularizer": null, "gamma_initializer": {"config": {}, "class_name": "Ones"}, "epsilon": 0.001}, "class_name": "BatchNormalization"}, {"inbound_nodes": [[["decoder_stage0_bn3", 0, 0, {}]]], "name": "decoder_stage0_relu3", "config": {"name": "decoder_stage0_relu3", "trainable": true, "activation": "relu"}, "class_name": "Activation"}, {"inbound_nodes": [[["decoder_stage0_relu3", 0, 0, {}], ["stage4_unit1_relu1", 0, 0, {}]]], "name": "add_17", "config": {"name": "add_17", "trainable": true}, "class_name": "Add"}, {"inbound_nodes": [[["add_17", 0, 0, {}]]], "name": "decoder_stage1_conv1", "config": {"dilation_rate": [1, 1], "activity_regularizer": null, "bias_initializer": {"config": {}, "class_name": "Zeros"}, "filters": 64, "trainable": true, "use_bias": false, "name": "decoder_stage1_conv1", "bias_regularizer": null, "bias_constraint": null, "kernel_regularizer": null, "padding": "same", "kernel_initializer": {"config": {"seed": null, "scale": 1.0, "distribution": "uniform", "mode": "fan_avg"}, "class_name": "VarianceScaling"}, "activation": "linear", "data_format": "channels_last", "strides": [1, 1], "kernel_size": [1, 1], "kernel_constraint": null}, "class_name": "Conv2D"}, {"inbound_nodes": [[["decoder_stage1_conv1", 0, 0, {}]]], "name": "decoder_stage1_bn1", "config": {"gamma_regularizer": null, "axis": -1, "scale": true, "name": "decoder_stage1_bn1", "trainable": true, "gamma_constraint": null, "moving_mean_initializer": {"config": {}, "class_name": "Zeros"}, "moving_variance_initializer": {"config": {}, "class_name": "Ones"}, "beta_initializer": {"config": {}, "class_name": "Zeros"}, "momentum": 0.99, "beta_constraint": null, "center": true, "beta_regularizer": null, "gamma_initializer": {"config": {}, "class_name": "Ones"}, "epsilon": 0.001}, "class_name": "BatchNormalization"}, {"inbound_nodes": [[["decoder_stage1_bn1", 0, 0, {}]]], "name": "decoder_stage1_relu1", "config": {"name": "decoder_stage1_relu1", "trainable": true, "activation": "relu"}, "class_name": "Activation"}, {"inbound_nodes": [[["decoder_stage1_relu1", 0, 0, {}]]], "name": "decoder_stage1_upsample2", "config": {"trainable": true, "name": "decoder_stage1_upsample2", "size": [2, 2], "data_format": "channels_last", "interpolation": "nearest"}, "class_name": "UpSampling2D"}, {"inbound_nodes": [[["decoder_stage1_upsample2", 0, 0, {}]]], "name": "decoder_stage1_conv2", "config": {"dilation_rate": [1, 1], "activity_regularizer": null, "bias_initializer": {"config": {}, "class_name": "Zeros"}, "filters": 64, "trainable": true, "use_bias": false, "name": "decoder_stage1_conv2", "bias_regularizer": null, "bias_constraint": null, "kernel_regularizer": null, "padding": "same", "kernel_initializer": {"config": {"seed": null, "scale": 1.0, "distribution": "uniform", "mode": "fan_avg"}, "class_name": "VarianceScaling"}, "activation": "linear", "data_format": "channels_last", "strides": [1, 1], "kernel_size": [3, 3], "kernel_constraint": null}, "class_name": "Conv2D"}, {"inbound_nodes": [[["decoder_stage1_conv2", 0, 0, {}]]], "name": "decoder_stage1_bn2", "config": {"gamma_regularizer": null, "axis": -1, "scale": true, "name": "decoder_stage1_bn2", "trainable": true, "gamma_constraint": null, "moving_mean_initializer": {"config": {}, "class_name": "Zeros"}, "moving_variance_initializer": {"config": {}, "class_name": "Ones"}, "beta_initializer": {"config": {}, "class_name": "Zeros"}, "momentum": 0.99, "beta_constraint": null, "center": true, "beta_regularizer": null, "gamma_initializer": {"config": {}, "class_name": "Ones"}, "epsilon": 0.001}, "class_name": "BatchNormalization"}, {"inbound_nodes": [[["decoder_stage1_bn2", 0, 0, {}]]], "name": "decoder_stage1_relu2", "config": {"name": "decoder_stage1_relu2", "trainable": true, "activation": "relu"}, "class_name": "Activation"}, {"inbound_nodes": [[["decoder_stage1_relu2", 0, 0, {}]]], "name": "decoder_stage1_conv3", "config": {"dilation_rate": [1, 1], "activity_regularizer": null, "bias_initializer": {"config": {}, "class_name": "Zeros"}, "filters": 128, "trainable": true, "use_bias": false, "name": "decoder_stage1_conv3", "bias_regularizer": null, "bias_constraint": null, "kernel_regularizer": null, "padding": "same", "kernel_initializer": {"config": {"seed": null, "scale": 1.0, "distribution": "uniform", "mode": "fan_avg"}, "class_name": "VarianceScaling"}, "activation": "linear", "data_format": "channels_last", "strides": [1, 1], "kernel_size": [1, 1], "kernel_constraint": null}, "class_name": "Conv2D"}, {"inbound_nodes": [[["decoder_stage1_conv3", 0, 0, {}]]], "name": "decoder_stage1_bn3", "config": {"gamma_regularizer": null, "axis": -1, "scale": true, "name": "decoder_stage1_bn3", "trainable": true, "gamma_constraint": null, "moving_mean_initializer": {"config": {}, "class_name": "Zeros"}, "moving_variance_initializer": {"config": {}, "class_name": "Ones"}, "beta_initializer": {"config": {}, "class_name": "Zeros"}, "momentum": 0.99, "beta_constraint": null, "center": true, "beta_regularizer": null, "gamma_initializer": {"config": {}, "class_name": "Ones"}, "epsilon": 0.001}, "class_name": "BatchNormalization"}, {"inbound_nodes": [[["decoder_stage1_bn3", 0, 0, {}]]], "name": "decoder_stage1_relu3", "config": {"name": "decoder_stage1_relu3", "trainable": true, "activation": "relu"}, "class_name": "Activation"}, {"inbound_nodes": [[["decoder_stage1_relu3", 0, 0, {}], ["stage3_unit1_relu1", 0, 0, {}]]], "name": "add_18", "config": {"name": "add_18", "trainable": true}, "class_name": "Add"}, {"inbound_nodes": [[["add_18", 0, 0, {}]]], "name": "decoder_stage2_conv1", "config": {"dilation_rate": [1, 1], "activity_regularizer": null, "bias_initializer": {"config": {}, "class_name": "Zeros"}, "filters": 32, "trainable": true, "use_bias": false, "name": "decoder_stage2_conv1", "bias_regularizer": null, "bias_constraint": null, "kernel_regularizer": null, "padding": "same", "kernel_initializer": {"config": {"seed": null, "scale": 1.0, "distribution": "uniform", "mode": "fan_avg"}, "class_name": "VarianceScaling"}, "activation": "linear", "data_format": "channels_last", "strides": [1, 1], "kernel_size": [1, 1], "kernel_constraint": null}, "class_name": "Conv2D"}, {"inbound_nodes": [[["decoder_stage2_conv1", 0, 0, {}]]], "name": "decoder_stage2_bn1", "config": {"gamma_regularizer": null, "axis": -1, "scale": true, "name": "decoder_stage2_bn1", "trainable": true, "gamma_constraint": null, "moving_mean_initializer": {"config": {}, "class_name": "Zeros"}, "moving_variance_initializer": {"config": {}, "class_name": "Ones"}, "beta_initializer": {"config": {}, "class_name": "Zeros"}, "momentum": 0.99, "beta_constraint": null, "center": true, "beta_regularizer": null, "gamma_initializer": {"config": {}, "class_name": "Ones"}, "epsilon": 0.001}, "class_name": "BatchNormalization"}, {"inbound_nodes": [[["decoder_stage2_bn1", 0, 0, {}]]], "name": "decoder_stage2_relu1", "config": {"name": "decoder_stage2_relu1", "trainable": true, "activation": "relu"}, "class_name": "Activation"}, {"inbound_nodes": [[["decoder_stage2_relu1", 0, 0, {}]]], "name": "decoder_stage2_upsample2", "config": {"trainable": true, "name": "decoder_stage2_upsample2", "size": [2, 2], "data_format": "channels_last", "interpolation": "nearest"}, "class_name": "UpSampling2D"}, {"inbound_nodes": [[["decoder_stage2_upsample2", 0, 0, {}]]], "name": "decoder_stage2_conv2", "config": {"dilation_rate": [1, 1], "activity_regularizer": null, "bias_initializer": {"config": {}, "class_name": "Zeros"}, "filters": 32, "trainable": true, "use_bias": false, "name": "decoder_stage2_conv2", "bias_regularizer": null, "bias_constraint": null, "kernel_regularizer": null, "padding": "same", "kernel_initializer": {"config": {"seed": null, "scale": 1.0, "distribution": "uniform", "mode": "fan_avg"}, "class_name": "VarianceScaling"}, "activation": "linear", "data_format": "channels_last", "strides": [1, 1], "kernel_size": [3, 3], "kernel_constraint": null}, "class_name": "Conv2D"}, {"inbound_nodes": [[["decoder_stage2_conv2", 0, 0, {}]]], "name": "decoder_stage2_bn2", "config": {"gamma_regularizer": null, "axis": -1, "scale": true, "name": "decoder_stage2_bn2", "trainable": true, "gamma_constraint": null, "moving_mean_initializer": {"config": {}, "class_name": "Zeros"}, "moving_variance_initializer": {"config": {}, "class_name": "Ones"}, "beta_initializer": {"config": {}, "class_name": "Zeros"}, "momentum": 0.99, "beta_constraint": null, "center": true, "beta_regularizer": null, "gamma_initializer": {"config": {}, "class_name": "Ones"}, "epsilon": 0.001}, "class_name": "BatchNormalization"}, {"inbound_nodes": [[["decoder_stage2_bn2", 0, 0, {}]]], "name": "decoder_stage2_relu2", "config": {"name": "decoder_stage2_relu2", "trainable": true, "activation": "relu"}, "class_name": "Activation"}, {"inbound_nodes": [[["decoder_stage2_relu2", 0, 0, {}]]], "name": "decoder_stage2_conv3", "config": {"dilation_rate": [1, 1], "activity_regularizer": null, "bias_initializer": {"config": {}, "class_name": "Zeros"}, "filters": 64, "trainable": true, "use_bias": false, "name": "decoder_stage2_conv3", "bias_regularizer": null, "bias_constraint": null, "kernel_regularizer": null, "padding": "same", "kernel_initializer": {"config": {"seed": null, "scale": 1.0, "distribution": "uniform", "mode": "fan_avg"}, "class_name": "VarianceScaling"}, "activation": "linear", "data_format": "channels_last", "strides": [1, 1], "kernel_size": [1, 1], "kernel_constraint": null}, "class_name": "Conv2D"}, {"inbound_nodes": [[["decoder_stage2_conv3", 0, 0, {}]]], "name": "decoder_stage2_bn3", "config": {"gamma_regularizer": null, "axis": -1, "scale": true, "name": "decoder_stage2_bn3", "trainable": true, "gamma_constraint": null, "moving_mean_initializer": {"config": {}, "class_name": "Zeros"}, "moving_variance_initializer": {"config": {}, "class_name": "Ones"}, "beta_initializer": {"config": {}, "class_name": "Zeros"}, "momentum": 0.99, "beta_constraint": null, "center": true, "beta_regularizer": null, "gamma_initializer": {"config": {}, "class_name": "Ones"}, "epsilon": 0.001}, "class_name": "BatchNormalization"}, {"inbound_nodes": [[["decoder_stage2_bn3", 0, 0, {}]]], "name": "decoder_stage2_relu3", "config": {"name": "decoder_stage2_relu3", "trainable": true, "activation": "relu"}, "class_name": "Activation"}, {"inbound_nodes": [[["decoder_stage2_relu3", 0, 0, {}], ["stage2_unit1_relu1", 0, 0, {}]]], "name": "add_19", "config": {"name": "add_19", "trainable": true}, "class_name": "Add"}, {"inbound_nodes": [[["add_19", 0, 0, {}]]], "name": "decoder_stage3_conv1", "config": {"dilation_rate": [1, 1], "activity_regularizer": null, "bias_initializer": {"config": {}, "class_name": "Zeros"}, "filters": 16, "trainable": true, "use_bias": false, "name": "decoder_stage3_conv1", "bias_regularizer": null, "bias_constraint": null, "kernel_regularizer": null, "padding": "same", "kernel_initializer": {"config": {"seed": null, "scale": 1.0, "distribution": "uniform", "mode": "fan_avg"}, "class_name": "VarianceScaling"}, "activation": "linear", "data_format": "channels_last", "strides": [1, 1], "kernel_size": [1, 1], "kernel_constraint": null}, "class_name": "Conv2D"}, {"inbound_nodes": [[["decoder_stage3_conv1", 0, 0, {}]]], "name": "decoder_stage3_bn1", "config": {"gamma_regularizer": null, "axis": -1, "scale": true, "name": "decoder_stage3_bn1", "trainable": true, "gamma_constraint": null, "moving_mean_initializer": {"config": {}, "class_name": "Zeros"}, "moving_variance_initializer": {"config": {}, "class_name": "Ones"}, "beta_initializer": {"config": {}, "class_name": "Zeros"}, "momentum": 0.99, "beta_constraint": null, "center": true, "beta_regularizer": null, "gamma_initializer": {"config": {}, "class_name": "Ones"}, "epsilon": 0.001}, "class_name": "BatchNormalization"}, {"inbound_nodes": [[["decoder_stage3_bn1", 0, 0, {}]]], "name": "decoder_stage3_relu1", "config": {"name": "decoder_stage3_relu1", "trainable": true, "activation": "relu"}, "class_name": "Activation"}, {"inbound_nodes": [[["decoder_stage3_relu1", 0, 0, {}]]], "name": "decoder_stage3_upsample2", "config": {"trainable": true, "name": "decoder_stage3_upsample2", "size": [2, 2], "data_format": "channels_last", "interpolation": "nearest"}, "class_name": "UpSampling2D"}, {"inbound_nodes": [[["decoder_stage3_upsample2", 0, 0, {}]]], "name": "decoder_stage3_conv2", "config": {"dilation_rate": [1, 1], "activity_regularizer": null, "bias_initializer": {"config": {}, "class_name": "Zeros"}, "filters": 16, "trainable": true, "use_bias": false, "name": "decoder_stage3_conv2", "bias_regularizer": null, "bias_constraint": null, "kernel_regularizer": null, "padding": "same", "kernel_initializer": {"config": {"seed": null, "scale": 1.0, "distribution": "uniform", "mode": "fan_avg"}, "class_name": "VarianceScaling"}, "activation": "linear", "data_format": "channels_last", "strides": [1, 1], "kernel_size": [3, 3], "kernel_constraint": null}, "class_name": "Conv2D"}, {"inbound_nodes": [[["decoder_stage3_conv2", 0, 0, {}]]], "name": "decoder_stage3_bn2", "config": {"gamma_regularizer": null, "axis": -1, "scale": true, "name": "decoder_stage3_bn2", "trainable": true, "gamma_constraint": null, "moving_mean_initializer": {"config": {}, "class_name": "Zeros"}, "moving_variance_initializer": {"config": {}, "class_name": "Ones"}, "beta_initializer": {"config": {}, "class_name": "Zeros"}, "momentum": 0.99, "beta_constraint": null, "center": true, "beta_regularizer": null, "gamma_initializer": {"config": {}, "class_name": "Ones"}, "epsilon": 0.001}, "class_name": "BatchNormalization"}, {"inbound_nodes": [[["decoder_stage3_bn2", 0, 0, {}]]], "name": "decoder_stage3_relu2", "config": {"name": "decoder_stage3_relu2", "trainable": true, "activation": "relu"}, "class_name": "Activation"}, {"inbound_nodes": [[["decoder_stage3_relu2", 0, 0, {}]]], "name": "decoder_stage3_conv3", "config": {"dilation_rate": [1, 1], "activity_regularizer": null, "bias_initializer": {"config": {}, "class_name": "Zeros"}, "filters": 64, "trainable": true, "use_bias": false, "name": "decoder_stage3_conv3", "bias_regularizer": null, "bias_constraint": null, "kernel_regularizer": null, "padding": "same", "kernel_initializer": {"config": {"seed": null, "scale": 1.0, "distribution": "uniform", "mode": "fan_avg"}, "class_name": "VarianceScaling"}, "activation": "linear", "data_format": "channels_last", "strides": [1, 1], "kernel_size": [1, 1], "kernel_constraint": null}, "class_name": "Conv2D"}, {"inbound_nodes": [[["decoder_stage3_conv3", 0, 0, {}]]], "name": "decoder_stage3_bn3", "config": {"gamma_regularizer": null, "axis": -1, "scale": true, "name": "decoder_stage3_bn3", "trainable": true, "gamma_constraint": null, "moving_mean_initializer": {"config": {}, "class_name": "Zeros"}, "moving_variance_initializer": {"config": {}, "class_name": "Ones"}, "beta_initializer": {"config": {}, "class_name": "Zeros"}, "momentum": 0.99, "beta_constraint": null, "center": true, "beta_regularizer": null, "gamma_initializer": {"config": {}, "class_name": "Ones"}, "epsilon": 0.001}, "class_name": "BatchNormalization"}, {"inbound_nodes": [[["decoder_stage3_bn3", 0, 0, {}]]], "name": "decoder_stage3_relu3", "config": {"name": "decoder_stage3_relu3", "trainable": true, "activation": "relu"}, "class_name": "Activation"}, {"inbound_nodes": [[["decoder_stage3_relu3", 0, 0, {}], ["relu0", 0, 0, {}]]], "name": "add_20", "config": {"name": "add_20", "trainable": true}, "class_name": "Add"}, {"inbound_nodes": [[["add_20", 0, 0, {}]]], "name": "decoder_stage4_conv1", "config": {"dilation_rate": [1, 1], "activity_regularizer": null, "bias_initializer": {"config": {}, "class_name": "Zeros"}, "filters": 16, "trainable": true, "use_bias": false, "name": "decoder_stage4_conv1", "bias_regularizer": null, "bias_constraint": null, "kernel_regularizer": null, "padding": "same", "kernel_initializer": {"config": {"seed": null, "scale": 1.0, "distribution": "uniform", "mode": "fan_avg"}, "class_name": "VarianceScaling"}, "activation": "linear", "data_format": "channels_last", "strides": [1, 1], "kernel_size": [1, 1], "kernel_constraint": null}, "class_name": "Conv2D"}, {"inbound_nodes": [[["decoder_stage4_conv1", 0, 0, {}]]], "name": "decoder_stage4_bn1", "config": {"gamma_regularizer": null, "axis": -1, "scale": true, "name": "decoder_stage4_bn1", "trainable": true, "gamma_constraint": null, "moving_mean_initializer": {"config": {}, "class_name": "Zeros"}, "moving_variance_initializer": {"config": {}, "class_name": "Ones"}, "beta_initializer": {"config": {}, "class_name": "Zeros"}, "momentum": 0.99, "beta_constraint": null, "center": true, "beta_regularizer": null, "gamma_initializer": {"config": {}, "class_name": "Ones"}, "epsilon": 0.001}, "class_name": "BatchNormalization"}, {"inbound_nodes": [[["decoder_stage4_bn1", 0, 0, {}]]], "name": "decoder_stage4_relu1", "config": {"name": "decoder_stage4_relu1", "trainable": true, "activation": "relu"}, "class_name": "Activation"}, {"inbound_nodes": [[["decoder_stage4_relu1", 0, 0, {}]]], "name": "decoder_stage4_upsample2", "config": {"trainable": true, "name": "decoder_stage4_upsample2", "size": [2, 2], "data_format": "channels_last", "interpolation": "nearest"}, "class_name": "UpSampling2D"}, {"inbound_nodes": [[["decoder_stage4_upsample2", 0, 0, {}]]], "name": "decoder_stage4_conv2", "config": {"dilation_rate": [1, 1], "activity_regularizer": null, "bias_initializer": {"config": {}, "class_name": "Zeros"}, "filters": 16, "trainable": true, "use_bias": false, "name": "decoder_stage4_conv2", "bias_regularizer": null, "bias_constraint": null, "kernel_regularizer": null, "padding": "same", "kernel_initializer": {"config": {"seed": null, "scale": 1.0, "distribution": "uniform", "mode": "fan_avg"}, "class_name": "VarianceScaling"}, "activation": "linear", "data_format": "channels_last", "strides": [1, 1], "kernel_size": [3, 3], "kernel_constraint": null}, "class_name": "Conv2D"}, {"inbound_nodes": [[["decoder_stage4_conv2", 0, 0, {}]]], "name": "decoder_stage4_bn2", "config": {"gamma_regularizer": null, "axis": -1, "scale": true, "name": "decoder_stage4_bn2", "trainable": true, "gamma_constraint": null, "moving_mean_initializer": {"config": {}, "class_name": "Zeros"}, "moving_variance_initializer": {"config": {}, "class_name": "Ones"}, "beta_initializer": {"config": {}, "class_name": "Zeros"}, "momentum": 0.99, "beta_constraint": null, "center": true, "beta_regularizer": null, "gamma_initializer": {"config": {}, "class_name": "Ones"}, "epsilon": 0.001}, "class_name": "BatchNormalization"}, {"inbound_nodes": [[["decoder_stage4_bn2", 0, 0, {}]]], "name": "decoder_stage4_relu2", "config": {"name": "decoder_stage4_relu2", "trainable": true, "activation": "relu"}, "class_name": "Activation"}, {"inbound_nodes": [[["decoder_stage4_relu2", 0, 0, {}]]], "name": "decoder_stage4_conv3", "config": {"dilation_rate": [1, 1], "activity_regularizer": null, "bias_initializer": {"config": {}, "class_name": "Zeros"}, "filters": 16, "trainable": true, "use_bias": false, "name": "decoder_stage4_conv3", "bias_regularizer": null, "bias_constraint": null, "kernel_regularizer": null, "padding": "same", "kernel_initializer": {"config": {"seed": null, "scale": 1.0, "distribution": "uniform", "mode": "fan_avg"}, "class_name": "VarianceScaling"}, "activation": "linear", "data_format": "channels_last", "strides": [1, 1], "kernel_size": [1, 1], "kernel_constraint": null}, "class_name": "Conv2D"}, {"inbound_nodes": [[["decoder_stage4_conv3", 0, 0, {}]]], "name": "decoder_stage4_bn3", "config": {"gamma_regularizer": null, "axis": -1, "scale": true, "name": "decoder_stage4_bn3", "trainable": true, "gamma_constraint": null, "moving_mean_initializer": {"config": {}, "class_name": "Zeros"}, "moving_variance_initializer": {"config": {}, "class_name": "Ones"}, "beta_initializer": {"config": {}, "class_name": "Zeros"}, "momentum": 0.99, "beta_constraint": null, "center": true, "beta_regularizer": null, "gamma_initializer": {"config": {}, "class_name": "Ones"}, "epsilon": 0.001}, "class_name": "BatchNormalization"}, {"inbound_nodes": [[["decoder_stage4_bn3", 0, 0, {}]]], "name": "decoder_stage4_relu3", "config": {"name": "decoder_stage4_relu3", "trainable": true, "activation": "relu"}, "class_name": "Activation"}, {"inbound_nodes": [[["decoder_stage4_relu3", 0, 0, {}]]], "name": "final_conv", "config": {"dilation_rate": [1, 1], "activity_regularizer": null, "bias_initializer": {"config": {}, "class_name": "Zeros"}, "filters": 1, "trainable": true, "use_bias": true, "name": "final_conv", "bias_regularizer": null, "bias_constraint": null, "kernel_regularizer": null, "padding": "same", "kernel_initializer": {"config": {"seed": null, "scale": 1.0, "distribution": "uniform", "mode": "fan_avg"}, "class_name": "VarianceScaling"}, "activation": "linear", "data_format": "channels_last", "strides": [1, 1], "kernel_size": [3, 3], "kernel_constraint": null}, "class_name": "Conv2D"}, {"inbound_nodes": [[["final_conv", 0, 0, {}]]], "name": "sigmoid", "config": {"name": "sigmoid", "trainable": true, "activation": "sigmoid"}, "class_name": "Activation"}], "output_layers": [["sigmoid", 0, 0]]}, "class_name": "Model"}