{"keras_version": "2.2.4", "backend": "tensorflow", "config": {"name": "link-resnet18", "layers": [{"name": "data", "inbound_nodes": [], "config": {"sparse": false, "name": "data", "dtype": "float32", "batch_input_shape": [null, null, null, 3]}, "class_name": "InputLayer"}, {"name": "bn_data", "inbound_nodes": [[["data", 0, 0, {}]]], "config": {"scale": false, "beta_initializer": {"config": {}, "class_name": "Zeros"}, "gamma_regularizer": null, "moving_variance_initializer": {"config": {}, "class_name": "Ones"}, "beta_constraint": null, "trainable": true, "beta_regularizer": null, "gamma_constraint": null, "momentum": 0.99, "name": "bn_data", "gamma_initializer": {"config": {}, "class_name": "Ones"}, "moving_mean_initializer": {"config": {}, "class_name": "Zeros"}, "axis": 3, "center": true, "epsilon": 2e-05}, "class_name": "BatchNormalization"}, {"name": "zero_padding2d_73", "inbound_nodes": [[["bn_data", 0, 0, {}]]], "config": {"name": "zero_padding2d_73", "data_format": "channels_last", "trainable": true, "padding": [[3, 3], [3, 3]]}, "class_name": "ZeroPadding2D"}, {"name": "conv0", "inbound_nodes": [[["zero_padding2d_73", 0, 0, {}]]], "config": {"strides": [2, 2], "kernel_constraint": null, "use_bias": false, "filters": 64, "kernel_regularizer": null, "kernel_initializer": {"config": {"scale": 2.0, "seed": null, "mode": "fan_in", "distribution": "uniform"}, "class_name": "VarianceScaling"}, "dilation_rate": [1, 1], "bias_constraint": null, "trainable": true, "activation": "linear", "bias_initializer": {"config": {}, "class_name": "Zeros"}, "data_format": "channels_last", "activity_regularizer": null, "name": "conv0", "kernel_size": [7, 7], "bias_regularizer": null, "padding": "valid"}, "class_name": "Conv2D"}, {"name": "bn0", "inbound_nodes": [[["conv0", 0, 0, {}]]], "config": {"scale": true, "beta_initializer": {"config": {}, "class_name": "Zeros"}, "gamma_regularizer": null, "moving_variance_initializer": {"config": {}, "class_name": "Ones"}, "beta_constraint": null, "trainable": true, "beta_regularizer": null, "gamma_constraint": null, "momentum": 0.99, "name": "bn0", "gamma_initializer": {"config": {}, "class_name": "Ones"}, "moving_mean_initializer": {"config": {}, "class_name": "Zeros"}, "axis": 3, "center": true, "epsilon": 2e-05}, "class_name": "BatchNormalization"}, {"name": "relu0", "inbound_nodes": [[["bn0", 0, 0, {}]]], "config": {"name": "relu0", "trainable": true, "activation": "relu"}, "class_name": "Activation"}, {"name": "zero_padding2d_74", "inbound_nodes": [[["relu0", 0, 0, {}]]], "config": {"name": "zero_padding2d_74", "data_format": "channels_last", "trainable": true, "padding": [[1, 1], [1, 1]]}, "class_name": "ZeroPadding2D"}, {"name": "pooling0", "inbound_nodes": [[["zero_padding2d_74", 0, 0, {}]]], "config": {"strides": [2, 2], "data_format": "channels_last", "name": "pooling0", "pool_size": [3, 3], "trainable": true, "padding": "valid"}, "class_name": "MaxPooling2D"}, {"name": "stage1_unit1_bn1", "inbound_nodes": [[["pooling0", 0, 0, {}]]], "config": {"scale": true, "beta_initializer": {"config": {}, "class_name": "Zeros"}, "gamma_regularizer": null, "moving_variance_initializer": {"config": {}, "class_name": "Ones"}, "beta_constraint": null, "trainable": true, "beta_regularizer": null, "gamma_constraint": null, "momentum": 0.99, "name": "stage1_unit1_bn1", "gamma_initializer": {"config": {}, "class_name": "Ones"}, "moving_mean_initializer": {"config": {}, "class_name": "Zeros"}, "axis": 3, "center": true, "epsilon": 2e-05}, "class_name": "BatchNormalization"}, {"name": "stage1_unit1_relu1", "inbound_nodes": [[["stage1_unit1_bn1", 0, 0, {}]]], "config": {"name": "stage1_unit1_relu1", "trainable": true, "activation": "relu"}, "class_name": "Activation"}, {"name": "zero_padding2d_75", "inbound_nodes": [[["stage1_unit1_relu1", 0, 0, {}]]], "config": {"name": "zero_padding2d_75", "data_format": "channels_last", "trainable": true, "padding": [[1, 1], [1, 1]]}, "class_name": "ZeroPadding2D"}, {"name": "stage1_unit1_conv1", "inbound_nodes": [[["zero_padding2d_75", 0, 0, {}]]], "config": {"strides": [1, 1], "kernel_constraint": null, "use_bias": false, "filters": 64, "kernel_regularizer": null, "kernel_initializer": {"config": {"scale": 2.0, "seed": null, "mode": "fan_in", "distribution": "uniform"}, "class_name": "VarianceScaling"}, "dilation_rate": [1, 1], "bias_constraint": null, "trainable": true, "activation": "linear", "bias_initializer": {"config": {}, "class_name": "Zeros"}, "data_format": "channels_last", "activity_regularizer": null, "name": "stage1_unit1_conv1", "kernel_size": [3, 3], "bias_regularizer": null, "padding": "valid"}, "class_name": "Conv2D"}, {"name": "stage1_unit1_bn2", "inbound_nodes": [[["stage1_unit1_conv1", 0, 0, {}]]], "config": {"scale": true, "beta_initializer": {"config": {}, "class_name": "Zeros"}, "gamma_regularizer": null, "moving_variance_initializer": {"config": {}, "class_name": "Ones"}, "beta_constraint": null, "trainable": true, "beta_regularizer": null, "gamma_constraint": null, "momentum": 0.99, "name": "stage1_unit1_bn2", "gamma_initializer": {"config": {}, "class_name": "Ones"}, "moving_mean_initializer": {"config": {}, "class_name": "Zeros"}, "axis": 3, "center": true, "epsilon": 2e-05}, "class_name": "BatchNormalization"}, {"name": "stage1_unit1_relu2", "inbound_nodes": [[["stage1_unit1_bn2", 0, 0, {}]]], "config": {"name": "stage1_unit1_relu2", "trainable": true, "activation": "relu"}, "class_name": "Activation"}, {"name": "zero_padding2d_76", "inbound_nodes": [[["stage1_unit1_relu2", 0, 0, {}]]], "config": {"name": "zero_padding2d_76", "data_format": "channels_last", "trainable": true, "padding": [[1, 1], [1, 1]]}, "class_name": "ZeroPadding2D"}, {"name": "stage1_unit1_conv2", "inbound_nodes": [[["zero_padding2d_76", 0, 0, {}]]], "config": {"strides": [1, 1], "kernel_constraint": null, "use_bias": false, "filters": 64, "kernel_regularizer": null, "kernel_initializer": {"config": {"scale": 2.0, "seed": null, "mode": "fan_in", "distribution": "uniform"}, "class_name": "VarianceScaling"}, "dilation_rate": [1, 1], "bias_constraint": null, "trainable": true, "activation": "linear", "bias_initializer": {"config": {}, "class_name": "Zeros"}, "data_format": "channels_last", "activity_regularizer": null, "name": "stage1_unit1_conv2", "kernel_size": [3, 3], "bias_regularizer": null, "padding": "valid"}, "class_name": "Conv2D"}, {"name": "stage1_unit1_sc", "inbound_nodes": [[["stage1_unit1_relu1", 0, 0, {}]]], "config": {"strides": [1, 1], "kernel_constraint": null, "use_bias": false, "filters": 64, "kernel_regularizer": null, "kernel_initializer": {"config": {"scale": 2.0, "seed": null, "mode": "fan_in", "distribution": "uniform"}, "class_name": "VarianceScaling"}, "dilation_rate": [1, 1], "bias_constraint": null, "trainable": true, "activation": "linear", "bias_initializer": {"config": {}, "class_name": "Zeros"}, "data_format": "channels_last", "activity_regularizer": null, "name": "stage1_unit1_sc", "kernel_size": [1, 1], "bias_regularizer": null, "padding": "valid"}, "class_name": "Conv2D"}, {"name": "add_33", "inbound_nodes": [[["stage1_unit1_conv2", 0, 0, {}], ["stage1_unit1_sc", 0, 0, {}]]], "config": {"name": "add_33", "trainable": true}, "class_name": "Add"}, {"name": "stage1_unit2_bn1", "inbound_nodes": [[["add_33", 0, 0, {}]]], "config": {"scale": true, "beta_initializer": {"config": {}, "class_name": "Zeros"}, "gamma_regularizer": null, "moving_variance_initializer": {"config": {}, "class_name": "Ones"}, "beta_constraint": null, "trainable": true, "beta_regularizer": null, "gamma_constraint": null, "momentum": 0.99, "name": "stage1_unit2_bn1", "gamma_initializer": {"config": {}, "class_name": "Ones"}, "moving_mean_initializer": {"config": {}, "class_name": "Zeros"}, "axis": 3, "center": true, "epsilon": 2e-05}, "class_name": "BatchNormalization"}, {"name": "stage1_unit2_relu1", "inbound_nodes": [[["stage1_unit2_bn1", 0, 0, {}]]], "config": {"name": "stage1_unit2_relu1", "trainable": true, "activation": "relu"}, "class_name": "Activation"}, {"name": "zero_padding2d_77", "inbound_nodes": [[["stage1_unit2_relu1", 0, 0, {}]]], "config": {"name": "zero_padding2d_77", "data_format": "channels_last", "trainable": true, "padding": [[1, 1], [1, 1]]}, "class_name": "ZeroPadding2D"}, {"name": "stage1_unit2_conv1", "inbound_nodes": [[["zero_padding2d_77", 0, 0, {}]]], "config": {"strides": [1, 1], "kernel_constraint": null, "use_bias": false, "filters": 64, "kernel_regularizer": null, "kernel_initializer": {"config": {"scale": 2.0, "seed": null, "mode": "fan_in", "distribution": "uniform"}, "class_name": "VarianceScaling"}, "dilation_rate": [1, 1], "bias_constraint": null, "trainable": true, "activation": "linear", "bias_initializer": {"config": {}, "class_name": "Zeros"}, "data_format": "channels_last", "activity_regularizer": null, "name": "stage1_unit2_conv1", "kernel_size": [3, 3], "bias_regularizer": null, "padding": "valid"}, "class_name": "Conv2D"}, {"name": "stage1_unit2_bn2", "inbound_nodes": [[["stage1_unit2_conv1", 0, 0, {}]]], "config": {"scale": true, "beta_initializer": {"config": {}, "class_name": "Zeros"}, "gamma_regularizer": null, "moving_variance_initializer": {"config": {}, "class_name": "Ones"}, "beta_constraint": null, "trainable": true, "beta_regularizer": null, "gamma_constraint": null, "momentum": 0.99, "name": "stage1_unit2_bn2", "gamma_initializer": {"config": {}, "class_name": "Ones"}, "moving_mean_initializer": {"config": {}, "class_name": "Zeros"}, "axis": 3, "center": true, "epsilon": 2e-05}, "class_name": "BatchNormalization"}, {"name": "stage1_unit2_relu2", "inbound_nodes": [[["stage1_unit2_bn2", 0, 0, {}]]], "config": {"name": "stage1_unit2_relu2", "trainable": true, "activation": "relu"}, "class_name": "Activation"}, {"name": "zero_padding2d_78", "inbound_nodes": [[["stage1_unit2_relu2", 0, 0, {}]]], "config": {"name": "zero_padding2d_78", "data_format": "channels_last", "trainable": true, "padding": [[1, 1], [1, 1]]}, "class_name": "ZeroPadding2D"}, {"name": "stage1_unit2_conv2", "inbound_nodes": [[["zero_padding2d_78", 0, 0, {}]]], "config": {"strides": [1, 1], "kernel_constraint": null, "use_bias": false, "filters": 64, "kernel_regularizer": null, "kernel_initializer": {"config": {"scale": 2.0, "seed": null, "mode": "fan_in", "distribution": "uniform"}, "class_name": "VarianceScaling"}, "dilation_rate": [1, 1], "bias_constraint": null, "trainable": true, "activation": "linear", "bias_initializer": {"config": {}, "class_name": "Zeros"}, "data_format": "channels_last", "activity_regularizer": null, "name": "stage1_unit2_conv2", "kernel_size": [3, 3], "bias_regularizer": null, "padding": "valid"}, "class_name": "Conv2D"}, {"name": "add_34", "inbound_nodes": [[["stage1_unit2_conv2", 0, 0, {}], ["add_33", 0, 0, {}]]], "config": {"name": "add_34", "trainable": true}, "class_name": "Add"}, {"name": "stage2_unit1_bn1", "inbound_nodes": [[["add_34", 0, 0, {}]]], "config": {"scale": true, "beta_initializer": {"config": {}, "class_name": "Zeros"}, "gamma_regularizer": null, "moving_variance_initializer": {"config": {}, "class_name": "Ones"}, "beta_constraint": null, "trainable": true, "beta_regularizer": null, "gamma_constraint": null, "momentum": 0.99, "name": "stage2_unit1_bn1", "gamma_initializer": {"config": {}, "class_name": "Ones"}, "moving_mean_initializer": {"config": {}, "class_name": "Zeros"}, "axis": 3, "center": true, "epsilon": 2e-05}, "class_name": "BatchNormalization"}, {"name": "stage2_unit1_relu1", "inbound_nodes": [[["stage2_unit1_bn1", 0, 0, {}]]], "config": {"name": "stage2_unit1_relu1", "trainable": true, "activation": "relu"}, "class_name": "Activation"}, {"name": "zero_padding2d_79", "inbound_nodes": [[["stage2_unit1_relu1", 0, 0, {}]]], "config": {"name": "zero_padding2d_79", "data_format": "channels_last", "trainable": true, "padding": [[1, 1], [1, 1]]}, "class_name": "ZeroPadding2D"}, {"name": "stage2_unit1_conv1", "inbound_nodes": [[["zero_padding2d_79", 0, 0, {}]]], "config": {"strides": [2, 2], "kernel_constraint": null, "use_bias": false, "filters": 128, "kernel_regularizer": null, "kernel_initializer": {"config": {"scale": 2.0, "seed": null, "mode": "fan_in", "distribution": "uniform"}, "class_name": "VarianceScaling"}, "dilation_rate": [1, 1], "bias_constraint": null, "trainable": true, "activation": "linear", "bias_initializer": {"config": {}, "class_name": "Zeros"}, "data_format": "channels_last", "activity_regularizer": null, "name": "stage2_unit1_conv1", "kernel_size": [3, 3], "bias_regularizer": null, "padding": "valid"}, "class_name": "Conv2D"}, {"name": "stage2_unit1_bn2", "inbound_nodes": [[["stage2_unit1_conv1", 0, 0, {}]]], "config": {"scale": true, "beta_initializer": {"config": {}, "class_name": "Zeros"}, "gamma_regularizer": null, "moving_variance_initializer": {"config": {}, "class_name": "Ones"}, "beta_constraint": null, "trainable": true, "beta_regularizer": null, "gamma_constraint": null, "momentum": 0.99, "name": "stage2_unit1_bn2", "gamma_initializer": {"config": {}, "class_name": "Ones"}, "moving_mean_initializer": {"config": {}, "class_name": "Zeros"}, "axis": 3, "center": true, "epsilon": 2e-05}, "class_name": "BatchNormalization"}, {"name": "stage2_unit1_relu2", "inbound_nodes": [[["stage2_unit1_bn2", 0, 0, {}]]], "config": {"name": "stage2_unit1_relu2", "trainable": true, "activation": "relu"}, "class_name": "Activation"}, {"name": "zero_padding2d_80", "inbound_nodes": [[["stage2_unit1_relu2", 0, 0, {}]]], "config": {"name": "zero_padding2d_80", "data_format": "channels_last", "trainable": true, "padding": [[1, 1], [1, 1]]}, "class_name": "ZeroPadding2D"}, {"name": "stage2_unit1_conv2", "inbound_nodes": [[["zero_padding2d_80", 0, 0, {}]]], "config": {"strides": [1, 1], "kernel_constraint": null, "use_bias": false, "filters": 128, "kernel_regularizer": null, "kernel_initializer": {"config": {"scale": 2.0, "seed": null, "mode": "fan_in", "distribution": "uniform"}, "class_name": "VarianceScaling"}, "dilation_rate": [1, 1], "bias_constraint": null, "trainable": true, "activation": "linear", "bias_initializer": {"config": {}, "class_name": "Zeros"}, "data_format": "channels_last", "activity_regularizer": null, "name": "stage2_unit1_conv2", "kernel_size": [3, 3], "bias_regularizer": null, "padding": "valid"}, "class_name": "Conv2D"}, {"name": "stage2_unit1_sc", "inbound_nodes": [[["stage2_unit1_relu1", 0, 0, {}]]], "config": {"strides": [2, 2], "kernel_constraint": null, "use_bias": false, "filters": 128, "kernel_regularizer": null, "kernel_initializer": {"config": {"scale": 2.0, "seed": null, "mode": "fan_in", "distribution": "uniform"}, "class_name": "VarianceScaling"}, "dilation_rate": [1, 1], "bias_constraint": null, "trainable": true, "activation": "linear", "bias_initializer": {"config": {}, "class_name": "Zeros"}, "data_format": "channels_last", "activity_regularizer": null, "name": "stage2_unit1_sc", "kernel_size": [1, 1], "bias_regularizer": null, "padding": "valid"}, "class_name": "Conv2D"}, {"name": "add_35", "inbound_nodes": [[["stage2_unit1_conv2", 0, 0, {}], ["stage2_unit1_sc", 0, 0, {}]]], "config": {"name": "add_35", "trainable": true}, "class_name": "Add"}, {"name": "stage2_unit2_bn1", "inbound_nodes": [[["add_35", 0, 0, {}]]], "config": {"scale": true, "beta_initializer": {"config": {}, "class_name": "Zeros"}, "gamma_regularizer": null, "moving_variance_initializer": {"config": {}, "class_name": "Ones"}, "beta_constraint": null, "trainable": true, "beta_regularizer": null, "gamma_constraint": null, "momentum": 0.99, "name": "stage2_unit2_bn1", "gamma_initializer": {"config": {}, "class_name": "Ones"}, "moving_mean_initializer": {"config": {}, "class_name": "Zeros"}, "axis": 3, "center": true, "epsilon": 2e-05}, "class_name": "BatchNormalization"}, {"name": "stage2_unit2_relu1", "inbound_nodes": [[["stage2_unit2_bn1", 0, 0, {}]]], "config": {"name": "stage2_unit2_relu1", "trainable": true, "activation": "relu"}, "class_name": "Activation"}, {"name": "zero_padding2d_81", "inbound_nodes": [[["stage2_unit2_relu1", 0, 0, {}]]], "config": {"name": "zero_padding2d_81", "data_format": "channels_last", "trainable": true, "padding": [[1, 1], [1, 1]]}, "class_name": "ZeroPadding2D"}, {"name": "stage2_unit2_conv1", "inbound_nodes": [[["zero_padding2d_81", 0, 0, {}]]], "config": {"strides": [1, 1], "kernel_constraint": null, "use_bias": false, "filters": 128, "kernel_regularizer": null, "kernel_initializer": {"config": {"scale": 2.0, "seed": null, "mode": "fan_in", "distribution": "uniform"}, "class_name": "VarianceScaling"}, "dilation_rate": [1, 1], "bias_constraint": null, "trainable": true, "activation": "linear", "bias_initializer": {"config": {}, "class_name": "Zeros"}, "data_format": "channels_last", "activity_regularizer": null, "name": "stage2_unit2_conv1", "kernel_size": [3, 3], "bias_regularizer": null, "padding": "valid"}, "class_name": "Conv2D"}, {"name": "stage2_unit2_bn2", "inbound_nodes": [[["stage2_unit2_conv1", 0, 0, {}]]], "config": {"scale": true, "beta_initializer": {"config": {}, "class_name": "Zeros"}, "gamma_regularizer": null, "moving_variance_initializer": {"config": {}, "class_name": "Ones"}, "beta_constraint": null, "trainable": true, "beta_regularizer": null, "gamma_constraint": null, "momentum": 0.99, "name": "stage2_unit2_bn2", "gamma_initializer": {"config": {}, "class_name": "Ones"}, "moving_mean_initializer": {"config": {}, "class_name": "Zeros"}, "axis": 3, "center": true, "epsilon": 2e-05}, "class_name": "BatchNormalization"}, {"name": "stage2_unit2_relu2", "inbound_nodes": [[["stage2_unit2_bn2", 0, 0, {}]]], "config": {"name": "stage2_unit2_relu2", "trainable": true, "activation": "relu"}, "class_name": "Activation"}, {"name": "zero_padding2d_82", "inbound_nodes": [[["stage2_unit2_relu2", 0, 0, {}]]], "config": {"name": "zero_padding2d_82", "data_format": "channels_last", "trainable": true, "padding": [[1, 1], [1, 1]]}, "class_name": "ZeroPadding2D"}, {"name": "stage2_unit2_conv2", "inbound_nodes": [[["zero_padding2d_82", 0, 0, {}]]], "config": {"strides": [1, 1], "kernel_constraint": null, "use_bias": false, "filters": 128, "kernel_regularizer": null, "kernel_initializer": {"config": {"scale": 2.0, "seed": null, "mode": "fan_in", "distribution": "uniform"}, "class_name": "VarianceScaling"}, "dilation_rate": [1, 1], "bias_constraint": null, "trainable": true, "activation": "linear", "bias_initializer": {"config": {}, "class_name": "Zeros"}, "data_format": "channels_last", "activity_regularizer": null, "name": "stage2_unit2_conv2", "kernel_size": [3, 3], "bias_regularizer": null, "padding": "valid"}, "class_name": "Conv2D"}, {"name": "add_36", "inbound_nodes": [[["stage2_unit2_conv2", 0, 0, {}], ["add_35", 0, 0, {}]]], "config": {"name": "add_36", "trainable": true}, "class_name": "Add"}, {"name": "stage3_unit1_bn1", "inbound_nodes": [[["add_36", 0, 0, {}]]], "config": {"scale": true, "beta_initializer": {"config": {}, "class_name": "Zeros"}, "gamma_regularizer": null, "moving_variance_initializer": {"config": {}, "class_name": "Ones"}, "beta_constraint": null, "trainable": true, "beta_regularizer": null, "gamma_constraint": null, "momentum": 0.99, "name": "stage3_unit1_bn1", "gamma_initializer": {"config": {}, "class_name": "Ones"}, "moving_mean_initializer": {"config": {}, "class_name": "Zeros"}, "axis": 3, "center": true, "epsilon": 2e-05}, "class_name": "BatchNormalization"}, {"name": "stage3_unit1_relu1", "inbound_nodes": [[["stage3_unit1_bn1", 0, 0, {}]]], "config": {"name": "stage3_unit1_relu1", "trainable": true, "activation": "relu"}, "class_name": "Activation"}, {"name": "zero_padding2d_83", "inbound_nodes": [[["stage3_unit1_relu1", 0, 0, {}]]], "config": {"name": "zero_padding2d_83", "data_format": "channels_last", "trainable": true, "padding": [[1, 1], [1, 1]]}, "class_name": "ZeroPadding2D"}, {"name": "stage3_unit1_conv1", "inbound_nodes": [[["zero_padding2d_83", 0, 0, {}]]], "config": {"strides": [2, 2], "kernel_constraint": null, "use_bias": false, "filters": 256, "kernel_regularizer": null, "kernel_initializer": {"config": {"scale": 2.0, "seed": null, "mode": "fan_in", "distribution": "uniform"}, "class_name": "VarianceScaling"}, "dilation_rate": [1, 1], "bias_constraint": null, "trainable": true, "activation": "linear", "bias_initializer": {"config": {}, "class_name": "Zeros"}, "data_format": "channels_last", "activity_regularizer": null, "name": "stage3_unit1_conv1", "kernel_size": [3, 3], "bias_regularizer": null, "padding": "valid"}, "class_name": "Conv2D"}, {"name": "stage3_unit1_bn2", "inbound_nodes": [[["stage3_unit1_conv1", 0, 0, {}]]], "config": {"scale": true, "beta_initializer": {"config": {}, "class_name": "Zeros"}, "gamma_regularizer": null, "moving_variance_initializer": {"config": {}, "class_name": "Ones"}, "beta_constraint": null, "trainable": true, "beta_regularizer": null, "gamma_constraint": null, "momentum": 0.99, "name": "stage3_unit1_bn2", "gamma_initializer": {"config": {}, "class_name": "Ones"}, "moving_mean_initializer": {"config": {}, "class_name": "Zeros"}, "axis": 3, "center": true, "epsilon": 2e-05}, "class_name": "BatchNormalization"}, {"name": "stage3_unit1_relu2", "inbound_nodes": [[["stage3_unit1_bn2", 0, 0, {}]]], "config": {"name": "stage3_unit1_relu2", "trainable": true, "activation": "relu"}, "class_name": "Activation"}, {"name": "zero_padding2d_84", "inbound_nodes": [[["stage3_unit1_relu2", 0, 0, {}]]], "config": {"name": "zero_padding2d_84", "data_format": "channels_last", "trainable": true, "padding": [[1, 1], [1, 1]]}, "class_name": "ZeroPadding2D"}, {"name": "stage3_unit1_conv2", "inbound_nodes": [[["zero_padding2d_84", 0, 0, {}]]], "config": {"strides": [1, 1], "kernel_constraint": null, "use_bias": false, "filters": 256, "kernel_regularizer": null, "kernel_initializer": {"config": {"scale": 2.0, "seed": null, "mode": "fan_in", "distribution": "uniform"}, "class_name": "VarianceScaling"}, "dilation_rate": [1, 1], "bias_constraint": null, "trainable": true, "activation": "linear", "bias_initializer": {"config": {}, "class_name": "Zeros"}, "data_format": "channels_last", "activity_regularizer": null, "name": "stage3_unit1_conv2", "kernel_size": [3, 3], "bias_regularizer": null, "padding": "valid"}, "class_name": "Conv2D"}, {"name": "stage3_unit1_sc", "inbound_nodes": [[["stage3_unit1_relu1", 0, 0, {}]]], "config": {"strides": [2, 2], "kernel_constraint": null, "use_bias": false, "filters": 256, "kernel_regularizer": null, "kernel_initializer": {"config": {"scale": 2.0, "seed": null, "mode": "fan_in", "distribution": "uniform"}, "class_name": "VarianceScaling"}, "dilation_rate": [1, 1], "bias_constraint": null, "trainable": true, "activation": "linear", "bias_initializer": {"config": {}, "class_name": "Zeros"}, "data_format": "channels_last", "activity_regularizer": null, "name": "stage3_unit1_sc", "kernel_size": [1, 1], "bias_regularizer": null, "padding": "valid"}, "class_name": "Conv2D"}, {"name": "add_37", "inbound_nodes": [[["stage3_unit1_conv2", 0, 0, {}], ["stage3_unit1_sc", 0, 0, {}]]], "config": {"name": "add_37", "trainable": true}, "class_name": "Add"}, {"name": "stage3_unit2_bn1", "inbound_nodes": [[["add_37", 0, 0, {}]]], "config": {"scale": true, "beta_initializer": {"config": {}, "class_name": "Zeros"}, "gamma_regularizer": null, "moving_variance_initializer": {"config": {}, "class_name": "Ones"}, "beta_constraint": null, "trainable": true, "beta_regularizer": null, "gamma_constraint": null, "momentum": 0.99, "name": "stage3_unit2_bn1", "gamma_initializer": {"config": {}, "class_name": "Ones"}, "moving_mean_initializer": {"config": {}, "class_name": "Zeros"}, "axis": 3, "center": true, "epsilon": 2e-05}, "class_name": "BatchNormalization"}, {"name": "stage3_unit2_relu1", "inbound_nodes": [[["stage3_unit2_bn1", 0, 0, {}]]], "config": {"name": "stage3_unit2_relu1", "trainable": true, "activation": "relu"}, "class_name": "Activation"}, {"name": "zero_padding2d_85", "inbound_nodes": [[["stage3_unit2_relu1", 0, 0, {}]]], "config": {"name": "zero_padding2d_85", "data_format": "channels_last", "trainable": true, "padding": [[1, 1], [1, 1]]}, "class_name": "ZeroPadding2D"}, {"name": "stage3_unit2_conv1", "inbound_nodes": [[["zero_padding2d_85", 0, 0, {}]]], "config": {"strides": [1, 1], "kernel_constraint": null, "use_bias": false, "filters": 256, "kernel_regularizer": null, "kernel_initializer": {"config": {"scale": 2.0, "seed": null, "mode": "fan_in", "distribution": "uniform"}, "class_name": "VarianceScaling"}, "dilation_rate": [1, 1], "bias_constraint": null, "trainable": true, "activation": "linear", "bias_initializer": {"config": {}, "class_name": "Zeros"}, "data_format": "channels_last", "activity_regularizer": null, "name": "stage3_unit2_conv1", "kernel_size": [3, 3], "bias_regularizer": null, "padding": "valid"}, "class_name": "Conv2D"}, {"name": "stage3_unit2_bn2", "inbound_nodes": [[["stage3_unit2_conv1", 0, 0, {}]]], "config": {"scale": true, "beta_initializer": {"config": {}, "class_name": "Zeros"}, "gamma_regularizer": null, "moving_variance_initializer": {"config": {}, "class_name": "Ones"}, "beta_constraint": null, "trainable": true, "beta_regularizer": null, "gamma_constraint": null, "momentum": 0.99, "name": "stage3_unit2_bn2", "gamma_initializer": {"config": {}, "class_name": "Ones"}, "moving_mean_initializer": {"config": {}, "class_name": "Zeros"}, "axis": 3, "center": true, "epsilon": 2e-05}, "class_name": "BatchNormalization"}, {"name": "stage3_unit2_relu2", "inbound_nodes": [[["stage3_unit2_bn2", 0, 0, {}]]], "config": {"name": "stage3_unit2_relu2", "trainable": true, "activation": "relu"}, "class_name": "Activation"}, {"name": "zero_padding2d_86", "inbound_nodes": [[["stage3_unit2_relu2", 0, 0, {}]]], "config": {"name": "zero_padding2d_86", "data_format": "channels_last", "trainable": true, "padding": [[1, 1], [1, 1]]}, "class_name": "ZeroPadding2D"}, {"name": "stage3_unit2_conv2", "inbound_nodes": [[["zero_padding2d_86", 0, 0, {}]]], "config": {"strides": [1, 1], "kernel_constraint": null, "use_bias": false, "filters": 256, "kernel_regularizer": null, "kernel_initializer": {"config": {"scale": 2.0, "seed": null, "mode": "fan_in", "distribution": "uniform"}, "class_name": "VarianceScaling"}, "dilation_rate": [1, 1], "bias_constraint": null, "trainable": true, "activation": "linear", "bias_initializer": {"config": {}, "class_name": "Zeros"}, "data_format": "channels_last", "activity_regularizer": null, "name": "stage3_unit2_conv2", "kernel_size": [3, 3], "bias_regularizer": null, "padding": "valid"}, "class_name": "Conv2D"}, {"name": "add_38", "inbound_nodes": [[["stage3_unit2_conv2", 0, 0, {}], ["add_37", 0, 0, {}]]], "config": {"name": "add_38", "trainable": true}, "class_name": "Add"}, {"name": "stage4_unit1_bn1", "inbound_nodes": [[["add_38", 0, 0, {}]]], "config": {"scale": true, "beta_initializer": {"config": {}, "class_name": "Zeros"}, "gamma_regularizer": null, "moving_variance_initializer": {"config": {}, "class_name": "Ones"}, "beta_constraint": null, "trainable": true, "beta_regularizer": null, "gamma_constraint": null, "momentum": 0.99, "name": "stage4_unit1_bn1", "gamma_initializer": {"config": {}, "class_name": "Ones"}, "moving_mean_initializer": {"config": {}, "class_name": "Zeros"}, "axis": 3, "center": true, "epsilon": 2e-05}, "class_name": "BatchNormalization"}, {"name": "stage4_unit1_relu1", "inbound_nodes": [[["stage4_unit1_bn1", 0, 0, {}]]], "config": {"name": "stage4_unit1_relu1", "trainable": true, "activation": "relu"}, "class_name": "Activation"}, {"name": "zero_padding2d_87", "inbound_nodes": [[["stage4_unit1_relu1", 0, 0, {}]]], "config": {"name": "zero_padding2d_87", "data_format": "channels_last", "trainable": true, "padding": [[1, 1], [1, 1]]}, "class_name": "ZeroPadding2D"}, {"name": "stage4_unit1_conv1", "inbound_nodes": [[["zero_padding2d_87", 0, 0, {}]]], "config": {"strides": [2, 2], "kernel_constraint": null, "use_bias": false, "filters": 512, "kernel_regularizer": null, "kernel_initializer": {"config": {"scale": 2.0, "seed": null, "mode": "fan_in", "distribution": "uniform"}, "class_name": "VarianceScaling"}, "dilation_rate": [1, 1], "bias_constraint": null, "trainable": true, "activation": "linear", "bias_initializer": {"config": {}, "class_name": "Zeros"}, "data_format": "channels_last", "activity_regularizer": null, "name": "stage4_unit1_conv1", "kernel_size": [3, 3], "bias_regularizer": null, "padding": "valid"}, "class_name": "Conv2D"}, {"name": "stage4_unit1_bn2", "inbound_nodes": [[["stage4_unit1_conv1", 0, 0, {}]]], "config": {"scale": true, "beta_initializer": {"config": {}, "class_name": "Zeros"}, "gamma_regularizer": null, "moving_variance_initializer": {"config": {}, "class_name": "Ones"}, "beta_constraint": null, "trainable": true, "beta_regularizer": null, "gamma_constraint": null, "momentum": 0.99, "name": "stage4_unit1_bn2", "gamma_initializer": {"config": {}, "class_name": "Ones"}, "moving_mean_initializer": {"config": {}, "class_name": "Zeros"}, "axis": 3, "center": true, "epsilon": 2e-05}, "class_name": "BatchNormalization"}, {"name": "stage4_unit1_relu2", "inbound_nodes": [[["stage4_unit1_bn2", 0, 0, {}]]], "config": {"name": "stage4_unit1_relu2", "trainable": true, "activation": "relu"}, "class_name": "Activation"}, {"name": "zero_padding2d_88", "inbound_nodes": [[["stage4_unit1_relu2", 0, 0, {}]]], "config": {"name": "zero_padding2d_88", "data_format": "channels_last", "trainable": true, "padding": [[1, 1], [1, 1]]}, "class_name": "ZeroPadding2D"}, {"name": "stage4_unit1_conv2", "inbound_nodes": [[["zero_padding2d_88", 0, 0, {}]]], "config": {"strides": [1, 1], "kernel_constraint": null, "use_bias": false, "filters": 512, "kernel_regularizer": null, "kernel_initializer": {"config": {"scale": 2.0, "seed": null, "mode": "fan_in", "distribution": "uniform"}, "class_name": "VarianceScaling"}, "dilation_rate": [1, 1], "bias_constraint": null, "trainable": true, "activation": "linear", "bias_initializer": {"config": {}, "class_name": "Zeros"}, "data_format": "channels_last", "activity_regularizer": null, "name": "stage4_unit1_conv2", "kernel_size": [3, 3], "bias_regularizer": null, "padding": "valid"}, "class_name": "Conv2D"}, {"name": "stage4_unit1_sc", "inbound_nodes": [[["stage4_unit1_relu1", 0, 0, {}]]], "config": {"strides": [2, 2], "kernel_constraint": null, "use_bias": false, "filters": 512, "kernel_regularizer": null, "kernel_initializer": {"config": {"scale": 2.0, "seed": null, "mode": "fan_in", "distribution": "uniform"}, "class_name": "VarianceScaling"}, "dilation_rate": [1, 1], "bias_constraint": null, "trainable": true, "activation": "linear", "bias_initializer": {"config": {}, "class_name": "Zeros"}, "data_format": "channels_last", "activity_regularizer": null, "name": "stage4_unit1_sc", "kernel_size": [1, 1], "bias_regularizer": null, "padding": "valid"}, "class_name": "Conv2D"}, {"name": "add_39", "inbound_nodes": [[["stage4_unit1_conv2", 0, 0, {}], ["stage4_unit1_sc", 0, 0, {}]]], "config": {"name": "add_39", "trainable": true}, "class_name": "Add"}, {"name": "stage4_unit2_bn1", "inbound_nodes": [[["add_39", 0, 0, {}]]], "config": {"scale": true, "beta_initializer": {"config": {}, "class_name": "Zeros"}, "gamma_regularizer": null, "moving_variance_initializer": {"config": {}, "class_name": "Ones"}, "beta_constraint": null, "trainable": true, "beta_regularizer": null, "gamma_constraint": null, "momentum": 0.99, "name": "stage4_unit2_bn1", "gamma_initializer": {"config": {}, "class_name": "Ones"}, "moving_mean_initializer": {"config": {}, "class_name": "Zeros"}, "axis": 3, "center": true, "epsilon": 2e-05}, "class_name": "BatchNormalization"}, {"name": "stage4_unit2_relu1", "inbound_nodes": [[["stage4_unit2_bn1", 0, 0, {}]]], "config": {"name": "stage4_unit2_relu1", "trainable": true, "activation": "relu"}, "class_name": "Activation"}, {"name": "zero_padding2d_89", "inbound_nodes": [[["stage4_unit2_relu1", 0, 0, {}]]], "config": {"name": "zero_padding2d_89", "data_format": "channels_last", "trainable": true, "padding": [[1, 1], [1, 1]]}, "class_name": "ZeroPadding2D"}, {"name": "stage4_unit2_conv1", "inbound_nodes": [[["zero_padding2d_89", 0, 0, {}]]], "config": {"strides": [1, 1], "kernel_constraint": null, "use_bias": false, "filters": 512, "kernel_regularizer": null, "kernel_initializer": {"config": {"scale": 2.0, "seed": null, "mode": "fan_in", "distribution": "uniform"}, "class_name": "VarianceScaling"}, "dilation_rate": [1, 1], "bias_constraint": null, "trainable": true, "activation": "linear", "bias_initializer": {"config": {}, "class_name": "Zeros"}, "data_format": "channels_last", "activity_regularizer": null, "name": "stage4_unit2_conv1", "kernel_size": [3, 3], "bias_regularizer": null, "padding": "valid"}, "class_name": "Conv2D"}, {"name": "stage4_unit2_bn2", "inbound_nodes": [[["stage4_unit2_conv1", 0, 0, {}]]], "config": {"scale": true, "beta_initializer": {"config": {}, "class_name": "Zeros"}, "gamma_regularizer": null, "moving_variance_initializer": {"config": {}, "class_name": "Ones"}, "beta_constraint": null, "trainable": true, "beta_regularizer": null, "gamma_constraint": null, "momentum": 0.99, "name": "stage4_unit2_bn2", "gamma_initializer": {"config": {}, "class_name": "Ones"}, "moving_mean_initializer": {"config": {}, "class_name": "Zeros"}, "axis": 3, "center": true, "epsilon": 2e-05}, "class_name": "BatchNormalization"}, {"name": "stage4_unit2_relu2", "inbound_nodes": [[["stage4_unit2_bn2", 0, 0, {}]]], "config": {"name": "stage4_unit2_relu2", "trainable": true, "activation": "relu"}, "class_name": "Activation"}, {"name": "zero_padding2d_90", "inbound_nodes": [[["stage4_unit2_relu2", 0, 0, {}]]], "config": {"name": "zero_padding2d_90", "data_format": "channels_last", "trainable": true, "padding": [[1, 1], [1, 1]]}, "class_name": "ZeroPadding2D"}, {"name": "stage4_unit2_conv2", "inbound_nodes": [[["zero_padding2d_90", 0, 0, {}]]], "config": {"strides": [1, 1], "kernel_constraint": null, "use_bias": false, "filters": 512, "kernel_regularizer": null, "kernel_initializer": {"config": {"scale": 2.0, "seed": null, "mode": "fan_in", "distribution": "uniform"}, "class_name": "VarianceScaling"}, "dilation_rate": [1, 1], "bias_constraint": null, "trainable": true, "activation": "linear", "bias_initializer": {"config": {}, "class_name": "Zeros"}, "data_format": "channels_last", "activity_regularizer": null, "name": "stage4_unit2_conv2", "kernel_size": [3, 3], "bias_regularizer": null, "padding": "valid"}, "class_name": "Conv2D"}, {"name": "add_40", "inbound_nodes": [[["stage4_unit2_conv2", 0, 0, {}], ["add_39", 0, 0, {}]]], "config": {"name": "add_40", "trainable": true}, "class_name": "Add"}, {"name": "bn1", "inbound_nodes": [[["add_40", 0, 0, {}]]], "config": {"scale": true, "beta_initializer": {"config": {}, "class_name": "Zeros"}, "gamma_regularizer": null, "moving_variance_initializer": {"config": {}, "class_name": "Ones"}, "beta_constraint": null, "trainable": true, "beta_regularizer": null, "gamma_constraint": null, "momentum": 0.99, "name": "bn1", "gamma_initializer": {"config": {}, "class_name": "Ones"}, "moving_mean_initializer": {"config": {}, "class_name": "Zeros"}, "axis": 3, "center": true, "epsilon": 2e-05}, "class_name": "BatchNormalization"}, {"name": "relu1", "inbound_nodes": [[["bn1", 0, 0, {}]]], "config": {"name": "relu1", "trainable": true, "activation": "relu"}, "class_name": "Activation"}, {"name": "decoder_stage0_conv1", "inbound_nodes": [[["relu1", 0, 0, {}]]], "config": {"strides": [1, 1], "kernel_constraint": null, "use_bias": false, "filters": 128, "kernel_regularizer": null, "kernel_initializer": {"config": {"scale": 1.0, "seed": null, "mode": "fan_avg", "distribution": "uniform"}, "class_name": "VarianceScaling"}, "dilation_rate": [1, 1], "bias_constraint": null, "trainable": true, "activation": "linear", "bias_initializer": {"config": {}, "class_name": "Zeros"}, "data_format": "channels_last", "activity_regularizer": null, "name": "decoder_stage0_conv1", "kernel_size": [1, 1], "bias_regularizer": null, "padding": "same"}, "class_name": "Conv2D"}, {"name": "decoder_stage0_bn1", "inbound_nodes": [[["decoder_stage0_conv1", 0, 0, {}]]], "config": {"scale": true, "beta_initializer": {"config": {}, "class_name": "Zeros"}, "gamma_regularizer": null, "moving_variance_initializer": {"config": {}, "class_name": "Ones"}, "beta_constraint": null, "trainable": true, "beta_regularizer": null, "gamma_constraint": null, "momentum": 0.99, "name": "decoder_stage0_bn1", "gamma_initializer": {"config": {}, "class_name": "Ones"}, "moving_mean_initializer": {"config": {}, "class_name": "Zeros"}, "axis": -1, "center": true, "epsilon": 0.001}, "class_name": "BatchNormalization"}, {"name": "decoder_stage0_relu1", "inbound_nodes": [[["decoder_stage0_bn1", 0, 0, {}]]], "config": {"name": "decoder_stage0_relu1", "trainable": true, "activation": "relu"}, "class_name": "Activation"}, {"name": "decoder_stage0_upsample2", "inbound_nodes": [[["decoder_stage0_relu1", 0, 0, {}]]], "config": {"name": "decoder_stage0_upsample2", "size": [2, 2], "interpolation": "nearest", "trainable": true, "data_format": "channels_last"}, "class_name": "UpSampling2D"}, {"name": "decoder_stage0_conv2", "inbound_nodes": [[["decoder_stage0_upsample2", 0, 0, {}]]], "config": {"strides": [1, 1], "kernel_constraint": null, "use_bias": false, "filters": 128, "kernel_regularizer": null, "kernel_initializer": {"config": {"scale": 1.0, "seed": null, "mode": "fan_avg", "distribution": "uniform"}, "class_name": "VarianceScaling"}, "dilation_rate": [1, 1], "bias_constraint": null, "trainable": true, "activation": "linear", "bias_initializer": {"config": {}, "class_name": "Zeros"}, "data_format": "channels_last", "activity_regularizer": null, "name": "decoder_stage0_conv2", "kernel_size": [3, 3], "bias_regularizer": null, "padding": "same"}, "class_name": "Conv2D"}, {"name": "decoder_stage0_bn2", "inbound_nodes": [[["decoder_stage0_conv2", 0, 0, {}]]], "config": {"scale": true, "beta_initializer": {"config": {}, "class_name": "Zeros"}, "gamma_regularizer": null, "moving_variance_initializer": {"config": {}, "class_name": "Ones"}, "beta_constraint": null, "trainable": true, "beta_regularizer": null, "gamma_constraint": null, "momentum": 0.99, "name": "decoder_stage0_bn2", "gamma_initializer": {"config": {}, "class_name": "Ones"}, "moving_mean_initializer": {"config": {}, "class_name": "Zeros"}, "axis": -1, "center": true, "epsilon": 0.001}, "class_name": "BatchNormalization"}, {"name": "decoder_stage0_relu2", "inbound_nodes": [[["decoder_stage0_bn2", 0, 0, {}]]], "config": {"name": "decoder_stage0_relu2", "trainable": true, "activation": "relu"}, "class_name": "Activation"}, {"name": "decoder_stage0_conv3", "inbound_nodes": [[["decoder_stage0_relu2", 0, 0, {}]]], "config": {"strides": [1, 1], "kernel_constraint": null, "use_bias": false, "filters": 256, "kernel_regularizer": null, "kernel_initializer": {"config": {"scale": 1.0, "seed": null, "mode": "fan_avg", "distribution": "uniform"}, "class_name": "VarianceScaling"}, "dilation_rate": [1, 1], "bias_constraint": null, "trainable": true, "activation": "linear", "bias_initializer": {"config": {}, "class_name": "Zeros"}, "data_format": "channels_last", "activity_regularizer": null, "name": "decoder_stage0_conv3", "kernel_size": [1, 1], "bias_regularizer": null, "padding": "same"}, "class_name": "Conv2D"}, {"name": "decoder_stage0_bn3", "inbound_nodes": [[["decoder_stage0_conv3", 0, 0, {}]]], "config": {"scale": true, "beta_initializer": {"config": {}, "class_name": "Zeros"}, "gamma_regularizer": null, "moving_variance_initializer": {"config": {}, "class_name": "Ones"}, "beta_constraint": null, "trainable": true, "beta_regularizer": null, "gamma_constraint": null, "momentum": 0.99, "name": "decoder_stage0_bn3", "gamma_initializer": {"config": {}, "class_name": "Ones"}, "moving_mean_initializer": {"config": {}, "class_name": "Zeros"}, "axis": -1, "center": true, "epsilon": 0.001}, "class_name": "BatchNormalization"}, {"name": "decoder_stage0_relu3", "inbound_nodes": [[["decoder_stage0_bn3", 0, 0, {}]]], "config": {"name": "decoder_stage0_relu3", "trainable": true, "activation": "relu"}, "class_name": "Activation"}, {"name": "add_41", "inbound_nodes": [[["decoder_stage0_relu3", 0, 0, {}], ["stage4_unit1_relu1", 0, 0, {}]]], "config": {"name": "add_41", "trainable": true}, "class_name": "Add"}, {"name": "decoder_stage1_conv1", "inbound_nodes": [[["add_41", 0, 0, {}]]], "config": {"strides": [1, 1], "kernel_constraint": null, "use_bias": false, "filters": 64, "kernel_regularizer": null, "kernel_initializer": {"config": {"scale": 1.0, "seed": null, "mode": "fan_avg", "distribution": "uniform"}, "class_name": "VarianceScaling"}, "dilation_rate": [1, 1], "bias_constraint": null, "trainable": true, "activation": "linear", "bias_initializer": {"config": {}, "class_name": "Zeros"}, "data_format": "channels_last", "activity_regularizer": null, "name": "decoder_stage1_conv1", "kernel_size": [1, 1], "bias_regularizer": null, "padding": "same"}, "class_name": "Conv2D"}, {"name": "decoder_stage1_bn1", "inbound_nodes": [[["decoder_stage1_conv1", 0, 0, {}]]], "config": {"scale": true, "beta_initializer": {"config": {}, "class_name": "Zeros"}, "gamma_regularizer": null, "moving_variance_initializer": {"config": {}, "class_name": "Ones"}, "beta_constraint": null, "trainable": true, "beta_regularizer": null, "gamma_constraint": null, "momentum": 0.99, "name": "decoder_stage1_bn1", "gamma_initializer": {"config": {}, "class_name": "Ones"}, "moving_mean_initializer": {"config": {}, "class_name": "Zeros"}, "axis": -1, "center": true, "epsilon": 0.001}, "class_name": "BatchNormalization"}, {"name": "decoder_stage1_relu1", "inbound_nodes": [[["decoder_stage1_bn1", 0, 0, {}]]], "config": {"name": "decoder_stage1_relu1", "trainable": true, "activation": "relu"}, "class_name": "Activation"}, {"name": "decoder_stage1_upsample2", "inbound_nodes": [[["decoder_stage1_relu1", 0, 0, {}]]], "config": {"name": "decoder_stage1_upsample2", "size": [2, 2], "interpolation": "nearest", "trainable": true, "data_format": "channels_last"}, "class_name": "UpSampling2D"}, {"name": "decoder_stage1_conv2", "inbound_nodes": [[["decoder_stage1_upsample2", 0, 0, {}]]], "config": {"strides": [1, 1], "kernel_constraint": null, "use_bias": false, "filters": 64, "kernel_regularizer": null, "kernel_initializer": {"config": {"scale": 1.0, "seed": null, "mode": "fan_avg", "distribution": "uniform"}, "class_name": "VarianceScaling"}, "dilation_rate": [1, 1], "bias_constraint": null, "trainable": true, "activation": "linear", "bias_initializer": {"config": {}, "class_name": "Zeros"}, "data_format": "channels_last", "activity_regularizer": null, "name": "decoder_stage1_conv2", "kernel_size": [3, 3], "bias_regularizer": null, "padding": "same"}, "class_name": "Conv2D"}, {"name": "decoder_stage1_bn2", "inbound_nodes": [[["decoder_stage1_conv2", 0, 0, {}]]], "config": {"scale": true, "beta_initializer": {"config": {}, "class_name": "Zeros"}, "gamma_regularizer": null, "moving_variance_initializer": {"config": {}, "class_name": "Ones"}, "beta_constraint": null, "trainable": true, "beta_regularizer": null, "gamma_constraint": null, "momentum": 0.99, "name": "decoder_stage1_bn2", "gamma_initializer": {"config": {}, "class_name": "Ones"}, "moving_mean_initializer": {"config": {}, "class_name": "Zeros"}, "axis": -1, "center": true, "epsilon": 0.001}, "class_name": "BatchNormalization"}, {"name": "decoder_stage1_relu2", "inbound_nodes": [[["decoder_stage1_bn2", 0, 0, {}]]], "config": {"name": "decoder_stage1_relu2", "trainable": true, "activation": "relu"}, "class_name": "Activation"}, {"name": "decoder_stage1_conv3", "inbound_nodes": [[["decoder_stage1_relu2", 0, 0, {}]]], "config": {"strides": [1, 1], "kernel_constraint": null, "use_bias": false, "filters": 128, "kernel_regularizer": null, "kernel_initializer": {"config": {"scale": 1.0, "seed": null, "mode": "fan_avg", "distribution": "uniform"}, "class_name": "VarianceScaling"}, "dilation_rate": [1, 1], "bias_constraint": null, "trainable": true, "activation": "linear", "bias_initializer": {"config": {}, "class_name": "Zeros"}, "data_format": "channels_last", "activity_regularizer": null, "name": "decoder_stage1_conv3", "kernel_size": [1, 1], "bias_regularizer": null, "padding": "same"}, "class_name": "Conv2D"}, {"name": "decoder_stage1_bn3", "inbound_nodes": [[["decoder_stage1_conv3", 0, 0, {}]]], "config": {"scale": true, "beta_initializer": {"config": {}, "class_name": "Zeros"}, "gamma_regularizer": null, "moving_variance_initializer": {"config": {}, "class_name": "Ones"}, "beta_constraint": null, "trainable": true, "beta_regularizer": null, "gamma_constraint": null, "momentum": 0.99, "name": "decoder_stage1_bn3", "gamma_initializer": {"config": {}, "class_name": "Ones"}, "moving_mean_initializer": {"config": {}, "class_name": "Zeros"}, "axis": -1, "center": true, "epsilon": 0.001}, "class_name": "BatchNormalization"}, {"name": "decoder_stage1_relu3", "inbound_nodes": [[["decoder_stage1_bn3", 0, 0, {}]]], "config": {"name": "decoder_stage1_relu3", "trainable": true, "activation": "relu"}, "class_name": "Activation"}, {"name": "add_42", "inbound_nodes": [[["decoder_stage1_relu3", 0, 0, {}], ["stage3_unit1_relu1", 0, 0, {}]]], "config": {"name": "add_42", "trainable": true}, "class_name": "Add"}, {"name": "decoder_stage2_conv1", "inbound_nodes": [[["add_42", 0, 0, {}]]], "config": {"strides": [1, 1], "kernel_constraint": null, "use_bias": false, "filters": 32, "kernel_regularizer": null, "kernel_initializer": {"config": {"scale": 1.0, "seed": null, "mode": "fan_avg", "distribution": "uniform"}, "class_name": "VarianceScaling"}, "dilation_rate": [1, 1], "bias_constraint": null, "trainable": true, "activation": "linear", "bias_initializer": {"config": {}, "class_name": "Zeros"}, "data_format": "channels_last", "activity_regularizer": null, "name": "decoder_stage2_conv1", "kernel_size": [1, 1], "bias_regularizer": null, "padding": "same"}, "class_name": "Conv2D"}, {"name": "decoder_stage2_bn1", "inbound_nodes": [[["decoder_stage2_conv1", 0, 0, {}]]], "config": {"scale": true, "beta_initializer": {"config": {}, "class_name": "Zeros"}, "gamma_regularizer": null, "moving_variance_initializer": {"config": {}, "class_name": "Ones"}, "beta_constraint": null, "trainable": true, "beta_regularizer": null, "gamma_constraint": null, "momentum": 0.99, "name": "decoder_stage2_bn1", "gamma_initializer": {"config": {}, "class_name": "Ones"}, "moving_mean_initializer": {"config": {}, "class_name": "Zeros"}, "axis": -1, "center": true, "epsilon": 0.001}, "class_name": "BatchNormalization"}, {"name": "decoder_stage2_relu1", "inbound_nodes": [[["decoder_stage2_bn1", 0, 0, {}]]], "config": {"name": "decoder_stage2_relu1", "trainable": true, "activation": "relu"}, "class_name": "Activation"}, {"name": "decoder_stage2_upsample2", "inbound_nodes": [[["decoder_stage2_relu1", 0, 0, {}]]], "config": {"name": "decoder_stage2_upsample2", "size": [2, 2], "interpolation": "nearest", "trainable": true, "data_format": "channels_last"}, "class_name": "UpSampling2D"}, {"name": "decoder_stage2_conv2", "inbound_nodes": [[["decoder_stage2_upsample2", 0, 0, {}]]], "config": {"strides": [1, 1], "kernel_constraint": null, "use_bias": false, "filters": 32, "kernel_regularizer": null, "kernel_initializer": {"config": {"scale": 1.0, "seed": null, "mode": "fan_avg", "distribution": "uniform"}, "class_name": "VarianceScaling"}, "dilation_rate": [1, 1], "bias_constraint": null, "trainable": true, "activation": "linear", "bias_initializer": {"config": {}, "class_name": "Zeros"}, "data_format": "channels_last", "activity_regularizer": null, "name": "decoder_stage2_conv2", "kernel_size": [3, 3], "bias_regularizer": null, "padding": "same"}, "class_name": "Conv2D"}, {"name": "decoder_stage2_bn2", "inbound_nodes": [[["decoder_stage2_conv2", 0, 0, {}]]], "config": {"scale": true, "beta_initializer": {"config": {}, "class_name": "Zeros"}, "gamma_regularizer": null, "moving_variance_initializer": {"config": {}, "class_name": "Ones"}, "beta_constraint": null, "trainable": true, "beta_regularizer": null, "gamma_constraint": null, "momentum": 0.99, "name": "decoder_stage2_bn2", "gamma_initializer": {"config": {}, "class_name": "Ones"}, "moving_mean_initializer": {"config": {}, "class_name": "Zeros"}, "axis": -1, "center": true, "epsilon": 0.001}, "class_name": "BatchNormalization"}, {"name": "decoder_stage2_relu2", "inbound_nodes": [[["decoder_stage2_bn2", 0, 0, {}]]], "config": {"name": "decoder_stage2_relu2", "trainable": true, "activation": "relu"}, "class_name": "Activation"}, {"name": "decoder_stage2_conv3", "inbound_nodes": [[["decoder_stage2_relu2", 0, 0, {}]]], "config": {"strides": [1, 1], "kernel_constraint": null, "use_bias": false, "filters": 64, "kernel_regularizer": null, "kernel_initializer": {"config": {"scale": 1.0, "seed": null, "mode": "fan_avg", "distribution": "uniform"}, "class_name": "VarianceScaling"}, "dilation_rate": [1, 1], "bias_constraint": null, "trainable": true, "activation": "linear", "bias_initializer": {"config": {}, "class_name": "Zeros"}, "data_format": "channels_last", "activity_regularizer": null, "name": "decoder_stage2_conv3", "kernel_size": [1, 1], "bias_regularizer": null, "padding": "same"}, "class_name": "Conv2D"}, {"name": "decoder_stage2_bn3", "inbound_nodes": [[["decoder_stage2_conv3", 0, 0, {}]]], "config": {"scale": true, "beta_initializer": {"config": {}, "class_name": "Zeros"}, "gamma_regularizer": null, "moving_variance_initializer": {"config": {}, "class_name": "Ones"}, "beta_constraint": null, "trainable": true, "beta_regularizer": null, "gamma_constraint": null, "momentum": 0.99, "name": "decoder_stage2_bn3", "gamma_initializer": {"config": {}, "class_name": "Ones"}, "moving_mean_initializer": {"config": {}, "class_name": "Zeros"}, "axis": -1, "center": true, "epsilon": 0.001}, "class_name": "BatchNormalization"}, {"name": "decoder_stage2_relu3", "inbound_nodes": [[["decoder_stage2_bn3", 0, 0, {}]]], "config": {"name": "decoder_stage2_relu3", "trainable": true, "activation": "relu"}, "class_name": "Activation"}, {"name": "add_43", "inbound_nodes": [[["decoder_stage2_relu3", 0, 0, {}], ["stage2_unit1_relu1", 0, 0, {}]]], "config": {"name": "add_43", "trainable": true}, "class_name": "Add"}, {"name": "decoder_stage3_conv1", "inbound_nodes": [[["add_43", 0, 0, {}]]], "config": {"strides": [1, 1], "kernel_constraint": null, "use_bias": false, "filters": 16, "kernel_regularizer": null, "kernel_initializer": {"config": {"scale": 1.0, "seed": null, "mode": "fan_avg", "distribution": "uniform"}, "class_name": "VarianceScaling"}, "dilation_rate": [1, 1], "bias_constraint": null, "trainable": true, "activation": "linear", "bias_initializer": {"config": {}, "class_name": "Zeros"}, "data_format": "channels_last", "activity_regularizer": null, "name": "decoder_stage3_conv1", "kernel_size": [1, 1], "bias_regularizer": null, "padding": "same"}, "class_name": "Conv2D"}, {"name": "decoder_stage3_bn1", "inbound_nodes": [[["decoder_stage3_conv1", 0, 0, {}]]], "config": {"scale": true, "beta_initializer": {"config": {}, "class_name": "Zeros"}, "gamma_regularizer": null, "moving_variance_initializer": {"config": {}, "class_name": "Ones"}, "beta_constraint": null, "trainable": true, "beta_regularizer": null, "gamma_constraint": null, "momentum": 0.99, "name": "decoder_stage3_bn1", "gamma_initializer": {"config": {}, "class_name": "Ones"}, "moving_mean_initializer": {"config": {}, "class_name": "Zeros"}, "axis": -1, "center": true, "epsilon": 0.001}, "class_name": "BatchNormalization"}, {"name": "decoder_stage3_relu1", "inbound_nodes": [[["decoder_stage3_bn1", 0, 0, {}]]], "config": {"name": "decoder_stage3_relu1", "trainable": true, "activation": "relu"}, "class_name": "Activation"}, {"name": "decoder_stage3_upsample2", "inbound_nodes": [[["decoder_stage3_relu1", 0, 0, {}]]], "config": {"name": "decoder_stage3_upsample2", "size": [2, 2], "interpolation": "nearest", "trainable": true, "data_format": "channels_last"}, "class_name": "UpSampling2D"}, {"name": "decoder_stage3_conv2", "inbound_nodes": [[["decoder_stage3_upsample2", 0, 0, {}]]], "config": {"strides": [1, 1], "kernel_constraint": null, "use_bias": false, "filters": 16, "kernel_regularizer": null, "kernel_initializer": {"config": {"scale": 1.0, "seed": null, "mode": "fan_avg", "distribution": "uniform"}, "class_name": "VarianceScaling"}, "dilation_rate": [1, 1], "bias_constraint": null, "trainable": true, "activation": "linear", "bias_initializer": {"config": {}, "class_name": "Zeros"}, "data_format": "channels_last", "activity_regularizer": null, "name": "decoder_stage3_conv2", "kernel_size": [3, 3], "bias_regularizer": null, "padding": "same"}, "class_name": "Conv2D"}, {"name": "decoder_stage3_bn2", "inbound_nodes": [[["decoder_stage3_conv2", 0, 0, {}]]], "config": {"scale": true, "beta_initializer": {"config": {}, "class_name": "Zeros"}, "gamma_regularizer": null, "moving_variance_initializer": {"config": {}, "class_name": "Ones"}, "beta_constraint": null, "trainable": true, "beta_regularizer": null, "gamma_constraint": null, "momentum": 0.99, "name": "decoder_stage3_bn2", "gamma_initializer": {"config": {}, "class_name": "Ones"}, "moving_mean_initializer": {"config": {}, "class_name": "Zeros"}, "axis": -1, "center": true, "epsilon": 0.001}, "class_name": "BatchNormalization"}, {"name": "decoder_stage3_relu2", "inbound_nodes": [[["decoder_stage3_bn2", 0, 0, {}]]], "config": {"name": "decoder_stage3_relu2", "trainable": true, "activation": "relu"}, "class_name": "Activation"}, {"name": "decoder_stage3_conv3", "inbound_nodes": [[["decoder_stage3_relu2", 0, 0, {}]]], "config": {"strides": [1, 1], "kernel_constraint": null, "use_bias": false, "filters": 64, "kernel_regularizer": null, "kernel_initializer": {"config": {"scale": 1.0, "seed": null, "mode": "fan_avg", "distribution": "uniform"}, "class_name": "VarianceScaling"}, "dilation_rate": [1, 1], "bias_constraint": null, "trainable": true, "activation": "linear", "bias_initializer": {"config": {}, "class_name": "Zeros"}, "data_format": "channels_last", "activity_regularizer": null, "name": "decoder_stage3_conv3", "kernel_size": [1, 1], "bias_regularizer": null, "padding": "same"}, "class_name": "Conv2D"}, {"name": "decoder_stage3_bn3", "inbound_nodes": [[["decoder_stage3_conv3", 0, 0, {}]]], "config": {"scale": true, "beta_initializer": {"config": {}, "class_name": "Zeros"}, "gamma_regularizer": null, "moving_variance_initializer": {"config": {}, "class_name": "Ones"}, "beta_constraint": null, "trainable": true, "beta_regularizer": null, "gamma_constraint": null, "momentum": 0.99, "name": "decoder_stage3_bn3", "gamma_initializer": {"config": {}, "class_name": "Ones"}, "moving_mean_initializer": {"config": {}, "class_name": "Zeros"}, "axis": -1, "center": true, "epsilon": 0.001}, "class_name": "BatchNormalization"}, {"name": "decoder_stage3_relu3", "inbound_nodes": [[["decoder_stage3_bn3", 0, 0, {}]]], "config": {"name": "decoder_stage3_relu3", "trainable": true, "activation": "relu"}, "class_name": "Activation"}, {"name": "add_44", "inbound_nodes": [[["decoder_stage3_relu3", 0, 0, {}], ["relu0", 0, 0, {}]]], "config": {"name": "add_44", "trainable": true}, "class_name": "Add"}, {"name": "decoder_stage4_conv1", "inbound_nodes": [[["add_44", 0, 0, {}]]], "config": {"strides": [1, 1], "kernel_constraint": null, "use_bias": false, "filters": 16, "kernel_regularizer": null, "kernel_initializer": {"config": {"scale": 1.0, "seed": null, "mode": "fan_avg", "distribution": "uniform"}, "class_name": "VarianceScaling"}, "dilation_rate": [1, 1], "bias_constraint": null, "trainable": true, "activation": "linear", "bias_initializer": {"config": {}, "class_name": "Zeros"}, "data_format": "channels_last", "activity_regularizer": null, "name": "decoder_stage4_conv1", "kernel_size": [1, 1], "bias_regularizer": null, "padding": "same"}, "class_name": "Conv2D"}, {"name": "decoder_stage4_bn1", "inbound_nodes": [[["decoder_stage4_conv1", 0, 0, {}]]], "config": {"scale": true, "beta_initializer": {"config": {}, "class_name": "Zeros"}, "gamma_regularizer": null, "moving_variance_initializer": {"config": {}, "class_name": "Ones"}, "beta_constraint": null, "trainable": true, "beta_regularizer": null, "gamma_constraint": null, "momentum": 0.99, "name": "decoder_stage4_bn1", "gamma_initializer": {"config": {}, "class_name": "Ones"}, "moving_mean_initializer": {"config": {}, "class_name": "Zeros"}, "axis": -1, "center": true, "epsilon": 0.001}, "class_name": "BatchNormalization"}, {"name": "decoder_stage4_relu1", "inbound_nodes": [[["decoder_stage4_bn1", 0, 0, {}]]], "config": {"name": "decoder_stage4_relu1", "trainable": true, "activation": "relu"}, "class_name": "Activation"}, {"name": "decoder_stage4_upsample2", "inbound_nodes": [[["decoder_stage4_relu1", 0, 0, {}]]], "config": {"name": "decoder_stage4_upsample2", "size": [2, 2], "interpolation": "nearest", "trainable": true, "data_format": "channels_last"}, "class_name": "UpSampling2D"}, {"name": "decoder_stage4_conv2", "inbound_nodes": [[["decoder_stage4_upsample2", 0, 0, {}]]], "config": {"strides": [1, 1], "kernel_constraint": null, "use_bias": false, "filters": 16, "kernel_regularizer": null, "kernel_initializer": {"config": {"scale": 1.0, "seed": null, "mode": "fan_avg", "distribution": "uniform"}, "class_name": "VarianceScaling"}, "dilation_rate": [1, 1], "bias_constraint": null, "trainable": true, "activation": "linear", "bias_initializer": {"config": {}, "class_name": "Zeros"}, "data_format": "channels_last", "activity_regularizer": null, "name": "decoder_stage4_conv2", "kernel_size": [3, 3], "bias_regularizer": null, "padding": "same"}, "class_name": "Conv2D"}, {"name": "decoder_stage4_bn2", "inbound_nodes": [[["decoder_stage4_conv2", 0, 0, {}]]], "config": {"scale": true, "beta_initializer": {"config": {}, "class_name": "Zeros"}, "gamma_regularizer": null, "moving_variance_initializer": {"config": {}, "class_name": "Ones"}, "beta_constraint": null, "trainable": true, "beta_regularizer": null, "gamma_constraint": null, "momentum": 0.99, "name": "decoder_stage4_bn2", "gamma_initializer": {"config": {}, "class_name": "Ones"}, "moving_mean_initializer": {"config": {}, "class_name": "Zeros"}, "axis": -1, "center": true, "epsilon": 0.001}, "class_name": "BatchNormalization"}, {"name": "decoder_stage4_relu2", "inbound_nodes": [[["decoder_stage4_bn2", 0, 0, {}]]], "config": {"name": "decoder_stage4_relu2", "trainable": true, "activation": "relu"}, "class_name": "Activation"}, {"name": "decoder_stage4_conv3", "inbound_nodes": [[["decoder_stage4_relu2", 0, 0, {}]]], "config": {"strides": [1, 1], "kernel_constraint": null, "use_bias": false, "filters": 16, "kernel_regularizer": null, "kernel_initializer": {"config": {"scale": 1.0, "seed": null, "mode": "fan_avg", "distribution": "uniform"}, "class_name": "VarianceScaling"}, "dilation_rate": [1, 1], "bias_constraint": null, "trainable": true, "activation": "linear", "bias_initializer": {"config": {}, "class_name": "Zeros"}, "data_format": "channels_last", "activity_regularizer": null, "name": "decoder_stage4_conv3", "kernel_size": [1, 1], "bias_regularizer": null, "padding": "same"}, "class_name": "Conv2D"}, {"name": "decoder_stage4_bn3", "inbound_nodes": [[["decoder_stage4_conv3", 0, 0, {}]]], "config": {"scale": true, "beta_initializer": {"config": {}, "class_name": "Zeros"}, "gamma_regularizer": null, "moving_variance_initializer": {"config": {}, "class_name": "Ones"}, "beta_constraint": null, "trainable": true, "beta_regularizer": null, "gamma_constraint": null, "momentum": 0.99, "name": "decoder_stage4_bn3", "gamma_initializer": {"config": {}, "class_name": "Ones"}, "moving_mean_initializer": {"config": {}, "class_name": "Zeros"}, "axis": -1, "center": true, "epsilon": 0.001}, "class_name": "BatchNormalization"}, {"name": "decoder_stage4_relu3", "inbound_nodes": [[["decoder_stage4_bn3", 0, 0, {}]]], "config": {"name": "decoder_stage4_relu3", "trainable": true, "activation": "relu"}, "class_name": "Activation"}, {"name": "final_conv", "inbound_nodes": [[["decoder_stage4_relu3", 0, 0, {}]]], "config": {"strides": [1, 1], "kernel_constraint": null, "use_bias": true, "filters": 1, "kernel_regularizer": null, "kernel_initializer": {"config": {"scale": 1.0, "seed": null, "mode": "fan_avg", "distribution": "uniform"}, "class_name": "VarianceScaling"}, "dilation_rate": [1, 1], "bias_constraint": null, "trainable": true, "activation": "linear", "bias_initializer": {"config": {}, "class_name": "Zeros"}, "data_format": "channels_last", "activity_regularizer": null, "name": "final_conv", "kernel_size": [3, 3], "bias_regularizer": null, "padding": "same"}, "class_name": "Conv2D"}, {"name": "sigmoid", "inbound_nodes": [[["final_conv", 0, 0, {}]]], "config": {"name": "sigmoid", "trainable": true, "activation": "sigmoid"}, "class_name": "Activation"}], "input_layers": [["data", 0, 0]], "output_layers": [["sigmoid", 0, 0]]}, "class_name": "Model"}