{"keras_version": "2.2.4", "config": {"name": "u-resnet18", "output_layers": [["sigmoid", 0, 0]], "input_layers": [["data", 0, 0]], "layers": [{"name": "data", "config": {"dtype": "float32", "name": "data", "sparse": false, "batch_input_shape": [null, null, null, 3]}, "class_name": "InputLayer", "inbound_nodes": []}, {"name": "bn_data", "config": {"beta_constraint": null, "name": "bn_data", "moving_mean_initializer": {"config": {}, "class_name": "Zeros"}, "scale": false, "moving_variance_initializer": {"config": {}, "class_name": "Ones"}, "epsilon": 2e-05, "gamma_initializer": {"config": {}, "class_name": "Ones"}, "axis": 3, "center": true, "gamma_constraint": null, "trainable": true, "beta_initializer": {"config": {}, "class_name": "Zeros"}, "momentum": 0.99, "beta_regularizer": null, "gamma_regularizer": null}, "class_name": "BatchNormalization", "inbound_nodes": [[["data", 0, 0, {}]]]}, {"name": "zero_padding2d_1", "config": {"padding": [[3, 3], [3, 3]], "name": "zero_padding2d_1", "data_format": "channels_last", "trainable": true}, "class_name": "ZeroPadding2D", "inbound_nodes": [[["bn_data", 0, 0, {}]]]}, {"name": "conv0", "config": {"padding": "valid", "bias_constraint": null, "kernel_constraint": null, "kernel_regularizer": null, "strides": [2, 2], "data_format": "channels_last", "trainable": true, "kernel_initializer": {"config": {"mode": "fan_in", "scale": 2.0, "seed": null, "distribution": "uniform"}, "class_name": "VarianceScaling"}, "filters": 64, "dilation_rate": [1, 1], "kernel_size": [7, 7], "activity_regularizer": null, "activation": "linear", "name": "conv0", "bias_initializer": {"config": {}, "class_name": "Zeros"}, "use_bias": false, "bias_regularizer": null}, "class_name": "Conv2D", "inbound_nodes": [[["zero_padding2d_1", 0, 0, {}]]]}, {"name": "bn0", "config": {"beta_constraint": null, "name": "bn0", "moving_mean_initializer": {"config": {}, "class_name": "Zeros"}, "scale": true, "moving_variance_initializer": {"config": {}, "class_name": "Ones"}, "epsilon": 2e-05, "gamma_initializer": {"config": {}, "class_name": "Ones"}, "axis": 3, "center": true, "gamma_constraint": null, "trainable": true, "beta_initializer": {"config": {}, "class_name": "Zeros"}, "momentum": 0.99, "beta_regularizer": null, "gamma_regularizer": null}, "class_name": "BatchNormalization", "inbound_nodes": [[["conv0", 0, 0, {}]]]}, {"name": "relu0", "config": {"activation": "relu", "name": "relu0", "trainable": true}, "class_name": "Activation", "inbound_nodes": [[["bn0", 0, 0, {}]]]}, {"name": "zero_padding2d_2", "config": {"padding": [[1, 1], [1, 1]], "name": "zero_padding2d_2", "data_format": "channels_last", "trainable": true}, "class_name": "ZeroPadding2D", "inbound_nodes": [[["relu0", 0, 0, {}]]]}, {"name": "pooling0", "config": {"padding": "valid", "name": "pooling0", "strides": [2, 2], "data_format": "channels_last", "pool_size": [3, 3], "trainable": true}, "class_name": "MaxPooling2D", "inbound_nodes": [[["zero_padding2d_2", 0, 0, {}]]]}, {"name": "stage1_unit1_bn1", "config": {"beta_constraint": null, "name": "stage1_unit1_bn1", "moving_mean_initializer": {"config": {}, "class_name": "Zeros"}, "scale": true, "moving_variance_initializer": {"config": {}, "class_name": "Ones"}, "epsilon": 2e-05, "gamma_initializer": {"config": {}, "class_name": "Ones"}, "axis": 3, "center": true, "gamma_constraint": null, "trainable": true, "beta_initializer": {"config": {}, "class_name": "Zeros"}, "momentum": 0.99, "beta_regularizer": null, "gamma_regularizer": null}, "class_name": "BatchNormalization", "inbound_nodes": [[["pooling0", 0, 0, {}]]]}, {"name": "stage1_unit1_relu1", "config": {"activation": "relu", "name": "stage1_unit1_relu1", "trainable": true}, "class_name": "Activation", "inbound_nodes": [[["stage1_unit1_bn1", 0, 0, {}]]]}, {"name": "zero_padding2d_3", "config": {"padding": [[1, 1], [1, 1]], "name": "zero_padding2d_3", "data_format": "channels_last", "trainable": true}, "class_name": "ZeroPadding2D", "inbound_nodes": [[["stage1_unit1_relu1", 0, 0, {}]]]}, {"name": "stage1_unit1_conv1", "config": {"padding": "valid", "bias_constraint": null, "kernel_constraint": null, "kernel_regularizer": null, "strides": [1, 1], "data_format": "channels_last", "trainable": true, "kernel_initializer": {"config": {"mode": "fan_in", "scale": 2.0, "seed": null, "distribution": "uniform"}, "class_name": "VarianceScaling"}, "filters": 64, "dilation_rate": [1, 1], "kernel_size": [3, 3], "activity_regularizer": null, "activation": "linear", "name": "stage1_unit1_conv1", "bias_initializer": {"config": {}, "class_name": "Zeros"}, "use_bias": false, "bias_regularizer": null}, "class_name": "Conv2D", "inbound_nodes": [[["zero_padding2d_3", 0, 0, {}]]]}, {"name": "stage1_unit1_bn2", "config": {"beta_constraint": null, "name": "stage1_unit1_bn2", "moving_mean_initializer": {"config": {}, "class_name": "Zeros"}, "scale": true, "moving_variance_initializer": {"config": {}, "class_name": "Ones"}, "epsilon": 2e-05, "gamma_initializer": {"config": {}, "class_name": "Ones"}, "axis": 3, "center": true, "gamma_constraint": null, "trainable": true, "beta_initializer": {"config": {}, "class_name": "Zeros"}, "momentum": 0.99, "beta_regularizer": null, "gamma_regularizer": null}, "class_name": "BatchNormalization", "inbound_nodes": [[["stage1_unit1_conv1", 0, 0, {}]]]}, {"name": "stage1_unit1_relu2", "config": {"activation": "relu", "name": "stage1_unit1_relu2", "trainable": true}, "class_name": "Activation", "inbound_nodes": [[["stage1_unit1_bn2", 0, 0, {}]]]}, {"name": "zero_padding2d_4", "config": {"padding": [[1, 1], [1, 1]], "name": "zero_padding2d_4", "data_format": "channels_last", "trainable": true}, "class_name": "ZeroPadding2D", "inbound_nodes": [[["stage1_unit1_relu2", 0, 0, {}]]]}, {"name": "stage1_unit1_conv2", "config": {"padding": "valid", "bias_constraint": null, "kernel_constraint": null, "kernel_regularizer": null, "strides": [1, 1], "data_format": "channels_last", "trainable": true, "kernel_initializer": {"config": {"mode": "fan_in", "scale": 2.0, "seed": null, "distribution": "uniform"}, "class_name": "VarianceScaling"}, "filters": 64, "dilation_rate": [1, 1], "kernel_size": [3, 3], "activity_regularizer": null, "activation": "linear", "name": "stage1_unit1_conv2", "bias_initializer": {"config": {}, "class_name": "Zeros"}, "use_bias": false, "bias_regularizer": null}, "class_name": "Conv2D", "inbound_nodes": [[["zero_padding2d_4", 0, 0, {}]]]}, {"name": "stage1_unit1_sc", "config": {"padding": "valid", "bias_constraint": null, "kernel_constraint": null, "kernel_regularizer": null, "strides": [1, 1], "data_format": "channels_last", "trainable": true, "kernel_initializer": {"config": {"mode": "fan_in", "scale": 2.0, "seed": null, "distribution": "uniform"}, "class_name": "VarianceScaling"}, "filters": 64, "dilation_rate": [1, 1], "kernel_size": [1, 1], "activity_regularizer": null, "activation": "linear", "name": "stage1_unit1_sc", "bias_initializer": {"config": {}, "class_name": "Zeros"}, "use_bias": false, "bias_regularizer": null}, "class_name": "Conv2D", "inbound_nodes": [[["stage1_unit1_relu1", 0, 0, {}]]]}, {"name": "add_1", "config": {"name": "add_1", "trainable": true}, "class_name": "Add", "inbound_nodes": [[["stage1_unit1_conv2", 0, 0, {}], ["stage1_unit1_sc", 0, 0, {}]]]}, {"name": "stage1_unit2_bn1", "config": {"beta_constraint": null, "name": "stage1_unit2_bn1", "moving_mean_initializer": {"config": {}, "class_name": "Zeros"}, "scale": true, "moving_variance_initializer": {"config": {}, "class_name": "Ones"}, "epsilon": 2e-05, "gamma_initializer": {"config": {}, "class_name": "Ones"}, "axis": 3, "center": true, "gamma_constraint": null, "trainable": true, "beta_initializer": {"config": {}, "class_name": "Zeros"}, "momentum": 0.99, "beta_regularizer": null, "gamma_regularizer": null}, "class_name": "BatchNormalization", "inbound_nodes": [[["add_1", 0, 0, {}]]]}, {"name": "stage1_unit2_relu1", "config": {"activation": "relu", "name": "stage1_unit2_relu1", "trainable": true}, "class_name": "Activation", "inbound_nodes": [[["stage1_unit2_bn1", 0, 0, {}]]]}, {"name": "zero_padding2d_5", "config": {"padding": [[1, 1], [1, 1]], "name": "zero_padding2d_5", "data_format": "channels_last", "trainable": true}, "class_name": "ZeroPadding2D", "inbound_nodes": [[["stage1_unit2_relu1", 0, 0, {}]]]}, {"name": "stage1_unit2_conv1", "config": {"padding": "valid", "bias_constraint": null, "kernel_constraint": null, "kernel_regularizer": null, "strides": [1, 1], "data_format": "channels_last", "trainable": true, "kernel_initializer": {"config": {"mode": "fan_in", "scale": 2.0, "seed": null, "distribution": "uniform"}, "class_name": "VarianceScaling"}, "filters": 64, "dilation_rate": [1, 1], "kernel_size": [3, 3], "activity_regularizer": null, "activation": "linear", "name": "stage1_unit2_conv1", "bias_initializer": {"config": {}, "class_name": "Zeros"}, "use_bias": false, "bias_regularizer": null}, "class_name": "Conv2D", "inbound_nodes": [[["zero_padding2d_5", 0, 0, {}]]]}, {"name": "stage1_unit2_bn2", "config": {"beta_constraint": null, "name": "stage1_unit2_bn2", "moving_mean_initializer": {"config": {}, "class_name": "Zeros"}, "scale": true, "moving_variance_initializer": {"config": {}, "class_name": "Ones"}, "epsilon": 2e-05, "gamma_initializer": {"config": {}, "class_name": "Ones"}, "axis": 3, "center": true, "gamma_constraint": null, "trainable": true, "beta_initializer": {"config": {}, "class_name": "Zeros"}, "momentum": 0.99, "beta_regularizer": null, "gamma_regularizer": null}, "class_name": "BatchNormalization", "inbound_nodes": [[["stage1_unit2_conv1", 0, 0, {}]]]}, {"name": "stage1_unit2_relu2", "config": {"activation": "relu", "name": "stage1_unit2_relu2", "trainable": true}, "class_name": "Activation", "inbound_nodes": [[["stage1_unit2_bn2", 0, 0, {}]]]}, {"name": "zero_padding2d_6", "config": {"padding": [[1, 1], [1, 1]], "name": "zero_padding2d_6", "data_format": "channels_last", "trainable": true}, "class_name": "ZeroPadding2D", "inbound_nodes": [[["stage1_unit2_relu2", 0, 0, {}]]]}, {"name": "stage1_unit2_conv2", "config": {"padding": "valid", "bias_constraint": null, "kernel_constraint": null, "kernel_regularizer": null, "strides": [1, 1], "data_format": "channels_last", "trainable": true, "kernel_initializer": {"config": {"mode": "fan_in", "scale": 2.0, "seed": null, "distribution": "uniform"}, "class_name": "VarianceScaling"}, "filters": 64, "dilation_rate": [1, 1], "kernel_size": [3, 3], "activity_regularizer": null, "activation": "linear", "name": "stage1_unit2_conv2", "bias_initializer": {"config": {}, "class_name": "Zeros"}, "use_bias": false, "bias_regularizer": null}, "class_name": "Conv2D", "inbound_nodes": [[["zero_padding2d_6", 0, 0, {}]]]}, {"name": "add_2", "config": {"name": "add_2", "trainable": true}, "class_name": "Add", "inbound_nodes": [[["stage1_unit2_conv2", 0, 0, {}], ["add_1", 0, 0, {}]]]}, {"name": "stage2_unit1_bn1", "config": {"beta_constraint": null, "name": "stage2_unit1_bn1", "moving_mean_initializer": {"config": {}, "class_name": "Zeros"}, "scale": true, "moving_variance_initializer": {"config": {}, "class_name": "Ones"}, "epsilon": 2e-05, "gamma_initializer": {"config": {}, "class_name": "Ones"}, "axis": 3, "center": true, "gamma_constraint": null, "trainable": true, "beta_initializer": {"config": {}, "class_name": "Zeros"}, "momentum": 0.99, "beta_regularizer": null, "gamma_regularizer": null}, "class_name": "BatchNormalization", "inbound_nodes": [[["add_2", 0, 0, {}]]]}, {"name": "stage2_unit1_relu1", "config": {"activation": "relu", "name": "stage2_unit1_relu1", "trainable": true}, "class_name": "Activation", "inbound_nodes": [[["stage2_unit1_bn1", 0, 0, {}]]]}, {"name": "zero_padding2d_7", "config": {"padding": [[1, 1], [1, 1]], "name": "zero_padding2d_7", "data_format": "channels_last", "trainable": true}, "class_name": "ZeroPadding2D", "inbound_nodes": [[["stage2_unit1_relu1", 0, 0, {}]]]}, {"name": "stage2_unit1_conv1", "config": {"padding": "valid", "bias_constraint": null, "kernel_constraint": null, "kernel_regularizer": null, "strides": [2, 2], "data_format": "channels_last", "trainable": true, "kernel_initializer": {"config": {"mode": "fan_in", "scale": 2.0, "seed": null, "distribution": "uniform"}, "class_name": "VarianceScaling"}, "filters": 128, "dilation_rate": [1, 1], "kernel_size": [3, 3], "activity_regularizer": null, "activation": "linear", "name": "stage2_unit1_conv1", "bias_initializer": {"config": {}, "class_name": "Zeros"}, "use_bias": false, "bias_regularizer": null}, "class_name": "Conv2D", "inbound_nodes": [[["zero_padding2d_7", 0, 0, {}]]]}, {"name": "stage2_unit1_bn2", "config": {"beta_constraint": null, "name": "stage2_unit1_bn2", "moving_mean_initializer": {"config": {}, "class_name": "Zeros"}, "scale": true, "moving_variance_initializer": {"config": {}, "class_name": "Ones"}, "epsilon": 2e-05, "gamma_initializer": {"config": {}, "class_name": "Ones"}, "axis": 3, "center": true, "gamma_constraint": null, "trainable": true, "beta_initializer": {"config": {}, "class_name": "Zeros"}, "momentum": 0.99, "beta_regularizer": null, "gamma_regularizer": null}, "class_name": "BatchNormalization", "inbound_nodes": [[["stage2_unit1_conv1", 0, 0, {}]]]}, {"name": "stage2_unit1_relu2", "config": {"activation": "relu", "name": "stage2_unit1_relu2", "trainable": true}, "class_name": "Activation", "inbound_nodes": [[["stage2_unit1_bn2", 0, 0, {}]]]}, {"name": "zero_padding2d_8", "config": {"padding": [[1, 1], [1, 1]], "name": "zero_padding2d_8", "data_format": "channels_last", "trainable": true}, "class_name": "ZeroPadding2D", "inbound_nodes": [[["stage2_unit1_relu2", 0, 0, {}]]]}, {"name": "stage2_unit1_conv2", "config": {"padding": "valid", "bias_constraint": null, "kernel_constraint": null, "kernel_regularizer": null, "strides": [1, 1], "data_format": "channels_last", "trainable": true, "kernel_initializer": {"config": {"mode": "fan_in", "scale": 2.0, "seed": null, "distribution": "uniform"}, "class_name": "VarianceScaling"}, "filters": 128, "dilation_rate": [1, 1], "kernel_size": [3, 3], "activity_regularizer": null, "activation": "linear", "name": "stage2_unit1_conv2", "bias_initializer": {"config": {}, "class_name": "Zeros"}, "use_bias": false, "bias_regularizer": null}, "class_name": "Conv2D", "inbound_nodes": [[["zero_padding2d_8", 0, 0, {}]]]}, {"name": "stage2_unit1_sc", "config": {"padding": "valid", "bias_constraint": null, "kernel_constraint": null, "kernel_regularizer": null, "strides": [2, 2], "data_format": "channels_last", "trainable": true, "kernel_initializer": {"config": {"mode": "fan_in", "scale": 2.0, "seed": null, "distribution": "uniform"}, "class_name": "VarianceScaling"}, "filters": 128, "dilation_rate": [1, 1], "kernel_size": [1, 1], "activity_regularizer": null, "activation": "linear", "name": "stage2_unit1_sc", "bias_initializer": {"config": {}, "class_name": "Zeros"}, "use_bias": false, "bias_regularizer": null}, "class_name": "Conv2D", "inbound_nodes": [[["stage2_unit1_relu1", 0, 0, {}]]]}, {"name": "add_3", "config": {"name": "add_3", "trainable": true}, "class_name": "Add", "inbound_nodes": [[["stage2_unit1_conv2", 0, 0, {}], ["stage2_unit1_sc", 0, 0, {}]]]}, {"name": "stage2_unit2_bn1", "config": {"beta_constraint": null, "name": "stage2_unit2_bn1", "moving_mean_initializer": {"config": {}, "class_name": "Zeros"}, "scale": true, "moving_variance_initializer": {"config": {}, "class_name": "Ones"}, "epsilon": 2e-05, "gamma_initializer": {"config": {}, "class_name": "Ones"}, "axis": 3, "center": true, "gamma_constraint": null, "trainable": true, "beta_initializer": {"config": {}, "class_name": "Zeros"}, "momentum": 0.99, "beta_regularizer": null, "gamma_regularizer": null}, "class_name": "BatchNormalization", "inbound_nodes": [[["add_3", 0, 0, {}]]]}, {"name": "stage2_unit2_relu1", "config": {"activation": "relu", "name": "stage2_unit2_relu1", "trainable": true}, "class_name": "Activation", "inbound_nodes": [[["stage2_unit2_bn1", 0, 0, {}]]]}, {"name": "zero_padding2d_9", "config": {"padding": [[1, 1], [1, 1]], "name": "zero_padding2d_9", "data_format": "channels_last", "trainable": true}, "class_name": "ZeroPadding2D", "inbound_nodes": [[["stage2_unit2_relu1", 0, 0, {}]]]}, {"name": "stage2_unit2_conv1", "config": {"padding": "valid", "bias_constraint": null, "kernel_constraint": null, "kernel_regularizer": null, "strides": [1, 1], "data_format": "channels_last", "trainable": true, "kernel_initializer": {"config": {"mode": "fan_in", "scale": 2.0, "seed": null, "distribution": "uniform"}, "class_name": "VarianceScaling"}, "filters": 128, "dilation_rate": [1, 1], "kernel_size": [3, 3], "activity_regularizer": null, "activation": "linear", "name": "stage2_unit2_conv1", "bias_initializer": {"config": {}, "class_name": "Zeros"}, "use_bias": false, "bias_regularizer": null}, "class_name": "Conv2D", "inbound_nodes": [[["zero_padding2d_9", 0, 0, {}]]]}, {"name": "stage2_unit2_bn2", "config": {"beta_constraint": null, "name": "stage2_unit2_bn2", "moving_mean_initializer": {"config": {}, "class_name": "Zeros"}, "scale": true, "moving_variance_initializer": {"config": {}, "class_name": "Ones"}, "epsilon": 2e-05, "gamma_initializer": {"config": {}, "class_name": "Ones"}, "axis": 3, "center": true, "gamma_constraint": null, "trainable": true, "beta_initializer": {"config": {}, "class_name": "Zeros"}, "momentum": 0.99, "beta_regularizer": null, "gamma_regularizer": null}, "class_name": "BatchNormalization", "inbound_nodes": [[["stage2_unit2_conv1", 0, 0, {}]]]}, {"name": "stage2_unit2_relu2", "config": {"activation": "relu", "name": "stage2_unit2_relu2", "trainable": true}, "class_name": "Activation", "inbound_nodes": [[["stage2_unit2_bn2", 0, 0, {}]]]}, {"name": "zero_padding2d_10", "config": {"padding": [[1, 1], [1, 1]], "name": "zero_padding2d_10", "data_format": "channels_last", "trainable": true}, "class_name": "ZeroPadding2D", "inbound_nodes": [[["stage2_unit2_relu2", 0, 0, {}]]]}, {"name": "stage2_unit2_conv2", "config": {"padding": "valid", "bias_constraint": null, "kernel_constraint": null, "kernel_regularizer": null, "strides": [1, 1], "data_format": "channels_last", "trainable": true, "kernel_initializer": {"config": {"mode": "fan_in", "scale": 2.0, "seed": null, "distribution": "uniform"}, "class_name": "VarianceScaling"}, "filters": 128, "dilation_rate": [1, 1], "kernel_size": [3, 3], "activity_regularizer": null, "activation": "linear", "name": "stage2_unit2_conv2", "bias_initializer": {"config": {}, "class_name": "Zeros"}, "use_bias": false, "bias_regularizer": null}, "class_name": "Conv2D", "inbound_nodes": [[["zero_padding2d_10", 0, 0, {}]]]}, {"name": "add_4", "config": {"name": "add_4", "trainable": true}, "class_name": "Add", "inbound_nodes": [[["stage2_unit2_conv2", 0, 0, {}], ["add_3", 0, 0, {}]]]}, {"name": "stage3_unit1_bn1", "config": {"beta_constraint": null, "name": "stage3_unit1_bn1", "moving_mean_initializer": {"config": {}, "class_name": "Zeros"}, "scale": true, "moving_variance_initializer": {"config": {}, "class_name": "Ones"}, "epsilon": 2e-05, "gamma_initializer": {"config": {}, "class_name": "Ones"}, "axis": 3, "center": true, "gamma_constraint": null, "trainable": true, "beta_initializer": {"config": {}, "class_name": "Zeros"}, "momentum": 0.99, "beta_regularizer": null, "gamma_regularizer": null}, "class_name": "BatchNormalization", "inbound_nodes": [[["add_4", 0, 0, {}]]]}, {"name": "stage3_unit1_relu1", "config": {"activation": "relu", "name": "stage3_unit1_relu1", "trainable": true}, "class_name": "Activation", "inbound_nodes": [[["stage3_unit1_bn1", 0, 0, {}]]]}, {"name": "zero_padding2d_11", "config": {"padding": [[1, 1], [1, 1]], "name": "zero_padding2d_11", "data_format": "channels_last", "trainable": true}, "class_name": "ZeroPadding2D", "inbound_nodes": [[["stage3_unit1_relu1", 0, 0, {}]]]}, {"name": "stage3_unit1_conv1", "config": {"padding": "valid", "bias_constraint": null, "kernel_constraint": null, "kernel_regularizer": null, "strides": [2, 2], "data_format": "channels_last", "trainable": true, "kernel_initializer": {"config": {"mode": "fan_in", "scale": 2.0, "seed": null, "distribution": "uniform"}, "class_name": "VarianceScaling"}, "filters": 256, "dilation_rate": [1, 1], "kernel_size": [3, 3], "activity_regularizer": null, "activation": "linear", "name": "stage3_unit1_conv1", "bias_initializer": {"config": {}, "class_name": "Zeros"}, "use_bias": false, "bias_regularizer": null}, "class_name": "Conv2D", "inbound_nodes": [[["zero_padding2d_11", 0, 0, {}]]]}, {"name": "stage3_unit1_bn2", "config": {"beta_constraint": null, "name": "stage3_unit1_bn2", "moving_mean_initializer": {"config": {}, "class_name": "Zeros"}, "scale": true, "moving_variance_initializer": {"config": {}, "class_name": "Ones"}, "epsilon": 2e-05, "gamma_initializer": {"config": {}, "class_name": "Ones"}, "axis": 3, "center": true, "gamma_constraint": null, "trainable": true, "beta_initializer": {"config": {}, "class_name": "Zeros"}, "momentum": 0.99, "beta_regularizer": null, "gamma_regularizer": null}, "class_name": "BatchNormalization", "inbound_nodes": [[["stage3_unit1_conv1", 0, 0, {}]]]}, {"name": "stage3_unit1_relu2", "config": {"activation": "relu", "name": "stage3_unit1_relu2", "trainable": true}, "class_name": "Activation", "inbound_nodes": [[["stage3_unit1_bn2", 0, 0, {}]]]}, {"name": "zero_padding2d_12", "config": {"padding": [[1, 1], [1, 1]], "name": "zero_padding2d_12", "data_format": "channels_last", "trainable": true}, "class_name": "ZeroPadding2D", "inbound_nodes": [[["stage3_unit1_relu2", 0, 0, {}]]]}, {"name": "stage3_unit1_conv2", "config": {"padding": "valid", "bias_constraint": null, "kernel_constraint": null, "kernel_regularizer": null, "strides": [1, 1], "data_format": "channels_last", "trainable": true, "kernel_initializer": {"config": {"mode": "fan_in", "scale": 2.0, "seed": null, "distribution": "uniform"}, "class_name": "VarianceScaling"}, "filters": 256, "dilation_rate": [1, 1], "kernel_size": [3, 3], "activity_regularizer": null, "activation": "linear", "name": "stage3_unit1_conv2", "bias_initializer": {"config": {}, "class_name": "Zeros"}, "use_bias": false, "bias_regularizer": null}, "class_name": "Conv2D", "inbound_nodes": [[["zero_padding2d_12", 0, 0, {}]]]}, {"name": "stage3_unit1_sc", "config": {"padding": "valid", "bias_constraint": null, "kernel_constraint": null, "kernel_regularizer": null, "strides": [2, 2], "data_format": "channels_last", "trainable": true, "kernel_initializer": {"config": {"mode": "fan_in", "scale": 2.0, "seed": null, "distribution": "uniform"}, "class_name": "VarianceScaling"}, "filters": 256, "dilation_rate": [1, 1], "kernel_size": [1, 1], "activity_regularizer": null, "activation": "linear", "name": "stage3_unit1_sc", "bias_initializer": {"config": {}, "class_name": "Zeros"}, "use_bias": false, "bias_regularizer": null}, "class_name": "Conv2D", "inbound_nodes": [[["stage3_unit1_relu1", 0, 0, {}]]]}, {"name": "add_5", "config": {"name": "add_5", "trainable": true}, "class_name": "Add", "inbound_nodes": [[["stage3_unit1_conv2", 0, 0, {}], ["stage3_unit1_sc", 0, 0, {}]]]}, {"name": "stage3_unit2_bn1", "config": {"beta_constraint": null, "name": "stage3_unit2_bn1", "moving_mean_initializer": {"config": {}, "class_name": "Zeros"}, "scale": true, "moving_variance_initializer": {"config": {}, "class_name": "Ones"}, "epsilon": 2e-05, "gamma_initializer": {"config": {}, "class_name": "Ones"}, "axis": 3, "center": true, "gamma_constraint": null, "trainable": true, "beta_initializer": {"config": {}, "class_name": "Zeros"}, "momentum": 0.99, "beta_regularizer": null, "gamma_regularizer": null}, "class_name": "BatchNormalization", "inbound_nodes": [[["add_5", 0, 0, {}]]]}, {"name": "stage3_unit2_relu1", "config": {"activation": "relu", "name": "stage3_unit2_relu1", "trainable": true}, "class_name": "Activation", "inbound_nodes": [[["stage3_unit2_bn1", 0, 0, {}]]]}, {"name": "zero_padding2d_13", "config": {"padding": [[1, 1], [1, 1]], "name": "zero_padding2d_13", "data_format": "channels_last", "trainable": true}, "class_name": "ZeroPadding2D", "inbound_nodes": [[["stage3_unit2_relu1", 0, 0, {}]]]}, {"name": "stage3_unit2_conv1", "config": {"padding": "valid", "bias_constraint": null, "kernel_constraint": null, "kernel_regularizer": null, "strides": [1, 1], "data_format": "channels_last", "trainable": true, "kernel_initializer": {"config": {"mode": "fan_in", "scale": 2.0, "seed": null, "distribution": "uniform"}, "class_name": "VarianceScaling"}, "filters": 256, "dilation_rate": [1, 1], "kernel_size": [3, 3], "activity_regularizer": null, "activation": "linear", "name": "stage3_unit2_conv1", "bias_initializer": {"config": {}, "class_name": "Zeros"}, "use_bias": false, "bias_regularizer": null}, "class_name": "Conv2D", "inbound_nodes": [[["zero_padding2d_13", 0, 0, {}]]]}, {"name": "stage3_unit2_bn2", "config": {"beta_constraint": null, "name": "stage3_unit2_bn2", "moving_mean_initializer": {"config": {}, "class_name": "Zeros"}, "scale": true, "moving_variance_initializer": {"config": {}, "class_name": "Ones"}, "epsilon": 2e-05, "gamma_initializer": {"config": {}, "class_name": "Ones"}, "axis": 3, "center": true, "gamma_constraint": null, "trainable": true, "beta_initializer": {"config": {}, "class_name": "Zeros"}, "momentum": 0.99, "beta_regularizer": null, "gamma_regularizer": null}, "class_name": "BatchNormalization", "inbound_nodes": [[["stage3_unit2_conv1", 0, 0, {}]]]}, {"name": "stage3_unit2_relu2", "config": {"activation": "relu", "name": "stage3_unit2_relu2", "trainable": true}, "class_name": "Activation", "inbound_nodes": [[["stage3_unit2_bn2", 0, 0, {}]]]}, {"name": "zero_padding2d_14", "config": {"padding": [[1, 1], [1, 1]], "name": "zero_padding2d_14", "data_format": "channels_last", "trainable": true}, "class_name": "ZeroPadding2D", "inbound_nodes": [[["stage3_unit2_relu2", 0, 0, {}]]]}, {"name": "stage3_unit2_conv2", "config": {"padding": "valid", "bias_constraint": null, "kernel_constraint": null, "kernel_regularizer": null, "strides": [1, 1], "data_format": "channels_last", "trainable": true, "kernel_initializer": {"config": {"mode": "fan_in", "scale": 2.0, "seed": null, "distribution": "uniform"}, "class_name": "VarianceScaling"}, "filters": 256, "dilation_rate": [1, 1], "kernel_size": [3, 3], "activity_regularizer": null, "activation": "linear", "name": "stage3_unit2_conv2", "bias_initializer": {"config": {}, "class_name": "Zeros"}, "use_bias": false, "bias_regularizer": null}, "class_name": "Conv2D", "inbound_nodes": [[["zero_padding2d_14", 0, 0, {}]]]}, {"name": "add_6", "config": {"name": "add_6", "trainable": true}, "class_name": "Add", "inbound_nodes": [[["stage3_unit2_conv2", 0, 0, {}], ["add_5", 0, 0, {}]]]}, {"name": "stage4_unit1_bn1", "config": {"beta_constraint": null, "name": "stage4_unit1_bn1", "moving_mean_initializer": {"config": {}, "class_name": "Zeros"}, "scale": true, "moving_variance_initializer": {"config": {}, "class_name": "Ones"}, "epsilon": 2e-05, "gamma_initializer": {"config": {}, "class_name": "Ones"}, "axis": 3, "center": true, "gamma_constraint": null, "trainable": true, "beta_initializer": {"config": {}, "class_name": "Zeros"}, "momentum": 0.99, "beta_regularizer": null, "gamma_regularizer": null}, "class_name": "BatchNormalization", "inbound_nodes": [[["add_6", 0, 0, {}]]]}, {"name": "stage4_unit1_relu1", "config": {"activation": "relu", "name": "stage4_unit1_relu1", "trainable": true}, "class_name": "Activation", "inbound_nodes": [[["stage4_unit1_bn1", 0, 0, {}]]]}, {"name": "zero_padding2d_15", "config": {"padding": [[1, 1], [1, 1]], "name": "zero_padding2d_15", "data_format": "channels_last", "trainable": true}, "class_name": "ZeroPadding2D", "inbound_nodes": [[["stage4_unit1_relu1", 0, 0, {}]]]}, {"name": "stage4_unit1_conv1", "config": {"padding": "valid", "bias_constraint": null, "kernel_constraint": null, "kernel_regularizer": null, "strides": [2, 2], "data_format": "channels_last", "trainable": true, "kernel_initializer": {"config": {"mode": "fan_in", "scale": 2.0, "seed": null, "distribution": "uniform"}, "class_name": "VarianceScaling"}, "filters": 512, "dilation_rate": [1, 1], "kernel_size": [3, 3], "activity_regularizer": null, "activation": "linear", "name": "stage4_unit1_conv1", "bias_initializer": {"config": {}, "class_name": "Zeros"}, "use_bias": false, "bias_regularizer": null}, "class_name": "Conv2D", "inbound_nodes": [[["zero_padding2d_15", 0, 0, {}]]]}, {"name": "stage4_unit1_bn2", "config": {"beta_constraint": null, "name": "stage4_unit1_bn2", "moving_mean_initializer": {"config": {}, "class_name": "Zeros"}, "scale": true, "moving_variance_initializer": {"config": {}, "class_name": "Ones"}, "epsilon": 2e-05, "gamma_initializer": {"config": {}, "class_name": "Ones"}, "axis": 3, "center": true, "gamma_constraint": null, "trainable": true, "beta_initializer": {"config": {}, "class_name": "Zeros"}, "momentum": 0.99, "beta_regularizer": null, "gamma_regularizer": null}, "class_name": "BatchNormalization", "inbound_nodes": [[["stage4_unit1_conv1", 0, 0, {}]]]}, {"name": "stage4_unit1_relu2", "config": {"activation": "relu", "name": "stage4_unit1_relu2", "trainable": true}, "class_name": "Activation", "inbound_nodes": [[["stage4_unit1_bn2", 0, 0, {}]]]}, {"name": "zero_padding2d_16", "config": {"padding": [[1, 1], [1, 1]], "name": "zero_padding2d_16", "data_format": "channels_last", "trainable": true}, "class_name": "ZeroPadding2D", "inbound_nodes": [[["stage4_unit1_relu2", 0, 0, {}]]]}, {"name": "stage4_unit1_conv2", "config": {"padding": "valid", "bias_constraint": null, "kernel_constraint": null, "kernel_regularizer": null, "strides": [1, 1], "data_format": "channels_last", "trainable": true, "kernel_initializer": {"config": {"mode": "fan_in", "scale": 2.0, "seed": null, "distribution": "uniform"}, "class_name": "VarianceScaling"}, "filters": 512, "dilation_rate": [1, 1], "kernel_size": [3, 3], "activity_regularizer": null, "activation": "linear", "name": "stage4_unit1_conv2", "bias_initializer": {"config": {}, "class_name": "Zeros"}, "use_bias": false, "bias_regularizer": null}, "class_name": "Conv2D", "inbound_nodes": [[["zero_padding2d_16", 0, 0, {}]]]}, {"name": "stage4_unit1_sc", "config": {"padding": "valid", "bias_constraint": null, "kernel_constraint": null, "kernel_regularizer": null, "strides": [2, 2], "data_format": "channels_last", "trainable": true, "kernel_initializer": {"config": {"mode": "fan_in", "scale": 2.0, "seed": null, "distribution": "uniform"}, "class_name": "VarianceScaling"}, "filters": 512, "dilation_rate": [1, 1], "kernel_size": [1, 1], "activity_regularizer": null, "activation": "linear", "name": "stage4_unit1_sc", "bias_initializer": {"config": {}, "class_name": "Zeros"}, "use_bias": false, "bias_regularizer": null}, "class_name": "Conv2D", "inbound_nodes": [[["stage4_unit1_relu1", 0, 0, {}]]]}, {"name": "add_7", "config": {"name": "add_7", "trainable": true}, "class_name": "Add", "inbound_nodes": [[["stage4_unit1_conv2", 0, 0, {}], ["stage4_unit1_sc", 0, 0, {}]]]}, {"name": "stage4_unit2_bn1", "config": {"beta_constraint": null, "name": "stage4_unit2_bn1", "moving_mean_initializer": {"config": {}, "class_name": "Zeros"}, "scale": true, "moving_variance_initializer": {"config": {}, "class_name": "Ones"}, "epsilon": 2e-05, "gamma_initializer": {"config": {}, "class_name": "Ones"}, "axis": 3, "center": true, "gamma_constraint": null, "trainable": true, "beta_initializer": {"config": {}, "class_name": "Zeros"}, "momentum": 0.99, "beta_regularizer": null, "gamma_regularizer": null}, "class_name": "BatchNormalization", "inbound_nodes": [[["add_7", 0, 0, {}]]]}, {"name": "stage4_unit2_relu1", "config": {"activation": "relu", "name": "stage4_unit2_relu1", "trainable": true}, "class_name": "Activation", "inbound_nodes": [[["stage4_unit2_bn1", 0, 0, {}]]]}, {"name": "zero_padding2d_17", "config": {"padding": [[1, 1], [1, 1]], "name": "zero_padding2d_17", "data_format": "channels_last", "trainable": true}, "class_name": "ZeroPadding2D", "inbound_nodes": [[["stage4_unit2_relu1", 0, 0, {}]]]}, {"name": "stage4_unit2_conv1", "config": {"padding": "valid", "bias_constraint": null, "kernel_constraint": null, "kernel_regularizer": null, "strides": [1, 1], "data_format": "channels_last", "trainable": true, "kernel_initializer": {"config": {"mode": "fan_in", "scale": 2.0, "seed": null, "distribution": "uniform"}, "class_name": "VarianceScaling"}, "filters": 512, "dilation_rate": [1, 1], "kernel_size": [3, 3], "activity_regularizer": null, "activation": "linear", "name": "stage4_unit2_conv1", "bias_initializer": {"config": {}, "class_name": "Zeros"}, "use_bias": false, "bias_regularizer": null}, "class_name": "Conv2D", "inbound_nodes": [[["zero_padding2d_17", 0, 0, {}]]]}, {"name": "stage4_unit2_bn2", "config": {"beta_constraint": null, "name": "stage4_unit2_bn2", "moving_mean_initializer": {"config": {}, "class_name": "Zeros"}, "scale": true, "moving_variance_initializer": {"config": {}, "class_name": "Ones"}, "epsilon": 2e-05, "gamma_initializer": {"config": {}, "class_name": "Ones"}, "axis": 3, "center": true, "gamma_constraint": null, "trainable": true, "beta_initializer": {"config": {}, "class_name": "Zeros"}, "momentum": 0.99, "beta_regularizer": null, "gamma_regularizer": null}, "class_name": "BatchNormalization", "inbound_nodes": [[["stage4_unit2_conv1", 0, 0, {}]]]}, {"name": "stage4_unit2_relu2", "config": {"activation": "relu", "name": "stage4_unit2_relu2", "trainable": true}, "class_name": "Activation", "inbound_nodes": [[["stage4_unit2_bn2", 0, 0, {}]]]}, {"name": "zero_padding2d_18", "config": {"padding": [[1, 1], [1, 1]], "name": "zero_padding2d_18", "data_format": "channels_last", "trainable": true}, "class_name": "ZeroPadding2D", "inbound_nodes": [[["stage4_unit2_relu2", 0, 0, {}]]]}, {"name": "stage4_unit2_conv2", "config": {"padding": "valid", "bias_constraint": null, "kernel_constraint": null, "kernel_regularizer": null, "strides": [1, 1], "data_format": "channels_last", "trainable": true, "kernel_initializer": {"config": {"mode": "fan_in", "scale": 2.0, "seed": null, "distribution": "uniform"}, "class_name": "VarianceScaling"}, "filters": 512, "dilation_rate": [1, 1], "kernel_size": [3, 3], "activity_regularizer": null, "activation": "linear", "name": "stage4_unit2_conv2", "bias_initializer": {"config": {}, "class_name": "Zeros"}, "use_bias": false, "bias_regularizer": null}, "class_name": "Conv2D", "inbound_nodes": [[["zero_padding2d_18", 0, 0, {}]]]}, {"name": "add_8", "config": {"name": "add_8", "trainable": true}, "class_name": "Add", "inbound_nodes": [[["stage4_unit2_conv2", 0, 0, {}], ["add_7", 0, 0, {}]]]}, {"name": "bn1", "config": {"beta_constraint": null, "name": "bn1", "moving_mean_initializer": {"config": {}, "class_name": "Zeros"}, "scale": true, "moving_variance_initializer": {"config": {}, "class_name": "Ones"}, "epsilon": 2e-05, "gamma_initializer": {"config": {}, "class_name": "Ones"}, "axis": 3, "center": true, "gamma_constraint": null, "trainable": true, "beta_initializer": {"config": {}, "class_name": "Zeros"}, "momentum": 0.99, "beta_regularizer": null, "gamma_regularizer": null}, "class_name": "BatchNormalization", "inbound_nodes": [[["add_8", 0, 0, {}]]]}, {"name": "relu1", "config": {"activation": "relu", "name": "relu1", "trainable": true}, "class_name": "Activation", "inbound_nodes": [[["bn1", 0, 0, {}]]]}, {"name": "decoder_stage0_upsample", "config": {"name": "decoder_stage0_upsample", "data_format": "channels_last", "size": [2, 2], "interpolation": "nearest", "trainable": true}, "class_name": "UpSampling2D", "inbound_nodes": [[["relu1", 0, 0, {}]]]}, {"name": "concatenate_1", "config": {"axis": -1, "name": "concatenate_1", "trainable": true}, "class_name": "Concatenate", "inbound_nodes": [[["decoder_stage0_upsample", 0, 0, {}], ["stage4_unit1_relu1", 0, 0, {}]]]}, {"name": "decoder_stage0_conv1", "config": {"padding": "same", "bias_constraint": null, "kernel_constraint": null, "kernel_regularizer": null, "strides": [1, 1], "data_format": "channels_last", "trainable": true, "kernel_initializer": {"config": {"mode": "fan_avg", "scale": 1.0, "seed": null, "distribution": "uniform"}, "class_name": "VarianceScaling"}, "filters": 256, "dilation_rate": [1, 1], "kernel_size": [3, 3], "activity_regularizer": null, "activation": "linear", "name": "decoder_stage0_conv1", "bias_initializer": {"config": {}, "class_name": "Zeros"}, "use_bias": false, "bias_regularizer": null}, "class_name": "Conv2D", "inbound_nodes": [[["concatenate_1", 0, 0, {}]]]}, {"name": "decoder_stage0_bn1", "config": {"beta_constraint": null, "name": "decoder_stage0_bn1", "moving_mean_initializer": {"config": {}, "class_name": "Zeros"}, "scale": true, "moving_variance_initializer": {"config": {}, "class_name": "Ones"}, "epsilon": 0.001, "gamma_initializer": {"config": {}, "class_name": "Ones"}, "axis": -1, "center": true, "gamma_constraint": null, "trainable": true, "beta_initializer": {"config": {}, "class_name": "Zeros"}, "momentum": 0.99, "beta_regularizer": null, "gamma_regularizer": null}, "class_name": "BatchNormalization", "inbound_nodes": [[["decoder_stage0_conv1", 0, 0, {}]]]}, {"name": "decoder_stage0_relu1", "config": {"activation": "relu", "name": "decoder_stage0_relu1", "trainable": true}, "class_name": "Activation", "inbound_nodes": [[["decoder_stage0_bn1", 0, 0, {}]]]}, {"name": "decoder_stage0_conv2", "config": {"padding": "same", "bias_constraint": null, "kernel_constraint": null, "kernel_regularizer": null, "strides": [1, 1], "data_format": "channels_last", "trainable": true, "kernel_initializer": {"config": {"mode": "fan_avg", "scale": 1.0, "seed": null, "distribution": "uniform"}, "class_name": "VarianceScaling"}, "filters": 256, "dilation_rate": [1, 1], "kernel_size": [3, 3], "activity_regularizer": null, "activation": "linear", "name": "decoder_stage0_conv2", "bias_initializer": {"config": {}, "class_name": "Zeros"}, "use_bias": false, "bias_regularizer": null}, "class_name": "Conv2D", "inbound_nodes": [[["decoder_stage0_relu1", 0, 0, {}]]]}, {"name": "decoder_stage0_bn2", "config": {"beta_constraint": null, "name": "decoder_stage0_bn2", "moving_mean_initializer": {"config": {}, "class_name": "Zeros"}, "scale": true, "moving_variance_initializer": {"config": {}, "class_name": "Ones"}, "epsilon": 0.001, "gamma_initializer": {"config": {}, "class_name": "Ones"}, "axis": -1, "center": true, "gamma_constraint": null, "trainable": true, "beta_initializer": {"config": {}, "class_name": "Zeros"}, "momentum": 0.99, "beta_regularizer": null, "gamma_regularizer": null}, "class_name": "BatchNormalization", "inbound_nodes": [[["decoder_stage0_conv2", 0, 0, {}]]]}, {"name": "decoder_stage0_relu2", "config": {"activation": "relu", "name": "decoder_stage0_relu2", "trainable": true}, "class_name": "Activation", "inbound_nodes": [[["decoder_stage0_bn2", 0, 0, {}]]]}, {"name": "decoder_stage1_upsample", "config": {"name": "decoder_stage1_upsample", "data_format": "channels_last", "size": [2, 2], "interpolation": "nearest", "trainable": true}, "class_name": "UpSampling2D", "inbound_nodes": [[["decoder_stage0_relu2", 0, 0, {}]]]}, {"name": "concatenate_2", "config": {"axis": -1, "name": "concatenate_2", "trainable": true}, "class_name": "Concatenate", "inbound_nodes": [[["decoder_stage1_upsample", 0, 0, {}], ["stage3_unit1_relu1", 0, 0, {}]]]}, {"name": "decoder_stage1_conv1", "config": {"padding": "same", "bias_constraint": null, "kernel_constraint": null, "kernel_regularizer": null, "strides": [1, 1], "data_format": "channels_last", "trainable": true, "kernel_initializer": {"config": {"mode": "fan_avg", "scale": 1.0, "seed": null, "distribution": "uniform"}, "class_name": "VarianceScaling"}, "filters": 128, "dilation_rate": [1, 1], "kernel_size": [3, 3], "activity_regularizer": null, "activation": "linear", "name": "decoder_stage1_conv1", "bias_initializer": {"config": {}, "class_name": "Zeros"}, "use_bias": false, "bias_regularizer": null}, "class_name": "Conv2D", "inbound_nodes": [[["concatenate_2", 0, 0, {}]]]}, {"name": "decoder_stage1_bn1", "config": {"beta_constraint": null, "name": "decoder_stage1_bn1", "moving_mean_initializer": {"config": {}, "class_name": "Zeros"}, "scale": true, "moving_variance_initializer": {"config": {}, "class_name": "Ones"}, "epsilon": 0.001, "gamma_initializer": {"config": {}, "class_name": "Ones"}, "axis": -1, "center": true, "gamma_constraint": null, "trainable": true, "beta_initializer": {"config": {}, "class_name": "Zeros"}, "momentum": 0.99, "beta_regularizer": null, "gamma_regularizer": null}, "class_name": "BatchNormalization", "inbound_nodes": [[["decoder_stage1_conv1", 0, 0, {}]]]}, {"name": "decoder_stage1_relu1", "config": {"activation": "relu", "name": "decoder_stage1_relu1", "trainable": true}, "class_name": "Activation", "inbound_nodes": [[["decoder_stage1_bn1", 0, 0, {}]]]}, {"name": "decoder_stage1_conv2", "config": {"padding": "same", "bias_constraint": null, "kernel_constraint": null, "kernel_regularizer": null, "strides": [1, 1], "data_format": "channels_last", "trainable": true, "kernel_initializer": {"config": {"mode": "fan_avg", "scale": 1.0, "seed": null, "distribution": "uniform"}, "class_name": "VarianceScaling"}, "filters": 128, "dilation_rate": [1, 1], "kernel_size": [3, 3], "activity_regularizer": null, "activation": "linear", "name": "decoder_stage1_conv2", "bias_initializer": {"config": {}, "class_name": "Zeros"}, "use_bias": false, "bias_regularizer": null}, "class_name": "Conv2D", "inbound_nodes": [[["decoder_stage1_relu1", 0, 0, {}]]]}, {"name": "decoder_stage1_bn2", "config": {"beta_constraint": null, "name": "decoder_stage1_bn2", "moving_mean_initializer": {"config": {}, "class_name": "Zeros"}, "scale": true, "moving_variance_initializer": {"config": {}, "class_name": "Ones"}, "epsilon": 0.001, "gamma_initializer": {"config": {}, "class_name": "Ones"}, "axis": -1, "center": true, "gamma_constraint": null, "trainable": true, "beta_initializer": {"config": {}, "class_name": "Zeros"}, "momentum": 0.99, "beta_regularizer": null, "gamma_regularizer": null}, "class_name": "BatchNormalization", "inbound_nodes": [[["decoder_stage1_conv2", 0, 0, {}]]]}, {"name": "decoder_stage1_relu2", "config": {"activation": "relu", "name": "decoder_stage1_relu2", "trainable": true}, "class_name": "Activation", "inbound_nodes": [[["decoder_stage1_bn2", 0, 0, {}]]]}, {"name": "decoder_stage2_upsample", "config": {"name": "decoder_stage2_upsample", "data_format": "channels_last", "size": [2, 2], "interpolation": "nearest", "trainable": true}, "class_name": "UpSampling2D", "inbound_nodes": [[["decoder_stage1_relu2", 0, 0, {}]]]}, {"name": "concatenate_3", "config": {"axis": -1, "name": "concatenate_3", "trainable": true}, "class_name": "Concatenate", "inbound_nodes": [[["decoder_stage2_upsample", 0, 0, {}], ["stage2_unit1_relu1", 0, 0, {}]]]}, {"name": "decoder_stage2_conv1", "config": {"padding": "same", "bias_constraint": null, "kernel_constraint": null, "kernel_regularizer": null, "strides": [1, 1], "data_format": "channels_last", "trainable": true, "kernel_initializer": {"config": {"mode": "fan_avg", "scale": 1.0, "seed": null, "distribution": "uniform"}, "class_name": "VarianceScaling"}, "filters": 64, "dilation_rate": [1, 1], "kernel_size": [3, 3], "activity_regularizer": null, "activation": "linear", "name": "decoder_stage2_conv1", "bias_initializer": {"config": {}, "class_name": "Zeros"}, "use_bias": false, "bias_regularizer": null}, "class_name": "Conv2D", "inbound_nodes": [[["concatenate_3", 0, 0, {}]]]}, {"name": "decoder_stage2_bn1", "config": {"beta_constraint": null, "name": "decoder_stage2_bn1", "moving_mean_initializer": {"config": {}, "class_name": "Zeros"}, "scale": true, "moving_variance_initializer": {"config": {}, "class_name": "Ones"}, "epsilon": 0.001, "gamma_initializer": {"config": {}, "class_name": "Ones"}, "axis": -1, "center": true, "gamma_constraint": null, "trainable": true, "beta_initializer": {"config": {}, "class_name": "Zeros"}, "momentum": 0.99, "beta_regularizer": null, "gamma_regularizer": null}, "class_name": "BatchNormalization", "inbound_nodes": [[["decoder_stage2_conv1", 0, 0, {}]]]}, {"name": "decoder_stage2_relu1", "config": {"activation": "relu", "name": "decoder_stage2_relu1", "trainable": true}, "class_name": "Activation", "inbound_nodes": [[["decoder_stage2_bn1", 0, 0, {}]]]}, {"name": "decoder_stage2_conv2", "config": {"padding": "same", "bias_constraint": null, "kernel_constraint": null, "kernel_regularizer": null, "strides": [1, 1], "data_format": "channels_last", "trainable": true, "kernel_initializer": {"config": {"mode": "fan_avg", "scale": 1.0, "seed": null, "distribution": "uniform"}, "class_name": "VarianceScaling"}, "filters": 64, "dilation_rate": [1, 1], "kernel_size": [3, 3], "activity_regularizer": null, "activation": "linear", "name": "decoder_stage2_conv2", "bias_initializer": {"config": {}, "class_name": "Zeros"}, "use_bias": false, "bias_regularizer": null}, "class_name": "Conv2D", "inbound_nodes": [[["decoder_stage2_relu1", 0, 0, {}]]]}, {"name": "decoder_stage2_bn2", "config": {"beta_constraint": null, "name": "decoder_stage2_bn2", "moving_mean_initializer": {"config": {}, "class_name": "Zeros"}, "scale": true, "moving_variance_initializer": {"config": {}, "class_name": "Ones"}, "epsilon": 0.001, "gamma_initializer": {"config": {}, "class_name": "Ones"}, "axis": -1, "center": true, "gamma_constraint": null, "trainable": true, "beta_initializer": {"config": {}, "class_name": "Zeros"}, "momentum": 0.99, "beta_regularizer": null, "gamma_regularizer": null}, "class_name": "BatchNormalization", "inbound_nodes": [[["decoder_stage2_conv2", 0, 0, {}]]]}, {"name": "decoder_stage2_relu2", "config": {"activation": "relu", "name": "decoder_stage2_relu2", "trainable": true}, "class_name": "Activation", "inbound_nodes": [[["decoder_stage2_bn2", 0, 0, {}]]]}, {"name": "decoder_stage3_upsample", "config": {"name": "decoder_stage3_upsample", "data_format": "channels_last", "size": [2, 2], "interpolation": "nearest", "trainable": true}, "class_name": "UpSampling2D", "inbound_nodes": [[["decoder_stage2_relu2", 0, 0, {}]]]}, {"name": "concatenate_4", "config": {"axis": -1, "name": "concatenate_4", "trainable": true}, "class_name": "Concatenate", "inbound_nodes": [[["decoder_stage3_upsample", 0, 0, {}], ["relu0", 0, 0, {}]]]}, {"name": "decoder_stage3_conv1", "config": {"padding": "same", "bias_constraint": null, "kernel_constraint": null, "kernel_regularizer": null, "strides": [1, 1], "data_format": "channels_last", "trainable": true, "kernel_initializer": {"config": {"mode": "fan_avg", "scale": 1.0, "seed": null, "distribution": "uniform"}, "class_name": "VarianceScaling"}, "filters": 32, "dilation_rate": [1, 1], "kernel_size": [3, 3], "activity_regularizer": null, "activation": "linear", "name": "decoder_stage3_conv1", "bias_initializer": {"config": {}, "class_name": "Zeros"}, "use_bias": false, "bias_regularizer": null}, "class_name": "Conv2D", "inbound_nodes": [[["concatenate_4", 0, 0, {}]]]}, {"name": "decoder_stage3_bn1", "config": {"beta_constraint": null, "name": "decoder_stage3_bn1", "moving_mean_initializer": {"config": {}, "class_name": "Zeros"}, "scale": true, "moving_variance_initializer": {"config": {}, "class_name": "Ones"}, "epsilon": 0.001, "gamma_initializer": {"config": {}, "class_name": "Ones"}, "axis": -1, "center": true, "gamma_constraint": null, "trainable": true, "beta_initializer": {"config": {}, "class_name": "Zeros"}, "momentum": 0.99, "beta_regularizer": null, "gamma_regularizer": null}, "class_name": "BatchNormalization", "inbound_nodes": [[["decoder_stage3_conv1", 0, 0, {}]]]}, {"name": "decoder_stage3_relu1", "config": {"activation": "relu", "name": "decoder_stage3_relu1", "trainable": true}, "class_name": "Activation", "inbound_nodes": [[["decoder_stage3_bn1", 0, 0, {}]]]}, {"name": "decoder_stage3_conv2", "config": {"padding": "same", "bias_constraint": null, "kernel_constraint": null, "kernel_regularizer": null, "strides": [1, 1], "data_format": "channels_last", "trainable": true, "kernel_initializer": {"config": {"mode": "fan_avg", "scale": 1.0, "seed": null, "distribution": "uniform"}, "class_name": "VarianceScaling"}, "filters": 32, "dilation_rate": [1, 1], "kernel_size": [3, 3], "activity_regularizer": null, "activation": "linear", "name": "decoder_stage3_conv2", "bias_initializer": {"config": {}, "class_name": "Zeros"}, "use_bias": false, "bias_regularizer": null}, "class_name": "Conv2D", "inbound_nodes": [[["decoder_stage3_relu1", 0, 0, {}]]]}, {"name": "decoder_stage3_bn2", "config": {"beta_constraint": null, "name": "decoder_stage3_bn2", "moving_mean_initializer": {"config": {}, "class_name": "Zeros"}, "scale": true, "moving_variance_initializer": {"config": {}, "class_name": "Ones"}, "epsilon": 0.001, "gamma_initializer": {"config": {}, "class_name": "Ones"}, "axis": -1, "center": true, "gamma_constraint": null, "trainable": true, "beta_initializer": {"config": {}, "class_name": "Zeros"}, "momentum": 0.99, "beta_regularizer": null, "gamma_regularizer": null}, "class_name": "BatchNormalization", "inbound_nodes": [[["decoder_stage3_conv2", 0, 0, {}]]]}, {"name": "decoder_stage3_relu2", "config": {"activation": "relu", "name": "decoder_stage3_relu2", "trainable": true}, "class_name": "Activation", "inbound_nodes": [[["decoder_stage3_bn2", 0, 0, {}]]]}, {"name": "decoder_stage4_upsample", "config": {"name": "decoder_stage4_upsample", "data_format": "channels_last", "size": [2, 2], "interpolation": "nearest", "trainable": true}, "class_name": "UpSampling2D", "inbound_nodes": [[["decoder_stage3_relu2", 0, 0, {}]]]}, {"name": "decoder_stage4_conv1", "config": {"padding": "same", "bias_constraint": null, "kernel_constraint": null, "kernel_regularizer": null, "strides": [1, 1], "data_format": "channels_last", "trainable": true, "kernel_initializer": {"config": {"mode": "fan_avg", "scale": 1.0, "seed": null, "distribution": "uniform"}, "class_name": "VarianceScaling"}, "filters": 16, "dilation_rate": [1, 1], "kernel_size": [3, 3], "activity_regularizer": null, "activation": "linear", "name": "decoder_stage4_conv1", "bias_initializer": {"config": {}, "class_name": "Zeros"}, "use_bias": false, "bias_regularizer": null}, "class_name": "Conv2D", "inbound_nodes": [[["decoder_stage4_upsample", 0, 0, {}]]]}, {"name": "decoder_stage4_bn1", "config": {"beta_constraint": null, "name": "decoder_stage4_bn1", "moving_mean_initializer": {"config": {}, "class_name": "Zeros"}, "scale": true, "moving_variance_initializer": {"config": {}, "class_name": "Ones"}, "epsilon": 0.001, "gamma_initializer": {"config": {}, "class_name": "Ones"}, "axis": -1, "center": true, "gamma_constraint": null, "trainable": true, "beta_initializer": {"config": {}, "class_name": "Zeros"}, "momentum": 0.99, "beta_regularizer": null, "gamma_regularizer": null}, "class_name": "BatchNormalization", "inbound_nodes": [[["decoder_stage4_conv1", 0, 0, {}]]]}, {"name": "decoder_stage4_relu1", "config": {"activation": "relu", "name": "decoder_stage4_relu1", "trainable": true}, "class_name": "Activation", "inbound_nodes": [[["decoder_stage4_bn1", 0, 0, {}]]]}, {"name": "decoder_stage4_conv2", "config": {"padding": "same", "bias_constraint": null, "kernel_constraint": null, "kernel_regularizer": null, "strides": [1, 1], "data_format": "channels_last", "trainable": true, "kernel_initializer": {"config": {"mode": "fan_avg", "scale": 1.0, "seed": null, "distribution": "uniform"}, "class_name": "VarianceScaling"}, "filters": 16, "dilation_rate": [1, 1], "kernel_size": [3, 3], "activity_regularizer": null, "activation": "linear", "name": "decoder_stage4_conv2", "bias_initializer": {"config": {}, "class_name": "Zeros"}, "use_bias": false, "bias_regularizer": null}, "class_name": "Conv2D", "inbound_nodes": [[["decoder_stage4_relu1", 0, 0, {}]]]}, {"name": "decoder_stage4_bn2", "config": {"beta_constraint": null, "name": "decoder_stage4_bn2", "moving_mean_initializer": {"config": {}, "class_name": "Zeros"}, "scale": true, "moving_variance_initializer": {"config": {}, "class_name": "Ones"}, "epsilon": 0.001, "gamma_initializer": {"config": {}, "class_name": "Ones"}, "axis": -1, "center": true, "gamma_constraint": null, "trainable": true, "beta_initializer": {"config": {}, "class_name": "Zeros"}, "momentum": 0.99, "beta_regularizer": null, "gamma_regularizer": null}, "class_name": "BatchNormalization", "inbound_nodes": [[["decoder_stage4_conv2", 0, 0, {}]]]}, {"name": "decoder_stage4_relu2", "config": {"activation": "relu", "name": "decoder_stage4_relu2", "trainable": true}, "class_name": "Activation", "inbound_nodes": [[["decoder_stage4_bn2", 0, 0, {}]]]}, {"name": "final_conv", "config": {"padding": "same", "bias_constraint": null, "kernel_constraint": null, "kernel_regularizer": null, "strides": [1, 1], "data_format": "channels_last", "trainable": true, "kernel_initializer": {"config": {"mode": "fan_avg", "scale": 1.0, "seed": null, "distribution": "uniform"}, "class_name": "VarianceScaling"}, "filters": 1, "dilation_rate": [1, 1], "kernel_size": [3, 3], "activity_regularizer": null, "activation": "linear", "name": "final_conv", "bias_initializer": {"config": {}, "class_name": "Zeros"}, "use_bias": true, "bias_regularizer": null}, "class_name": "Conv2D", "inbound_nodes": [[["decoder_stage4_relu2", 0, 0, {}]]]}, {"name": "sigmoid", "config": {"activation": "sigmoid", "name": "sigmoid", "trainable": true}, "class_name": "Activation", "inbound_nodes": [[["final_conv", 0, 0, {}]]]}]}, "backend": "tensorflow", "class_name": "Model"}