{"keras_version": "2.2.4", "config": {"name": "u-resnet18", "input_layers": [["data", 0, 0]], "layers": [{"name": "data", "inbound_nodes": [], "config": {"batch_input_shape": [null, null, null, 3], "name": "data", "dtype": "float32", "sparse": false}, "class_name": "InputLayer"}, {"name": "bn_data", "inbound_nodes": [[["data", 0, 0, {}]]], "config": {"beta_regularizer": null, "center": true, "scale": false, "moving_mean_initializer": {"config": {}, "class_name": "Zeros"}, "gamma_regularizer": null, "gamma_initializer": {"config": {}, "class_name": "Ones"}, "beta_constraint": null, "trainable": true, "name": "bn_data", "beta_initializer": {"config": {}, "class_name": "Zeros"}, "axis": 3, "momentum": 0.99, "epsilon": 2e-05, "gamma_constraint": null, "moving_variance_initializer": {"config": {}, "class_name": "Ones"}}, "class_name": "BatchNormalization"}, {"name": "zero_padding2d_37", "inbound_nodes": [[["bn_data", 0, 0, {}]]], "config": {"data_format": "channels_last", "name": "zero_padding2d_37", "trainable": true, "padding": [[3, 3], [3, 3]]}, "class_name": "ZeroPadding2D"}, {"name": "conv0", "inbound_nodes": [[["zero_padding2d_37", 0, 0, {}]]], "config": {"data_format": "channels_last", "kernel_regularizer": null, "strides": [2, 2], "activity_regularizer": null, "kernel_initializer": {"config": {"mode": "fan_in", "distribution": "uniform", "seed": null, "scale": 2.0}, "class_name": "VarianceScaling"}, "trainable": true, "bias_initializer": {"config": {}, "class_name": "Zeros"}, "name": "conv0", "bias_regularizer": null, "filters": 64, "use_bias": false, "padding": "valid", "activation": "linear", "kernel_size": [7, 7], "kernel_constraint": null, "dilation_rate": [1, 1], "bias_constraint": null}, "class_name": "Conv2D"}, {"name": "bn0", "inbound_nodes": [[["conv0", 0, 0, {}]]], "config": {"beta_regularizer": null, "center": true, "scale": true, "moving_mean_initializer": {"config": {}, "class_name": "Zeros"}, "gamma_regularizer": null, "gamma_initializer": {"config": {}, "class_name": "Ones"}, "beta_constraint": null, "trainable": true, "name": "bn0", "beta_initializer": {"config": {}, "class_name": "Zeros"}, "axis": 3, "momentum": 0.99, "epsilon": 2e-05, "gamma_constraint": null, "moving_variance_initializer": {"config": {}, "class_name": "Ones"}}, "class_name": "BatchNormalization"}, {"name": "relu0", "inbound_nodes": [[["bn0", 0, 0, {}]]], "config": {"name": "relu0", "activation": "relu", "trainable": true}, "class_name": "Activation"}, {"name": "zero_padding2d_38", "inbound_nodes": [[["relu0", 0, 0, {}]]], "config": {"data_format": "channels_last", "name": "zero_padding2d_38", "trainable": true, "padding": [[1, 1], [1, 1]]}, "class_name": "ZeroPadding2D"}, {"name": "pooling0", "inbound_nodes": [[["zero_padding2d_38", 0, 0, {}]]], "config": {"data_format": "channels_last", "name": "pooling0", "strides": [2, 2], "padding": "valid", "pool_size": [3, 3], "trainable": true}, "class_name": "MaxPooling2D"}, {"name": "stage1_unit1_bn1", "inbound_nodes": [[["pooling0", 0, 0, {}]]], "config": {"beta_regularizer": null, "center": true, "scale": true, "moving_mean_initializer": {"config": {}, "class_name": "Zeros"}, "gamma_regularizer": null, "gamma_initializer": {"config": {}, "class_name": "Ones"}, "beta_constraint": null, "trainable": true, "name": "stage1_unit1_bn1", "beta_initializer": {"config": {}, "class_name": "Zeros"}, "axis": 3, "momentum": 0.99, "epsilon": 2e-05, "gamma_constraint": null, "moving_variance_initializer": {"config": {}, "class_name": "Ones"}}, "class_name": "BatchNormalization"}, {"name": "stage1_unit1_relu1", "inbound_nodes": [[["stage1_unit1_bn1", 0, 0, {}]]], "config": {"name": "stage1_unit1_relu1", "activation": "relu", "trainable": true}, "class_name": "Activation"}, {"name": "zero_padding2d_39", "inbound_nodes": [[["stage1_unit1_relu1", 0, 0, {}]]], "config": {"data_format": "channels_last", "name": "zero_padding2d_39", "trainable": true, "padding": [[1, 1], [1, 1]]}, "class_name": "ZeroPadding2D"}, {"name": "stage1_unit1_conv1", "inbound_nodes": [[["zero_padding2d_39", 0, 0, {}]]], "config": {"data_format": "channels_last", "kernel_regularizer": null, "strides": [1, 1], "activity_regularizer": null, "kernel_initializer": {"config": {"mode": "fan_in", "distribution": "uniform", "seed": null, "scale": 2.0}, "class_name": "VarianceScaling"}, "trainable": true, "bias_initializer": {"config": {}, "class_name": "Zeros"}, "name": "stage1_unit1_conv1", "bias_regularizer": null, "filters": 64, "use_bias": false, "padding": "valid", "activation": "linear", "kernel_size": [3, 3], "kernel_constraint": null, "dilation_rate": [1, 1], "bias_constraint": null}, "class_name": "Conv2D"}, {"name": "stage1_unit1_bn2", "inbound_nodes": [[["stage1_unit1_conv1", 0, 0, {}]]], "config": {"beta_regularizer": null, "center": true, "scale": true, "moving_mean_initializer": {"config": {}, "class_name": "Zeros"}, "gamma_regularizer": null, "gamma_initializer": {"config": {}, "class_name": "Ones"}, "beta_constraint": null, "trainable": true, "name": "stage1_unit1_bn2", "beta_initializer": {"config": {}, "class_name": "Zeros"}, "axis": 3, "momentum": 0.99, "epsilon": 2e-05, "gamma_constraint": null, "moving_variance_initializer": {"config": {}, "class_name": "Ones"}}, "class_name": "BatchNormalization"}, {"name": "stage1_unit1_relu2", "inbound_nodes": [[["stage1_unit1_bn2", 0, 0, {}]]], "config": {"name": "stage1_unit1_relu2", "activation": "relu", "trainable": true}, "class_name": "Activation"}, {"name": "zero_padding2d_40", "inbound_nodes": [[["stage1_unit1_relu2", 0, 0, {}]]], "config": {"data_format": "channels_last", "name": "zero_padding2d_40", "trainable": true, "padding": [[1, 1], [1, 1]]}, "class_name": "ZeroPadding2D"}, {"name": "stage1_unit1_conv2", "inbound_nodes": [[["zero_padding2d_40", 0, 0, {}]]], "config": {"data_format": "channels_last", "kernel_regularizer": null, "strides": [1, 1], "activity_regularizer": null, "kernel_initializer": {"config": {"mode": "fan_in", "distribution": "uniform", "seed": null, "scale": 2.0}, "class_name": "VarianceScaling"}, "trainable": true, "bias_initializer": {"config": {}, "class_name": "Zeros"}, "name": "stage1_unit1_conv2", "bias_regularizer": null, "filters": 64, "use_bias": false, "padding": "valid", "activation": "linear", "kernel_size": [3, 3], "kernel_constraint": null, "dilation_rate": [1, 1], "bias_constraint": null}, "class_name": "Conv2D"}, {"name": "stage1_unit1_sc", "inbound_nodes": [[["stage1_unit1_relu1", 0, 0, {}]]], "config": {"data_format": "channels_last", "kernel_regularizer": null, "strides": [1, 1], "activity_regularizer": null, "kernel_initializer": {"config": {"mode": "fan_in", "distribution": "uniform", "seed": null, "scale": 2.0}, "class_name": "VarianceScaling"}, "trainable": true, "bias_initializer": {"config": {}, "class_name": "Zeros"}, "name": "stage1_unit1_sc", "bias_regularizer": null, "filters": 64, "use_bias": false, "padding": "valid", "activation": "linear", "kernel_size": [1, 1], "kernel_constraint": null, "dilation_rate": [1, 1], "bias_constraint": null}, "class_name": "Conv2D"}, {"name": "add_17", "inbound_nodes": [[["stage1_unit1_conv2", 0, 0, {}], ["stage1_unit1_sc", 0, 0, {}]]], "config": {"name": "add_17", "trainable": true}, "class_name": "Add"}, {"name": "stage1_unit2_bn1", "inbound_nodes": [[["add_17", 0, 0, {}]]], "config": {"beta_regularizer": null, "center": true, "scale": true, "moving_mean_initializer": {"config": {}, "class_name": "Zeros"}, "gamma_regularizer": null, "gamma_initializer": {"config": {}, "class_name": "Ones"}, "beta_constraint": null, "trainable": true, "name": "stage1_unit2_bn1", "beta_initializer": {"config": {}, "class_name": "Zeros"}, "axis": 3, "momentum": 0.99, "epsilon": 2e-05, "gamma_constraint": null, "moving_variance_initializer": {"config": {}, "class_name": "Ones"}}, "class_name": "BatchNormalization"}, {"name": "stage1_unit2_relu1", "inbound_nodes": [[["stage1_unit2_bn1", 0, 0, {}]]], "config": {"name": "stage1_unit2_relu1", "activation": "relu", "trainable": true}, "class_name": "Activation"}, {"name": "zero_padding2d_41", "inbound_nodes": [[["stage1_unit2_relu1", 0, 0, {}]]], "config": {"data_format": "channels_last", "name": "zero_padding2d_41", "trainable": true, "padding": [[1, 1], [1, 1]]}, "class_name": "ZeroPadding2D"}, {"name": "stage1_unit2_conv1", "inbound_nodes": [[["zero_padding2d_41", 0, 0, {}]]], "config": {"data_format": "channels_last", "kernel_regularizer": null, "strides": [1, 1], "activity_regularizer": null, "kernel_initializer": {"config": {"mode": "fan_in", "distribution": "uniform", "seed": null, "scale": 2.0}, "class_name": "VarianceScaling"}, "trainable": true, "bias_initializer": {"config": {}, "class_name": "Zeros"}, "name": "stage1_unit2_conv1", "bias_regularizer": null, "filters": 64, "use_bias": false, "padding": "valid", "activation": "linear", "kernel_size": [3, 3], "kernel_constraint": null, "dilation_rate": [1, 1], "bias_constraint": null}, "class_name": "Conv2D"}, {"name": "stage1_unit2_bn2", "inbound_nodes": [[["stage1_unit2_conv1", 0, 0, {}]]], "config": {"beta_regularizer": null, "center": true, "scale": true, "moving_mean_initializer": {"config": {}, "class_name": "Zeros"}, "gamma_regularizer": null, "gamma_initializer": {"config": {}, "class_name": "Ones"}, "beta_constraint": null, "trainable": true, "name": "stage1_unit2_bn2", "beta_initializer": {"config": {}, "class_name": "Zeros"}, "axis": 3, "momentum": 0.99, "epsilon": 2e-05, "gamma_constraint": null, "moving_variance_initializer": {"config": {}, "class_name": "Ones"}}, "class_name": "BatchNormalization"}, {"name": "stage1_unit2_relu2", "inbound_nodes": [[["stage1_unit2_bn2", 0, 0, {}]]], "config": {"name": "stage1_unit2_relu2", "activation": "relu", "trainable": true}, "class_name": "Activation"}, {"name": "zero_padding2d_42", "inbound_nodes": [[["stage1_unit2_relu2", 0, 0, {}]]], "config": {"data_format": "channels_last", "name": "zero_padding2d_42", "trainable": true, "padding": [[1, 1], [1, 1]]}, "class_name": "ZeroPadding2D"}, {"name": "stage1_unit2_conv2", "inbound_nodes": [[["zero_padding2d_42", 0, 0, {}]]], "config": {"data_format": "channels_last", "kernel_regularizer": null, "strides": [1, 1], "activity_regularizer": null, "kernel_initializer": {"config": {"mode": "fan_in", "distribution": "uniform", "seed": null, "scale": 2.0}, "class_name": "VarianceScaling"}, "trainable": true, "bias_initializer": {"config": {}, "class_name": "Zeros"}, "name": "stage1_unit2_conv2", "bias_regularizer": null, "filters": 64, "use_bias": false, "padding": "valid", "activation": "linear", "kernel_size": [3, 3], "kernel_constraint": null, "dilation_rate": [1, 1], "bias_constraint": null}, "class_name": "Conv2D"}, {"name": "add_18", "inbound_nodes": [[["stage1_unit2_conv2", 0, 0, {}], ["add_17", 0, 0, {}]]], "config": {"name": "add_18", "trainable": true}, "class_name": "Add"}, {"name": "stage2_unit1_bn1", "inbound_nodes": [[["add_18", 0, 0, {}]]], "config": {"beta_regularizer": null, "center": true, "scale": true, "moving_mean_initializer": {"config": {}, "class_name": "Zeros"}, "gamma_regularizer": null, "gamma_initializer": {"config": {}, "class_name": "Ones"}, "beta_constraint": null, "trainable": true, "name": "stage2_unit1_bn1", "beta_initializer": {"config": {}, "class_name": "Zeros"}, "axis": 3, "momentum": 0.99, "epsilon": 2e-05, "gamma_constraint": null, "moving_variance_initializer": {"config": {}, "class_name": "Ones"}}, "class_name": "BatchNormalization"}, {"name": "stage2_unit1_relu1", "inbound_nodes": [[["stage2_unit1_bn1", 0, 0, {}]]], "config": {"name": "stage2_unit1_relu1", "activation": "relu", "trainable": true}, "class_name": "Activation"}, {"name": "zero_padding2d_43", "inbound_nodes": [[["stage2_unit1_relu1", 0, 0, {}]]], "config": {"data_format": "channels_last", "name": "zero_padding2d_43", "trainable": true, "padding": [[1, 1], [1, 1]]}, "class_name": "ZeroPadding2D"}, {"name": "stage2_unit1_conv1", "inbound_nodes": [[["zero_padding2d_43", 0, 0, {}]]], "config": {"data_format": "channels_last", "kernel_regularizer": null, "strides": [2, 2], "activity_regularizer": null, "kernel_initializer": {"config": {"mode": "fan_in", "distribution": "uniform", "seed": null, "scale": 2.0}, "class_name": "VarianceScaling"}, "trainable": true, "bias_initializer": {"config": {}, "class_name": "Zeros"}, "name": "stage2_unit1_conv1", "bias_regularizer": null, "filters": 128, "use_bias": false, "padding": "valid", "activation": "linear", "kernel_size": [3, 3], "kernel_constraint": null, "dilation_rate": [1, 1], "bias_constraint": null}, "class_name": "Conv2D"}, {"name": "stage2_unit1_bn2", "inbound_nodes": [[["stage2_unit1_conv1", 0, 0, {}]]], "config": {"beta_regularizer": null, "center": true, "scale": true, "moving_mean_initializer": {"config": {}, "class_name": "Zeros"}, "gamma_regularizer": null, "gamma_initializer": {"config": {}, "class_name": "Ones"}, "beta_constraint": null, "trainable": true, "name": "stage2_unit1_bn2", "beta_initializer": {"config": {}, "class_name": "Zeros"}, "axis": 3, "momentum": 0.99, "epsilon": 2e-05, "gamma_constraint": null, "moving_variance_initializer": {"config": {}, "class_name": "Ones"}}, "class_name": "BatchNormalization"}, {"name": "stage2_unit1_relu2", "inbound_nodes": [[["stage2_unit1_bn2", 0, 0, {}]]], "config": {"name": "stage2_unit1_relu2", "activation": "relu", "trainable": true}, "class_name": "Activation"}, {"name": "zero_padding2d_44", "inbound_nodes": [[["stage2_unit1_relu2", 0, 0, {}]]], "config": {"data_format": "channels_last", "name": "zero_padding2d_44", "trainable": true, "padding": [[1, 1], [1, 1]]}, "class_name": "ZeroPadding2D"}, {"name": "stage2_unit1_conv2", "inbound_nodes": [[["zero_padding2d_44", 0, 0, {}]]], "config": {"data_format": "channels_last", "kernel_regularizer": null, "strides": [1, 1], "activity_regularizer": null, "kernel_initializer": {"config": {"mode": "fan_in", "distribution": "uniform", "seed": null, "scale": 2.0}, "class_name": "VarianceScaling"}, "trainable": true, "bias_initializer": {"config": {}, "class_name": "Zeros"}, "name": "stage2_unit1_conv2", "bias_regularizer": null, "filters": 128, "use_bias": false, "padding": "valid", "activation": "linear", "kernel_size": [3, 3], "kernel_constraint": null, "dilation_rate": [1, 1], "bias_constraint": null}, "class_name": "Conv2D"}, {"name": "stage2_unit1_sc", "inbound_nodes": [[["stage2_unit1_relu1", 0, 0, {}]]], "config": {"data_format": "channels_last", "kernel_regularizer": null, "strides": [2, 2], "activity_regularizer": null, "kernel_initializer": {"config": {"mode": "fan_in", "distribution": "uniform", "seed": null, "scale": 2.0}, "class_name": "VarianceScaling"}, "trainable": true, "bias_initializer": {"config": {}, "class_name": "Zeros"}, "name": "stage2_unit1_sc", "bias_regularizer": null, "filters": 128, "use_bias": false, "padding": "valid", "activation": "linear", "kernel_size": [1, 1], "kernel_constraint": null, "dilation_rate": [1, 1], "bias_constraint": null}, "class_name": "Conv2D"}, {"name": "add_19", "inbound_nodes": [[["stage2_unit1_conv2", 0, 0, {}], ["stage2_unit1_sc", 0, 0, {}]]], "config": {"name": "add_19", "trainable": true}, "class_name": "Add"}, {"name": "stage2_unit2_bn1", "inbound_nodes": [[["add_19", 0, 0, {}]]], "config": {"beta_regularizer": null, "center": true, "scale": true, "moving_mean_initializer": {"config": {}, "class_name": "Zeros"}, "gamma_regularizer": null, "gamma_initializer": {"config": {}, "class_name": "Ones"}, "beta_constraint": null, "trainable": true, "name": "stage2_unit2_bn1", "beta_initializer": {"config": {}, "class_name": "Zeros"}, "axis": 3, "momentum": 0.99, "epsilon": 2e-05, "gamma_constraint": null, "moving_variance_initializer": {"config": {}, "class_name": "Ones"}}, "class_name": "BatchNormalization"}, {"name": "stage2_unit2_relu1", "inbound_nodes": [[["stage2_unit2_bn1", 0, 0, {}]]], "config": {"name": "stage2_unit2_relu1", "activation": "relu", "trainable": true}, "class_name": "Activation"}, {"name": "zero_padding2d_45", "inbound_nodes": [[["stage2_unit2_relu1", 0, 0, {}]]], "config": {"data_format": "channels_last", "name": "zero_padding2d_45", "trainable": true, "padding": [[1, 1], [1, 1]]}, "class_name": "ZeroPadding2D"}, {"name": "stage2_unit2_conv1", "inbound_nodes": [[["zero_padding2d_45", 0, 0, {}]]], "config": {"data_format": "channels_last", "kernel_regularizer": null, "strides": [1, 1], "activity_regularizer": null, "kernel_initializer": {"config": {"mode": "fan_in", "distribution": "uniform", "seed": null, "scale": 2.0}, "class_name": "VarianceScaling"}, "trainable": true, "bias_initializer": {"config": {}, "class_name": "Zeros"}, "name": "stage2_unit2_conv1", "bias_regularizer": null, "filters": 128, "use_bias": false, "padding": "valid", "activation": "linear", "kernel_size": [3, 3], "kernel_constraint": null, "dilation_rate": [1, 1], "bias_constraint": null}, "class_name": "Conv2D"}, {"name": "stage2_unit2_bn2", "inbound_nodes": [[["stage2_unit2_conv1", 0, 0, {}]]], "config": {"beta_regularizer": null, "center": true, "scale": true, "moving_mean_initializer": {"config": {}, "class_name": "Zeros"}, "gamma_regularizer": null, "gamma_initializer": {"config": {}, "class_name": "Ones"}, "beta_constraint": null, "trainable": true, "name": "stage2_unit2_bn2", "beta_initializer": {"config": {}, "class_name": "Zeros"}, "axis": 3, "momentum": 0.99, "epsilon": 2e-05, "gamma_constraint": null, "moving_variance_initializer": {"config": {}, "class_name": "Ones"}}, "class_name": "BatchNormalization"}, {"name": "stage2_unit2_relu2", "inbound_nodes": [[["stage2_unit2_bn2", 0, 0, {}]]], "config": {"name": "stage2_unit2_relu2", "activation": "relu", "trainable": true}, "class_name": "Activation"}, {"name": "zero_padding2d_46", "inbound_nodes": [[["stage2_unit2_relu2", 0, 0, {}]]], "config": {"data_format": "channels_last", "name": "zero_padding2d_46", "trainable": true, "padding": [[1, 1], [1, 1]]}, "class_name": "ZeroPadding2D"}, {"name": "stage2_unit2_conv2", "inbound_nodes": [[["zero_padding2d_46", 0, 0, {}]]], "config": {"data_format": "channels_last", "kernel_regularizer": null, "strides": [1, 1], "activity_regularizer": null, "kernel_initializer": {"config": {"mode": "fan_in", "distribution": "uniform", "seed": null, "scale": 2.0}, "class_name": "VarianceScaling"}, "trainable": true, "bias_initializer": {"config": {}, "class_name": "Zeros"}, "name": "stage2_unit2_conv2", "bias_regularizer": null, "filters": 128, "use_bias": false, "padding": "valid", "activation": "linear", "kernel_size": [3, 3], "kernel_constraint": null, "dilation_rate": [1, 1], "bias_constraint": null}, "class_name": "Conv2D"}, {"name": "add_20", "inbound_nodes": [[["stage2_unit2_conv2", 0, 0, {}], ["add_19", 0, 0, {}]]], "config": {"name": "add_20", "trainable": true}, "class_name": "Add"}, {"name": "stage3_unit1_bn1", "inbound_nodes": [[["add_20", 0, 0, {}]]], "config": {"beta_regularizer": null, "center": true, "scale": true, "moving_mean_initializer": {"config": {}, "class_name": "Zeros"}, "gamma_regularizer": null, "gamma_initializer": {"config": {}, "class_name": "Ones"}, "beta_constraint": null, "trainable": true, "name": "stage3_unit1_bn1", "beta_initializer": {"config": {}, "class_name": "Zeros"}, "axis": 3, "momentum": 0.99, "epsilon": 2e-05, "gamma_constraint": null, "moving_variance_initializer": {"config": {}, "class_name": "Ones"}}, "class_name": "BatchNormalization"}, {"name": "stage3_unit1_relu1", "inbound_nodes": [[["stage3_unit1_bn1", 0, 0, {}]]], "config": {"name": "stage3_unit1_relu1", "activation": "relu", "trainable": true}, "class_name": "Activation"}, {"name": "zero_padding2d_47", "inbound_nodes": [[["stage3_unit1_relu1", 0, 0, {}]]], "config": {"data_format": "channels_last", "name": "zero_padding2d_47", "trainable": true, "padding": [[1, 1], [1, 1]]}, "class_name": "ZeroPadding2D"}, {"name": "stage3_unit1_conv1", "inbound_nodes": [[["zero_padding2d_47", 0, 0, {}]]], "config": {"data_format": "channels_last", "kernel_regularizer": null, "strides": [2, 2], "activity_regularizer": null, "kernel_initializer": {"config": {"mode": "fan_in", "distribution": "uniform", "seed": null, "scale": 2.0}, "class_name": "VarianceScaling"}, "trainable": true, "bias_initializer": {"config": {}, "class_name": "Zeros"}, "name": "stage3_unit1_conv1", "bias_regularizer": null, "filters": 256, "use_bias": false, "padding": "valid", "activation": "linear", "kernel_size": [3, 3], "kernel_constraint": null, "dilation_rate": [1, 1], "bias_constraint": null}, "class_name": "Conv2D"}, {"name": "stage3_unit1_bn2", "inbound_nodes": [[["stage3_unit1_conv1", 0, 0, {}]]], "config": {"beta_regularizer": null, "center": true, "scale": true, "moving_mean_initializer": {"config": {}, "class_name": "Zeros"}, "gamma_regularizer": null, "gamma_initializer": {"config": {}, "class_name": "Ones"}, "beta_constraint": null, "trainable": true, "name": "stage3_unit1_bn2", "beta_initializer": {"config": {}, "class_name": "Zeros"}, "axis": 3, "momentum": 0.99, "epsilon": 2e-05, "gamma_constraint": null, "moving_variance_initializer": {"config": {}, "class_name": "Ones"}}, "class_name": "BatchNormalization"}, {"name": "stage3_unit1_relu2", "inbound_nodes": [[["stage3_unit1_bn2", 0, 0, {}]]], "config": {"name": "stage3_unit1_relu2", "activation": "relu", "trainable": true}, "class_name": "Activation"}, {"name": "zero_padding2d_48", "inbound_nodes": [[["stage3_unit1_relu2", 0, 0, {}]]], "config": {"data_format": "channels_last", "name": "zero_padding2d_48", "trainable": true, "padding": [[1, 1], [1, 1]]}, "class_name": "ZeroPadding2D"}, {"name": "stage3_unit1_conv2", "inbound_nodes": [[["zero_padding2d_48", 0, 0, {}]]], "config": {"data_format": "channels_last", "kernel_regularizer": null, "strides": [1, 1], "activity_regularizer": null, "kernel_initializer": {"config": {"mode": "fan_in", "distribution": "uniform", "seed": null, "scale": 2.0}, "class_name": "VarianceScaling"}, "trainable": true, "bias_initializer": {"config": {}, "class_name": "Zeros"}, "name": "stage3_unit1_conv2", "bias_regularizer": null, "filters": 256, "use_bias": false, "padding": "valid", "activation": "linear", "kernel_size": [3, 3], "kernel_constraint": null, "dilation_rate": [1, 1], "bias_constraint": null}, "class_name": "Conv2D"}, {"name": "stage3_unit1_sc", "inbound_nodes": [[["stage3_unit1_relu1", 0, 0, {}]]], "config": {"data_format": "channels_last", "kernel_regularizer": null, "strides": [2, 2], "activity_regularizer": null, "kernel_initializer": {"config": {"mode": "fan_in", "distribution": "uniform", "seed": null, "scale": 2.0}, "class_name": "VarianceScaling"}, "trainable": true, "bias_initializer": {"config": {}, "class_name": "Zeros"}, "name": "stage3_unit1_sc", "bias_regularizer": null, "filters": 256, "use_bias": false, "padding": "valid", "activation": "linear", "kernel_size": [1, 1], "kernel_constraint": null, "dilation_rate": [1, 1], "bias_constraint": null}, "class_name": "Conv2D"}, {"name": "add_21", "inbound_nodes": [[["stage3_unit1_conv2", 0, 0, {}], ["stage3_unit1_sc", 0, 0, {}]]], "config": {"name": "add_21", "trainable": true}, "class_name": "Add"}, {"name": "stage3_unit2_bn1", "inbound_nodes": [[["add_21", 0, 0, {}]]], "config": {"beta_regularizer": null, "center": true, "scale": true, "moving_mean_initializer": {"config": {}, "class_name": "Zeros"}, "gamma_regularizer": null, "gamma_initializer": {"config": {}, "class_name": "Ones"}, "beta_constraint": null, "trainable": true, "name": "stage3_unit2_bn1", "beta_initializer": {"config": {}, "class_name": "Zeros"}, "axis": 3, "momentum": 0.99, "epsilon": 2e-05, "gamma_constraint": null, "moving_variance_initializer": {"config": {}, "class_name": "Ones"}}, "class_name": "BatchNormalization"}, {"name": "stage3_unit2_relu1", "inbound_nodes": [[["stage3_unit2_bn1", 0, 0, {}]]], "config": {"name": "stage3_unit2_relu1", "activation": "relu", "trainable": true}, "class_name": "Activation"}, {"name": "zero_padding2d_49", "inbound_nodes": [[["stage3_unit2_relu1", 0, 0, {}]]], "config": {"data_format": "channels_last", "name": "zero_padding2d_49", "trainable": true, "padding": [[1, 1], [1, 1]]}, "class_name": "ZeroPadding2D"}, {"name": "stage3_unit2_conv1", "inbound_nodes": [[["zero_padding2d_49", 0, 0, {}]]], "config": {"data_format": "channels_last", "kernel_regularizer": null, "strides": [1, 1], "activity_regularizer": null, "kernel_initializer": {"config": {"mode": "fan_in", "distribution": "uniform", "seed": null, "scale": 2.0}, "class_name": "VarianceScaling"}, "trainable": true, "bias_initializer": {"config": {}, "class_name": "Zeros"}, "name": "stage3_unit2_conv1", "bias_regularizer": null, "filters": 256, "use_bias": false, "padding": "valid", "activation": "linear", "kernel_size": [3, 3], "kernel_constraint": null, "dilation_rate": [1, 1], "bias_constraint": null}, "class_name": "Conv2D"}, {"name": "stage3_unit2_bn2", "inbound_nodes": [[["stage3_unit2_conv1", 0, 0, {}]]], "config": {"beta_regularizer": null, "center": true, "scale": true, "moving_mean_initializer": {"config": {}, "class_name": "Zeros"}, "gamma_regularizer": null, "gamma_initializer": {"config": {}, "class_name": "Ones"}, "beta_constraint": null, "trainable": true, "name": "stage3_unit2_bn2", "beta_initializer": {"config": {}, "class_name": "Zeros"}, "axis": 3, "momentum": 0.99, "epsilon": 2e-05, "gamma_constraint": null, "moving_variance_initializer": {"config": {}, "class_name": "Ones"}}, "class_name": "BatchNormalization"}, {"name": "stage3_unit2_relu2", "inbound_nodes": [[["stage3_unit2_bn2", 0, 0, {}]]], "config": {"name": "stage3_unit2_relu2", "activation": "relu", "trainable": true}, "class_name": "Activation"}, {"name": "zero_padding2d_50", "inbound_nodes": [[["stage3_unit2_relu2", 0, 0, {}]]], "config": {"data_format": "channels_last", "name": "zero_padding2d_50", "trainable": true, "padding": [[1, 1], [1, 1]]}, "class_name": "ZeroPadding2D"}, {"name": "stage3_unit2_conv2", "inbound_nodes": [[["zero_padding2d_50", 0, 0, {}]]], "config": {"data_format": "channels_last", "kernel_regularizer": null, "strides": [1, 1], "activity_regularizer": null, "kernel_initializer": {"config": {"mode": "fan_in", "distribution": "uniform", "seed": null, "scale": 2.0}, "class_name": "VarianceScaling"}, "trainable": true, "bias_initializer": {"config": {}, "class_name": "Zeros"}, "name": "stage3_unit2_conv2", "bias_regularizer": null, "filters": 256, "use_bias": false, "padding": "valid", "activation": "linear", "kernel_size": [3, 3], "kernel_constraint": null, "dilation_rate": [1, 1], "bias_constraint": null}, "class_name": "Conv2D"}, {"name": "add_22", "inbound_nodes": [[["stage3_unit2_conv2", 0, 0, {}], ["add_21", 0, 0, {}]]], "config": {"name": "add_22", "trainable": true}, "class_name": "Add"}, {"name": "stage4_unit1_bn1", "inbound_nodes": [[["add_22", 0, 0, {}]]], "config": {"beta_regularizer": null, "center": true, "scale": true, "moving_mean_initializer": {"config": {}, "class_name": "Zeros"}, "gamma_regularizer": null, "gamma_initializer": {"config": {}, "class_name": "Ones"}, "beta_constraint": null, "trainable": true, "name": "stage4_unit1_bn1", "beta_initializer": {"config": {}, "class_name": "Zeros"}, "axis": 3, "momentum": 0.99, "epsilon": 2e-05, "gamma_constraint": null, "moving_variance_initializer": {"config": {}, "class_name": "Ones"}}, "class_name": "BatchNormalization"}, {"name": "stage4_unit1_relu1", "inbound_nodes": [[["stage4_unit1_bn1", 0, 0, {}]]], "config": {"name": "stage4_unit1_relu1", "activation": "relu", "trainable": true}, "class_name": "Activation"}, {"name": "zero_padding2d_51", "inbound_nodes": [[["stage4_unit1_relu1", 0, 0, {}]]], "config": {"data_format": "channels_last", "name": "zero_padding2d_51", "trainable": true, "padding": [[1, 1], [1, 1]]}, "class_name": "ZeroPadding2D"}, {"name": "stage4_unit1_conv1", "inbound_nodes": [[["zero_padding2d_51", 0, 0, {}]]], "config": {"data_format": "channels_last", "kernel_regularizer": null, "strides": [2, 2], "activity_regularizer": null, "kernel_initializer": {"config": {"mode": "fan_in", "distribution": "uniform", "seed": null, "scale": 2.0}, "class_name": "VarianceScaling"}, "trainable": true, "bias_initializer": {"config": {}, "class_name": "Zeros"}, "name": "stage4_unit1_conv1", "bias_regularizer": null, "filters": 512, "use_bias": false, "padding": "valid", "activation": "linear", "kernel_size": [3, 3], "kernel_constraint": null, "dilation_rate": [1, 1], "bias_constraint": null}, "class_name": "Conv2D"}, {"name": "stage4_unit1_bn2", "inbound_nodes": [[["stage4_unit1_conv1", 0, 0, {}]]], "config": {"beta_regularizer": null, "center": true, "scale": true, "moving_mean_initializer": {"config": {}, "class_name": "Zeros"}, "gamma_regularizer": null, "gamma_initializer": {"config": {}, "class_name": "Ones"}, "beta_constraint": null, "trainable": true, "name": "stage4_unit1_bn2", "beta_initializer": {"config": {}, "class_name": "Zeros"}, "axis": 3, "momentum": 0.99, "epsilon": 2e-05, "gamma_constraint": null, "moving_variance_initializer": {"config": {}, "class_name": "Ones"}}, "class_name": "BatchNormalization"}, {"name": "stage4_unit1_relu2", "inbound_nodes": [[["stage4_unit1_bn2", 0, 0, {}]]], "config": {"name": "stage4_unit1_relu2", "activation": "relu", "trainable": true}, "class_name": "Activation"}, {"name": "zero_padding2d_52", "inbound_nodes": [[["stage4_unit1_relu2", 0, 0, {}]]], "config": {"data_format": "channels_last", "name": "zero_padding2d_52", "trainable": true, "padding": [[1, 1], [1, 1]]}, "class_name": "ZeroPadding2D"}, {"name": "stage4_unit1_conv2", "inbound_nodes": [[["zero_padding2d_52", 0, 0, {}]]], "config": {"data_format": "channels_last", "kernel_regularizer": null, "strides": [1, 1], "activity_regularizer": null, "kernel_initializer": {"config": {"mode": "fan_in", "distribution": "uniform", "seed": null, "scale": 2.0}, "class_name": "VarianceScaling"}, "trainable": true, "bias_initializer": {"config": {}, "class_name": "Zeros"}, "name": "stage4_unit1_conv2", "bias_regularizer": null, "filters": 512, "use_bias": false, "padding": "valid", "activation": "linear", "kernel_size": [3, 3], "kernel_constraint": null, "dilation_rate": [1, 1], "bias_constraint": null}, "class_name": "Conv2D"}, {"name": "stage4_unit1_sc", "inbound_nodes": [[["stage4_unit1_relu1", 0, 0, {}]]], "config": {"data_format": "channels_last", "kernel_regularizer": null, "strides": [2, 2], "activity_regularizer": null, "kernel_initializer": {"config": {"mode": "fan_in", "distribution": "uniform", "seed": null, "scale": 2.0}, "class_name": "VarianceScaling"}, "trainable": true, "bias_initializer": {"config": {}, "class_name": "Zeros"}, "name": "stage4_unit1_sc", "bias_regularizer": null, "filters": 512, "use_bias": false, "padding": "valid", "activation": "linear", "kernel_size": [1, 1], "kernel_constraint": null, "dilation_rate": [1, 1], "bias_constraint": null}, "class_name": "Conv2D"}, {"name": "add_23", "inbound_nodes": [[["stage4_unit1_conv2", 0, 0, {}], ["stage4_unit1_sc", 0, 0, {}]]], "config": {"name": "add_23", "trainable": true}, "class_name": "Add"}, {"name": "stage4_unit2_bn1", "inbound_nodes": [[["add_23", 0, 0, {}]]], "config": {"beta_regularizer": null, "center": true, "scale": true, "moving_mean_initializer": {"config": {}, "class_name": "Zeros"}, "gamma_regularizer": null, "gamma_initializer": {"config": {}, "class_name": "Ones"}, "beta_constraint": null, "trainable": true, "name": "stage4_unit2_bn1", "beta_initializer": {"config": {}, "class_name": "Zeros"}, "axis": 3, "momentum": 0.99, "epsilon": 2e-05, "gamma_constraint": null, "moving_variance_initializer": {"config": {}, "class_name": "Ones"}}, "class_name": "BatchNormalization"}, {"name": "stage4_unit2_relu1", "inbound_nodes": [[["stage4_unit2_bn1", 0, 0, {}]]], "config": {"name": "stage4_unit2_relu1", "activation": "relu", "trainable": true}, "class_name": "Activation"}, {"name": "zero_padding2d_53", "inbound_nodes": [[["stage4_unit2_relu1", 0, 0, {}]]], "config": {"data_format": "channels_last", "name": "zero_padding2d_53", "trainable": true, "padding": [[1, 1], [1, 1]]}, "class_name": "ZeroPadding2D"}, {"name": "stage4_unit2_conv1", "inbound_nodes": [[["zero_padding2d_53", 0, 0, {}]]], "config": {"data_format": "channels_last", "kernel_regularizer": null, "strides": [1, 1], "activity_regularizer": null, "kernel_initializer": {"config": {"mode": "fan_in", "distribution": "uniform", "seed": null, "scale": 2.0}, "class_name": "VarianceScaling"}, "trainable": true, "bias_initializer": {"config": {}, "class_name": "Zeros"}, "name": "stage4_unit2_conv1", "bias_regularizer": null, "filters": 512, "use_bias": false, "padding": "valid", "activation": "linear", "kernel_size": [3, 3], "kernel_constraint": null, "dilation_rate": [1, 1], "bias_constraint": null}, "class_name": "Conv2D"}, {"name": "stage4_unit2_bn2", "inbound_nodes": [[["stage4_unit2_conv1", 0, 0, {}]]], "config": {"beta_regularizer": null, "center": true, "scale": true, "moving_mean_initializer": {"config": {}, "class_name": "Zeros"}, "gamma_regularizer": null, "gamma_initializer": {"config": {}, "class_name": "Ones"}, "beta_constraint": null, "trainable": true, "name": "stage4_unit2_bn2", "beta_initializer": {"config": {}, "class_name": "Zeros"}, "axis": 3, "momentum": 0.99, "epsilon": 2e-05, "gamma_constraint": null, "moving_variance_initializer": {"config": {}, "class_name": "Ones"}}, "class_name": "BatchNormalization"}, {"name": "stage4_unit2_relu2", "inbound_nodes": [[["stage4_unit2_bn2", 0, 0, {}]]], "config": {"name": "stage4_unit2_relu2", "activation": "relu", "trainable": true}, "class_name": "Activation"}, {"name": "zero_padding2d_54", "inbound_nodes": [[["stage4_unit2_relu2", 0, 0, {}]]], "config": {"data_format": "channels_last", "name": "zero_padding2d_54", "trainable": true, "padding": [[1, 1], [1, 1]]}, "class_name": "ZeroPadding2D"}, {"name": "stage4_unit2_conv2", "inbound_nodes": [[["zero_padding2d_54", 0, 0, {}]]], "config": {"data_format": "channels_last", "kernel_regularizer": null, "strides": [1, 1], "activity_regularizer": null, "kernel_initializer": {"config": {"mode": "fan_in", "distribution": "uniform", "seed": null, "scale": 2.0}, "class_name": "VarianceScaling"}, "trainable": true, "bias_initializer": {"config": {}, "class_name": "Zeros"}, "name": "stage4_unit2_conv2", "bias_regularizer": null, "filters": 512, "use_bias": false, "padding": "valid", "activation": "linear", "kernel_size": [3, 3], "kernel_constraint": null, "dilation_rate": [1, 1], "bias_constraint": null}, "class_name": "Conv2D"}, {"name": "add_24", "inbound_nodes": [[["stage4_unit2_conv2", 0, 0, {}], ["add_23", 0, 0, {}]]], "config": {"name": "add_24", "trainable": true}, "class_name": "Add"}, {"name": "bn1", "inbound_nodes": [[["add_24", 0, 0, {}]]], "config": {"beta_regularizer": null, "center": true, "scale": true, "moving_mean_initializer": {"config": {}, "class_name": "Zeros"}, "gamma_regularizer": null, "gamma_initializer": {"config": {}, "class_name": "Ones"}, "beta_constraint": null, "trainable": true, "name": "bn1", "beta_initializer": {"config": {}, "class_name": "Zeros"}, "axis": 3, "momentum": 0.99, "epsilon": 2e-05, "gamma_constraint": null, "moving_variance_initializer": {"config": {}, "class_name": "Ones"}}, "class_name": "BatchNormalization"}, {"name": "relu1", "inbound_nodes": [[["bn1", 0, 0, {}]]], "config": {"name": "relu1", "activation": "relu", "trainable": true}, "class_name": "Activation"}, {"name": "decoder_stage0_upsample", "inbound_nodes": [[["relu1", 0, 0, {}]]], "config": {"data_format": "channels_last", "name": "decoder_stage0_upsample", "interpolation": "nearest", "trainable": true, "size": [2, 2]}, "class_name": "UpSampling2D"}, {"name": "concatenate_9", "inbound_nodes": [[["decoder_stage0_upsample", 0, 0, {}], ["stage4_unit1_relu1", 0, 0, {}]]], "config": {"name": "concatenate_9", "axis": -1, "trainable": true}, "class_name": "Concatenate"}, {"name": "decoder_stage0_conv1", "inbound_nodes": [[["concatenate_9", 0, 0, {}]]], "config": {"data_format": "channels_last", "kernel_regularizer": null, "strides": [1, 1], "activity_regularizer": null, "kernel_initializer": {"config": {"mode": "fan_avg", "distribution": "uniform", "seed": null, "scale": 1.0}, "class_name": "VarianceScaling"}, "trainable": true, "bias_initializer": {"config": {}, "class_name": "Zeros"}, "name": "decoder_stage0_conv1", "bias_regularizer": null, "filters": 256, "use_bias": false, "padding": "same", "activation": "linear", "kernel_size": [3, 3], "kernel_constraint": null, "dilation_rate": [1, 1], "bias_constraint": null}, "class_name": "Conv2D"}, {"name": "decoder_stage0_bn1", "inbound_nodes": [[["decoder_stage0_conv1", 0, 0, {}]]], "config": {"beta_regularizer": null, "center": true, "scale": true, "moving_mean_initializer": {"config": {}, "class_name": "Zeros"}, "gamma_regularizer": null, "gamma_initializer": {"config": {}, "class_name": "Ones"}, "beta_constraint": null, "trainable": true, "name": "decoder_stage0_bn1", "beta_initializer": {"config": {}, "class_name": "Zeros"}, "axis": -1, "momentum": 0.99, "epsilon": 0.001, "gamma_constraint": null, "moving_variance_initializer": {"config": {}, "class_name": "Ones"}}, "class_name": "BatchNormalization"}, {"name": "decoder_stage0_relu1", "inbound_nodes": [[["decoder_stage0_bn1", 0, 0, {}]]], "config": {"name": "decoder_stage0_relu1", "activation": "relu", "trainable": true}, "class_name": "Activation"}, {"name": "decoder_stage0_conv2", "inbound_nodes": [[["decoder_stage0_relu1", 0, 0, {}]]], "config": {"data_format": "channels_last", "kernel_regularizer": null, "strides": [1, 1], "activity_regularizer": null, "kernel_initializer": {"config": {"mode": "fan_avg", "distribution": "uniform", "seed": null, "scale": 1.0}, "class_name": "VarianceScaling"}, "trainable": true, "bias_initializer": {"config": {}, "class_name": "Zeros"}, "name": "decoder_stage0_conv2", "bias_regularizer": null, "filters": 256, "use_bias": false, "padding": "same", "activation": "linear", "kernel_size": [3, 3], "kernel_constraint": null, "dilation_rate": [1, 1], "bias_constraint": null}, "class_name": "Conv2D"}, {"name": "decoder_stage0_bn2", "inbound_nodes": [[["decoder_stage0_conv2", 0, 0, {}]]], "config": {"beta_regularizer": null, "center": true, "scale": true, "moving_mean_initializer": {"config": {}, "class_name": "Zeros"}, "gamma_regularizer": null, "gamma_initializer": {"config": {}, "class_name": "Ones"}, "beta_constraint": null, "trainable": true, "name": "decoder_stage0_bn2", "beta_initializer": {"config": {}, "class_name": "Zeros"}, "axis": -1, "momentum": 0.99, "epsilon": 0.001, "gamma_constraint": null, "moving_variance_initializer": {"config": {}, "class_name": "Ones"}}, "class_name": "BatchNormalization"}, {"name": "decoder_stage0_relu2", "inbound_nodes": [[["decoder_stage0_bn2", 0, 0, {}]]], "config": {"name": "decoder_stage0_relu2", "activation": "relu", "trainable": true}, "class_name": "Activation"}, {"name": "decoder_stage1_upsample", "inbound_nodes": [[["decoder_stage0_relu2", 0, 0, {}]]], "config": {"data_format": "channels_last", "name": "decoder_stage1_upsample", "interpolation": "nearest", "trainable": true, "size": [2, 2]}, "class_name": "UpSampling2D"}, {"name": "concatenate_10", "inbound_nodes": [[["decoder_stage1_upsample", 0, 0, {}], ["stage3_unit1_relu1", 0, 0, {}]]], "config": {"name": "concatenate_10", "axis": -1, "trainable": true}, "class_name": "Concatenate"}, {"name": "decoder_stage1_conv1", "inbound_nodes": [[["concatenate_10", 0, 0, {}]]], "config": {"data_format": "channels_last", "kernel_regularizer": null, "strides": [1, 1], "activity_regularizer": null, "kernel_initializer": {"config": {"mode": "fan_avg", "distribution": "uniform", "seed": null, "scale": 1.0}, "class_name": "VarianceScaling"}, "trainable": true, "bias_initializer": {"config": {}, "class_name": "Zeros"}, "name": "decoder_stage1_conv1", "bias_regularizer": null, "filters": 128, "use_bias": false, "padding": "same", "activation": "linear", "kernel_size": [3, 3], "kernel_constraint": null, "dilation_rate": [1, 1], "bias_constraint": null}, "class_name": "Conv2D"}, {"name": "decoder_stage1_bn1", "inbound_nodes": [[["decoder_stage1_conv1", 0, 0, {}]]], "config": {"beta_regularizer": null, "center": true, "scale": true, "moving_mean_initializer": {"config": {}, "class_name": "Zeros"}, "gamma_regularizer": null, "gamma_initializer": {"config": {}, "class_name": "Ones"}, "beta_constraint": null, "trainable": true, "name": "decoder_stage1_bn1", "beta_initializer": {"config": {}, "class_name": "Zeros"}, "axis": -1, "momentum": 0.99, "epsilon": 0.001, "gamma_constraint": null, "moving_variance_initializer": {"config": {}, "class_name": "Ones"}}, "class_name": "BatchNormalization"}, {"name": "decoder_stage1_relu1", "inbound_nodes": [[["decoder_stage1_bn1", 0, 0, {}]]], "config": {"name": "decoder_stage1_relu1", "activation": "relu", "trainable": true}, "class_name": "Activation"}, {"name": "decoder_stage1_conv2", "inbound_nodes": [[["decoder_stage1_relu1", 0, 0, {}]]], "config": {"data_format": "channels_last", "kernel_regularizer": null, "strides": [1, 1], "activity_regularizer": null, "kernel_initializer": {"config": {"mode": "fan_avg", "distribution": "uniform", "seed": null, "scale": 1.0}, "class_name": "VarianceScaling"}, "trainable": true, "bias_initializer": {"config": {}, "class_name": "Zeros"}, "name": "decoder_stage1_conv2", "bias_regularizer": null, "filters": 128, "use_bias": false, "padding": "same", "activation": "linear", "kernel_size": [3, 3], "kernel_constraint": null, "dilation_rate": [1, 1], "bias_constraint": null}, "class_name": "Conv2D"}, {"name": "decoder_stage1_bn2", "inbound_nodes": [[["decoder_stage1_conv2", 0, 0, {}]]], "config": {"beta_regularizer": null, "center": true, "scale": true, "moving_mean_initializer": {"config": {}, "class_name": "Zeros"}, "gamma_regularizer": null, "gamma_initializer": {"config": {}, "class_name": "Ones"}, "beta_constraint": null, "trainable": true, "name": "decoder_stage1_bn2", "beta_initializer": {"config": {}, "class_name": "Zeros"}, "axis": -1, "momentum": 0.99, "epsilon": 0.001, "gamma_constraint": null, "moving_variance_initializer": {"config": {}, "class_name": "Ones"}}, "class_name": "BatchNormalization"}, {"name": "decoder_stage1_relu2", "inbound_nodes": [[["decoder_stage1_bn2", 0, 0, {}]]], "config": {"name": "decoder_stage1_relu2", "activation": "relu", "trainable": true}, "class_name": "Activation"}, {"name": "decoder_stage2_upsample", "inbound_nodes": [[["decoder_stage1_relu2", 0, 0, {}]]], "config": {"data_format": "channels_last", "name": "decoder_stage2_upsample", "interpolation": "nearest", "trainable": true, "size": [2, 2]}, "class_name": "UpSampling2D"}, {"name": "concatenate_11", "inbound_nodes": [[["decoder_stage2_upsample", 0, 0, {}], ["stage2_unit1_relu1", 0, 0, {}]]], "config": {"name": "concatenate_11", "axis": -1, "trainable": true}, "class_name": "Concatenate"}, {"name": "decoder_stage2_conv1", "inbound_nodes": [[["concatenate_11", 0, 0, {}]]], "config": {"data_format": "channels_last", "kernel_regularizer": null, "strides": [1, 1], "activity_regularizer": null, "kernel_initializer": {"config": {"mode": "fan_avg", "distribution": "uniform", "seed": null, "scale": 1.0}, "class_name": "VarianceScaling"}, "trainable": true, "bias_initializer": {"config": {}, "class_name": "Zeros"}, "name": "decoder_stage2_conv1", "bias_regularizer": null, "filters": 64, "use_bias": false, "padding": "same", "activation": "linear", "kernel_size": [3, 3], "kernel_constraint": null, "dilation_rate": [1, 1], "bias_constraint": null}, "class_name": "Conv2D"}, {"name": "decoder_stage2_bn1", "inbound_nodes": [[["decoder_stage2_conv1", 0, 0, {}]]], "config": {"beta_regularizer": null, "center": true, "scale": true, "moving_mean_initializer": {"config": {}, "class_name": "Zeros"}, "gamma_regularizer": null, "gamma_initializer": {"config": {}, "class_name": "Ones"}, "beta_constraint": null, "trainable": true, "name": "decoder_stage2_bn1", "beta_initializer": {"config": {}, "class_name": "Zeros"}, "axis": -1, "momentum": 0.99, "epsilon": 0.001, "gamma_constraint": null, "moving_variance_initializer": {"config": {}, "class_name": "Ones"}}, "class_name": "BatchNormalization"}, {"name": "decoder_stage2_relu1", "inbound_nodes": [[["decoder_stage2_bn1", 0, 0, {}]]], "config": {"name": "decoder_stage2_relu1", "activation": "relu", "trainable": true}, "class_name": "Activation"}, {"name": "decoder_stage2_conv2", "inbound_nodes": [[["decoder_stage2_relu1", 0, 0, {}]]], "config": {"data_format": "channels_last", "kernel_regularizer": null, "strides": [1, 1], "activity_regularizer": null, "kernel_initializer": {"config": {"mode": "fan_avg", "distribution": "uniform", "seed": null, "scale": 1.0}, "class_name": "VarianceScaling"}, "trainable": true, "bias_initializer": {"config": {}, "class_name": "Zeros"}, "name": "decoder_stage2_conv2", "bias_regularizer": null, "filters": 64, "use_bias": false, "padding": "same", "activation": "linear", "kernel_size": [3, 3], "kernel_constraint": null, "dilation_rate": [1, 1], "bias_constraint": null}, "class_name": "Conv2D"}, {"name": "decoder_stage2_bn2", "inbound_nodes": [[["decoder_stage2_conv2", 0, 0, {}]]], "config": {"beta_regularizer": null, "center": true, "scale": true, "moving_mean_initializer": {"config": {}, "class_name": "Zeros"}, "gamma_regularizer": null, "gamma_initializer": {"config": {}, "class_name": "Ones"}, "beta_constraint": null, "trainable": true, "name": "decoder_stage2_bn2", "beta_initializer": {"config": {}, "class_name": "Zeros"}, "axis": -1, "momentum": 0.99, "epsilon": 0.001, "gamma_constraint": null, "moving_variance_initializer": {"config": {}, "class_name": "Ones"}}, "class_name": "BatchNormalization"}, {"name": "decoder_stage2_relu2", "inbound_nodes": [[["decoder_stage2_bn2", 0, 0, {}]]], "config": {"name": "decoder_stage2_relu2", "activation": "relu", "trainable": true}, "class_name": "Activation"}, {"name": "decoder_stage3_upsample", "inbound_nodes": [[["decoder_stage2_relu2", 0, 0, {}]]], "config": {"data_format": "channels_last", "name": "decoder_stage3_upsample", "interpolation": "nearest", "trainable": true, "size": [2, 2]}, "class_name": "UpSampling2D"}, {"name": "concatenate_12", "inbound_nodes": [[["decoder_stage3_upsample", 0, 0, {}], ["relu0", 0, 0, {}]]], "config": {"name": "concatenate_12", "axis": -1, "trainable": true}, "class_name": "Concatenate"}, {"name": "decoder_stage3_conv1", "inbound_nodes": [[["concatenate_12", 0, 0, {}]]], "config": {"data_format": "channels_last", "kernel_regularizer": null, "strides": [1, 1], "activity_regularizer": null, "kernel_initializer": {"config": {"mode": "fan_avg", "distribution": "uniform", "seed": null, "scale": 1.0}, "class_name": "VarianceScaling"}, "trainable": true, "bias_initializer": {"config": {}, "class_name": "Zeros"}, "name": "decoder_stage3_conv1", "bias_regularizer": null, "filters": 32, "use_bias": false, "padding": "same", "activation": "linear", "kernel_size": [3, 3], "kernel_constraint": null, "dilation_rate": [1, 1], "bias_constraint": null}, "class_name": "Conv2D"}, {"name": "decoder_stage3_bn1", "inbound_nodes": [[["decoder_stage3_conv1", 0, 0, {}]]], "config": {"beta_regularizer": null, "center": true, "scale": true, "moving_mean_initializer": {"config": {}, "class_name": "Zeros"}, "gamma_regularizer": null, "gamma_initializer": {"config": {}, "class_name": "Ones"}, "beta_constraint": null, "trainable": true, "name": "decoder_stage3_bn1", "beta_initializer": {"config": {}, "class_name": "Zeros"}, "axis": -1, "momentum": 0.99, "epsilon": 0.001, "gamma_constraint": null, "moving_variance_initializer": {"config": {}, "class_name": "Ones"}}, "class_name": "BatchNormalization"}, {"name": "decoder_stage3_relu1", "inbound_nodes": [[["decoder_stage3_bn1", 0, 0, {}]]], "config": {"name": "decoder_stage3_relu1", "activation": "relu", "trainable": true}, "class_name": "Activation"}, {"name": "decoder_stage3_conv2", "inbound_nodes": [[["decoder_stage3_relu1", 0, 0, {}]]], "config": {"data_format": "channels_last", "kernel_regularizer": null, "strides": [1, 1], "activity_regularizer": null, "kernel_initializer": {"config": {"mode": "fan_avg", "distribution": "uniform", "seed": null, "scale": 1.0}, "class_name": "VarianceScaling"}, "trainable": true, "bias_initializer": {"config": {}, "class_name": "Zeros"}, "name": "decoder_stage3_conv2", "bias_regularizer": null, "filters": 32, "use_bias": false, "padding": "same", "activation": "linear", "kernel_size": [3, 3], "kernel_constraint": null, "dilation_rate": [1, 1], "bias_constraint": null}, "class_name": "Conv2D"}, {"name": "decoder_stage3_bn2", "inbound_nodes": [[["decoder_stage3_conv2", 0, 0, {}]]], "config": {"beta_regularizer": null, "center": true, "scale": true, "moving_mean_initializer": {"config": {}, "class_name": "Zeros"}, "gamma_regularizer": null, "gamma_initializer": {"config": {}, "class_name": "Ones"}, "beta_constraint": null, "trainable": true, "name": "decoder_stage3_bn2", "beta_initializer": {"config": {}, "class_name": "Zeros"}, "axis": -1, "momentum": 0.99, "epsilon": 0.001, "gamma_constraint": null, "moving_variance_initializer": {"config": {}, "class_name": "Ones"}}, "class_name": "BatchNormalization"}, {"name": "decoder_stage3_relu2", "inbound_nodes": [[["decoder_stage3_bn2", 0, 0, {}]]], "config": {"name": "decoder_stage3_relu2", "activation": "relu", "trainable": true}, "class_name": "Activation"}, {"name": "decoder_stage4_upsample", "inbound_nodes": [[["decoder_stage3_relu2", 0, 0, {}]]], "config": {"data_format": "channels_last", "name": "decoder_stage4_upsample", "interpolation": "nearest", "trainable": true, "size": [2, 2]}, "class_name": "UpSampling2D"}, {"name": "decoder_stage4_conv1", "inbound_nodes": [[["decoder_stage4_upsample", 0, 0, {}]]], "config": {"data_format": "channels_last", "kernel_regularizer": null, "strides": [1, 1], "activity_regularizer": null, "kernel_initializer": {"config": {"mode": "fan_avg", "distribution": "uniform", "seed": null, "scale": 1.0}, "class_name": "VarianceScaling"}, "trainable": true, "bias_initializer": {"config": {}, "class_name": "Zeros"}, "name": "decoder_stage4_conv1", "bias_regularizer": null, "filters": 16, "use_bias": false, "padding": "same", "activation": "linear", "kernel_size": [3, 3], "kernel_constraint": null, "dilation_rate": [1, 1], "bias_constraint": null}, "class_name": "Conv2D"}, {"name": "decoder_stage4_bn1", "inbound_nodes": [[["decoder_stage4_conv1", 0, 0, {}]]], "config": {"beta_regularizer": null, "center": true, "scale": true, "moving_mean_initializer": {"config": {}, "class_name": "Zeros"}, "gamma_regularizer": null, "gamma_initializer": {"config": {}, "class_name": "Ones"}, "beta_constraint": null, "trainable": true, "name": "decoder_stage4_bn1", "beta_initializer": {"config": {}, "class_name": "Zeros"}, "axis": -1, "momentum": 0.99, "epsilon": 0.001, "gamma_constraint": null, "moving_variance_initializer": {"config": {}, "class_name": "Ones"}}, "class_name": "BatchNormalization"}, {"name": "decoder_stage4_relu1", "inbound_nodes": [[["decoder_stage4_bn1", 0, 0, {}]]], "config": {"name": "decoder_stage4_relu1", "activation": "relu", "trainable": true}, "class_name": "Activation"}, {"name": "decoder_stage4_conv2", "inbound_nodes": [[["decoder_stage4_relu1", 0, 0, {}]]], "config": {"data_format": "channels_last", "kernel_regularizer": null, "strides": [1, 1], "activity_regularizer": null, "kernel_initializer": {"config": {"mode": "fan_avg", "distribution": "uniform", "seed": null, "scale": 1.0}, "class_name": "VarianceScaling"}, "trainable": true, "bias_initializer": {"config": {}, "class_name": "Zeros"}, "name": "decoder_stage4_conv2", "bias_regularizer": null, "filters": 16, "use_bias": false, "padding": "same", "activation": "linear", "kernel_size": [3, 3], "kernel_constraint": null, "dilation_rate": [1, 1], "bias_constraint": null}, "class_name": "Conv2D"}, {"name": "decoder_stage4_bn2", "inbound_nodes": [[["decoder_stage4_conv2", 0, 0, {}]]], "config": {"beta_regularizer": null, "center": true, "scale": true, "moving_mean_initializer": {"config": {}, "class_name": "Zeros"}, "gamma_regularizer": null, "gamma_initializer": {"config": {}, "class_name": "Ones"}, "beta_constraint": null, "trainable": true, "name": "decoder_stage4_bn2", "beta_initializer": {"config": {}, "class_name": "Zeros"}, "axis": -1, "momentum": 0.99, "epsilon": 0.001, "gamma_constraint": null, "moving_variance_initializer": {"config": {}, "class_name": "Ones"}}, "class_name": "BatchNormalization"}, {"name": "decoder_stage4_relu2", "inbound_nodes": [[["decoder_stage4_bn2", 0, 0, {}]]], "config": {"name": "decoder_stage4_relu2", "activation": "relu", "trainable": true}, "class_name": "Activation"}, {"name": "final_conv", "inbound_nodes": [[["decoder_stage4_relu2", 0, 0, {}]]], "config": {"data_format": "channels_last", "kernel_regularizer": null, "strides": [1, 1], "activity_regularizer": null, "kernel_initializer": {"config": {"mode": "fan_avg", "distribution": "uniform", "seed": null, "scale": 1.0}, "class_name": "VarianceScaling"}, "trainable": true, "bias_initializer": {"config": {}, "class_name": "Zeros"}, "name": "final_conv", "bias_regularizer": null, "filters": 1, "use_bias": true, "padding": "same", "activation": "linear", "kernel_size": [3, 3], "kernel_constraint": null, "dilation_rate": [1, 1], "bias_constraint": null}, "class_name": "Conv2D"}, {"name": "sigmoid", "inbound_nodes": [[["final_conv", 0, 0, {}]]], "config": {"name": "sigmoid", "activation": "sigmoid", "trainable": true}, "class_name": "Activation"}], "output_layers": [["sigmoid", 0, 0]]}, "backend": "tensorflow", "class_name": "Model"}