{"backend": "tensorflow", "keras_version": "2.2.4", "config": {"output_layers": [["sigmoid", 0, 0]], "input_layers": [["data", 0, 0]], "name": "link-resnet18", "layers": [{"name": "data", "config": {"dtype": "float32", "batch_input_shape": [null, null, null, 3], "name": "data", "sparse": false}, "class_name": "InputLayer", "inbound_nodes": []}, {"name": "bn_data", "config": {"epsilon": 2e-05, "axis": 3, "gamma_constraint": null, "beta_regularizer": null, "name": "bn_data", "moving_variance_initializer": {"config": {}, "class_name": "Ones"}, "gamma_initializer": {"config": {}, "class_name": "Ones"}, "moving_mean_initializer": {"config": {}, "class_name": "Zeros"}, "gamma_regularizer": null, "trainable": true, "beta_constraint": null, "center": true, "scale": false, "momentum": 0.99, "beta_initializer": {"config": {}, "class_name": "Zeros"}}, "class_name": "BatchNormalization", "inbound_nodes": [[["data", 0, 0, {}]]]}, {"name": "zero_padding2d_1", "config": {"padding": [[3, 3], [3, 3]], "name": "zero_padding2d_1", "trainable": true, "data_format": "channels_last"}, "class_name": "ZeroPadding2D", "inbound_nodes": [[["bn_data", 0, 0, {}]]]}, {"name": "conv0", "config": {"strides": [2, 2], "bias_regularizer": null, "kernel_initializer": {"config": {"distribution": "uniform", "seed": null, "mode": "fan_in", "scale": 2.0}, "class_name": "VarianceScaling"}, "bias_constraint": null, "kernel_regularizer": null, "use_bias": false, "padding": "valid", "kernel_size": [7, 7], "data_format": "channels_last", "bias_initializer": {"config": {}, "class_name": "Zeros"}, "dilation_rate": [1, 1], "name": "conv0", "trainable": true, "filters": 64, "activation": "linear", "activity_regularizer": null, "kernel_constraint": null}, "class_name": "Conv2D", "inbound_nodes": [[["zero_padding2d_1", 0, 0, {}]]]}, {"name": "bn0", "config": {"epsilon": 2e-05, "axis": 3, "gamma_constraint": null, "beta_regularizer": null, "name": "bn0", "moving_variance_initializer": {"config": {}, "class_name": "Ones"}, "gamma_initializer": {"config": {}, "class_name": "Ones"}, "moving_mean_initializer": {"config": {}, "class_name": "Zeros"}, "gamma_regularizer": null, "trainable": true, "beta_constraint": null, "center": true, "scale": true, "momentum": 0.99, "beta_initializer": {"config": {}, "class_name": "Zeros"}}, "class_name": "BatchNormalization", "inbound_nodes": [[["conv0", 0, 0, {}]]]}, {"name": "relu0", "config": {"activation": "relu", "trainable": true, "name": "relu0"}, "class_name": "Activation", "inbound_nodes": [[["bn0", 0, 0, {}]]]}, {"name": "zero_padding2d_2", "config": {"padding": [[1, 1], [1, 1]], "name": "zero_padding2d_2", "trainable": true, "data_format": "channels_last"}, "class_name": "ZeroPadding2D", "inbound_nodes": [[["relu0", 0, 0, {}]]]}, {"name": "pooling0", "config": {"padding": "valid", "name": "pooling0", "trainable": true, "pool_size": [3, 3], "strides": [2, 2], "data_format": "channels_last"}, "class_name": "MaxPooling2D", "inbound_nodes": [[["zero_padding2d_2", 0, 0, {}]]]}, {"name": "stage1_unit1_bn1", "config": {"epsilon": 2e-05, "axis": 3, "gamma_constraint": null, "beta_regularizer": null, "name": "stage1_unit1_bn1", "moving_variance_initializer": {"config": {}, "class_name": "Ones"}, "gamma_initializer": {"config": {}, "class_name": "Ones"}, "moving_mean_initializer": {"config": {}, "class_name": "Zeros"}, "gamma_regularizer": null, "trainable": true, "beta_constraint": null, "center": true, "scale": true, "momentum": 0.99, "beta_initializer": {"config": {}, "class_name": "Zeros"}}, "class_name": "BatchNormalization", "inbound_nodes": [[["pooling0", 0, 0, {}]]]}, {"name": "stage1_unit1_relu1", "config": {"activation": "relu", "trainable": true, "name": "stage1_unit1_relu1"}, "class_name": "Activation", "inbound_nodes": [[["stage1_unit1_bn1", 0, 0, {}]]]}, {"name": "zero_padding2d_3", "config": {"padding": [[1, 1], [1, 1]], "name": "zero_padding2d_3", "trainable": true, "data_format": "channels_last"}, "class_name": "ZeroPadding2D", "inbound_nodes": [[["stage1_unit1_relu1", 0, 0, {}]]]}, {"name": "stage1_unit1_conv1", "config": {"strides": [1, 1], "bias_regularizer": null, "kernel_initializer": {"config": {"distribution": "uniform", "seed": null, "mode": "fan_in", "scale": 2.0}, "class_name": "VarianceScaling"}, "bias_constraint": null, "kernel_regularizer": null, "use_bias": false, "padding": "valid", "kernel_size": [3, 3], "data_format": "channels_last", "bias_initializer": {"config": {}, "class_name": "Zeros"}, "dilation_rate": [1, 1], "name": "stage1_unit1_conv1", "trainable": true, "filters": 64, "activation": "linear", "activity_regularizer": null, "kernel_constraint": null}, "class_name": "Conv2D", "inbound_nodes": [[["zero_padding2d_3", 0, 0, {}]]]}, {"name": "stage1_unit1_bn2", "config": {"epsilon": 2e-05, "axis": 3, "gamma_constraint": null, "beta_regularizer": null, "name": "stage1_unit1_bn2", "moving_variance_initializer": {"config": {}, "class_name": "Ones"}, "gamma_initializer": {"config": {}, "class_name": "Ones"}, "moving_mean_initializer": {"config": {}, "class_name": "Zeros"}, "gamma_regularizer": null, "trainable": true, "beta_constraint": null, "center": true, "scale": true, "momentum": 0.99, "beta_initializer": {"config": {}, "class_name": "Zeros"}}, "class_name": "BatchNormalization", "inbound_nodes": [[["stage1_unit1_conv1", 0, 0, {}]]]}, {"name": "stage1_unit1_relu2", "config": {"activation": "relu", "trainable": true, "name": "stage1_unit1_relu2"}, "class_name": "Activation", "inbound_nodes": [[["stage1_unit1_bn2", 0, 0, {}]]]}, {"name": "zero_padding2d_4", "config": {"padding": [[1, 1], [1, 1]], "name": "zero_padding2d_4", "trainable": true, "data_format": "channels_last"}, "class_name": "ZeroPadding2D", "inbound_nodes": [[["stage1_unit1_relu2", 0, 0, {}]]]}, {"name": "stage1_unit1_conv2", "config": {"strides": [1, 1], "bias_regularizer": null, "kernel_initializer": {"config": {"distribution": "uniform", "seed": null, "mode": "fan_in", "scale": 2.0}, "class_name": "VarianceScaling"}, "bias_constraint": null, "kernel_regularizer": null, "use_bias": false, "padding": "valid", "kernel_size": [3, 3], "data_format": "channels_last", "bias_initializer": {"config": {}, "class_name": "Zeros"}, "dilation_rate": [1, 1], "name": "stage1_unit1_conv2", "trainable": true, "filters": 64, "activation": "linear", "activity_regularizer": null, "kernel_constraint": null}, "class_name": "Conv2D", "inbound_nodes": [[["zero_padding2d_4", 0, 0, {}]]]}, {"name": "stage1_unit1_sc", "config": {"strides": [1, 1], "bias_regularizer": null, "kernel_initializer": {"config": {"distribution": "uniform", "seed": null, "mode": "fan_in", "scale": 2.0}, "class_name": "VarianceScaling"}, "bias_constraint": null, "kernel_regularizer": null, "use_bias": false, "padding": "valid", "kernel_size": [1, 1], "data_format": "channels_last", "bias_initializer": {"config": {}, "class_name": "Zeros"}, "dilation_rate": [1, 1], "name": "stage1_unit1_sc", "trainable": true, "filters": 64, "activation": "linear", "activity_regularizer": null, "kernel_constraint": null}, "class_name": "Conv2D", "inbound_nodes": [[["stage1_unit1_relu1", 0, 0, {}]]]}, {"name": "add_1", "config": {"name": "add_1", "trainable": true}, "class_name": "Add", "inbound_nodes": [[["stage1_unit1_conv2", 0, 0, {}], ["stage1_unit1_sc", 0, 0, {}]]]}, {"name": "stage1_unit2_bn1", "config": {"epsilon": 2e-05, "axis": 3, "gamma_constraint": null, "beta_regularizer": null, "name": "stage1_unit2_bn1", "moving_variance_initializer": {"config": {}, "class_name": "Ones"}, "gamma_initializer": {"config": {}, "class_name": "Ones"}, "moving_mean_initializer": {"config": {}, "class_name": "Zeros"}, "gamma_regularizer": null, "trainable": true, "beta_constraint": null, "center": true, "scale": true, "momentum": 0.99, "beta_initializer": {"config": {}, "class_name": "Zeros"}}, "class_name": "BatchNormalization", "inbound_nodes": [[["add_1", 0, 0, {}]]]}, {"name": "stage1_unit2_relu1", "config": {"activation": "relu", "trainable": true, "name": "stage1_unit2_relu1"}, "class_name": "Activation", "inbound_nodes": [[["stage1_unit2_bn1", 0, 0, {}]]]}, {"name": "zero_padding2d_5", "config": {"padding": [[1, 1], [1, 1]], "name": "zero_padding2d_5", "trainable": true, "data_format": "channels_last"}, "class_name": "ZeroPadding2D", "inbound_nodes": [[["stage1_unit2_relu1", 0, 0, {}]]]}, {"name": "stage1_unit2_conv1", "config": {"strides": [1, 1], "bias_regularizer": null, "kernel_initializer": {"config": {"distribution": "uniform", "seed": null, "mode": "fan_in", "scale": 2.0}, "class_name": "VarianceScaling"}, "bias_constraint": null, "kernel_regularizer": null, "use_bias": false, "padding": "valid", "kernel_size": [3, 3], "data_format": "channels_last", "bias_initializer": {"config": {}, "class_name": "Zeros"}, "dilation_rate": [1, 1], "name": "stage1_unit2_conv1", "trainable": true, "filters": 64, "activation": "linear", "activity_regularizer": null, "kernel_constraint": null}, "class_name": "Conv2D", "inbound_nodes": [[["zero_padding2d_5", 0, 0, {}]]]}, {"name": "stage1_unit2_bn2", "config": {"epsilon": 2e-05, "axis": 3, "gamma_constraint": null, "beta_regularizer": null, "name": "stage1_unit2_bn2", "moving_variance_initializer": {"config": {}, "class_name": "Ones"}, "gamma_initializer": {"config": {}, "class_name": "Ones"}, "moving_mean_initializer": {"config": {}, "class_name": "Zeros"}, "gamma_regularizer": null, "trainable": true, "beta_constraint": null, "center": true, "scale": true, "momentum": 0.99, "beta_initializer": {"config": {}, "class_name": "Zeros"}}, "class_name": "BatchNormalization", "inbound_nodes": [[["stage1_unit2_conv1", 0, 0, {}]]]}, {"name": "stage1_unit2_relu2", "config": {"activation": "relu", "trainable": true, "name": "stage1_unit2_relu2"}, "class_name": "Activation", "inbound_nodes": [[["stage1_unit2_bn2", 0, 0, {}]]]}, {"name": "zero_padding2d_6", "config": {"padding": [[1, 1], [1, 1]], "name": "zero_padding2d_6", "trainable": true, "data_format": "channels_last"}, "class_name": "ZeroPadding2D", "inbound_nodes": [[["stage1_unit2_relu2", 0, 0, {}]]]}, {"name": "stage1_unit2_conv2", "config": {"strides": [1, 1], "bias_regularizer": null, "kernel_initializer": {"config": {"distribution": "uniform", "seed": null, "mode": "fan_in", "scale": 2.0}, "class_name": "VarianceScaling"}, "bias_constraint": null, "kernel_regularizer": null, "use_bias": false, "padding": "valid", "kernel_size": [3, 3], "data_format": "channels_last", "bias_initializer": {"config": {}, "class_name": "Zeros"}, "dilation_rate": [1, 1], "name": "stage1_unit2_conv2", "trainable": true, "filters": 64, "activation": "linear", "activity_regularizer": null, "kernel_constraint": null}, "class_name": "Conv2D", "inbound_nodes": [[["zero_padding2d_6", 0, 0, {}]]]}, {"name": "add_2", "config": {"name": "add_2", "trainable": true}, "class_name": "Add", "inbound_nodes": [[["stage1_unit2_conv2", 0, 0, {}], ["add_1", 0, 0, {}]]]}, {"name": "stage2_unit1_bn1", "config": {"epsilon": 2e-05, "axis": 3, "gamma_constraint": null, "beta_regularizer": null, "name": "stage2_unit1_bn1", "moving_variance_initializer": {"config": {}, "class_name": "Ones"}, "gamma_initializer": {"config": {}, "class_name": "Ones"}, "moving_mean_initializer": {"config": {}, "class_name": "Zeros"}, "gamma_regularizer": null, "trainable": true, "beta_constraint": null, "center": true, "scale": true, "momentum": 0.99, "beta_initializer": {"config": {}, "class_name": "Zeros"}}, "class_name": "BatchNormalization", "inbound_nodes": [[["add_2", 0, 0, {}]]]}, {"name": "stage2_unit1_relu1", "config": {"activation": "relu", "trainable": true, "name": "stage2_unit1_relu1"}, "class_name": "Activation", "inbound_nodes": [[["stage2_unit1_bn1", 0, 0, {}]]]}, {"name": "zero_padding2d_7", "config": {"padding": [[1, 1], [1, 1]], "name": "zero_padding2d_7", "trainable": true, "data_format": "channels_last"}, "class_name": "ZeroPadding2D", "inbound_nodes": [[["stage2_unit1_relu1", 0, 0, {}]]]}, {"name": "stage2_unit1_conv1", "config": {"strides": [2, 2], "bias_regularizer": null, "kernel_initializer": {"config": {"distribution": "uniform", "seed": null, "mode": "fan_in", "scale": 2.0}, "class_name": "VarianceScaling"}, "bias_constraint": null, "kernel_regularizer": null, "use_bias": false, "padding": "valid", "kernel_size": [3, 3], "data_format": "channels_last", "bias_initializer": {"config": {}, "class_name": "Zeros"}, "dilation_rate": [1, 1], "name": "stage2_unit1_conv1", "trainable": true, "filters": 128, "activation": "linear", "activity_regularizer": null, "kernel_constraint": null}, "class_name": "Conv2D", "inbound_nodes": [[["zero_padding2d_7", 0, 0, {}]]]}, {"name": "stage2_unit1_bn2", "config": {"epsilon": 2e-05, "axis": 3, "gamma_constraint": null, "beta_regularizer": null, "name": "stage2_unit1_bn2", "moving_variance_initializer": {"config": {}, "class_name": "Ones"}, "gamma_initializer": {"config": {}, "class_name": "Ones"}, "moving_mean_initializer": {"config": {}, "class_name": "Zeros"}, "gamma_regularizer": null, "trainable": true, "beta_constraint": null, "center": true, "scale": true, "momentum": 0.99, "beta_initializer": {"config": {}, "class_name": "Zeros"}}, "class_name": "BatchNormalization", "inbound_nodes": [[["stage2_unit1_conv1", 0, 0, {}]]]}, {"name": "stage2_unit1_relu2", "config": {"activation": "relu", "trainable": true, "name": "stage2_unit1_relu2"}, "class_name": "Activation", "inbound_nodes": [[["stage2_unit1_bn2", 0, 0, {}]]]}, {"name": "zero_padding2d_8", "config": {"padding": [[1, 1], [1, 1]], "name": "zero_padding2d_8", "trainable": true, "data_format": "channels_last"}, "class_name": "ZeroPadding2D", "inbound_nodes": [[["stage2_unit1_relu2", 0, 0, {}]]]}, {"name": "stage2_unit1_conv2", "config": {"strides": [1, 1], "bias_regularizer": null, "kernel_initializer": {"config": {"distribution": "uniform", "seed": null, "mode": "fan_in", "scale": 2.0}, "class_name": "VarianceScaling"}, "bias_constraint": null, "kernel_regularizer": null, "use_bias": false, "padding": "valid", "kernel_size": [3, 3], "data_format": "channels_last", "bias_initializer": {"config": {}, "class_name": "Zeros"}, "dilation_rate": [1, 1], "name": "stage2_unit1_conv2", "trainable": true, "filters": 128, "activation": "linear", "activity_regularizer": null, "kernel_constraint": null}, "class_name": "Conv2D", "inbound_nodes": [[["zero_padding2d_8", 0, 0, {}]]]}, {"name": "stage2_unit1_sc", "config": {"strides": [2, 2], "bias_regularizer": null, "kernel_initializer": {"config": {"distribution": "uniform", "seed": null, "mode": "fan_in", "scale": 2.0}, "class_name": "VarianceScaling"}, "bias_constraint": null, "kernel_regularizer": null, "use_bias": false, "padding": "valid", "kernel_size": [1, 1], "data_format": "channels_last", "bias_initializer": {"config": {}, "class_name": "Zeros"}, "dilation_rate": [1, 1], "name": "stage2_unit1_sc", "trainable": true, "filters": 128, "activation": "linear", "activity_regularizer": null, "kernel_constraint": null}, "class_name": "Conv2D", "inbound_nodes": [[["stage2_unit1_relu1", 0, 0, {}]]]}, {"name": "add_3", "config": {"name": "add_3", "trainable": true}, "class_name": "Add", "inbound_nodes": [[["stage2_unit1_conv2", 0, 0, {}], ["stage2_unit1_sc", 0, 0, {}]]]}, {"name": "stage2_unit2_bn1", "config": {"epsilon": 2e-05, "axis": 3, "gamma_constraint": null, "beta_regularizer": null, "name": "stage2_unit2_bn1", "moving_variance_initializer": {"config": {}, "class_name": "Ones"}, "gamma_initializer": {"config": {}, "class_name": "Ones"}, "moving_mean_initializer": {"config": {}, "class_name": "Zeros"}, "gamma_regularizer": null, "trainable": true, "beta_constraint": null, "center": true, "scale": true, "momentum": 0.99, "beta_initializer": {"config": {}, "class_name": "Zeros"}}, "class_name": "BatchNormalization", "inbound_nodes": [[["add_3", 0, 0, {}]]]}, {"name": "stage2_unit2_relu1", "config": {"activation": "relu", "trainable": true, "name": "stage2_unit2_relu1"}, "class_name": "Activation", "inbound_nodes": [[["stage2_unit2_bn1", 0, 0, {}]]]}, {"name": "zero_padding2d_9", "config": {"padding": [[1, 1], [1, 1]], "name": "zero_padding2d_9", "trainable": true, "data_format": "channels_last"}, "class_name": "ZeroPadding2D", "inbound_nodes": [[["stage2_unit2_relu1", 0, 0, {}]]]}, {"name": "stage2_unit2_conv1", "config": {"strides": [1, 1], "bias_regularizer": null, "kernel_initializer": {"config": {"distribution": "uniform", "seed": null, "mode": "fan_in", "scale": 2.0}, "class_name": "VarianceScaling"}, "bias_constraint": null, "kernel_regularizer": null, "use_bias": false, "padding": "valid", "kernel_size": [3, 3], "data_format": "channels_last", "bias_initializer": {"config": {}, "class_name": "Zeros"}, "dilation_rate": [1, 1], "name": "stage2_unit2_conv1", "trainable": true, "filters": 128, "activation": "linear", "activity_regularizer": null, "kernel_constraint": null}, "class_name": "Conv2D", "inbound_nodes": [[["zero_padding2d_9", 0, 0, {}]]]}, {"name": "stage2_unit2_bn2", "config": {"epsilon": 2e-05, "axis": 3, "gamma_constraint": null, "beta_regularizer": null, "name": "stage2_unit2_bn2", "moving_variance_initializer": {"config": {}, "class_name": "Ones"}, "gamma_initializer": {"config": {}, "class_name": "Ones"}, "moving_mean_initializer": {"config": {}, "class_name": "Zeros"}, "gamma_regularizer": null, "trainable": true, "beta_constraint": null, "center": true, "scale": true, "momentum": 0.99, "beta_initializer": {"config": {}, "class_name": "Zeros"}}, "class_name": "BatchNormalization", "inbound_nodes": [[["stage2_unit2_conv1", 0, 0, {}]]]}, {"name": "stage2_unit2_relu2", "config": {"activation": "relu", "trainable": true, "name": "stage2_unit2_relu2"}, "class_name": "Activation", "inbound_nodes": [[["stage2_unit2_bn2", 0, 0, {}]]]}, {"name": "zero_padding2d_10", "config": {"padding": [[1, 1], [1, 1]], "name": "zero_padding2d_10", "trainable": true, "data_format": "channels_last"}, "class_name": "ZeroPadding2D", "inbound_nodes": [[["stage2_unit2_relu2", 0, 0, {}]]]}, {"name": "stage2_unit2_conv2", "config": {"strides": [1, 1], "bias_regularizer": null, "kernel_initializer": {"config": {"distribution": "uniform", "seed": null, "mode": "fan_in", "scale": 2.0}, "class_name": "VarianceScaling"}, "bias_constraint": null, "kernel_regularizer": null, "use_bias": false, "padding": "valid", "kernel_size": [3, 3], "data_format": "channels_last", "bias_initializer": {"config": {}, "class_name": "Zeros"}, "dilation_rate": [1, 1], "name": "stage2_unit2_conv2", "trainable": true, "filters": 128, "activation": "linear", "activity_regularizer": null, "kernel_constraint": null}, "class_name": "Conv2D", "inbound_nodes": [[["zero_padding2d_10", 0, 0, {}]]]}, {"name": "add_4", "config": {"name": "add_4", "trainable": true}, "class_name": "Add", "inbound_nodes": [[["stage2_unit2_conv2", 0, 0, {}], ["add_3", 0, 0, {}]]]}, {"name": "stage3_unit1_bn1", "config": {"epsilon": 2e-05, "axis": 3, "gamma_constraint": null, "beta_regularizer": null, "name": "stage3_unit1_bn1", "moving_variance_initializer": {"config": {}, "class_name": "Ones"}, "gamma_initializer": {"config": {}, "class_name": "Ones"}, "moving_mean_initializer": {"config": {}, "class_name": "Zeros"}, "gamma_regularizer": null, "trainable": true, "beta_constraint": null, "center": true, "scale": true, "momentum": 0.99, "beta_initializer": {"config": {}, "class_name": "Zeros"}}, "class_name": "BatchNormalization", "inbound_nodes": [[["add_4", 0, 0, {}]]]}, {"name": "stage3_unit1_relu1", "config": {"activation": "relu", "trainable": true, "name": "stage3_unit1_relu1"}, "class_name": "Activation", "inbound_nodes": [[["stage3_unit1_bn1", 0, 0, {}]]]}, {"name": "zero_padding2d_11", "config": {"padding": [[1, 1], [1, 1]], "name": "zero_padding2d_11", "trainable": true, "data_format": "channels_last"}, "class_name": "ZeroPadding2D", "inbound_nodes": [[["stage3_unit1_relu1", 0, 0, {}]]]}, {"name": "stage3_unit1_conv1", "config": {"strides": [2, 2], "bias_regularizer": null, "kernel_initializer": {"config": {"distribution": "uniform", "seed": null, "mode": "fan_in", "scale": 2.0}, "class_name": "VarianceScaling"}, "bias_constraint": null, "kernel_regularizer": null, "use_bias": false, "padding": "valid", "kernel_size": [3, 3], "data_format": "channels_last", "bias_initializer": {"config": {}, "class_name": "Zeros"}, "dilation_rate": [1, 1], "name": "stage3_unit1_conv1", "trainable": true, "filters": 256, "activation": "linear", "activity_regularizer": null, "kernel_constraint": null}, "class_name": "Conv2D", "inbound_nodes": [[["zero_padding2d_11", 0, 0, {}]]]}, {"name": "stage3_unit1_bn2", "config": {"epsilon": 2e-05, "axis": 3, "gamma_constraint": null, "beta_regularizer": null, "name": "stage3_unit1_bn2", "moving_variance_initializer": {"config": {}, "class_name": "Ones"}, "gamma_initializer": {"config": {}, "class_name": "Ones"}, "moving_mean_initializer": {"config": {}, "class_name": "Zeros"}, "gamma_regularizer": null, "trainable": true, "beta_constraint": null, "center": true, "scale": true, "momentum": 0.99, "beta_initializer": {"config": {}, "class_name": "Zeros"}}, "class_name": "BatchNormalization", "inbound_nodes": [[["stage3_unit1_conv1", 0, 0, {}]]]}, {"name": "stage3_unit1_relu2", "config": {"activation": "relu", "trainable": true, "name": "stage3_unit1_relu2"}, "class_name": "Activation", "inbound_nodes": [[["stage3_unit1_bn2", 0, 0, {}]]]}, {"name": "zero_padding2d_12", "config": {"padding": [[1, 1], [1, 1]], "name": "zero_padding2d_12", "trainable": true, "data_format": "channels_last"}, "class_name": "ZeroPadding2D", "inbound_nodes": [[["stage3_unit1_relu2", 0, 0, {}]]]}, {"name": "stage3_unit1_conv2", "config": {"strides": [1, 1], "bias_regularizer": null, "kernel_initializer": {"config": {"distribution": "uniform", "seed": null, "mode": "fan_in", "scale": 2.0}, "class_name": "VarianceScaling"}, "bias_constraint": null, "kernel_regularizer": null, "use_bias": false, "padding": "valid", "kernel_size": [3, 3], "data_format": "channels_last", "bias_initializer": {"config": {}, "class_name": "Zeros"}, "dilation_rate": [1, 1], "name": "stage3_unit1_conv2", "trainable": true, "filters": 256, "activation": "linear", "activity_regularizer": null, "kernel_constraint": null}, "class_name": "Conv2D", "inbound_nodes": [[["zero_padding2d_12", 0, 0, {}]]]}, {"name": "stage3_unit1_sc", "config": {"strides": [2, 2], "bias_regularizer": null, "kernel_initializer": {"config": {"distribution": "uniform", "seed": null, "mode": "fan_in", "scale": 2.0}, "class_name": "VarianceScaling"}, "bias_constraint": null, "kernel_regularizer": null, "use_bias": false, "padding": "valid", "kernel_size": [1, 1], "data_format": "channels_last", "bias_initializer": {"config": {}, "class_name": "Zeros"}, "dilation_rate": [1, 1], "name": "stage3_unit1_sc", "trainable": true, "filters": 256, "activation": "linear", "activity_regularizer": null, "kernel_constraint": null}, "class_name": "Conv2D", "inbound_nodes": [[["stage3_unit1_relu1", 0, 0, {}]]]}, {"name": "add_5", "config": {"name": "add_5", "trainable": true}, "class_name": "Add", "inbound_nodes": [[["stage3_unit1_conv2", 0, 0, {}], ["stage3_unit1_sc", 0, 0, {}]]]}, {"name": "stage3_unit2_bn1", "config": {"epsilon": 2e-05, "axis": 3, "gamma_constraint": null, "beta_regularizer": null, "name": "stage3_unit2_bn1", "moving_variance_initializer": {"config": {}, "class_name": "Ones"}, "gamma_initializer": {"config": {}, "class_name": "Ones"}, "moving_mean_initializer": {"config": {}, "class_name": "Zeros"}, "gamma_regularizer": null, "trainable": true, "beta_constraint": null, "center": true, "scale": true, "momentum": 0.99, "beta_initializer": {"config": {}, "class_name": "Zeros"}}, "class_name": "BatchNormalization", "inbound_nodes": [[["add_5", 0, 0, {}]]]}, {"name": "stage3_unit2_relu1", "config": {"activation": "relu", "trainable": true, "name": "stage3_unit2_relu1"}, "class_name": "Activation", "inbound_nodes": [[["stage3_unit2_bn1", 0, 0, {}]]]}, {"name": "zero_padding2d_13", "config": {"padding": [[1, 1], [1, 1]], "name": "zero_padding2d_13", "trainable": true, "data_format": "channels_last"}, "class_name": "ZeroPadding2D", "inbound_nodes": [[["stage3_unit2_relu1", 0, 0, {}]]]}, {"name": "stage3_unit2_conv1", "config": {"strides": [1, 1], "bias_regularizer": null, "kernel_initializer": {"config": {"distribution": "uniform", "seed": null, "mode": "fan_in", "scale": 2.0}, "class_name": "VarianceScaling"}, "bias_constraint": null, "kernel_regularizer": null, "use_bias": false, "padding": "valid", "kernel_size": [3, 3], "data_format": "channels_last", "bias_initializer": {"config": {}, "class_name": "Zeros"}, "dilation_rate": [1, 1], "name": "stage3_unit2_conv1", "trainable": true, "filters": 256, "activation": "linear", "activity_regularizer": null, "kernel_constraint": null}, "class_name": "Conv2D", "inbound_nodes": [[["zero_padding2d_13", 0, 0, {}]]]}, {"name": "stage3_unit2_bn2", "config": {"epsilon": 2e-05, "axis": 3, "gamma_constraint": null, "beta_regularizer": null, "name": "stage3_unit2_bn2", "moving_variance_initializer": {"config": {}, "class_name": "Ones"}, "gamma_initializer": {"config": {}, "class_name": "Ones"}, "moving_mean_initializer": {"config": {}, "class_name": "Zeros"}, "gamma_regularizer": null, "trainable": true, "beta_constraint": null, "center": true, "scale": true, "momentum": 0.99, "beta_initializer": {"config": {}, "class_name": "Zeros"}}, "class_name": "BatchNormalization", "inbound_nodes": [[["stage3_unit2_conv1", 0, 0, {}]]]}, {"name": "stage3_unit2_relu2", "config": {"activation": "relu", "trainable": true, "name": "stage3_unit2_relu2"}, "class_name": "Activation", "inbound_nodes": [[["stage3_unit2_bn2", 0, 0, {}]]]}, {"name": "zero_padding2d_14", "config": {"padding": [[1, 1], [1, 1]], "name": "zero_padding2d_14", "trainable": true, "data_format": "channels_last"}, "class_name": "ZeroPadding2D", "inbound_nodes": [[["stage3_unit2_relu2", 0, 0, {}]]]}, {"name": "stage3_unit2_conv2", "config": {"strides": [1, 1], "bias_regularizer": null, "kernel_initializer": {"config": {"distribution": "uniform", "seed": null, "mode": "fan_in", "scale": 2.0}, "class_name": "VarianceScaling"}, "bias_constraint": null, "kernel_regularizer": null, "use_bias": false, "padding": "valid", "kernel_size": [3, 3], "data_format": "channels_last", "bias_initializer": {"config": {}, "class_name": "Zeros"}, "dilation_rate": [1, 1], "name": "stage3_unit2_conv2", "trainable": true, "filters": 256, "activation": "linear", "activity_regularizer": null, "kernel_constraint": null}, "class_name": "Conv2D", "inbound_nodes": [[["zero_padding2d_14", 0, 0, {}]]]}, {"name": "add_6", "config": {"name": "add_6", "trainable": true}, "class_name": "Add", "inbound_nodes": [[["stage3_unit2_conv2", 0, 0, {}], ["add_5", 0, 0, {}]]]}, {"name": "stage4_unit1_bn1", "config": {"epsilon": 2e-05, "axis": 3, "gamma_constraint": null, "beta_regularizer": null, "name": "stage4_unit1_bn1", "moving_variance_initializer": {"config": {}, "class_name": "Ones"}, "gamma_initializer": {"config": {}, "class_name": "Ones"}, "moving_mean_initializer": {"config": {}, "class_name": "Zeros"}, "gamma_regularizer": null, "trainable": true, "beta_constraint": null, "center": true, "scale": true, "momentum": 0.99, "beta_initializer": {"config": {}, "class_name": "Zeros"}}, "class_name": "BatchNormalization", "inbound_nodes": [[["add_6", 0, 0, {}]]]}, {"name": "stage4_unit1_relu1", "config": {"activation": "relu", "trainable": true, "name": "stage4_unit1_relu1"}, "class_name": "Activation", "inbound_nodes": [[["stage4_unit1_bn1", 0, 0, {}]]]}, {"name": "zero_padding2d_15", "config": {"padding": [[1, 1], [1, 1]], "name": "zero_padding2d_15", "trainable": true, "data_format": "channels_last"}, "class_name": "ZeroPadding2D", "inbound_nodes": [[["stage4_unit1_relu1", 0, 0, {}]]]}, {"name": "stage4_unit1_conv1", "config": {"strides": [2, 2], "bias_regularizer": null, "kernel_initializer": {"config": {"distribution": "uniform", "seed": null, "mode": "fan_in", "scale": 2.0}, "class_name": "VarianceScaling"}, "bias_constraint": null, "kernel_regularizer": null, "use_bias": false, "padding": "valid", "kernel_size": [3, 3], "data_format": "channels_last", "bias_initializer": {"config": {}, "class_name": "Zeros"}, "dilation_rate": [1, 1], "name": "stage4_unit1_conv1", "trainable": true, "filters": 512, "activation": "linear", "activity_regularizer": null, "kernel_constraint": null}, "class_name": "Conv2D", "inbound_nodes": [[["zero_padding2d_15", 0, 0, {}]]]}, {"name": "stage4_unit1_bn2", "config": {"epsilon": 2e-05, "axis": 3, "gamma_constraint": null, "beta_regularizer": null, "name": "stage4_unit1_bn2", "moving_variance_initializer": {"config": {}, "class_name": "Ones"}, "gamma_initializer": {"config": {}, "class_name": "Ones"}, "moving_mean_initializer": {"config": {}, "class_name": "Zeros"}, "gamma_regularizer": null, "trainable": true, "beta_constraint": null, "center": true, "scale": true, "momentum": 0.99, "beta_initializer": {"config": {}, "class_name": "Zeros"}}, "class_name": "BatchNormalization", "inbound_nodes": [[["stage4_unit1_conv1", 0, 0, {}]]]}, {"name": "stage4_unit1_relu2", "config": {"activation": "relu", "trainable": true, "name": "stage4_unit1_relu2"}, "class_name": "Activation", "inbound_nodes": [[["stage4_unit1_bn2", 0, 0, {}]]]}, {"name": "zero_padding2d_16", "config": {"padding": [[1, 1], [1, 1]], "name": "zero_padding2d_16", "trainable": true, "data_format": "channels_last"}, "class_name": "ZeroPadding2D", "inbound_nodes": [[["stage4_unit1_relu2", 0, 0, {}]]]}, {"name": "stage4_unit1_conv2", "config": {"strides": [1, 1], "bias_regularizer": null, "kernel_initializer": {"config": {"distribution": "uniform", "seed": null, "mode": "fan_in", "scale": 2.0}, "class_name": "VarianceScaling"}, "bias_constraint": null, "kernel_regularizer": null, "use_bias": false, "padding": "valid", "kernel_size": [3, 3], "data_format": "channels_last", "bias_initializer": {"config": {}, "class_name": "Zeros"}, "dilation_rate": [1, 1], "name": "stage4_unit1_conv2", "trainable": true, "filters": 512, "activation": "linear", "activity_regularizer": null, "kernel_constraint": null}, "class_name": "Conv2D", "inbound_nodes": [[["zero_padding2d_16", 0, 0, {}]]]}, {"name": "stage4_unit1_sc", "config": {"strides": [2, 2], "bias_regularizer": null, "kernel_initializer": {"config": {"distribution": "uniform", "seed": null, "mode": "fan_in", "scale": 2.0}, "class_name": "VarianceScaling"}, "bias_constraint": null, "kernel_regularizer": null, "use_bias": false, "padding": "valid", "kernel_size": [1, 1], "data_format": "channels_last", "bias_initializer": {"config": {}, "class_name": "Zeros"}, "dilation_rate": [1, 1], "name": "stage4_unit1_sc", "trainable": true, "filters": 512, "activation": "linear", "activity_regularizer": null, "kernel_constraint": null}, "class_name": "Conv2D", "inbound_nodes": [[["stage4_unit1_relu1", 0, 0, {}]]]}, {"name": "add_7", "config": {"name": "add_7", "trainable": true}, "class_name": "Add", "inbound_nodes": [[["stage4_unit1_conv2", 0, 0, {}], ["stage4_unit1_sc", 0, 0, {}]]]}, {"name": "stage4_unit2_bn1", "config": {"epsilon": 2e-05, "axis": 3, "gamma_constraint": null, "beta_regularizer": null, "name": "stage4_unit2_bn1", "moving_variance_initializer": {"config": {}, "class_name": "Ones"}, "gamma_initializer": {"config": {}, "class_name": "Ones"}, "moving_mean_initializer": {"config": {}, "class_name": "Zeros"}, "gamma_regularizer": null, "trainable": true, "beta_constraint": null, "center": true, "scale": true, "momentum": 0.99, "beta_initializer": {"config": {}, "class_name": "Zeros"}}, "class_name": "BatchNormalization", "inbound_nodes": [[["add_7", 0, 0, {}]]]}, {"name": "stage4_unit2_relu1", "config": {"activation": "relu", "trainable": true, "name": "stage4_unit2_relu1"}, "class_name": "Activation", "inbound_nodes": [[["stage4_unit2_bn1", 0, 0, {}]]]}, {"name": "zero_padding2d_17", "config": {"padding": [[1, 1], [1, 1]], "name": "zero_padding2d_17", "trainable": true, "data_format": "channels_last"}, "class_name": "ZeroPadding2D", "inbound_nodes": [[["stage4_unit2_relu1", 0, 0, {}]]]}, {"name": "stage4_unit2_conv1", "config": {"strides": [1, 1], "bias_regularizer": null, "kernel_initializer": {"config": {"distribution": "uniform", "seed": null, "mode": "fan_in", "scale": 2.0}, "class_name": "VarianceScaling"}, "bias_constraint": null, "kernel_regularizer": null, "use_bias": false, "padding": "valid", "kernel_size": [3, 3], "data_format": "channels_last", "bias_initializer": {"config": {}, "class_name": "Zeros"}, "dilation_rate": [1, 1], "name": "stage4_unit2_conv1", "trainable": true, "filters": 512, "activation": "linear", "activity_regularizer": null, "kernel_constraint": null}, "class_name": "Conv2D", "inbound_nodes": [[["zero_padding2d_17", 0, 0, {}]]]}, {"name": "stage4_unit2_bn2", "config": {"epsilon": 2e-05, "axis": 3, "gamma_constraint": null, "beta_regularizer": null, "name": "stage4_unit2_bn2", "moving_variance_initializer": {"config": {}, "class_name": "Ones"}, "gamma_initializer": {"config": {}, "class_name": "Ones"}, "moving_mean_initializer": {"config": {}, "class_name": "Zeros"}, "gamma_regularizer": null, "trainable": true, "beta_constraint": null, "center": true, "scale": true, "momentum": 0.99, "beta_initializer": {"config": {}, "class_name": "Zeros"}}, "class_name": "BatchNormalization", "inbound_nodes": [[["stage4_unit2_conv1", 0, 0, {}]]]}, {"name": "stage4_unit2_relu2", "config": {"activation": "relu", "trainable": true, "name": "stage4_unit2_relu2"}, "class_name": "Activation", "inbound_nodes": [[["stage4_unit2_bn2", 0, 0, {}]]]}, {"name": "zero_padding2d_18", "config": {"padding": [[1, 1], [1, 1]], "name": "zero_padding2d_18", "trainable": true, "data_format": "channels_last"}, "class_name": "ZeroPadding2D", "inbound_nodes": [[["stage4_unit2_relu2", 0, 0, {}]]]}, {"name": "stage4_unit2_conv2", "config": {"strides": [1, 1], "bias_regularizer": null, "kernel_initializer": {"config": {"distribution": "uniform", "seed": null, "mode": "fan_in", "scale": 2.0}, "class_name": "VarianceScaling"}, "bias_constraint": null, "kernel_regularizer": null, "use_bias": false, "padding": "valid", "kernel_size": [3, 3], "data_format": "channels_last", "bias_initializer": {"config": {}, "class_name": "Zeros"}, "dilation_rate": [1, 1], "name": "stage4_unit2_conv2", "trainable": true, "filters": 512, "activation": "linear", "activity_regularizer": null, "kernel_constraint": null}, "class_name": "Conv2D", "inbound_nodes": [[["zero_padding2d_18", 0, 0, {}]]]}, {"name": "add_8", "config": {"name": "add_8", "trainable": true}, "class_name": "Add", "inbound_nodes": [[["stage4_unit2_conv2", 0, 0, {}], ["add_7", 0, 0, {}]]]}, {"name": "bn1", "config": {"epsilon": 2e-05, "axis": 3, "gamma_constraint": null, "beta_regularizer": null, "name": "bn1", "moving_variance_initializer": {"config": {}, "class_name": "Ones"}, "gamma_initializer": {"config": {}, "class_name": "Ones"}, "moving_mean_initializer": {"config": {}, "class_name": "Zeros"}, "gamma_regularizer": null, "trainable": true, "beta_constraint": null, "center": true, "scale": true, "momentum": 0.99, "beta_initializer": {"config": {}, "class_name": "Zeros"}}, "class_name": "BatchNormalization", "inbound_nodes": [[["add_8", 0, 0, {}]]]}, {"name": "relu1", "config": {"activation": "relu", "trainable": true, "name": "relu1"}, "class_name": "Activation", "inbound_nodes": [[["bn1", 0, 0, {}]]]}, {"name": "decoder_stage0_conv1", "config": {"strides": [1, 1], "bias_regularizer": null, "kernel_initializer": {"config": {"distribution": "uniform", "seed": null, "mode": "fan_avg", "scale": 1.0}, "class_name": "VarianceScaling"}, "bias_constraint": null, "kernel_regularizer": null, "use_bias": false, "padding": "same", "kernel_size": [1, 1], "data_format": "channels_last", "bias_initializer": {"config": {}, "class_name": "Zeros"}, "dilation_rate": [1, 1], "name": "decoder_stage0_conv1", "trainable": true, "filters": 128, "activation": "linear", "activity_regularizer": null, "kernel_constraint": null}, "class_name": "Conv2D", "inbound_nodes": [[["relu1", 0, 0, {}]]]}, {"name": "decoder_stage0_bn1", "config": {"epsilon": 0.001, "axis": -1, "gamma_constraint": null, "beta_regularizer": null, "name": "decoder_stage0_bn1", "moving_variance_initializer": {"config": {}, "class_name": "Ones"}, "gamma_initializer": {"config": {}, "class_name": "Ones"}, "moving_mean_initializer": {"config": {}, "class_name": "Zeros"}, "gamma_regularizer": null, "trainable": true, "beta_constraint": null, "center": true, "scale": true, "momentum": 0.99, "beta_initializer": {"config": {}, "class_name": "Zeros"}}, "class_name": "BatchNormalization", "inbound_nodes": [[["decoder_stage0_conv1", 0, 0, {}]]]}, {"name": "decoder_stage0_relu1", "config": {"activation": "relu", "trainable": true, "name": "decoder_stage0_relu1"}, "class_name": "Activation", "inbound_nodes": [[["decoder_stage0_bn1", 0, 0, {}]]]}, {"name": "decoder_stage0_upsample2", "config": {"data_format": "channels_last", "trainable": true, "name": "decoder_stage0_upsample2", "size": [2, 2], "interpolation": "nearest"}, "class_name": "UpSampling2D", "inbound_nodes": [[["decoder_stage0_relu1", 0, 0, {}]]]}, {"name": "decoder_stage0_conv2", "config": {"strides": [1, 1], "bias_regularizer": null, "kernel_initializer": {"config": {"distribution": "uniform", "seed": null, "mode": "fan_avg", "scale": 1.0}, "class_name": "VarianceScaling"}, "bias_constraint": null, "kernel_regularizer": null, "use_bias": false, "padding": "same", "kernel_size": [3, 3], "data_format": "channels_last", "bias_initializer": {"config": {}, "class_name": "Zeros"}, "dilation_rate": [1, 1], "name": "decoder_stage0_conv2", "trainable": true, "filters": 128, "activation": "linear", "activity_regularizer": null, "kernel_constraint": null}, "class_name": "Conv2D", "inbound_nodes": [[["decoder_stage0_upsample2", 0, 0, {}]]]}, {"name": "decoder_stage0_bn2", "config": {"epsilon": 0.001, "axis": -1, "gamma_constraint": null, "beta_regularizer": null, "name": "decoder_stage0_bn2", "moving_variance_initializer": {"config": {}, "class_name": "Ones"}, "gamma_initializer": {"config": {}, "class_name": "Ones"}, "moving_mean_initializer": {"config": {}, "class_name": "Zeros"}, "gamma_regularizer": null, "trainable": true, "beta_constraint": null, "center": true, "scale": true, "momentum": 0.99, "beta_initializer": {"config": {}, "class_name": "Zeros"}}, "class_name": "BatchNormalization", "inbound_nodes": [[["decoder_stage0_conv2", 0, 0, {}]]]}, {"name": "decoder_stage0_relu2", "config": {"activation": "relu", "trainable": true, "name": "decoder_stage0_relu2"}, "class_name": "Activation", "inbound_nodes": [[["decoder_stage0_bn2", 0, 0, {}]]]}, {"name": "decoder_stage0_conv3", "config": {"strides": [1, 1], "bias_regularizer": null, "kernel_initializer": {"config": {"distribution": "uniform", "seed": null, "mode": "fan_avg", "scale": 1.0}, "class_name": "VarianceScaling"}, "bias_constraint": null, "kernel_regularizer": null, "use_bias": false, "padding": "same", "kernel_size": [1, 1], "data_format": "channels_last", "bias_initializer": {"config": {}, "class_name": "Zeros"}, "dilation_rate": [1, 1], "name": "decoder_stage0_conv3", "trainable": true, "filters": 256, "activation": "linear", "activity_regularizer": null, "kernel_constraint": null}, "class_name": "Conv2D", "inbound_nodes": [[["decoder_stage0_relu2", 0, 0, {}]]]}, {"name": "decoder_stage0_bn3", "config": {"epsilon": 0.001, "axis": -1, "gamma_constraint": null, "beta_regularizer": null, "name": "decoder_stage0_bn3", "moving_variance_initializer": {"config": {}, "class_name": "Ones"}, "gamma_initializer": {"config": {}, "class_name": "Ones"}, "moving_mean_initializer": {"config": {}, "class_name": "Zeros"}, "gamma_regularizer": null, "trainable": true, "beta_constraint": null, "center": true, "scale": true, "momentum": 0.99, "beta_initializer": {"config": {}, "class_name": "Zeros"}}, "class_name": "BatchNormalization", "inbound_nodes": [[["decoder_stage0_conv3", 0, 0, {}]]]}, {"name": "decoder_stage0_relu3", "config": {"activation": "relu", "trainable": true, "name": "decoder_stage0_relu3"}, "class_name": "Activation", "inbound_nodes": [[["decoder_stage0_bn3", 0, 0, {}]]]}, {"name": "add_9", "config": {"name": "add_9", "trainable": true}, "class_name": "Add", "inbound_nodes": [[["decoder_stage0_relu3", 0, 0, {}], ["stage4_unit1_relu1", 0, 0, {}]]]}, {"name": "decoder_stage1_conv1", "config": {"strides": [1, 1], "bias_regularizer": null, "kernel_initializer": {"config": {"distribution": "uniform", "seed": null, "mode": "fan_avg", "scale": 1.0}, "class_name": "VarianceScaling"}, "bias_constraint": null, "kernel_regularizer": null, "use_bias": false, "padding": "same", "kernel_size": [1, 1], "data_format": "channels_last", "bias_initializer": {"config": {}, "class_name": "Zeros"}, "dilation_rate": [1, 1], "name": "decoder_stage1_conv1", "trainable": true, "filters": 64, "activation": "linear", "activity_regularizer": null, "kernel_constraint": null}, "class_name": "Conv2D", "inbound_nodes": [[["add_9", 0, 0, {}]]]}, {"name": "decoder_stage1_bn1", "config": {"epsilon": 0.001, "axis": -1, "gamma_constraint": null, "beta_regularizer": null, "name": "decoder_stage1_bn1", "moving_variance_initializer": {"config": {}, "class_name": "Ones"}, "gamma_initializer": {"config": {}, "class_name": "Ones"}, "moving_mean_initializer": {"config": {}, "class_name": "Zeros"}, "gamma_regularizer": null, "trainable": true, "beta_constraint": null, "center": true, "scale": true, "momentum": 0.99, "beta_initializer": {"config": {}, "class_name": "Zeros"}}, "class_name": "BatchNormalization", "inbound_nodes": [[["decoder_stage1_conv1", 0, 0, {}]]]}, {"name": "decoder_stage1_relu1", "config": {"activation": "relu", "trainable": true, "name": "decoder_stage1_relu1"}, "class_name": "Activation", "inbound_nodes": [[["decoder_stage1_bn1", 0, 0, {}]]]}, {"name": "decoder_stage1_upsample2", "config": {"data_format": "channels_last", "trainable": true, "name": "decoder_stage1_upsample2", "size": [2, 2], "interpolation": "nearest"}, "class_name": "UpSampling2D", "inbound_nodes": [[["decoder_stage1_relu1", 0, 0, {}]]]}, {"name": "decoder_stage1_conv2", "config": {"strides": [1, 1], "bias_regularizer": null, "kernel_initializer": {"config": {"distribution": "uniform", "seed": null, "mode": "fan_avg", "scale": 1.0}, "class_name": "VarianceScaling"}, "bias_constraint": null, "kernel_regularizer": null, "use_bias": false, "padding": "same", "kernel_size": [3, 3], "data_format": "channels_last", "bias_initializer": {"config": {}, "class_name": "Zeros"}, "dilation_rate": [1, 1], "name": "decoder_stage1_conv2", "trainable": true, "filters": 64, "activation": "linear", "activity_regularizer": null, "kernel_constraint": null}, "class_name": "Conv2D", "inbound_nodes": [[["decoder_stage1_upsample2", 0, 0, {}]]]}, {"name": "decoder_stage1_bn2", "config": {"epsilon": 0.001, "axis": -1, "gamma_constraint": null, "beta_regularizer": null, "name": "decoder_stage1_bn2", "moving_variance_initializer": {"config": {}, "class_name": "Ones"}, "gamma_initializer": {"config": {}, "class_name": "Ones"}, "moving_mean_initializer": {"config": {}, "class_name": "Zeros"}, "gamma_regularizer": null, "trainable": true, "beta_constraint": null, "center": true, "scale": true, "momentum": 0.99, "beta_initializer": {"config": {}, "class_name": "Zeros"}}, "class_name": "BatchNormalization", "inbound_nodes": [[["decoder_stage1_conv2", 0, 0, {}]]]}, {"name": "decoder_stage1_relu2", "config": {"activation": "relu", "trainable": true, "name": "decoder_stage1_relu2"}, "class_name": "Activation", "inbound_nodes": [[["decoder_stage1_bn2", 0, 0, {}]]]}, {"name": "decoder_stage1_conv3", "config": {"strides": [1, 1], "bias_regularizer": null, "kernel_initializer": {"config": {"distribution": "uniform", "seed": null, "mode": "fan_avg", "scale": 1.0}, "class_name": "VarianceScaling"}, "bias_constraint": null, "kernel_regularizer": null, "use_bias": false, "padding": "same", "kernel_size": [1, 1], "data_format": "channels_last", "bias_initializer": {"config": {}, "class_name": "Zeros"}, "dilation_rate": [1, 1], "name": "decoder_stage1_conv3", "trainable": true, "filters": 128, "activation": "linear", "activity_regularizer": null, "kernel_constraint": null}, "class_name": "Conv2D", "inbound_nodes": [[["decoder_stage1_relu2", 0, 0, {}]]]}, {"name": "decoder_stage1_bn3", "config": {"epsilon": 0.001, "axis": -1, "gamma_constraint": null, "beta_regularizer": null, "name": "decoder_stage1_bn3", "moving_variance_initializer": {"config": {}, "class_name": "Ones"}, "gamma_initializer": {"config": {}, "class_name": "Ones"}, "moving_mean_initializer": {"config": {}, "class_name": "Zeros"}, "gamma_regularizer": null, "trainable": true, "beta_constraint": null, "center": true, "scale": true, "momentum": 0.99, "beta_initializer": {"config": {}, "class_name": "Zeros"}}, "class_name": "BatchNormalization", "inbound_nodes": [[["decoder_stage1_conv3", 0, 0, {}]]]}, {"name": "decoder_stage1_relu3", "config": {"activation": "relu", "trainable": true, "name": "decoder_stage1_relu3"}, "class_name": "Activation", "inbound_nodes": [[["decoder_stage1_bn3", 0, 0, {}]]]}, {"name": "add_10", "config": {"name": "add_10", "trainable": true}, "class_name": "Add", "inbound_nodes": [[["decoder_stage1_relu3", 0, 0, {}], ["stage3_unit1_relu1", 0, 0, {}]]]}, {"name": "decoder_stage2_conv1", "config": {"strides": [1, 1], "bias_regularizer": null, "kernel_initializer": {"config": {"distribution": "uniform", "seed": null, "mode": "fan_avg", "scale": 1.0}, "class_name": "VarianceScaling"}, "bias_constraint": null, "kernel_regularizer": null, "use_bias": false, "padding": "same", "kernel_size": [1, 1], "data_format": "channels_last", "bias_initializer": {"config": {}, "class_name": "Zeros"}, "dilation_rate": [1, 1], "name": "decoder_stage2_conv1", "trainable": true, "filters": 32, "activation": "linear", "activity_regularizer": null, "kernel_constraint": null}, "class_name": "Conv2D", "inbound_nodes": [[["add_10", 0, 0, {}]]]}, {"name": "decoder_stage2_bn1", "config": {"epsilon": 0.001, "axis": -1, "gamma_constraint": null, "beta_regularizer": null, "name": "decoder_stage2_bn1", "moving_variance_initializer": {"config": {}, "class_name": "Ones"}, "gamma_initializer": {"config": {}, "class_name": "Ones"}, "moving_mean_initializer": {"config": {}, "class_name": "Zeros"}, "gamma_regularizer": null, "trainable": true, "beta_constraint": null, "center": true, "scale": true, "momentum": 0.99, "beta_initializer": {"config": {}, "class_name": "Zeros"}}, "class_name": "BatchNormalization", "inbound_nodes": [[["decoder_stage2_conv1", 0, 0, {}]]]}, {"name": "decoder_stage2_relu1", "config": {"activation": "relu", "trainable": true, "name": "decoder_stage2_relu1"}, "class_name": "Activation", "inbound_nodes": [[["decoder_stage2_bn1", 0, 0, {}]]]}, {"name": "decoder_stage2_upsample2", "config": {"data_format": "channels_last", "trainable": true, "name": "decoder_stage2_upsample2", "size": [2, 2], "interpolation": "nearest"}, "class_name": "UpSampling2D", "inbound_nodes": [[["decoder_stage2_relu1", 0, 0, {}]]]}, {"name": "decoder_stage2_conv2", "config": {"strides": [1, 1], "bias_regularizer": null, "kernel_initializer": {"config": {"distribution": "uniform", "seed": null, "mode": "fan_avg", "scale": 1.0}, "class_name": "VarianceScaling"}, "bias_constraint": null, "kernel_regularizer": null, "use_bias": false, "padding": "same", "kernel_size": [3, 3], "data_format": "channels_last", "bias_initializer": {"config": {}, "class_name": "Zeros"}, "dilation_rate": [1, 1], "name": "decoder_stage2_conv2", "trainable": true, "filters": 32, "activation": "linear", "activity_regularizer": null, "kernel_constraint": null}, "class_name": "Conv2D", "inbound_nodes": [[["decoder_stage2_upsample2", 0, 0, {}]]]}, {"name": "decoder_stage2_bn2", "config": {"epsilon": 0.001, "axis": -1, "gamma_constraint": null, "beta_regularizer": null, "name": "decoder_stage2_bn2", "moving_variance_initializer": {"config": {}, "class_name": "Ones"}, "gamma_initializer": {"config": {}, "class_name": "Ones"}, "moving_mean_initializer": {"config": {}, "class_name": "Zeros"}, "gamma_regularizer": null, "trainable": true, "beta_constraint": null, "center": true, "scale": true, "momentum": 0.99, "beta_initializer": {"config": {}, "class_name": "Zeros"}}, "class_name": "BatchNormalization", "inbound_nodes": [[["decoder_stage2_conv2", 0, 0, {}]]]}, {"name": "decoder_stage2_relu2", "config": {"activation": "relu", "trainable": true, "name": "decoder_stage2_relu2"}, "class_name": "Activation", "inbound_nodes": [[["decoder_stage2_bn2", 0, 0, {}]]]}, {"name": "decoder_stage2_conv3", "config": {"strides": [1, 1], "bias_regularizer": null, "kernel_initializer": {"config": {"distribution": "uniform", "seed": null, "mode": "fan_avg", "scale": 1.0}, "class_name": "VarianceScaling"}, "bias_constraint": null, "kernel_regularizer": null, "use_bias": false, "padding": "same", "kernel_size": [1, 1], "data_format": "channels_last", "bias_initializer": {"config": {}, "class_name": "Zeros"}, "dilation_rate": [1, 1], "name": "decoder_stage2_conv3", "trainable": true, "filters": 64, "activation": "linear", "activity_regularizer": null, "kernel_constraint": null}, "class_name": "Conv2D", "inbound_nodes": [[["decoder_stage2_relu2", 0, 0, {}]]]}, {"name": "decoder_stage2_bn3", "config": {"epsilon": 0.001, "axis": -1, "gamma_constraint": null, "beta_regularizer": null, "name": "decoder_stage2_bn3", "moving_variance_initializer": {"config": {}, "class_name": "Ones"}, "gamma_initializer": {"config": {}, "class_name": "Ones"}, "moving_mean_initializer": {"config": {}, "class_name": "Zeros"}, "gamma_regularizer": null, "trainable": true, "beta_constraint": null, "center": true, "scale": true, "momentum": 0.99, "beta_initializer": {"config": {}, "class_name": "Zeros"}}, "class_name": "BatchNormalization", "inbound_nodes": [[["decoder_stage2_conv3", 0, 0, {}]]]}, {"name": "decoder_stage2_relu3", "config": {"activation": "relu", "trainable": true, "name": "decoder_stage2_relu3"}, "class_name": "Activation", "inbound_nodes": [[["decoder_stage2_bn3", 0, 0, {}]]]}, {"name": "add_11", "config": {"name": "add_11", "trainable": true}, "class_name": "Add", "inbound_nodes": [[["decoder_stage2_relu3", 0, 0, {}], ["stage2_unit1_relu1", 0, 0, {}]]]}, {"name": "decoder_stage3_conv1", "config": {"strides": [1, 1], "bias_regularizer": null, "kernel_initializer": {"config": {"distribution": "uniform", "seed": null, "mode": "fan_avg", "scale": 1.0}, "class_name": "VarianceScaling"}, "bias_constraint": null, "kernel_regularizer": null, "use_bias": false, "padding": "same", "kernel_size": [1, 1], "data_format": "channels_last", "bias_initializer": {"config": {}, "class_name": "Zeros"}, "dilation_rate": [1, 1], "name": "decoder_stage3_conv1", "trainable": true, "filters": 16, "activation": "linear", "activity_regularizer": null, "kernel_constraint": null}, "class_name": "Conv2D", "inbound_nodes": [[["add_11", 0, 0, {}]]]}, {"name": "decoder_stage3_bn1", "config": {"epsilon": 0.001, "axis": -1, "gamma_constraint": null, "beta_regularizer": null, "name": "decoder_stage3_bn1", "moving_variance_initializer": {"config": {}, "class_name": "Ones"}, "gamma_initializer": {"config": {}, "class_name": "Ones"}, "moving_mean_initializer": {"config": {}, "class_name": "Zeros"}, "gamma_regularizer": null, "trainable": true, "beta_constraint": null, "center": true, "scale": true, "momentum": 0.99, "beta_initializer": {"config": {}, "class_name": "Zeros"}}, "class_name": "BatchNormalization", "inbound_nodes": [[["decoder_stage3_conv1", 0, 0, {}]]]}, {"name": "decoder_stage3_relu1", "config": {"activation": "relu", "trainable": true, "name": "decoder_stage3_relu1"}, "class_name": "Activation", "inbound_nodes": [[["decoder_stage3_bn1", 0, 0, {}]]]}, {"name": "decoder_stage3_upsample2", "config": {"data_format": "channels_last", "trainable": true, "name": "decoder_stage3_upsample2", "size": [2, 2], "interpolation": "nearest"}, "class_name": "UpSampling2D", "inbound_nodes": [[["decoder_stage3_relu1", 0, 0, {}]]]}, {"name": "decoder_stage3_conv2", "config": {"strides": [1, 1], "bias_regularizer": null, "kernel_initializer": {"config": {"distribution": "uniform", "seed": null, "mode": "fan_avg", "scale": 1.0}, "class_name": "VarianceScaling"}, "bias_constraint": null, "kernel_regularizer": null, "use_bias": false, "padding": "same", "kernel_size": [3, 3], "data_format": "channels_last", "bias_initializer": {"config": {}, "class_name": "Zeros"}, "dilation_rate": [1, 1], "name": "decoder_stage3_conv2", "trainable": true, "filters": 16, "activation": "linear", "activity_regularizer": null, "kernel_constraint": null}, "class_name": "Conv2D", "inbound_nodes": [[["decoder_stage3_upsample2", 0, 0, {}]]]}, {"name": "decoder_stage3_bn2", "config": {"epsilon": 0.001, "axis": -1, "gamma_constraint": null, "beta_regularizer": null, "name": "decoder_stage3_bn2", "moving_variance_initializer": {"config": {}, "class_name": "Ones"}, "gamma_initializer": {"config": {}, "class_name": "Ones"}, "moving_mean_initializer": {"config": {}, "class_name": "Zeros"}, "gamma_regularizer": null, "trainable": true, "beta_constraint": null, "center": true, "scale": true, "momentum": 0.99, "beta_initializer": {"config": {}, "class_name": "Zeros"}}, "class_name": "BatchNormalization", "inbound_nodes": [[["decoder_stage3_conv2", 0, 0, {}]]]}, {"name": "decoder_stage3_relu2", "config": {"activation": "relu", "trainable": true, "name": "decoder_stage3_relu2"}, "class_name": "Activation", "inbound_nodes": [[["decoder_stage3_bn2", 0, 0, {}]]]}, {"name": "decoder_stage3_conv3", "config": {"strides": [1, 1], "bias_regularizer": null, "kernel_initializer": {"config": {"distribution": "uniform", "seed": null, "mode": "fan_avg", "scale": 1.0}, "class_name": "VarianceScaling"}, "bias_constraint": null, "kernel_regularizer": null, "use_bias": false, "padding": "same", "kernel_size": [1, 1], "data_format": "channels_last", "bias_initializer": {"config": {}, "class_name": "Zeros"}, "dilation_rate": [1, 1], "name": "decoder_stage3_conv3", "trainable": true, "filters": 64, "activation": "linear", "activity_regularizer": null, "kernel_constraint": null}, "class_name": "Conv2D", "inbound_nodes": [[["decoder_stage3_relu2", 0, 0, {}]]]}, {"name": "decoder_stage3_bn3", "config": {"epsilon": 0.001, "axis": -1, "gamma_constraint": null, "beta_regularizer": null, "name": "decoder_stage3_bn3", "moving_variance_initializer": {"config": {}, "class_name": "Ones"}, "gamma_initializer": {"config": {}, "class_name": "Ones"}, "moving_mean_initializer": {"config": {}, "class_name": "Zeros"}, "gamma_regularizer": null, "trainable": true, "beta_constraint": null, "center": true, "scale": true, "momentum": 0.99, "beta_initializer": {"config": {}, "class_name": "Zeros"}}, "class_name": "BatchNormalization", "inbound_nodes": [[["decoder_stage3_conv3", 0, 0, {}]]]}, {"name": "decoder_stage3_relu3", "config": {"activation": "relu", "trainable": true, "name": "decoder_stage3_relu3"}, "class_name": "Activation", "inbound_nodes": [[["decoder_stage3_bn3", 0, 0, {}]]]}, {"name": "add_12", "config": {"name": "add_12", "trainable": true}, "class_name": "Add", "inbound_nodes": [[["decoder_stage3_relu3", 0, 0, {}], ["relu0", 0, 0, {}]]]}, {"name": "decoder_stage4_conv1", "config": {"strides": [1, 1], "bias_regularizer": null, "kernel_initializer": {"config": {"distribution": "uniform", "seed": null, "mode": "fan_avg", "scale": 1.0}, "class_name": "VarianceScaling"}, "bias_constraint": null, "kernel_regularizer": null, "use_bias": false, "padding": "same", "kernel_size": [1, 1], "data_format": "channels_last", "bias_initializer": {"config": {}, "class_name": "Zeros"}, "dilation_rate": [1, 1], "name": "decoder_stage4_conv1", "trainable": true, "filters": 16, "activation": "linear", "activity_regularizer": null, "kernel_constraint": null}, "class_name": "Conv2D", "inbound_nodes": [[["add_12", 0, 0, {}]]]}, {"name": "decoder_stage4_bn1", "config": {"epsilon": 0.001, "axis": -1, "gamma_constraint": null, "beta_regularizer": null, "name": "decoder_stage4_bn1", "moving_variance_initializer": {"config": {}, "class_name": "Ones"}, "gamma_initializer": {"config": {}, "class_name": "Ones"}, "moving_mean_initializer": {"config": {}, "class_name": "Zeros"}, "gamma_regularizer": null, "trainable": true, "beta_constraint": null, "center": true, "scale": true, "momentum": 0.99, "beta_initializer": {"config": {}, "class_name": "Zeros"}}, "class_name": "BatchNormalization", "inbound_nodes": [[["decoder_stage4_conv1", 0, 0, {}]]]}, {"name": "decoder_stage4_relu1", "config": {"activation": "relu", "trainable": true, "name": "decoder_stage4_relu1"}, "class_name": "Activation", "inbound_nodes": [[["decoder_stage4_bn1", 0, 0, {}]]]}, {"name": "decoder_stage4_upsample2", "config": {"data_format": "channels_last", "trainable": true, "name": "decoder_stage4_upsample2", "size": [2, 2], "interpolation": "nearest"}, "class_name": "UpSampling2D", "inbound_nodes": [[["decoder_stage4_relu1", 0, 0, {}]]]}, {"name": "decoder_stage4_conv2", "config": {"strides": [1, 1], "bias_regularizer": null, "kernel_initializer": {"config": {"distribution": "uniform", "seed": null, "mode": "fan_avg", "scale": 1.0}, "class_name": "VarianceScaling"}, "bias_constraint": null, "kernel_regularizer": null, "use_bias": false, "padding": "same", "kernel_size": [3, 3], "data_format": "channels_last", "bias_initializer": {"config": {}, "class_name": "Zeros"}, "dilation_rate": [1, 1], "name": "decoder_stage4_conv2", "trainable": true, "filters": 16, "activation": "linear", "activity_regularizer": null, "kernel_constraint": null}, "class_name": "Conv2D", "inbound_nodes": [[["decoder_stage4_upsample2", 0, 0, {}]]]}, {"name": "decoder_stage4_bn2", "config": {"epsilon": 0.001, "axis": -1, "gamma_constraint": null, "beta_regularizer": null, "name": "decoder_stage4_bn2", "moving_variance_initializer": {"config": {}, "class_name": "Ones"}, "gamma_initializer": {"config": {}, "class_name": "Ones"}, "moving_mean_initializer": {"config": {}, "class_name": "Zeros"}, "gamma_regularizer": null, "trainable": true, "beta_constraint": null, "center": true, "scale": true, "momentum": 0.99, "beta_initializer": {"config": {}, "class_name": "Zeros"}}, "class_name": "BatchNormalization", "inbound_nodes": [[["decoder_stage4_conv2", 0, 0, {}]]]}, {"name": "decoder_stage4_relu2", "config": {"activation": "relu", "trainable": true, "name": "decoder_stage4_relu2"}, "class_name": "Activation", "inbound_nodes": [[["decoder_stage4_bn2", 0, 0, {}]]]}, {"name": "decoder_stage4_conv3", "config": {"strides": [1, 1], "bias_regularizer": null, "kernel_initializer": {"config": {"distribution": "uniform", "seed": null, "mode": "fan_avg", "scale": 1.0}, "class_name": "VarianceScaling"}, "bias_constraint": null, "kernel_regularizer": null, "use_bias": false, "padding": "same", "kernel_size": [1, 1], "data_format": "channels_last", "bias_initializer": {"config": {}, "class_name": "Zeros"}, "dilation_rate": [1, 1], "name": "decoder_stage4_conv3", "trainable": true, "filters": 16, "activation": "linear", "activity_regularizer": null, "kernel_constraint": null}, "class_name": "Conv2D", "inbound_nodes": [[["decoder_stage4_relu2", 0, 0, {}]]]}, {"name": "decoder_stage4_bn3", "config": {"epsilon": 0.001, "axis": -1, "gamma_constraint": null, "beta_regularizer": null, "name": "decoder_stage4_bn3", "moving_variance_initializer": {"config": {}, "class_name": "Ones"}, "gamma_initializer": {"config": {}, "class_name": "Ones"}, "moving_mean_initializer": {"config": {}, "class_name": "Zeros"}, "gamma_regularizer": null, "trainable": true, "beta_constraint": null, "center": true, "scale": true, "momentum": 0.99, "beta_initializer": {"config": {}, "class_name": "Zeros"}}, "class_name": "BatchNormalization", "inbound_nodes": [[["decoder_stage4_conv3", 0, 0, {}]]]}, {"name": "decoder_stage4_relu3", "config": {"activation": "relu", "trainable": true, "name": "decoder_stage4_relu3"}, "class_name": "Activation", "inbound_nodes": [[["decoder_stage4_bn3", 0, 0, {}]]]}, {"name": "final_conv", "config": {"strides": [1, 1], "bias_regularizer": null, "kernel_initializer": {"config": {"distribution": "uniform", "seed": null, "mode": "fan_avg", "scale": 1.0}, "class_name": "VarianceScaling"}, "bias_constraint": null, "kernel_regularizer": null, "use_bias": true, "padding": "same", "kernel_size": [3, 3], "data_format": "channels_last", "bias_initializer": {"config": {}, "class_name": "Zeros"}, "dilation_rate": [1, 1], "name": "final_conv", "trainable": true, "filters": 1, "activation": "linear", "activity_regularizer": null, "kernel_constraint": null}, "class_name": "Conv2D", "inbound_nodes": [[["decoder_stage4_relu3", 0, 0, {}]]]}, {"name": "sigmoid", "config": {"activation": "sigmoid", "trainable": true, "name": "sigmoid"}, "class_name": "Activation", "inbound_nodes": [[["final_conv", 0, 0, {}]]]}]}, "class_name": "Model"}