{"config": {"name": "link-resnet18", "input_layers": [["data", 0, 0]], "layers": [{"name": "data", "class_name": "InputLayer", "inbound_nodes": [], "config": {"batch_input_shape": [null, null, null, 3], "dtype": "float32", "sparse": false, "name": "data"}}, {"name": "bn_data", "class_name": "BatchNormalization", "inbound_nodes": [[["data", 0, 0, {}]]], "config": {"gamma_regularizer": null, "beta_regularizer": null, "beta_initializer": {"config": {}, "class_name": "Zeros"}, "axis": 3, "trainable": true, "momentum": 0.99, "gamma_initializer": {"config": {}, "class_name": "Ones"}, "moving_mean_initializer": {"config": {}, "class_name": "Zeros"}, "name": "bn_data", "moving_variance_initializer": {"config": {}, "class_name": "Ones"}, "scale": false, "gamma_constraint": null, "beta_constraint": null, "epsilon": 2e-05, "center": true}}, {"name": "zero_padding2d_73", "class_name": "ZeroPadding2D", "inbound_nodes": [[["bn_data", 0, 0, {}]]], "config": {"name": "zero_padding2d_73", "trainable": true, "data_format": "channels_last", "padding": [[3, 3], [3, 3]]}}, {"name": "conv0", "class_name": "Conv2D", "inbound_nodes": [[["zero_padding2d_73", 0, 0, {}]]], "config": {"name": "conv0", "bias_initializer": {"config": {}, "class_name": "Zeros"}, "kernel_initializer": {"config": {"distribution": "uniform", "seed": null, "mode": "fan_in", "scale": 2.0}, "class_name": "VarianceScaling"}, "trainable": true, "filters": 64, "data_format": "channels_last", "bias_constraint": null, "use_bias": false, "activity_regularizer": null, "kernel_size": [7, 7], "bias_regularizer": null, "dilation_rate": [1, 1], "padding": "valid", "activation": "linear", "strides": [2, 2], "kernel_constraint": null, "kernel_regularizer": null}}, {"name": "bn0", "class_name": "BatchNormalization", "inbound_nodes": [[["conv0", 0, 0, {}]]], "config": {"gamma_regularizer": null, "beta_regularizer": null, "beta_initializer": {"config": {}, "class_name": "Zeros"}, "axis": 3, "trainable": true, "momentum": 0.99, "gamma_initializer": {"config": {}, "class_name": "Ones"}, "moving_mean_initializer": {"config": {}, "class_name": "Zeros"}, "name": "bn0", "moving_variance_initializer": {"config": {}, "class_name": "Ones"}, "scale": true, "gamma_constraint": null, "beta_constraint": null, "epsilon": 2e-05, "center": true}}, {"name": "relu0", "class_name": "Activation", "inbound_nodes": [[["bn0", 0, 0, {}]]], "config": {"name": "relu0", "trainable": true, "activation": "relu"}}, {"name": "zero_padding2d_74", "class_name": "ZeroPadding2D", "inbound_nodes": [[["relu0", 0, 0, {}]]], "config": {"name": "zero_padding2d_74", "trainable": true, "data_format": "channels_last", "padding": [[1, 1], [1, 1]]}}, {"name": "pooling0", "class_name": "MaxPooling2D", "inbound_nodes": [[["zero_padding2d_74", 0, 0, {}]]], "config": {"name": "pooling0", "strides": [2, 2], "trainable": true, "pool_size": [3, 3], "padding": "valid", "data_format": "channels_last"}}, {"name": "stage1_unit1_bn1", "class_name": "BatchNormalization", "inbound_nodes": [[["pooling0", 0, 0, {}]]], "config": {"gamma_regularizer": null, "beta_regularizer": null, "beta_initializer": {"config": {}, "class_name": "Zeros"}, "axis": 3, "trainable": true, "momentum": 0.99, "gamma_initializer": {"config": {}, "class_name": "Ones"}, "moving_mean_initializer": {"config": {}, "class_name": "Zeros"}, "name": "stage1_unit1_bn1", "moving_variance_initializer": {"config": {}, "class_name": "Ones"}, "scale": true, "gamma_constraint": null, "beta_constraint": null, "epsilon": 2e-05, "center": true}}, {"name": "stage1_unit1_relu1", "class_name": "Activation", "inbound_nodes": [[["stage1_unit1_bn1", 0, 0, {}]]], "config": {"name": "stage1_unit1_relu1", "trainable": true, "activation": "relu"}}, {"name": "zero_padding2d_75", "class_name": "ZeroPadding2D", "inbound_nodes": [[["stage1_unit1_relu1", 0, 0, {}]]], "config": {"name": "zero_padding2d_75", "trainable": true, "data_format": "channels_last", "padding": [[1, 1], [1, 1]]}}, {"name": "stage1_unit1_conv1", "class_name": "Conv2D", "inbound_nodes": [[["zero_padding2d_75", 0, 0, {}]]], "config": {"name": "stage1_unit1_conv1", "bias_initializer": {"config": {}, "class_name": "Zeros"}, "kernel_initializer": {"config": {"distribution": "uniform", "seed": null, "mode": "fan_in", "scale": 2.0}, "class_name": "VarianceScaling"}, "trainable": true, "filters": 64, "data_format": "channels_last", "bias_constraint": null, "use_bias": false, "activity_regularizer": null, "kernel_size": [3, 3], "bias_regularizer": null, "dilation_rate": [1, 1], "padding": "valid", "activation": "linear", "strides": [1, 1], "kernel_constraint": null, "kernel_regularizer": null}}, {"name": "stage1_unit1_bn2", "class_name": "BatchNormalization", "inbound_nodes": [[["stage1_unit1_conv1", 0, 0, {}]]], "config": {"gamma_regularizer": null, "beta_regularizer": null, "beta_initializer": {"config": {}, "class_name": "Zeros"}, "axis": 3, "trainable": true, "momentum": 0.99, "gamma_initializer": {"config": {}, "class_name": "Ones"}, "moving_mean_initializer": {"config": {}, "class_name": "Zeros"}, "name": "stage1_unit1_bn2", "moving_variance_initializer": {"config": {}, "class_name": "Ones"}, "scale": true, "gamma_constraint": null, "beta_constraint": null, "epsilon": 2e-05, "center": true}}, {"name": "stage1_unit1_relu2", "class_name": "Activation", "inbound_nodes": [[["stage1_unit1_bn2", 0, 0, {}]]], "config": {"name": "stage1_unit1_relu2", "trainable": true, "activation": "relu"}}, {"name": "zero_padding2d_76", "class_name": "ZeroPadding2D", "inbound_nodes": [[["stage1_unit1_relu2", 0, 0, {}]]], "config": {"name": "zero_padding2d_76", "trainable": true, "data_format": "channels_last", "padding": [[1, 1], [1, 1]]}}, {"name": "stage1_unit1_conv2", "class_name": "Conv2D", "inbound_nodes": [[["zero_padding2d_76", 0, 0, {}]]], "config": {"name": "stage1_unit1_conv2", "bias_initializer": {"config": {}, "class_name": "Zeros"}, "kernel_initializer": {"config": {"distribution": "uniform", "seed": null, "mode": "fan_in", "scale": 2.0}, "class_name": "VarianceScaling"}, "trainable": true, "filters": 64, "data_format": "channels_last", "bias_constraint": null, "use_bias": false, "activity_regularizer": null, "kernel_size": [3, 3], "bias_regularizer": null, "dilation_rate": [1, 1], "padding": "valid", "activation": "linear", "strides": [1, 1], "kernel_constraint": null, "kernel_regularizer": null}}, {"name": "stage1_unit1_sc", "class_name": "Conv2D", "inbound_nodes": [[["stage1_unit1_relu1", 0, 0, {}]]], "config": {"name": "stage1_unit1_sc", "bias_initializer": {"config": {}, "class_name": "Zeros"}, "kernel_initializer": {"config": {"distribution": "uniform", "seed": null, "mode": "fan_in", "scale": 2.0}, "class_name": "VarianceScaling"}, "trainable": true, "filters": 64, "data_format": "channels_last", "bias_constraint": null, "use_bias": false, "activity_regularizer": null, "kernel_size": [1, 1], "bias_regularizer": null, "dilation_rate": [1, 1], "padding": "valid", "activation": "linear", "strides": [1, 1], "kernel_constraint": null, "kernel_regularizer": null}}, {"name": "add_37", "class_name": "Add", "inbound_nodes": [[["stage1_unit1_conv2", 0, 0, {}], ["stage1_unit1_sc", 0, 0, {}]]], "config": {"name": "add_37", "trainable": true}}, {"name": "stage1_unit2_bn1", "class_name": "BatchNormalization", "inbound_nodes": [[["add_37", 0, 0, {}]]], "config": {"gamma_regularizer": null, "beta_regularizer": null, "beta_initializer": {"config": {}, "class_name": "Zeros"}, "axis": 3, "trainable": true, "momentum": 0.99, "gamma_initializer": {"config": {}, "class_name": "Ones"}, "moving_mean_initializer": {"config": {}, "class_name": "Zeros"}, "name": "stage1_unit2_bn1", "moving_variance_initializer": {"config": {}, "class_name": "Ones"}, "scale": true, "gamma_constraint": null, "beta_constraint": null, "epsilon": 2e-05, "center": true}}, {"name": "stage1_unit2_relu1", "class_name": "Activation", "inbound_nodes": [[["stage1_unit2_bn1", 0, 0, {}]]], "config": {"name": "stage1_unit2_relu1", "trainable": true, "activation": "relu"}}, {"name": "zero_padding2d_77", "class_name": "ZeroPadding2D", "inbound_nodes": [[["stage1_unit2_relu1", 0, 0, {}]]], "config": {"name": "zero_padding2d_77", "trainable": true, "data_format": "channels_last", "padding": [[1, 1], [1, 1]]}}, {"name": "stage1_unit2_conv1", "class_name": "Conv2D", "inbound_nodes": [[["zero_padding2d_77", 0, 0, {}]]], "config": {"name": "stage1_unit2_conv1", "bias_initializer": {"config": {}, "class_name": "Zeros"}, "kernel_initializer": {"config": {"distribution": "uniform", "seed": null, "mode": "fan_in", "scale": 2.0}, "class_name": "VarianceScaling"}, "trainable": true, "filters": 64, "data_format": "channels_last", "bias_constraint": null, "use_bias": false, "activity_regularizer": null, "kernel_size": [3, 3], "bias_regularizer": null, "dilation_rate": [1, 1], "padding": "valid", "activation": "linear", "strides": [1, 1], "kernel_constraint": null, "kernel_regularizer": null}}, {"name": "stage1_unit2_bn2", "class_name": "BatchNormalization", "inbound_nodes": [[["stage1_unit2_conv1", 0, 0, {}]]], "config": {"gamma_regularizer": null, "beta_regularizer": null, "beta_initializer": {"config": {}, "class_name": "Zeros"}, "axis": 3, "trainable": true, "momentum": 0.99, "gamma_initializer": {"config": {}, "class_name": "Ones"}, "moving_mean_initializer": {"config": {}, "class_name": "Zeros"}, "name": "stage1_unit2_bn2", "moving_variance_initializer": {"config": {}, "class_name": "Ones"}, "scale": true, "gamma_constraint": null, "beta_constraint": null, "epsilon": 2e-05, "center": true}}, {"name": "stage1_unit2_relu2", "class_name": "Activation", "inbound_nodes": [[["stage1_unit2_bn2", 0, 0, {}]]], "config": {"name": "stage1_unit2_relu2", "trainable": true, "activation": "relu"}}, {"name": "zero_padding2d_78", "class_name": "ZeroPadding2D", "inbound_nodes": [[["stage1_unit2_relu2", 0, 0, {}]]], "config": {"name": "zero_padding2d_78", "trainable": true, "data_format": "channels_last", "padding": [[1, 1], [1, 1]]}}, {"name": "stage1_unit2_conv2", "class_name": "Conv2D", "inbound_nodes": [[["zero_padding2d_78", 0, 0, {}]]], "config": {"name": "stage1_unit2_conv2", "bias_initializer": {"config": {}, "class_name": "Zeros"}, "kernel_initializer": {"config": {"distribution": "uniform", "seed": null, "mode": "fan_in", "scale": 2.0}, "class_name": "VarianceScaling"}, "trainable": true, "filters": 64, "data_format": "channels_last", "bias_constraint": null, "use_bias": false, "activity_regularizer": null, "kernel_size": [3, 3], "bias_regularizer": null, "dilation_rate": [1, 1], "padding": "valid", "activation": "linear", "strides": [1, 1], "kernel_constraint": null, "kernel_regularizer": null}}, {"name": "add_38", "class_name": "Add", "inbound_nodes": [[["stage1_unit2_conv2", 0, 0, {}], ["add_37", 0, 0, {}]]], "config": {"name": "add_38", "trainable": true}}, {"name": "stage2_unit1_bn1", "class_name": "BatchNormalization", "inbound_nodes": [[["add_38", 0, 0, {}]]], "config": {"gamma_regularizer": null, "beta_regularizer": null, "beta_initializer": {"config": {}, "class_name": "Zeros"}, "axis": 3, "trainable": true, "momentum": 0.99, "gamma_initializer": {"config": {}, "class_name": "Ones"}, "moving_mean_initializer": {"config": {}, "class_name": "Zeros"}, "name": "stage2_unit1_bn1", "moving_variance_initializer": {"config": {}, "class_name": "Ones"}, "scale": true, "gamma_constraint": null, "beta_constraint": null, "epsilon": 2e-05, "center": true}}, {"name": "stage2_unit1_relu1", "class_name": "Activation", "inbound_nodes": [[["stage2_unit1_bn1", 0, 0, {}]]], "config": {"name": "stage2_unit1_relu1", "trainable": true, "activation": "relu"}}, {"name": "zero_padding2d_79", "class_name": "ZeroPadding2D", "inbound_nodes": [[["stage2_unit1_relu1", 0, 0, {}]]], "config": {"name": "zero_padding2d_79", "trainable": true, "data_format": "channels_last", "padding": [[1, 1], [1, 1]]}}, {"name": "stage2_unit1_conv1", "class_name": "Conv2D", "inbound_nodes": [[["zero_padding2d_79", 0, 0, {}]]], "config": {"name": "stage2_unit1_conv1", "bias_initializer": {"config": {}, "class_name": "Zeros"}, "kernel_initializer": {"config": {"distribution": "uniform", "seed": null, "mode": "fan_in", "scale": 2.0}, "class_name": "VarianceScaling"}, "trainable": true, "filters": 128, "data_format": "channels_last", "bias_constraint": null, "use_bias": false, "activity_regularizer": null, "kernel_size": [3, 3], "bias_regularizer": null, "dilation_rate": [1, 1], "padding": "valid", "activation": "linear", "strides": [2, 2], "kernel_constraint": null, "kernel_regularizer": null}}, {"name": "stage2_unit1_bn2", "class_name": "BatchNormalization", "inbound_nodes": [[["stage2_unit1_conv1", 0, 0, {}]]], "config": {"gamma_regularizer": null, "beta_regularizer": null, "beta_initializer": {"config": {}, "class_name": "Zeros"}, "axis": 3, "trainable": true, "momentum": 0.99, "gamma_initializer": {"config": {}, "class_name": "Ones"}, "moving_mean_initializer": {"config": {}, "class_name": "Zeros"}, "name": "stage2_unit1_bn2", "moving_variance_initializer": {"config": {}, "class_name": "Ones"}, "scale": true, "gamma_constraint": null, "beta_constraint": null, "epsilon": 2e-05, "center": true}}, {"name": "stage2_unit1_relu2", "class_name": "Activation", "inbound_nodes": [[["stage2_unit1_bn2", 0, 0, {}]]], "config": {"name": "stage2_unit1_relu2", "trainable": true, "activation": "relu"}}, {"name": "zero_padding2d_80", "class_name": "ZeroPadding2D", "inbound_nodes": [[["stage2_unit1_relu2", 0, 0, {}]]], "config": {"name": "zero_padding2d_80", "trainable": true, "data_format": "channels_last", "padding": [[1, 1], [1, 1]]}}, {"name": "stage2_unit1_conv2", "class_name": "Conv2D", "inbound_nodes": [[["zero_padding2d_80", 0, 0, {}]]], "config": {"name": "stage2_unit1_conv2", "bias_initializer": {"config": {}, "class_name": "Zeros"}, "kernel_initializer": {"config": {"distribution": "uniform", "seed": null, "mode": "fan_in", "scale": 2.0}, "class_name": "VarianceScaling"}, "trainable": true, "filters": 128, "data_format": "channels_last", "bias_constraint": null, "use_bias": false, "activity_regularizer": null, "kernel_size": [3, 3], "bias_regularizer": null, "dilation_rate": [1, 1], "padding": "valid", "activation": "linear", "strides": [1, 1], "kernel_constraint": null, "kernel_regularizer": null}}, {"name": "stage2_unit1_sc", "class_name": "Conv2D", "inbound_nodes": [[["stage2_unit1_relu1", 0, 0, {}]]], "config": {"name": "stage2_unit1_sc", "bias_initializer": {"config": {}, "class_name": "Zeros"}, "kernel_initializer": {"config": {"distribution": "uniform", "seed": null, "mode": "fan_in", "scale": 2.0}, "class_name": "VarianceScaling"}, "trainable": true, "filters": 128, "data_format": "channels_last", "bias_constraint": null, "use_bias": false, "activity_regularizer": null, "kernel_size": [1, 1], "bias_regularizer": null, "dilation_rate": [1, 1], "padding": "valid", "activation": "linear", "strides": [2, 2], "kernel_constraint": null, "kernel_regularizer": null}}, {"name": "add_39", "class_name": "Add", "inbound_nodes": [[["stage2_unit1_conv2", 0, 0, {}], ["stage2_unit1_sc", 0, 0, {}]]], "config": {"name": "add_39", "trainable": true}}, {"name": "stage2_unit2_bn1", "class_name": "BatchNormalization", "inbound_nodes": [[["add_39", 0, 0, {}]]], "config": {"gamma_regularizer": null, "beta_regularizer": null, "beta_initializer": {"config": {}, "class_name": "Zeros"}, "axis": 3, "trainable": true, "momentum": 0.99, "gamma_initializer": {"config": {}, "class_name": "Ones"}, "moving_mean_initializer": {"config": {}, "class_name": "Zeros"}, "name": "stage2_unit2_bn1", "moving_variance_initializer": {"config": {}, "class_name": "Ones"}, "scale": true, "gamma_constraint": null, "beta_constraint": null, "epsilon": 2e-05, "center": true}}, {"name": "stage2_unit2_relu1", "class_name": "Activation", "inbound_nodes": [[["stage2_unit2_bn1", 0, 0, {}]]], "config": {"name": "stage2_unit2_relu1", "trainable": true, "activation": "relu"}}, {"name": "zero_padding2d_81", "class_name": "ZeroPadding2D", "inbound_nodes": [[["stage2_unit2_relu1", 0, 0, {}]]], "config": {"name": "zero_padding2d_81", "trainable": true, "data_format": "channels_last", "padding": [[1, 1], [1, 1]]}}, {"name": "stage2_unit2_conv1", "class_name": "Conv2D", "inbound_nodes": [[["zero_padding2d_81", 0, 0, {}]]], "config": {"name": "stage2_unit2_conv1", "bias_initializer": {"config": {}, "class_name": "Zeros"}, "kernel_initializer": {"config": {"distribution": "uniform", "seed": null, "mode": "fan_in", "scale": 2.0}, "class_name": "VarianceScaling"}, "trainable": true, "filters": 128, "data_format": "channels_last", "bias_constraint": null, "use_bias": false, "activity_regularizer": null, "kernel_size": [3, 3], "bias_regularizer": null, "dilation_rate": [1, 1], "padding": "valid", "activation": "linear", "strides": [1, 1], "kernel_constraint": null, "kernel_regularizer": null}}, {"name": "stage2_unit2_bn2", "class_name": "BatchNormalization", "inbound_nodes": [[["stage2_unit2_conv1", 0, 0, {}]]], "config": {"gamma_regularizer": null, "beta_regularizer": null, "beta_initializer": {"config": {}, "class_name": "Zeros"}, "axis": 3, "trainable": true, "momentum": 0.99, "gamma_initializer": {"config": {}, "class_name": "Ones"}, "moving_mean_initializer": {"config": {}, "class_name": "Zeros"}, "name": "stage2_unit2_bn2", "moving_variance_initializer": {"config": {}, "class_name": "Ones"}, "scale": true, "gamma_constraint": null, "beta_constraint": null, "epsilon": 2e-05, "center": true}}, {"name": "stage2_unit2_relu2", "class_name": "Activation", "inbound_nodes": [[["stage2_unit2_bn2", 0, 0, {}]]], "config": {"name": "stage2_unit2_relu2", "trainable": true, "activation": "relu"}}, {"name": "zero_padding2d_82", "class_name": "ZeroPadding2D", "inbound_nodes": [[["stage2_unit2_relu2", 0, 0, {}]]], "config": {"name": "zero_padding2d_82", "trainable": true, "data_format": "channels_last", "padding": [[1, 1], [1, 1]]}}, {"name": "stage2_unit2_conv2", "class_name": "Conv2D", "inbound_nodes": [[["zero_padding2d_82", 0, 0, {}]]], "config": {"name": "stage2_unit2_conv2", "bias_initializer": {"config": {}, "class_name": "Zeros"}, "kernel_initializer": {"config": {"distribution": "uniform", "seed": null, "mode": "fan_in", "scale": 2.0}, "class_name": "VarianceScaling"}, "trainable": true, "filters": 128, "data_format": "channels_last", "bias_constraint": null, "use_bias": false, "activity_regularizer": null, "kernel_size": [3, 3], "bias_regularizer": null, "dilation_rate": [1, 1], "padding": "valid", "activation": "linear", "strides": [1, 1], "kernel_constraint": null, "kernel_regularizer": null}}, {"name": "add_40", "class_name": "Add", "inbound_nodes": [[["stage2_unit2_conv2", 0, 0, {}], ["add_39", 0, 0, {}]]], "config": {"name": "add_40", "trainable": true}}, {"name": "stage3_unit1_bn1", "class_name": "BatchNormalization", "inbound_nodes": [[["add_40", 0, 0, {}]]], "config": {"gamma_regularizer": null, "beta_regularizer": null, "beta_initializer": {"config": {}, "class_name": "Zeros"}, "axis": 3, "trainable": true, "momentum": 0.99, "gamma_initializer": {"config": {}, "class_name": "Ones"}, "moving_mean_initializer": {"config": {}, "class_name": "Zeros"}, "name": "stage3_unit1_bn1", "moving_variance_initializer": {"config": {}, "class_name": "Ones"}, "scale": true, "gamma_constraint": null, "beta_constraint": null, "epsilon": 2e-05, "center": true}}, {"name": "stage3_unit1_relu1", "class_name": "Activation", "inbound_nodes": [[["stage3_unit1_bn1", 0, 0, {}]]], "config": {"name": "stage3_unit1_relu1", "trainable": true, "activation": "relu"}}, {"name": "zero_padding2d_83", "class_name": "ZeroPadding2D", "inbound_nodes": [[["stage3_unit1_relu1", 0, 0, {}]]], "config": {"name": "zero_padding2d_83", "trainable": true, "data_format": "channels_last", "padding": [[1, 1], [1, 1]]}}, {"name": "stage3_unit1_conv1", "class_name": "Conv2D", "inbound_nodes": [[["zero_padding2d_83", 0, 0, {}]]], "config": {"name": "stage3_unit1_conv1", "bias_initializer": {"config": {}, "class_name": "Zeros"}, "kernel_initializer": {"config": {"distribution": "uniform", "seed": null, "mode": "fan_in", "scale": 2.0}, "class_name": "VarianceScaling"}, "trainable": true, "filters": 256, "data_format": "channels_last", "bias_constraint": null, "use_bias": false, "activity_regularizer": null, "kernel_size": [3, 3], "bias_regularizer": null, "dilation_rate": [1, 1], "padding": "valid", "activation": "linear", "strides": [2, 2], "kernel_constraint": null, "kernel_regularizer": null}}, {"name": "stage3_unit1_bn2", "class_name": "BatchNormalization", "inbound_nodes": [[["stage3_unit1_conv1", 0, 0, {}]]], "config": {"gamma_regularizer": null, "beta_regularizer": null, "beta_initializer": {"config": {}, "class_name": "Zeros"}, "axis": 3, "trainable": true, "momentum": 0.99, "gamma_initializer": {"config": {}, "class_name": "Ones"}, "moving_mean_initializer": {"config": {}, "class_name": "Zeros"}, "name": "stage3_unit1_bn2", "moving_variance_initializer": {"config": {}, "class_name": "Ones"}, "scale": true, "gamma_constraint": null, "beta_constraint": null, "epsilon": 2e-05, "center": true}}, {"name": "stage3_unit1_relu2", "class_name": "Activation", "inbound_nodes": [[["stage3_unit1_bn2", 0, 0, {}]]], "config": {"name": "stage3_unit1_relu2", "trainable": true, "activation": "relu"}}, {"name": "zero_padding2d_84", "class_name": "ZeroPadding2D", "inbound_nodes": [[["stage3_unit1_relu2", 0, 0, {}]]], "config": {"name": "zero_padding2d_84", "trainable": true, "data_format": "channels_last", "padding": [[1, 1], [1, 1]]}}, {"name": "stage3_unit1_conv2", "class_name": "Conv2D", "inbound_nodes": [[["zero_padding2d_84", 0, 0, {}]]], "config": {"name": "stage3_unit1_conv2", "bias_initializer": {"config": {}, "class_name": "Zeros"}, "kernel_initializer": {"config": {"distribution": "uniform", "seed": null, "mode": "fan_in", "scale": 2.0}, "class_name": "VarianceScaling"}, "trainable": true, "filters": 256, "data_format": "channels_last", "bias_constraint": null, "use_bias": false, "activity_regularizer": null, "kernel_size": [3, 3], "bias_regularizer": null, "dilation_rate": [1, 1], "padding": "valid", "activation": "linear", "strides": [1, 1], "kernel_constraint": null, "kernel_regularizer": null}}, {"name": "stage3_unit1_sc", "class_name": "Conv2D", "inbound_nodes": [[["stage3_unit1_relu1", 0, 0, {}]]], "config": {"name": "stage3_unit1_sc", "bias_initializer": {"config": {}, "class_name": "Zeros"}, "kernel_initializer": {"config": {"distribution": "uniform", "seed": null, "mode": "fan_in", "scale": 2.0}, "class_name": "VarianceScaling"}, "trainable": true, "filters": 256, "data_format": "channels_last", "bias_constraint": null, "use_bias": false, "activity_regularizer": null, "kernel_size": [1, 1], "bias_regularizer": null, "dilation_rate": [1, 1], "padding": "valid", "activation": "linear", "strides": [2, 2], "kernel_constraint": null, "kernel_regularizer": null}}, {"name": "add_41", "class_name": "Add", "inbound_nodes": [[["stage3_unit1_conv2", 0, 0, {}], ["stage3_unit1_sc", 0, 0, {}]]], "config": {"name": "add_41", "trainable": true}}, {"name": "stage3_unit2_bn1", "class_name": "BatchNormalization", "inbound_nodes": [[["add_41", 0, 0, {}]]], "config": {"gamma_regularizer": null, "beta_regularizer": null, "beta_initializer": {"config": {}, "class_name": "Zeros"}, "axis": 3, "trainable": true, "momentum": 0.99, "gamma_initializer": {"config": {}, "class_name": "Ones"}, "moving_mean_initializer": {"config": {}, "class_name": "Zeros"}, "name": "stage3_unit2_bn1", "moving_variance_initializer": {"config": {}, "class_name": "Ones"}, "scale": true, "gamma_constraint": null, "beta_constraint": null, "epsilon": 2e-05, "center": true}}, {"name": "stage3_unit2_relu1", "class_name": "Activation", "inbound_nodes": [[["stage3_unit2_bn1", 0, 0, {}]]], "config": {"name": "stage3_unit2_relu1", "trainable": true, "activation": "relu"}}, {"name": "zero_padding2d_85", "class_name": "ZeroPadding2D", "inbound_nodes": [[["stage3_unit2_relu1", 0, 0, {}]]], "config": {"name": "zero_padding2d_85", "trainable": true, "data_format": "channels_last", "padding": [[1, 1], [1, 1]]}}, {"name": "stage3_unit2_conv1", "class_name": "Conv2D", "inbound_nodes": [[["zero_padding2d_85", 0, 0, {}]]], "config": {"name": "stage3_unit2_conv1", "bias_initializer": {"config": {}, "class_name": "Zeros"}, "kernel_initializer": {"config": {"distribution": "uniform", "seed": null, "mode": "fan_in", "scale": 2.0}, "class_name": "VarianceScaling"}, "trainable": true, "filters": 256, "data_format": "channels_last", "bias_constraint": null, "use_bias": false, "activity_regularizer": null, "kernel_size": [3, 3], "bias_regularizer": null, "dilation_rate": [1, 1], "padding": "valid", "activation": "linear", "strides": [1, 1], "kernel_constraint": null, "kernel_regularizer": null}}, {"name": "stage3_unit2_bn2", "class_name": "BatchNormalization", "inbound_nodes": [[["stage3_unit2_conv1", 0, 0, {}]]], "config": {"gamma_regularizer": null, "beta_regularizer": null, "beta_initializer": {"config": {}, "class_name": "Zeros"}, "axis": 3, "trainable": true, "momentum": 0.99, "gamma_initializer": {"config": {}, "class_name": "Ones"}, "moving_mean_initializer": {"config": {}, "class_name": "Zeros"}, "name": "stage3_unit2_bn2", "moving_variance_initializer": {"config": {}, "class_name": "Ones"}, "scale": true, "gamma_constraint": null, "beta_constraint": null, "epsilon": 2e-05, "center": true}}, {"name": "stage3_unit2_relu2", "class_name": "Activation", "inbound_nodes": [[["stage3_unit2_bn2", 0, 0, {}]]], "config": {"name": "stage3_unit2_relu2", "trainable": true, "activation": "relu"}}, {"name": "zero_padding2d_86", "class_name": "ZeroPadding2D", "inbound_nodes": [[["stage3_unit2_relu2", 0, 0, {}]]], "config": {"name": "zero_padding2d_86", "trainable": true, "data_format": "channels_last", "padding": [[1, 1], [1, 1]]}}, {"name": "stage3_unit2_conv2", "class_name": "Conv2D", "inbound_nodes": [[["zero_padding2d_86", 0, 0, {}]]], "config": {"name": "stage3_unit2_conv2", "bias_initializer": {"config": {}, "class_name": "Zeros"}, "kernel_initializer": {"config": {"distribution": "uniform", "seed": null, "mode": "fan_in", "scale": 2.0}, "class_name": "VarianceScaling"}, "trainable": true, "filters": 256, "data_format": "channels_last", "bias_constraint": null, "use_bias": false, "activity_regularizer": null, "kernel_size": [3, 3], "bias_regularizer": null, "dilation_rate": [1, 1], "padding": "valid", "activation": "linear", "strides": [1, 1], "kernel_constraint": null, "kernel_regularizer": null}}, {"name": "add_42", "class_name": "Add", "inbound_nodes": [[["stage3_unit2_conv2", 0, 0, {}], ["add_41", 0, 0, {}]]], "config": {"name": "add_42", "trainable": true}}, {"name": "stage4_unit1_bn1", "class_name": "BatchNormalization", "inbound_nodes": [[["add_42", 0, 0, {}]]], "config": {"gamma_regularizer": null, "beta_regularizer": null, "beta_initializer": {"config": {}, "class_name": "Zeros"}, "axis": 3, "trainable": true, "momentum": 0.99, "gamma_initializer": {"config": {}, "class_name": "Ones"}, "moving_mean_initializer": {"config": {}, "class_name": "Zeros"}, "name": "stage4_unit1_bn1", "moving_variance_initializer": {"config": {}, "class_name": "Ones"}, "scale": true, "gamma_constraint": null, "beta_constraint": null, "epsilon": 2e-05, "center": true}}, {"name": "stage4_unit1_relu1", "class_name": "Activation", "inbound_nodes": [[["stage4_unit1_bn1", 0, 0, {}]]], "config": {"name": "stage4_unit1_relu1", "trainable": true, "activation": "relu"}}, {"name": "zero_padding2d_87", "class_name": "ZeroPadding2D", "inbound_nodes": [[["stage4_unit1_relu1", 0, 0, {}]]], "config": {"name": "zero_padding2d_87", "trainable": true, "data_format": "channels_last", "padding": [[1, 1], [1, 1]]}}, {"name": "stage4_unit1_conv1", "class_name": "Conv2D", "inbound_nodes": [[["zero_padding2d_87", 0, 0, {}]]], "config": {"name": "stage4_unit1_conv1", "bias_initializer": {"config": {}, "class_name": "Zeros"}, "kernel_initializer": {"config": {"distribution": "uniform", "seed": null, "mode": "fan_in", "scale": 2.0}, "class_name": "VarianceScaling"}, "trainable": true, "filters": 512, "data_format": "channels_last", "bias_constraint": null, "use_bias": false, "activity_regularizer": null, "kernel_size": [3, 3], "bias_regularizer": null, "dilation_rate": [1, 1], "padding": "valid", "activation": "linear", "strides": [2, 2], "kernel_constraint": null, "kernel_regularizer": null}}, {"name": "stage4_unit1_bn2", "class_name": "BatchNormalization", "inbound_nodes": [[["stage4_unit1_conv1", 0, 0, {}]]], "config": {"gamma_regularizer": null, "beta_regularizer": null, "beta_initializer": {"config": {}, "class_name": "Zeros"}, "axis": 3, "trainable": true, "momentum": 0.99, "gamma_initializer": {"config": {}, "class_name": "Ones"}, "moving_mean_initializer": {"config": {}, "class_name": "Zeros"}, "name": "stage4_unit1_bn2", "moving_variance_initializer": {"config": {}, "class_name": "Ones"}, "scale": true, "gamma_constraint": null, "beta_constraint": null, "epsilon": 2e-05, "center": true}}, {"name": "stage4_unit1_relu2", "class_name": "Activation", "inbound_nodes": [[["stage4_unit1_bn2", 0, 0, {}]]], "config": {"name": "stage4_unit1_relu2", "trainable": true, "activation": "relu"}}, {"name": "zero_padding2d_88", "class_name": "ZeroPadding2D", "inbound_nodes": [[["stage4_unit1_relu2", 0, 0, {}]]], "config": {"name": "zero_padding2d_88", "trainable": true, "data_format": "channels_last", "padding": [[1, 1], [1, 1]]}}, {"name": "stage4_unit1_conv2", "class_name": "Conv2D", "inbound_nodes": [[["zero_padding2d_88", 0, 0, {}]]], "config": {"name": "stage4_unit1_conv2", "bias_initializer": {"config": {}, "class_name": "Zeros"}, "kernel_initializer": {"config": {"distribution": "uniform", "seed": null, "mode": "fan_in", "scale": 2.0}, "class_name": "VarianceScaling"}, "trainable": true, "filters": 512, "data_format": "channels_last", "bias_constraint": null, "use_bias": false, "activity_regularizer": null, "kernel_size": [3, 3], "bias_regularizer": null, "dilation_rate": [1, 1], "padding": "valid", "activation": "linear", "strides": [1, 1], "kernel_constraint": null, "kernel_regularizer": null}}, {"name": "stage4_unit1_sc", "class_name": "Conv2D", "inbound_nodes": [[["stage4_unit1_relu1", 0, 0, {}]]], "config": {"name": "stage4_unit1_sc", "bias_initializer": {"config": {}, "class_name": "Zeros"}, "kernel_initializer": {"config": {"distribution": "uniform", "seed": null, "mode": "fan_in", "scale": 2.0}, "class_name": "VarianceScaling"}, "trainable": true, "filters": 512, "data_format": "channels_last", "bias_constraint": null, "use_bias": false, "activity_regularizer": null, "kernel_size": [1, 1], "bias_regularizer": null, "dilation_rate": [1, 1], "padding": "valid", "activation": "linear", "strides": [2, 2], "kernel_constraint": null, "kernel_regularizer": null}}, {"name": "add_43", "class_name": "Add", "inbound_nodes": [[["stage4_unit1_conv2", 0, 0, {}], ["stage4_unit1_sc", 0, 0, {}]]], "config": {"name": "add_43", "trainable": true}}, {"name": "stage4_unit2_bn1", "class_name": "BatchNormalization", "inbound_nodes": [[["add_43", 0, 0, {}]]], "config": {"gamma_regularizer": null, "beta_regularizer": null, "beta_initializer": {"config": {}, "class_name": "Zeros"}, "axis": 3, "trainable": true, "momentum": 0.99, "gamma_initializer": {"config": {}, "class_name": "Ones"}, "moving_mean_initializer": {"config": {}, "class_name": "Zeros"}, "name": "stage4_unit2_bn1", "moving_variance_initializer": {"config": {}, "class_name": "Ones"}, "scale": true, "gamma_constraint": null, "beta_constraint": null, "epsilon": 2e-05, "center": true}}, {"name": "stage4_unit2_relu1", "class_name": "Activation", "inbound_nodes": [[["stage4_unit2_bn1", 0, 0, {}]]], "config": {"name": "stage4_unit2_relu1", "trainable": true, "activation": "relu"}}, {"name": "zero_padding2d_89", "class_name": "ZeroPadding2D", "inbound_nodes": [[["stage4_unit2_relu1", 0, 0, {}]]], "config": {"name": "zero_padding2d_89", "trainable": true, "data_format": "channels_last", "padding": [[1, 1], [1, 1]]}}, {"name": "stage4_unit2_conv1", "class_name": "Conv2D", "inbound_nodes": [[["zero_padding2d_89", 0, 0, {}]]], "config": {"name": "stage4_unit2_conv1", "bias_initializer": {"config": {}, "class_name": "Zeros"}, "kernel_initializer": {"config": {"distribution": "uniform", "seed": null, "mode": "fan_in", "scale": 2.0}, "class_name": "VarianceScaling"}, "trainable": true, "filters": 512, "data_format": "channels_last", "bias_constraint": null, "use_bias": false, "activity_regularizer": null, "kernel_size": [3, 3], "bias_regularizer": null, "dilation_rate": [1, 1], "padding": "valid", "activation": "linear", "strides": [1, 1], "kernel_constraint": null, "kernel_regularizer": null}}, {"name": "stage4_unit2_bn2", "class_name": "BatchNormalization", "inbound_nodes": [[["stage4_unit2_conv1", 0, 0, {}]]], "config": {"gamma_regularizer": null, "beta_regularizer": null, "beta_initializer": {"config": {}, "class_name": "Zeros"}, "axis": 3, "trainable": true, "momentum": 0.99, "gamma_initializer": {"config": {}, "class_name": "Ones"}, "moving_mean_initializer": {"config": {}, "class_name": "Zeros"}, "name": "stage4_unit2_bn2", "moving_variance_initializer": {"config": {}, "class_name": "Ones"}, "scale": true, "gamma_constraint": null, "beta_constraint": null, "epsilon": 2e-05, "center": true}}, {"name": "stage4_unit2_relu2", "class_name": "Activation", "inbound_nodes": [[["stage4_unit2_bn2", 0, 0, {}]]], "config": {"name": "stage4_unit2_relu2", "trainable": true, "activation": "relu"}}, {"name": "zero_padding2d_90", "class_name": "ZeroPadding2D", "inbound_nodes": [[["stage4_unit2_relu2", 0, 0, {}]]], "config": {"name": "zero_padding2d_90", "trainable": true, "data_format": "channels_last", "padding": [[1, 1], [1, 1]]}}, {"name": "stage4_unit2_conv2", "class_name": "Conv2D", "inbound_nodes": [[["zero_padding2d_90", 0, 0, {}]]], "config": {"name": "stage4_unit2_conv2", "bias_initializer": {"config": {}, "class_name": "Zeros"}, "kernel_initializer": {"config": {"distribution": "uniform", "seed": null, "mode": "fan_in", "scale": 2.0}, "class_name": "VarianceScaling"}, "trainable": true, "filters": 512, "data_format": "channels_last", "bias_constraint": null, "use_bias": false, "activity_regularizer": null, "kernel_size": [3, 3], "bias_regularizer": null, "dilation_rate": [1, 1], "padding": "valid", "activation": "linear", "strides": [1, 1], "kernel_constraint": null, "kernel_regularizer": null}}, {"name": "add_44", "class_name": "Add", "inbound_nodes": [[["stage4_unit2_conv2", 0, 0, {}], ["add_43", 0, 0, {}]]], "config": {"name": "add_44", "trainable": true}}, {"name": "bn1", "class_name": "BatchNormalization", "inbound_nodes": [[["add_44", 0, 0, {}]]], "config": {"gamma_regularizer": null, "beta_regularizer": null, "beta_initializer": {"config": {}, "class_name": "Zeros"}, "axis": 3, "trainable": true, "momentum": 0.99, "gamma_initializer": {"config": {}, "class_name": "Ones"}, "moving_mean_initializer": {"config": {}, "class_name": "Zeros"}, "name": "bn1", "moving_variance_initializer": {"config": {}, "class_name": "Ones"}, "scale": true, "gamma_constraint": null, "beta_constraint": null, "epsilon": 2e-05, "center": true}}, {"name": "relu1", "class_name": "Activation", "inbound_nodes": [[["bn1", 0, 0, {}]]], "config": {"name": "relu1", "trainable": true, "activation": "relu"}}, {"name": "decoder_stage0_conv1", "class_name": "Conv2D", "inbound_nodes": [[["relu1", 0, 0, {}]]], "config": {"name": "decoder_stage0_conv1", "bias_initializer": {"config": {}, "class_name": "Zeros"}, "kernel_initializer": {"config": {"distribution": "uniform", "seed": null, "mode": "fan_avg", "scale": 1.0}, "class_name": "VarianceScaling"}, "trainable": true, "filters": 128, "data_format": "channels_last", "bias_constraint": null, "use_bias": false, "activity_regularizer": null, "kernel_size": [1, 1], "bias_regularizer": null, "dilation_rate": [1, 1], "padding": "same", "activation": "linear", "strides": [1, 1], "kernel_constraint": null, "kernel_regularizer": null}}, {"name": "decoder_stage0_bn1", "class_name": "BatchNormalization", "inbound_nodes": [[["decoder_stage0_conv1", 0, 0, {}]]], "config": {"gamma_regularizer": null, "beta_regularizer": null, "beta_initializer": {"config": {}, "class_name": "Zeros"}, "axis": -1, "trainable": true, "momentum": 0.99, "gamma_initializer": {"config": {}, "class_name": "Ones"}, "moving_mean_initializer": {"config": {}, "class_name": "Zeros"}, "name": "decoder_stage0_bn1", "moving_variance_initializer": {"config": {}, "class_name": "Ones"}, "scale": true, "gamma_constraint": null, "beta_constraint": null, "epsilon": 0.001, "center": true}}, {"name": "decoder_stage0_relu1", "class_name": "Activation", "inbound_nodes": [[["decoder_stage0_bn1", 0, 0, {}]]], "config": {"name": "decoder_stage0_relu1", "trainable": true, "activation": "relu"}}, {"name": "decoder_stage0_upsample2", "class_name": "UpSampling2D", "inbound_nodes": [[["decoder_stage0_relu1", 0, 0, {}]]], "config": {"name": "decoder_stage0_upsample2", "trainable": true, "interpolation": "nearest", "size": [2, 2], "data_format": "channels_last"}}, {"name": "decoder_stage0_conv2", "class_name": "Conv2D", "inbound_nodes": [[["decoder_stage0_upsample2", 0, 0, {}]]], "config": {"name": "decoder_stage0_conv2", "bias_initializer": {"config": {}, "class_name": "Zeros"}, "kernel_initializer": {"config": {"distribution": "uniform", "seed": null, "mode": "fan_avg", "scale": 1.0}, "class_name": "VarianceScaling"}, "trainable": true, "filters": 128, "data_format": "channels_last", "bias_constraint": null, "use_bias": false, "activity_regularizer": null, "kernel_size": [3, 3], "bias_regularizer": null, "dilation_rate": [1, 1], "padding": "same", "activation": "linear", "strides": [1, 1], "kernel_constraint": null, "kernel_regularizer": null}}, {"name": "decoder_stage0_bn2", "class_name": "BatchNormalization", "inbound_nodes": [[["decoder_stage0_conv2", 0, 0, {}]]], "config": {"gamma_regularizer": null, "beta_regularizer": null, "beta_initializer": {"config": {}, "class_name": "Zeros"}, "axis": -1, "trainable": true, "momentum": 0.99, "gamma_initializer": {"config": {}, "class_name": "Ones"}, "moving_mean_initializer": {"config": {}, "class_name": "Zeros"}, "name": "decoder_stage0_bn2", "moving_variance_initializer": {"config": {}, "class_name": "Ones"}, "scale": true, "gamma_constraint": null, "beta_constraint": null, "epsilon": 0.001, "center": true}}, {"name": "decoder_stage0_relu2", "class_name": "Activation", "inbound_nodes": [[["decoder_stage0_bn2", 0, 0, {}]]], "config": {"name": "decoder_stage0_relu2", "trainable": true, "activation": "relu"}}, {"name": "decoder_stage0_conv3", "class_name": "Conv2D", "inbound_nodes": [[["decoder_stage0_relu2", 0, 0, {}]]], "config": {"name": "decoder_stage0_conv3", "bias_initializer": {"config": {}, "class_name": "Zeros"}, "kernel_initializer": {"config": {"distribution": "uniform", "seed": null, "mode": "fan_avg", "scale": 1.0}, "class_name": "VarianceScaling"}, "trainable": true, "filters": 256, "data_format": "channels_last", "bias_constraint": null, "use_bias": false, "activity_regularizer": null, "kernel_size": [1, 1], "bias_regularizer": null, "dilation_rate": [1, 1], "padding": "same", "activation": "linear", "strides": [1, 1], "kernel_constraint": null, "kernel_regularizer": null}}, {"name": "decoder_stage0_bn3", "class_name": "BatchNormalization", "inbound_nodes": [[["decoder_stage0_conv3", 0, 0, {}]]], "config": {"gamma_regularizer": null, "beta_regularizer": null, "beta_initializer": {"config": {}, "class_name": "Zeros"}, "axis": -1, "trainable": true, "momentum": 0.99, "gamma_initializer": {"config": {}, "class_name": "Ones"}, "moving_mean_initializer": {"config": {}, "class_name": "Zeros"}, "name": "decoder_stage0_bn3", "moving_variance_initializer": {"config": {}, "class_name": "Ones"}, "scale": true, "gamma_constraint": null, "beta_constraint": null, "epsilon": 0.001, "center": true}}, {"name": "decoder_stage0_relu3", "class_name": "Activation", "inbound_nodes": [[["decoder_stage0_bn3", 0, 0, {}]]], "config": {"name": "decoder_stage0_relu3", "trainable": true, "activation": "relu"}}, {"name": "add_45", "class_name": "Add", "inbound_nodes": [[["decoder_stage0_relu3", 0, 0, {}], ["stage4_unit1_relu1", 0, 0, {}]]], "config": {"name": "add_45", "trainable": true}}, {"name": "decoder_stage1_conv1", "class_name": "Conv2D", "inbound_nodes": [[["add_45", 0, 0, {}]]], "config": {"name": "decoder_stage1_conv1", "bias_initializer": {"config": {}, "class_name": "Zeros"}, "kernel_initializer": {"config": {"distribution": "uniform", "seed": null, "mode": "fan_avg", "scale": 1.0}, "class_name": "VarianceScaling"}, "trainable": true, "filters": 64, "data_format": "channels_last", "bias_constraint": null, "use_bias": false, "activity_regularizer": null, "kernel_size": [1, 1], "bias_regularizer": null, "dilation_rate": [1, 1], "padding": "same", "activation": "linear", "strides": [1, 1], "kernel_constraint": null, "kernel_regularizer": null}}, {"name": "decoder_stage1_bn1", "class_name": "BatchNormalization", "inbound_nodes": [[["decoder_stage1_conv1", 0, 0, {}]]], "config": {"gamma_regularizer": null, "beta_regularizer": null, "beta_initializer": {"config": {}, "class_name": "Zeros"}, "axis": -1, "trainable": true, "momentum": 0.99, "gamma_initializer": {"config": {}, "class_name": "Ones"}, "moving_mean_initializer": {"config": {}, "class_name": "Zeros"}, "name": "decoder_stage1_bn1", "moving_variance_initializer": {"config": {}, "class_name": "Ones"}, "scale": true, "gamma_constraint": null, "beta_constraint": null, "epsilon": 0.001, "center": true}}, {"name": "decoder_stage1_relu1", "class_name": "Activation", "inbound_nodes": [[["decoder_stage1_bn1", 0, 0, {}]]], "config": {"name": "decoder_stage1_relu1", "trainable": true, "activation": "relu"}}, {"name": "decoder_stage1_upsample2", "class_name": "UpSampling2D", "inbound_nodes": [[["decoder_stage1_relu1", 0, 0, {}]]], "config": {"name": "decoder_stage1_upsample2", "trainable": true, "interpolation": "nearest", "size": [2, 2], "data_format": "channels_last"}}, {"name": "decoder_stage1_conv2", "class_name": "Conv2D", "inbound_nodes": [[["decoder_stage1_upsample2", 0, 0, {}]]], "config": {"name": "decoder_stage1_conv2", "bias_initializer": {"config": {}, "class_name": "Zeros"}, "kernel_initializer": {"config": {"distribution": "uniform", "seed": null, "mode": "fan_avg", "scale": 1.0}, "class_name": "VarianceScaling"}, "trainable": true, "filters": 64, "data_format": "channels_last", "bias_constraint": null, "use_bias": false, "activity_regularizer": null, "kernel_size": [3, 3], "bias_regularizer": null, "dilation_rate": [1, 1], "padding": "same", "activation": "linear", "strides": [1, 1], "kernel_constraint": null, "kernel_regularizer": null}}, {"name": "decoder_stage1_bn2", "class_name": "BatchNormalization", "inbound_nodes": [[["decoder_stage1_conv2", 0, 0, {}]]], "config": {"gamma_regularizer": null, "beta_regularizer": null, "beta_initializer": {"config": {}, "class_name": "Zeros"}, "axis": -1, "trainable": true, "momentum": 0.99, "gamma_initializer": {"config": {}, "class_name": "Ones"}, "moving_mean_initializer": {"config": {}, "class_name": "Zeros"}, "name": "decoder_stage1_bn2", "moving_variance_initializer": {"config": {}, "class_name": "Ones"}, "scale": true, "gamma_constraint": null, "beta_constraint": null, "epsilon": 0.001, "center": true}}, {"name": "decoder_stage1_relu2", "class_name": "Activation", "inbound_nodes": [[["decoder_stage1_bn2", 0, 0, {}]]], "config": {"name": "decoder_stage1_relu2", "trainable": true, "activation": "relu"}}, {"name": "decoder_stage1_conv3", "class_name": "Conv2D", "inbound_nodes": [[["decoder_stage1_relu2", 0, 0, {}]]], "config": {"name": "decoder_stage1_conv3", "bias_initializer": {"config": {}, "class_name": "Zeros"}, "kernel_initializer": {"config": {"distribution": "uniform", "seed": null, "mode": "fan_avg", "scale": 1.0}, "class_name": "VarianceScaling"}, "trainable": true, "filters": 128, "data_format": "channels_last", "bias_constraint": null, "use_bias": false, "activity_regularizer": null, "kernel_size": [1, 1], "bias_regularizer": null, "dilation_rate": [1, 1], "padding": "same", "activation": "linear", "strides": [1, 1], "kernel_constraint": null, "kernel_regularizer": null}}, {"name": "decoder_stage1_bn3", "class_name": "BatchNormalization", "inbound_nodes": [[["decoder_stage1_conv3", 0, 0, {}]]], "config": {"gamma_regularizer": null, "beta_regularizer": null, "beta_initializer": {"config": {}, "class_name": "Zeros"}, "axis": -1, "trainable": true, "momentum": 0.99, "gamma_initializer": {"config": {}, "class_name": "Ones"}, "moving_mean_initializer": {"config": {}, "class_name": "Zeros"}, "name": "decoder_stage1_bn3", "moving_variance_initializer": {"config": {}, "class_name": "Ones"}, "scale": true, "gamma_constraint": null, "beta_constraint": null, "epsilon": 0.001, "center": true}}, {"name": "decoder_stage1_relu3", "class_name": "Activation", "inbound_nodes": [[["decoder_stage1_bn3", 0, 0, {}]]], "config": {"name": "decoder_stage1_relu3", "trainable": true, "activation": "relu"}}, {"name": "add_46", "class_name": "Add", "inbound_nodes": [[["decoder_stage1_relu3", 0, 0, {}], ["stage3_unit1_relu1", 0, 0, {}]]], "config": {"name": "add_46", "trainable": true}}, {"name": "decoder_stage2_conv1", "class_name": "Conv2D", "inbound_nodes": [[["add_46", 0, 0, {}]]], "config": {"name": "decoder_stage2_conv1", "bias_initializer": {"config": {}, "class_name": "Zeros"}, "kernel_initializer": {"config": {"distribution": "uniform", "seed": null, "mode": "fan_avg", "scale": 1.0}, "class_name": "VarianceScaling"}, "trainable": true, "filters": 32, "data_format": "channels_last", "bias_constraint": null, "use_bias": false, "activity_regularizer": null, "kernel_size": [1, 1], "bias_regularizer": null, "dilation_rate": [1, 1], "padding": "same", "activation": "linear", "strides": [1, 1], "kernel_constraint": null, "kernel_regularizer": null}}, {"name": "decoder_stage2_bn1", "class_name": "BatchNormalization", "inbound_nodes": [[["decoder_stage2_conv1", 0, 0, {}]]], "config": {"gamma_regularizer": null, "beta_regularizer": null, "beta_initializer": {"config": {}, "class_name": "Zeros"}, "axis": -1, "trainable": true, "momentum": 0.99, "gamma_initializer": {"config": {}, "class_name": "Ones"}, "moving_mean_initializer": {"config": {}, "class_name": "Zeros"}, "name": "decoder_stage2_bn1", "moving_variance_initializer": {"config": {}, "class_name": "Ones"}, "scale": true, "gamma_constraint": null, "beta_constraint": null, "epsilon": 0.001, "center": true}}, {"name": "decoder_stage2_relu1", "class_name": "Activation", "inbound_nodes": [[["decoder_stage2_bn1", 0, 0, {}]]], "config": {"name": "decoder_stage2_relu1", "trainable": true, "activation": "relu"}}, {"name": "decoder_stage2_upsample2", "class_name": "UpSampling2D", "inbound_nodes": [[["decoder_stage2_relu1", 0, 0, {}]]], "config": {"name": "decoder_stage2_upsample2", "trainable": true, "interpolation": "nearest", "size": [2, 2], "data_format": "channels_last"}}, {"name": "decoder_stage2_conv2", "class_name": "Conv2D", "inbound_nodes": [[["decoder_stage2_upsample2", 0, 0, {}]]], "config": {"name": "decoder_stage2_conv2", "bias_initializer": {"config": {}, "class_name": "Zeros"}, "kernel_initializer": {"config": {"distribution": "uniform", "seed": null, "mode": "fan_avg", "scale": 1.0}, "class_name": "VarianceScaling"}, "trainable": true, "filters": 32, "data_format": "channels_last", "bias_constraint": null, "use_bias": false, "activity_regularizer": null, "kernel_size": [3, 3], "bias_regularizer": null, "dilation_rate": [1, 1], "padding": "same", "activation": "linear", "strides": [1, 1], "kernel_constraint": null, "kernel_regularizer": null}}, {"name": "decoder_stage2_bn2", "class_name": "BatchNormalization", "inbound_nodes": [[["decoder_stage2_conv2", 0, 0, {}]]], "config": {"gamma_regularizer": null, "beta_regularizer": null, "beta_initializer": {"config": {}, "class_name": "Zeros"}, "axis": -1, "trainable": true, "momentum": 0.99, "gamma_initializer": {"config": {}, "class_name": "Ones"}, "moving_mean_initializer": {"config": {}, "class_name": "Zeros"}, "name": "decoder_stage2_bn2", "moving_variance_initializer": {"config": {}, "class_name": "Ones"}, "scale": true, "gamma_constraint": null, "beta_constraint": null, "epsilon": 0.001, "center": true}}, {"name": "decoder_stage2_relu2", "class_name": "Activation", "inbound_nodes": [[["decoder_stage2_bn2", 0, 0, {}]]], "config": {"name": "decoder_stage2_relu2", "trainable": true, "activation": "relu"}}, {"name": "decoder_stage2_conv3", "class_name": "Conv2D", "inbound_nodes": [[["decoder_stage2_relu2", 0, 0, {}]]], "config": {"name": "decoder_stage2_conv3", "bias_initializer": {"config": {}, "class_name": "Zeros"}, "kernel_initializer": {"config": {"distribution": "uniform", "seed": null, "mode": "fan_avg", "scale": 1.0}, "class_name": "VarianceScaling"}, "trainable": true, "filters": 64, "data_format": "channels_last", "bias_constraint": null, "use_bias": false, "activity_regularizer": null, "kernel_size": [1, 1], "bias_regularizer": null, "dilation_rate": [1, 1], "padding": "same", "activation": "linear", "strides": [1, 1], "kernel_constraint": null, "kernel_regularizer": null}}, {"name": "decoder_stage2_bn3", "class_name": "BatchNormalization", "inbound_nodes": [[["decoder_stage2_conv3", 0, 0, {}]]], "config": {"gamma_regularizer": null, "beta_regularizer": null, "beta_initializer": {"config": {}, "class_name": "Zeros"}, "axis": -1, "trainable": true, "momentum": 0.99, "gamma_initializer": {"config": {}, "class_name": "Ones"}, "moving_mean_initializer": {"config": {}, "class_name": "Zeros"}, "name": "decoder_stage2_bn3", "moving_variance_initializer": {"config": {}, "class_name": "Ones"}, "scale": true, "gamma_constraint": null, "beta_constraint": null, "epsilon": 0.001, "center": true}}, {"name": "decoder_stage2_relu3", "class_name": "Activation", "inbound_nodes": [[["decoder_stage2_bn3", 0, 0, {}]]], "config": {"name": "decoder_stage2_relu3", "trainable": true, "activation": "relu"}}, {"name": "add_47", "class_name": "Add", "inbound_nodes": [[["decoder_stage2_relu3", 0, 0, {}], ["stage2_unit1_relu1", 0, 0, {}]]], "config": {"name": "add_47", "trainable": true}}, {"name": "decoder_stage3_conv1", "class_name": "Conv2D", "inbound_nodes": [[["add_47", 0, 0, {}]]], "config": {"name": "decoder_stage3_conv1", "bias_initializer": {"config": {}, "class_name": "Zeros"}, "kernel_initializer": {"config": {"distribution": "uniform", "seed": null, "mode": "fan_avg", "scale": 1.0}, "class_name": "VarianceScaling"}, "trainable": true, "filters": 16, "data_format": "channels_last", "bias_constraint": null, "use_bias": false, "activity_regularizer": null, "kernel_size": [1, 1], "bias_regularizer": null, "dilation_rate": [1, 1], "padding": "same", "activation": "linear", "strides": [1, 1], "kernel_constraint": null, "kernel_regularizer": null}}, {"name": "decoder_stage3_bn1", "class_name": "BatchNormalization", "inbound_nodes": [[["decoder_stage3_conv1", 0, 0, {}]]], "config": {"gamma_regularizer": null, "beta_regularizer": null, "beta_initializer": {"config": {}, "class_name": "Zeros"}, "axis": -1, "trainable": true, "momentum": 0.99, "gamma_initializer": {"config": {}, "class_name": "Ones"}, "moving_mean_initializer": {"config": {}, "class_name": "Zeros"}, "name": "decoder_stage3_bn1", "moving_variance_initializer": {"config": {}, "class_name": "Ones"}, "scale": true, "gamma_constraint": null, "beta_constraint": null, "epsilon": 0.001, "center": true}}, {"name": "decoder_stage3_relu1", "class_name": "Activation", "inbound_nodes": [[["decoder_stage3_bn1", 0, 0, {}]]], "config": {"name": "decoder_stage3_relu1", "trainable": true, "activation": "relu"}}, {"name": "decoder_stage3_upsample2", "class_name": "UpSampling2D", "inbound_nodes": [[["decoder_stage3_relu1", 0, 0, {}]]], "config": {"name": "decoder_stage3_upsample2", "trainable": true, "interpolation": "nearest", "size": [2, 2], "data_format": "channels_last"}}, {"name": "decoder_stage3_conv2", "class_name": "Conv2D", "inbound_nodes": [[["decoder_stage3_upsample2", 0, 0, {}]]], "config": {"name": "decoder_stage3_conv2", "bias_initializer": {"config": {}, "class_name": "Zeros"}, "kernel_initializer": {"config": {"distribution": "uniform", "seed": null, "mode": "fan_avg", "scale": 1.0}, "class_name": "VarianceScaling"}, "trainable": true, "filters": 16, "data_format": "channels_last", "bias_constraint": null, "use_bias": false, "activity_regularizer": null, "kernel_size": [3, 3], "bias_regularizer": null, "dilation_rate": [1, 1], "padding": "same", "activation": "linear", "strides": [1, 1], "kernel_constraint": null, "kernel_regularizer": null}}, {"name": "decoder_stage3_bn2", "class_name": "BatchNormalization", "inbound_nodes": [[["decoder_stage3_conv2", 0, 0, {}]]], "config": {"gamma_regularizer": null, "beta_regularizer": null, "beta_initializer": {"config": {}, "class_name": "Zeros"}, "axis": -1, "trainable": true, "momentum": 0.99, "gamma_initializer": {"config": {}, "class_name": "Ones"}, "moving_mean_initializer": {"config": {}, "class_name": "Zeros"}, "name": "decoder_stage3_bn2", "moving_variance_initializer": {"config": {}, "class_name": "Ones"}, "scale": true, "gamma_constraint": null, "beta_constraint": null, "epsilon": 0.001, "center": true}}, {"name": "decoder_stage3_relu2", "class_name": "Activation", "inbound_nodes": [[["decoder_stage3_bn2", 0, 0, {}]]], "config": {"name": "decoder_stage3_relu2", "trainable": true, "activation": "relu"}}, {"name": "decoder_stage3_conv3", "class_name": "Conv2D", "inbound_nodes": [[["decoder_stage3_relu2", 0, 0, {}]]], "config": {"name": "decoder_stage3_conv3", "bias_initializer": {"config": {}, "class_name": "Zeros"}, "kernel_initializer": {"config": {"distribution": "uniform", "seed": null, "mode": "fan_avg", "scale": 1.0}, "class_name": "VarianceScaling"}, "trainable": true, "filters": 64, "data_format": "channels_last", "bias_constraint": null, "use_bias": false, "activity_regularizer": null, "kernel_size": [1, 1], "bias_regularizer": null, "dilation_rate": [1, 1], "padding": "same", "activation": "linear", "strides": [1, 1], "kernel_constraint": null, "kernel_regularizer": null}}, {"name": "decoder_stage3_bn3", "class_name": "BatchNormalization", "inbound_nodes": [[["decoder_stage3_conv3", 0, 0, {}]]], "config": {"gamma_regularizer": null, "beta_regularizer": null, "beta_initializer": {"config": {}, "class_name": "Zeros"}, "axis": -1, "trainable": true, "momentum": 0.99, "gamma_initializer": {"config": {}, "class_name": "Ones"}, "moving_mean_initializer": {"config": {}, "class_name": "Zeros"}, "name": "decoder_stage3_bn3", "moving_variance_initializer": {"config": {}, "class_name": "Ones"}, "scale": true, "gamma_constraint": null, "beta_constraint": null, "epsilon": 0.001, "center": true}}, {"name": "decoder_stage3_relu3", "class_name": "Activation", "inbound_nodes": [[["decoder_stage3_bn3", 0, 0, {}]]], "config": {"name": "decoder_stage3_relu3", "trainable": true, "activation": "relu"}}, {"name": "add_48", "class_name": "Add", "inbound_nodes": [[["decoder_stage3_relu3", 0, 0, {}], ["relu0", 0, 0, {}]]], "config": {"name": "add_48", "trainable": true}}, {"name": "decoder_stage4_conv1", "class_name": "Conv2D", "inbound_nodes": [[["add_48", 0, 0, {}]]], "config": {"name": "decoder_stage4_conv1", "bias_initializer": {"config": {}, "class_name": "Zeros"}, "kernel_initializer": {"config": {"distribution": "uniform", "seed": null, "mode": "fan_avg", "scale": 1.0}, "class_name": "VarianceScaling"}, "trainable": true, "filters": 16, "data_format": "channels_last", "bias_constraint": null, "use_bias": false, "activity_regularizer": null, "kernel_size": [1, 1], "bias_regularizer": null, "dilation_rate": [1, 1], "padding": "same", "activation": "linear", "strides": [1, 1], "kernel_constraint": null, "kernel_regularizer": null}}, {"name": "decoder_stage4_bn1", "class_name": "BatchNormalization", "inbound_nodes": [[["decoder_stage4_conv1", 0, 0, {}]]], "config": {"gamma_regularizer": null, "beta_regularizer": null, "beta_initializer": {"config": {}, "class_name": "Zeros"}, "axis": -1, "trainable": true, "momentum": 0.99, "gamma_initializer": {"config": {}, "class_name": "Ones"}, "moving_mean_initializer": {"config": {}, "class_name": "Zeros"}, "name": "decoder_stage4_bn1", "moving_variance_initializer": {"config": {}, "class_name": "Ones"}, "scale": true, "gamma_constraint": null, "beta_constraint": null, "epsilon": 0.001, "center": true}}, {"name": "decoder_stage4_relu1", "class_name": "Activation", "inbound_nodes": [[["decoder_stage4_bn1", 0, 0, {}]]], "config": {"name": "decoder_stage4_relu1", "trainable": true, "activation": "relu"}}, {"name": "decoder_stage4_upsample2", "class_name": "UpSampling2D", "inbound_nodes": [[["decoder_stage4_relu1", 0, 0, {}]]], "config": {"name": "decoder_stage4_upsample2", "trainable": true, "interpolation": "nearest", "size": [2, 2], "data_format": "channels_last"}}, {"name": "decoder_stage4_conv2", "class_name": "Conv2D", "inbound_nodes": [[["decoder_stage4_upsample2", 0, 0, {}]]], "config": {"name": "decoder_stage4_conv2", "bias_initializer": {"config": {}, "class_name": "Zeros"}, "kernel_initializer": {"config": {"distribution": "uniform", "seed": null, "mode": "fan_avg", "scale": 1.0}, "class_name": "VarianceScaling"}, "trainable": true, "filters": 16, "data_format": "channels_last", "bias_constraint": null, "use_bias": false, "activity_regularizer": null, "kernel_size": [3, 3], "bias_regularizer": null, "dilation_rate": [1, 1], "padding": "same", "activation": "linear", "strides": [1, 1], "kernel_constraint": null, "kernel_regularizer": null}}, {"name": "decoder_stage4_bn2", "class_name": "BatchNormalization", "inbound_nodes": [[["decoder_stage4_conv2", 0, 0, {}]]], "config": {"gamma_regularizer": null, "beta_regularizer": null, "beta_initializer": {"config": {}, "class_name": "Zeros"}, "axis": -1, "trainable": true, "momentum": 0.99, "gamma_initializer": {"config": {}, "class_name": "Ones"}, "moving_mean_initializer": {"config": {}, "class_name": "Zeros"}, "name": "decoder_stage4_bn2", "moving_variance_initializer": {"config": {}, "class_name": "Ones"}, "scale": true, "gamma_constraint": null, "beta_constraint": null, "epsilon": 0.001, "center": true}}, {"name": "decoder_stage4_relu2", "class_name": "Activation", "inbound_nodes": [[["decoder_stage4_bn2", 0, 0, {}]]], "config": {"name": "decoder_stage4_relu2", "trainable": true, "activation": "relu"}}, {"name": "decoder_stage4_conv3", "class_name": "Conv2D", "inbound_nodes": [[["decoder_stage4_relu2", 0, 0, {}]]], "config": {"name": "decoder_stage4_conv3", "bias_initializer": {"config": {}, "class_name": "Zeros"}, "kernel_initializer": {"config": {"distribution": "uniform", "seed": null, "mode": "fan_avg", "scale": 1.0}, "class_name": "VarianceScaling"}, "trainable": true, "filters": 16, "data_format": "channels_last", "bias_constraint": null, "use_bias": false, "activity_regularizer": null, "kernel_size": [1, 1], "bias_regularizer": null, "dilation_rate": [1, 1], "padding": "same", "activation": "linear", "strides": [1, 1], "kernel_constraint": null, "kernel_regularizer": null}}, {"name": "decoder_stage4_bn3", "class_name": "BatchNormalization", "inbound_nodes": [[["decoder_stage4_conv3", 0, 0, {}]]], "config": {"gamma_regularizer": null, "beta_regularizer": null, "beta_initializer": {"config": {}, "class_name": "Zeros"}, "axis": -1, "trainable": true, "momentum": 0.99, "gamma_initializer": {"config": {}, "class_name": "Ones"}, "moving_mean_initializer": {"config": {}, "class_name": "Zeros"}, "name": "decoder_stage4_bn3", "moving_variance_initializer": {"config": {}, "class_name": "Ones"}, "scale": true, "gamma_constraint": null, "beta_constraint": null, "epsilon": 0.001, "center": true}}, {"name": "decoder_stage4_relu3", "class_name": "Activation", "inbound_nodes": [[["decoder_stage4_bn3", 0, 0, {}]]], "config": {"name": "decoder_stage4_relu3", "trainable": true, "activation": "relu"}}, {"name": "final_conv", "class_name": "Conv2D", "inbound_nodes": [[["decoder_stage4_relu3", 0, 0, {}]]], "config": {"name": "final_conv", "bias_initializer": {"config": {}, "class_name": "Zeros"}, "kernel_initializer": {"config": {"distribution": "uniform", "seed": null, "mode": "fan_avg", "scale": 1.0}, "class_name": "VarianceScaling"}, "trainable": true, "filters": 1, "data_format": "channels_last", "bias_constraint": null, "use_bias": true, "activity_regularizer": null, "kernel_size": [3, 3], "bias_regularizer": null, "dilation_rate": [1, 1], "padding": "same", "activation": "linear", "strides": [1, 1], "kernel_constraint": null, "kernel_regularizer": null}}, {"name": "sigmoid", "class_name": "Activation", "inbound_nodes": [[["final_conv", 0, 0, {}]]], "config": {"name": "sigmoid", "trainable": true, "activation": "sigmoid"}}], "output_layers": [["sigmoid", 0, 0]]}, "class_name": "Model", "backend": "tensorflow", "keras_version": "2.2.4"}