{"backend": "tensorflow", "keras_version": "2.2.4", "config": {"output_layers": [["sigmoid", 0, 0]], "layers": [{"config": {"sparse": false, "batch_input_shape": [null, 384, 384, 3], "dtype": "float32", "name": "data"}, "inbound_nodes": [], "class_name": "InputLayer", "name": "data"}, {"config": {"axis": 3, "gamma_regularizer": null, "beta_constraint": null, "trainable": true, "moving_variance_initializer": {"config": {}, "class_name": "Ones"}, "name": "bn_data", "gamma_initializer": {"config": {}, "class_name": "Ones"}, "gamma_constraint": null, "epsilon": 2e-05, "beta_regularizer": null, "moving_mean_initializer": {"config": {}, "class_name": "Zeros"}, "center": true, "beta_initializer": {"config": {}, "class_name": "Zeros"}, "momentum": 0.99, "scale": false}, "inbound_nodes": [[["data", 0, 0, {}]]], "class_name": "BatchNormalization", "name": "bn_data"}, {"config": {"padding": [[3, 3], [3, 3]], "name": "zero_padding2d_1", "data_format": "channels_last", "trainable": true}, "inbound_nodes": [[["bn_data", 0, 0, {}]]], "class_name": "ZeroPadding2D", "name": "zero_padding2d_1"}, {"config": {"bias_regularizer": null, "filters": 64, "data_format": "channels_last", "kernel_constraint": null, "activation": "linear", "use_bias": false, "strides": [2, 2], "dilation_rate": [1, 1], "name": "conv0", "kernel_initializer": {"config": {"seed": null, "mode": "fan_in", "distribution": "uniform", "scale": 2.0}, "class_name": "VarianceScaling"}, "trainable": true, "activity_regularizer": null, "padding": "valid", "bias_constraint": null, "kernel_regularizer": null, "bias_initializer": {"config": {}, "class_name": "Zeros"}, "kernel_size": [7, 7]}, "inbound_nodes": [[["zero_padding2d_1", 0, 0, {}]]], "class_name": "Conv2D", "name": "conv0"}, {"config": {"axis": 3, "gamma_regularizer": null, "beta_constraint": null, "trainable": true, "moving_variance_initializer": {"config": {}, "class_name": "Ones"}, "name": "bn0", "gamma_initializer": {"config": {}, "class_name": "Ones"}, "gamma_constraint": null, "epsilon": 2e-05, "beta_regularizer": null, "moving_mean_initializer": {"config": {}, "class_name": "Zeros"}, "center": true, "beta_initializer": {"config": {}, "class_name": "Zeros"}, "momentum": 0.99, "scale": true}, "inbound_nodes": [[["conv0", 0, 0, {}]]], "class_name": "BatchNormalization", "name": "bn0"}, {"config": {"name": "relu0", "trainable": true, "activation": "relu"}, "inbound_nodes": [[["bn0", 0, 0, {}]]], "class_name": "Activation", "name": "relu0"}, {"config": {"padding": [[1, 1], [1, 1]], "name": "zero_padding2d_2", "data_format": "channels_last", "trainable": true}, "inbound_nodes": [[["relu0", 0, 0, {}]]], "class_name": "ZeroPadding2D", "name": "zero_padding2d_2"}, {"config": {"data_format": "channels_last", "padding": "valid", "pool_size": [3, 3], "name": "pooling0", "strides": [2, 2], "trainable": true}, "inbound_nodes": [[["zero_padding2d_2", 0, 0, {}]]], "class_name": "MaxPooling2D", "name": "pooling0"}, {"config": {"axis": 3, "gamma_regularizer": null, "beta_constraint": null, "trainable": true, "moving_variance_initializer": {"config": {}, "class_name": "Ones"}, "name": "stage1_unit1_bn1", "gamma_initializer": {"config": {}, "class_name": "Ones"}, "gamma_constraint": null, "epsilon": 2e-05, "beta_regularizer": null, "moving_mean_initializer": {"config": {}, "class_name": "Zeros"}, "center": true, "beta_initializer": {"config": {}, "class_name": "Zeros"}, "momentum": 0.99, "scale": true}, "inbound_nodes": [[["pooling0", 0, 0, {}]]], "class_name": "BatchNormalization", "name": "stage1_unit1_bn1"}, {"config": {"name": "stage1_unit1_relu1", "trainable": true, "activation": "relu"}, "inbound_nodes": [[["stage1_unit1_bn1", 0, 0, {}]]], "class_name": "Activation", "name": "stage1_unit1_relu1"}, {"config": {"padding": [[1, 1], [1, 1]], "name": "zero_padding2d_3", "data_format": "channels_last", "trainable": true}, "inbound_nodes": [[["stage1_unit1_relu1", 0, 0, {}]]], "class_name": "ZeroPadding2D", "name": "zero_padding2d_3"}, {"config": {"bias_regularizer": null, "filters": 64, "data_format": "channels_last", "kernel_constraint": null, "activation": "linear", "use_bias": false, "strides": [1, 1], "dilation_rate": [1, 1], "name": "stage1_unit1_conv1", "kernel_initializer": {"config": {"seed": null, "mode": "fan_in", "distribution": "uniform", "scale": 2.0}, "class_name": "VarianceScaling"}, "trainable": true, "activity_regularizer": null, "padding": "valid", "bias_constraint": null, "kernel_regularizer": null, "bias_initializer": {"config": {}, "class_name": "Zeros"}, "kernel_size": [3, 3]}, "inbound_nodes": [[["zero_padding2d_3", 0, 0, {}]]], "class_name": "Conv2D", "name": "stage1_unit1_conv1"}, {"config": {"axis": 3, "gamma_regularizer": null, "beta_constraint": null, "trainable": true, "moving_variance_initializer": {"config": {}, "class_name": "Ones"}, "name": "stage1_unit1_bn2", "gamma_initializer": {"config": {}, "class_name": "Ones"}, "gamma_constraint": null, "epsilon": 2e-05, "beta_regularizer": null, "moving_mean_initializer": {"config": {}, "class_name": "Zeros"}, "center": true, "beta_initializer": {"config": {}, "class_name": "Zeros"}, "momentum": 0.99, "scale": true}, "inbound_nodes": [[["stage1_unit1_conv1", 0, 0, {}]]], "class_name": "BatchNormalization", "name": "stage1_unit1_bn2"}, {"config": {"name": "stage1_unit1_relu2", "trainable": true, "activation": "relu"}, "inbound_nodes": [[["stage1_unit1_bn2", 0, 0, {}]]], "class_name": "Activation", "name": "stage1_unit1_relu2"}, {"config": {"padding": [[1, 1], [1, 1]], "name": "zero_padding2d_4", "data_format": "channels_last", "trainable": true}, "inbound_nodes": [[["stage1_unit1_relu2", 0, 0, {}]]], "class_name": "ZeroPadding2D", "name": "zero_padding2d_4"}, {"config": {"bias_regularizer": null, "filters": 64, "data_format": "channels_last", "kernel_constraint": null, "activation": "linear", "use_bias": false, "strides": [1, 1], "dilation_rate": [1, 1], "name": "stage1_unit1_conv2", "kernel_initializer": {"config": {"seed": null, "mode": "fan_in", "distribution": "uniform", "scale": 2.0}, "class_name": "VarianceScaling"}, "trainable": true, "activity_regularizer": null, "padding": "valid", "bias_constraint": null, "kernel_regularizer": null, "bias_initializer": {"config": {}, "class_name": "Zeros"}, "kernel_size": [3, 3]}, "inbound_nodes": [[["zero_padding2d_4", 0, 0, {}]]], "class_name": "Conv2D", "name": "stage1_unit1_conv2"}, {"config": {"bias_regularizer": null, "filters": 64, "data_format": "channels_last", "kernel_constraint": null, "activation": "linear", "use_bias": false, "strides": [1, 1], "dilation_rate": [1, 1], "name": "stage1_unit1_sc", "kernel_initializer": {"config": {"seed": null, "mode": "fan_in", "distribution": "uniform", "scale": 2.0}, "class_name": "VarianceScaling"}, "trainable": true, "activity_regularizer": null, "padding": "valid", "bias_constraint": null, "kernel_regularizer": null, "bias_initializer": {"config": {}, "class_name": "Zeros"}, "kernel_size": [1, 1]}, "inbound_nodes": [[["stage1_unit1_relu1", 0, 0, {}]]], "class_name": "Conv2D", "name": "stage1_unit1_sc"}, {"config": {"trainable": true, "name": "add_1"}, "inbound_nodes": [[["stage1_unit1_conv2", 0, 0, {}], ["stage1_unit1_sc", 0, 0, {}]]], "class_name": "Add", "name": "add_1"}, {"config": {"axis": 3, "gamma_regularizer": null, "beta_constraint": null, "trainable": true, "moving_variance_initializer": {"config": {}, "class_name": "Ones"}, "name": "stage1_unit2_bn1", "gamma_initializer": {"config": {}, "class_name": "Ones"}, "gamma_constraint": null, "epsilon": 2e-05, "beta_regularizer": null, "moving_mean_initializer": {"config": {}, "class_name": "Zeros"}, "center": true, "beta_initializer": {"config": {}, "class_name": "Zeros"}, "momentum": 0.99, "scale": true}, "inbound_nodes": [[["add_1", 0, 0, {}]]], "class_name": "BatchNormalization", "name": "stage1_unit2_bn1"}, {"config": {"name": "stage1_unit2_relu1", "trainable": true, "activation": "relu"}, "inbound_nodes": [[["stage1_unit2_bn1", 0, 0, {}]]], "class_name": "Activation", "name": "stage1_unit2_relu1"}, {"config": {"padding": [[1, 1], [1, 1]], "name": "zero_padding2d_5", "data_format": "channels_last", "trainable": true}, "inbound_nodes": [[["stage1_unit2_relu1", 0, 0, {}]]], "class_name": "ZeroPadding2D", "name": "zero_padding2d_5"}, {"config": {"bias_regularizer": null, "filters": 64, "data_format": "channels_last", "kernel_constraint": null, "activation": "linear", "use_bias": false, "strides": [1, 1], "dilation_rate": [1, 1], "name": "stage1_unit2_conv1", "kernel_initializer": {"config": {"seed": null, "mode": "fan_in", "distribution": "uniform", "scale": 2.0}, "class_name": "VarianceScaling"}, "trainable": true, "activity_regularizer": null, "padding": "valid", "bias_constraint": null, "kernel_regularizer": null, "bias_initializer": {"config": {}, "class_name": "Zeros"}, "kernel_size": [3, 3]}, "inbound_nodes": [[["zero_padding2d_5", 0, 0, {}]]], "class_name": "Conv2D", "name": "stage1_unit2_conv1"}, {"config": {"axis": 3, "gamma_regularizer": null, "beta_constraint": null, "trainable": true, "moving_variance_initializer": {"config": {}, "class_name": "Ones"}, "name": "stage1_unit2_bn2", "gamma_initializer": {"config": {}, "class_name": "Ones"}, "gamma_constraint": null, "epsilon": 2e-05, "beta_regularizer": null, "moving_mean_initializer": {"config": {}, "class_name": "Zeros"}, "center": true, "beta_initializer": {"config": {}, "class_name": "Zeros"}, "momentum": 0.99, "scale": true}, "inbound_nodes": [[["stage1_unit2_conv1", 0, 0, {}]]], "class_name": "BatchNormalization", "name": "stage1_unit2_bn2"}, {"config": {"name": "stage1_unit2_relu2", "trainable": true, "activation": "relu"}, "inbound_nodes": [[["stage1_unit2_bn2", 0, 0, {}]]], "class_name": "Activation", "name": "stage1_unit2_relu2"}, {"config": {"padding": [[1, 1], [1, 1]], "name": "zero_padding2d_6", "data_format": "channels_last", "trainable": true}, "inbound_nodes": [[["stage1_unit2_relu2", 0, 0, {}]]], "class_name": "ZeroPadding2D", "name": "zero_padding2d_6"}, {"config": {"bias_regularizer": null, "filters": 64, "data_format": "channels_last", "kernel_constraint": null, "activation": "linear", "use_bias": false, "strides": [1, 1], "dilation_rate": [1, 1], "name": "stage1_unit2_conv2", "kernel_initializer": {"config": {"seed": null, "mode": "fan_in", "distribution": "uniform", "scale": 2.0}, "class_name": "VarianceScaling"}, "trainable": true, "activity_regularizer": null, "padding": "valid", "bias_constraint": null, "kernel_regularizer": null, "bias_initializer": {"config": {}, "class_name": "Zeros"}, "kernel_size": [3, 3]}, "inbound_nodes": [[["zero_padding2d_6", 0, 0, {}]]], "class_name": "Conv2D", "name": "stage1_unit2_conv2"}, {"config": {"trainable": true, "name": "add_2"}, "inbound_nodes": [[["stage1_unit2_conv2", 0, 0, {}], ["add_1", 0, 0, {}]]], "class_name": "Add", "name": "add_2"}, {"config": {"axis": 3, "gamma_regularizer": null, "beta_constraint": null, "trainable": true, "moving_variance_initializer": {"config": {}, "class_name": "Ones"}, "name": "stage2_unit1_bn1", "gamma_initializer": {"config": {}, "class_name": "Ones"}, "gamma_constraint": null, "epsilon": 2e-05, "beta_regularizer": null, "moving_mean_initializer": {"config": {}, "class_name": "Zeros"}, "center": true, "beta_initializer": {"config": {}, "class_name": "Zeros"}, "momentum": 0.99, "scale": true}, "inbound_nodes": [[["add_2", 0, 0, {}]]], "class_name": "BatchNormalization", "name": "stage2_unit1_bn1"}, {"config": {"name": "stage2_unit1_relu1", "trainable": true, "activation": "relu"}, "inbound_nodes": [[["stage2_unit1_bn1", 0, 0, {}]]], "class_name": "Activation", "name": "stage2_unit1_relu1"}, {"config": {"padding": [[1, 1], [1, 1]], "name": "zero_padding2d_7", "data_format": "channels_last", "trainable": true}, "inbound_nodes": [[["stage2_unit1_relu1", 0, 0, {}]]], "class_name": "ZeroPadding2D", "name": "zero_padding2d_7"}, {"config": {"bias_regularizer": null, "filters": 128, "data_format": "channels_last", "kernel_constraint": null, "activation": "linear", "use_bias": false, "strides": [2, 2], "dilation_rate": [1, 1], "name": "stage2_unit1_conv1", "kernel_initializer": {"config": {"seed": null, "mode": "fan_in", "distribution": "uniform", "scale": 2.0}, "class_name": "VarianceScaling"}, "trainable": true, "activity_regularizer": null, "padding": "valid", "bias_constraint": null, "kernel_regularizer": null, "bias_initializer": {"config": {}, "class_name": "Zeros"}, "kernel_size": [3, 3]}, "inbound_nodes": [[["zero_padding2d_7", 0, 0, {}]]], "class_name": "Conv2D", "name": "stage2_unit1_conv1"}, {"config": {"axis": 3, "gamma_regularizer": null, "beta_constraint": null, "trainable": true, "moving_variance_initializer": {"config": {}, "class_name": "Ones"}, "name": "stage2_unit1_bn2", "gamma_initializer": {"config": {}, "class_name": "Ones"}, "gamma_constraint": null, "epsilon": 2e-05, "beta_regularizer": null, "moving_mean_initializer": {"config": {}, "class_name": "Zeros"}, "center": true, "beta_initializer": {"config": {}, "class_name": "Zeros"}, "momentum": 0.99, "scale": true}, "inbound_nodes": [[["stage2_unit1_conv1", 0, 0, {}]]], "class_name": "BatchNormalization", "name": "stage2_unit1_bn2"}, {"config": {"name": "stage2_unit1_relu2", "trainable": true, "activation": "relu"}, "inbound_nodes": [[["stage2_unit1_bn2", 0, 0, {}]]], "class_name": "Activation", "name": "stage2_unit1_relu2"}, {"config": {"padding": [[1, 1], [1, 1]], "name": "zero_padding2d_8", "data_format": "channels_last", "trainable": true}, "inbound_nodes": [[["stage2_unit1_relu2", 0, 0, {}]]], "class_name": "ZeroPadding2D", "name": "zero_padding2d_8"}, {"config": {"bias_regularizer": null, "filters": 128, "data_format": "channels_last", "kernel_constraint": null, "activation": "linear", "use_bias": false, "strides": [1, 1], "dilation_rate": [1, 1], "name": "stage2_unit1_conv2", "kernel_initializer": {"config": {"seed": null, "mode": "fan_in", "distribution": "uniform", "scale": 2.0}, "class_name": "VarianceScaling"}, "trainable": true, "activity_regularizer": null, "padding": "valid", "bias_constraint": null, "kernel_regularizer": null, "bias_initializer": {"config": {}, "class_name": "Zeros"}, "kernel_size": [3, 3]}, "inbound_nodes": [[["zero_padding2d_8", 0, 0, {}]]], "class_name": "Conv2D", "name": "stage2_unit1_conv2"}, {"config": {"bias_regularizer": null, "filters": 128, "data_format": "channels_last", "kernel_constraint": null, "activation": "linear", "use_bias": false, "strides": [2, 2], "dilation_rate": [1, 1], "name": "stage2_unit1_sc", "kernel_initializer": {"config": {"seed": null, "mode": "fan_in", "distribution": "uniform", "scale": 2.0}, "class_name": "VarianceScaling"}, "trainable": true, "activity_regularizer": null, "padding": "valid", "bias_constraint": null, "kernel_regularizer": null, "bias_initializer": {"config": {}, "class_name": "Zeros"}, "kernel_size": [1, 1]}, "inbound_nodes": [[["stage2_unit1_relu1", 0, 0, {}]]], "class_name": "Conv2D", "name": "stage2_unit1_sc"}, {"config": {"trainable": true, "name": "add_3"}, "inbound_nodes": [[["stage2_unit1_conv2", 0, 0, {}], ["stage2_unit1_sc", 0, 0, {}]]], "class_name": "Add", "name": "add_3"}, {"config": {"axis": 3, "gamma_regularizer": null, "beta_constraint": null, "trainable": true, "moving_variance_initializer": {"config": {}, "class_name": "Ones"}, "name": "stage2_unit2_bn1", "gamma_initializer": {"config": {}, "class_name": "Ones"}, "gamma_constraint": null, "epsilon": 2e-05, "beta_regularizer": null, "moving_mean_initializer": {"config": {}, "class_name": "Zeros"}, "center": true, "beta_initializer": {"config": {}, "class_name": "Zeros"}, "momentum": 0.99, "scale": true}, "inbound_nodes": [[["add_3", 0, 0, {}]]], "class_name": "BatchNormalization", "name": "stage2_unit2_bn1"}, {"config": {"name": "stage2_unit2_relu1", "trainable": true, "activation": "relu"}, "inbound_nodes": [[["stage2_unit2_bn1", 0, 0, {}]]], "class_name": "Activation", "name": "stage2_unit2_relu1"}, {"config": {"padding": [[1, 1], [1, 1]], "name": "zero_padding2d_9", "data_format": "channels_last", "trainable": true}, "inbound_nodes": [[["stage2_unit2_relu1", 0, 0, {}]]], "class_name": "ZeroPadding2D", "name": "zero_padding2d_9"}, {"config": {"bias_regularizer": null, "filters": 128, "data_format": "channels_last", "kernel_constraint": null, "activation": "linear", "use_bias": false, "strides": [1, 1], "dilation_rate": [1, 1], "name": "stage2_unit2_conv1", "kernel_initializer": {"config": {"seed": null, "mode": "fan_in", "distribution": "uniform", "scale": 2.0}, "class_name": "VarianceScaling"}, "trainable": true, "activity_regularizer": null, "padding": "valid", "bias_constraint": null, "kernel_regularizer": null, "bias_initializer": {"config": {}, "class_name": "Zeros"}, "kernel_size": [3, 3]}, "inbound_nodes": [[["zero_padding2d_9", 0, 0, {}]]], "class_name": "Conv2D", "name": "stage2_unit2_conv1"}, {"config": {"axis": 3, "gamma_regularizer": null, "beta_constraint": null, "trainable": true, "moving_variance_initializer": {"config": {}, "class_name": "Ones"}, "name": "stage2_unit2_bn2", "gamma_initializer": {"config": {}, "class_name": "Ones"}, "gamma_constraint": null, "epsilon": 2e-05, "beta_regularizer": null, "moving_mean_initializer": {"config": {}, "class_name": "Zeros"}, "center": true, "beta_initializer": {"config": {}, "class_name": "Zeros"}, "momentum": 0.99, "scale": true}, "inbound_nodes": [[["stage2_unit2_conv1", 0, 0, {}]]], "class_name": "BatchNormalization", "name": "stage2_unit2_bn2"}, {"config": {"name": "stage2_unit2_relu2", "trainable": true, "activation": "relu"}, "inbound_nodes": [[["stage2_unit2_bn2", 0, 0, {}]]], "class_name": "Activation", "name": "stage2_unit2_relu2"}, {"config": {"padding": [[1, 1], [1, 1]], "name": "zero_padding2d_10", "data_format": "channels_last", "trainable": true}, "inbound_nodes": [[["stage2_unit2_relu2", 0, 0, {}]]], "class_name": "ZeroPadding2D", "name": "zero_padding2d_10"}, {"config": {"bias_regularizer": null, "filters": 128, "data_format": "channels_last", "kernel_constraint": null, "activation": "linear", "use_bias": false, "strides": [1, 1], "dilation_rate": [1, 1], "name": "stage2_unit2_conv2", "kernel_initializer": {"config": {"seed": null, "mode": "fan_in", "distribution": "uniform", "scale": 2.0}, "class_name": "VarianceScaling"}, "trainable": true, "activity_regularizer": null, "padding": "valid", "bias_constraint": null, "kernel_regularizer": null, "bias_initializer": {"config": {}, "class_name": "Zeros"}, "kernel_size": [3, 3]}, "inbound_nodes": [[["zero_padding2d_10", 0, 0, {}]]], "class_name": "Conv2D", "name": "stage2_unit2_conv2"}, {"config": {"trainable": true, "name": "add_4"}, "inbound_nodes": [[["stage2_unit2_conv2", 0, 0, {}], ["add_3", 0, 0, {}]]], "class_name": "Add", "name": "add_4"}, {"config": {"axis": 3, "gamma_regularizer": null, "beta_constraint": null, "trainable": true, "moving_variance_initializer": {"config": {}, "class_name": "Ones"}, "name": "stage3_unit1_bn1", "gamma_initializer": {"config": {}, "class_name": "Ones"}, "gamma_constraint": null, "epsilon": 2e-05, "beta_regularizer": null, "moving_mean_initializer": {"config": {}, "class_name": "Zeros"}, "center": true, "beta_initializer": {"config": {}, "class_name": "Zeros"}, "momentum": 0.99, "scale": true}, "inbound_nodes": [[["add_4", 0, 0, {}]]], "class_name": "BatchNormalization", "name": "stage3_unit1_bn1"}, {"config": {"name": "stage3_unit1_relu1", "trainable": true, "activation": "relu"}, "inbound_nodes": [[["stage3_unit1_bn1", 0, 0, {}]]], "class_name": "Activation", "name": "stage3_unit1_relu1"}, {"config": {"data_format": "channels_last", "padding": "same", "pool_size": [48, 48], "name": "average_pooling2d_1", "strides": [48, 48], "trainable": true}, "inbound_nodes": [[["stage3_unit1_relu1", 0, 0, {}]]], "class_name": "AveragePooling2D", "name": "average_pooling2d_1"}, {"config": {"data_format": "channels_last", "padding": "same", "pool_size": [24, 24], "name": "average_pooling2d_2", "strides": [24, 24], "trainable": true}, "inbound_nodes": [[["stage3_unit1_relu1", 0, 0, {}]]], "class_name": "AveragePooling2D", "name": "average_pooling2d_2"}, {"config": {"data_format": "channels_last", "padding": "same", "pool_size": [16, 16], "name": "average_pooling2d_3", "strides": [16, 16], "trainable": true}, "inbound_nodes": [[["stage3_unit1_relu1", 0, 0, {}]]], "class_name": "AveragePooling2D", "name": "average_pooling2d_3"}, {"config": {"data_format": "channels_last", "padding": "same", "pool_size": [8, 8], "name": "average_pooling2d_4", "strides": [8, 8], "trainable": true}, "inbound_nodes": [[["stage3_unit1_relu1", 0, 0, {}]]], "class_name": "AveragePooling2D", "name": "average_pooling2d_4"}, {"config": {"bias_regularizer": null, "filters": 512, "data_format": "channels_last", "kernel_constraint": null, "activation": "linear", "use_bias": false, "strides": [1, 1], "dilation_rate": [1, 1], "name": "level1_conv", "kernel_initializer": {"config": {"seed": null, "mode": "fan_avg", "distribution": "uniform", "scale": 1.0}, "class_name": "VarianceScaling"}, "trainable": true, "activity_regularizer": null, "padding": "same", "bias_constraint": null, "kernel_regularizer": null, "bias_initializer": {"config": {}, "class_name": "Zeros"}, "kernel_size": [1, 1]}, "inbound_nodes": [[["average_pooling2d_1", 0, 0, {}]]], "class_name": "Conv2D", "name": "level1_conv"}, {"config": {"bias_regularizer": null, "filters": 512, "data_format": "channels_last", "kernel_constraint": null, "activation": "linear", "use_bias": false, "strides": [1, 1], "dilation_rate": [1, 1], "name": "level2_conv", "kernel_initializer": {"config": {"seed": null, "mode": "fan_avg", "distribution": "uniform", "scale": 1.0}, "class_name": "VarianceScaling"}, "trainable": true, "activity_regularizer": null, "padding": "same", "bias_constraint": null, "kernel_regularizer": null, "bias_initializer": {"config": {}, "class_name": "Zeros"}, "kernel_size": [1, 1]}, "inbound_nodes": [[["average_pooling2d_2", 0, 0, {}]]], "class_name": "Conv2D", "name": "level2_conv"}, {"config": {"bias_regularizer": null, "filters": 512, "data_format": "channels_last", "kernel_constraint": null, "activation": "linear", "use_bias": false, "strides": [1, 1], "dilation_rate": [1, 1], "name": "level3_conv", "kernel_initializer": {"config": {"seed": null, "mode": "fan_avg", "distribution": "uniform", "scale": 1.0}, "class_name": "VarianceScaling"}, "trainable": true, "activity_regularizer": null, "padding": "same", "bias_constraint": null, "kernel_regularizer": null, "bias_initializer": {"config": {}, "class_name": "Zeros"}, "kernel_size": [1, 1]}, "inbound_nodes": [[["average_pooling2d_3", 0, 0, {}]]], "class_name": "Conv2D", "name": "level3_conv"}, {"config": {"bias_regularizer": null, "filters": 512, "data_format": "channels_last", "kernel_constraint": null, "activation": "linear", "use_bias": false, "strides": [1, 1], "dilation_rate": [1, 1], "name": "level6_conv", "kernel_initializer": {"config": {"seed": null, "mode": "fan_avg", "distribution": "uniform", "scale": 1.0}, "class_name": "VarianceScaling"}, "trainable": true, "activity_regularizer": null, "padding": "same", "bias_constraint": null, "kernel_regularizer": null, "bias_initializer": {"config": {}, "class_name": "Zeros"}, "kernel_size": [1, 1]}, "inbound_nodes": [[["average_pooling2d_4", 0, 0, {}]]], "class_name": "Conv2D", "name": "level6_conv"}, {"config": {"axis": -1, "gamma_regularizer": null, "beta_constraint": null, "trainable": true, "moving_variance_initializer": {"config": {}, "class_name": "Ones"}, "name": "level1_bn", "gamma_initializer": {"config": {}, "class_name": "Ones"}, "gamma_constraint": null, "epsilon": 0.001, "beta_regularizer": null, "moving_mean_initializer": {"config": {}, "class_name": "Zeros"}, "center": true, "beta_initializer": {"config": {}, "class_name": "Zeros"}, "momentum": 0.99, "scale": true}, "inbound_nodes": [[["level1_conv", 0, 0, {}]]], "class_name": "BatchNormalization", "name": "level1_bn"}, {"config": {"axis": -1, "gamma_regularizer": null, "beta_constraint": null, "trainable": true, "moving_variance_initializer": {"config": {}, "class_name": "Ones"}, "name": "level2_bn", "gamma_initializer": {"config": {}, "class_name": "Ones"}, "gamma_constraint": null, "epsilon": 0.001, "beta_regularizer": null, "moving_mean_initializer": {"config": {}, "class_name": "Zeros"}, "center": true, "beta_initializer": {"config": {}, "class_name": "Zeros"}, "momentum": 0.99, "scale": true}, "inbound_nodes": [[["level2_conv", 0, 0, {}]]], "class_name": "BatchNormalization", "name": "level2_bn"}, {"config": {"axis": -1, "gamma_regularizer": null, "beta_constraint": null, "trainable": true, "moving_variance_initializer": {"config": {}, "class_name": "Ones"}, "name": "level3_bn", "gamma_initializer": {"config": {}, "class_name": "Ones"}, "gamma_constraint": null, "epsilon": 0.001, "beta_regularizer": null, "moving_mean_initializer": {"config": {}, "class_name": "Zeros"}, "center": true, "beta_initializer": {"config": {}, "class_name": "Zeros"}, "momentum": 0.99, "scale": true}, "inbound_nodes": [[["level3_conv", 0, 0, {}]]], "class_name": "BatchNormalization", "name": "level3_bn"}, {"config": {"axis": -1, "gamma_regularizer": null, "beta_constraint": null, "trainable": true, "moving_variance_initializer": {"config": {}, "class_name": "Ones"}, "name": "level6_bn", "gamma_initializer": {"config": {}, "class_name": "Ones"}, "gamma_constraint": null, "epsilon": 0.001, "beta_regularizer": null, "moving_mean_initializer": {"config": {}, "class_name": "Zeros"}, "center": true, "beta_initializer": {"config": {}, "class_name": "Zeros"}, "momentum": 0.99, "scale": true}, "inbound_nodes": [[["level6_conv", 0, 0, {}]]], "class_name": "BatchNormalization", "name": "level6_bn"}, {"config": {"name": "level1_relu", "trainable": true, "activation": "relu"}, "inbound_nodes": [[["level1_bn", 0, 0, {}]]], "class_name": "Activation", "name": "level1_relu"}, {"config": {"name": "level2_relu", "trainable": true, "activation": "relu"}, "inbound_nodes": [[["level2_bn", 0, 0, {}]]], "class_name": "Activation", "name": "level2_relu"}, {"config": {"name": "level3_relu", "trainable": true, "activation": "relu"}, "inbound_nodes": [[["level3_bn", 0, 0, {}]]], "class_name": "Activation", "name": "level3_relu"}, {"config": {"name": "level6_relu", "trainable": true, "activation": "relu"}, "inbound_nodes": [[["level6_bn", 0, 0, {}]]], "class_name": "Activation", "name": "level6_relu"}, {"config": {"name": "resize_image_1", "factor": [48, 48], "data_format": "channels_last", "trainable": true}, "inbound_nodes": [[["level1_relu", 0, 0, {}]]], "class_name": "ResizeImage", "name": "resize_image_1"}, {"config": {"name": "resize_image_2", "factor": [24, 24], "data_format": "channels_last", "trainable": true}, "inbound_nodes": [[["level2_relu", 0, 0, {}]]], "class_name": "ResizeImage", "name": "resize_image_2"}, {"config": {"name": "resize_image_3", "factor": [16, 16], "data_format": "channels_last", "trainable": true}, "inbound_nodes": [[["level3_relu", 0, 0, {}]]], "class_name": "ResizeImage", "name": "resize_image_3"}, {"config": {"name": "resize_image_4", "factor": [8, 8], "data_format": "channels_last", "trainable": true}, "inbound_nodes": [[["level6_relu", 0, 0, {}]]], "class_name": "ResizeImage", "name": "resize_image_4"}, {"config": {"axis": -1, "trainable": true, "name": "concatenate_1"}, "inbound_nodes": [[["stage3_unit1_relu1", 0, 0, {}], ["resize_image_1", 0, 0, {}], ["resize_image_2", 0, 0, {}], ["resize_image_3", 0, 0, {}], ["resize_image_4", 0, 0, {}]]], "class_name": "Concatenate", "name": "concatenate_1"}, {"config": {"bias_regularizer": null, "filters": 512, "data_format": "channels_last", "kernel_constraint": null, "activation": "linear", "use_bias": false, "strides": [1, 1], "dilation_rate": [1, 1], "name": "conv_block_conv", "kernel_initializer": {"config": {"seed": null, "mode": "fan_avg", "distribution": "uniform", "scale": 1.0}, "class_name": "VarianceScaling"}, "trainable": true, "activity_regularizer": null, "padding": "same", "bias_constraint": null, "kernel_regularizer": null, "bias_initializer": {"config": {}, "class_name": "Zeros"}, "kernel_size": [1, 1]}, "inbound_nodes": [[["concatenate_1", 0, 0, {}]]], "class_name": "Conv2D", "name": "conv_block_conv"}, {"config": {"axis": -1, "gamma_regularizer": null, "beta_constraint": null, "trainable": true, "moving_variance_initializer": {"config": {}, "class_name": "Ones"}, "name": "conv_block_bn", "gamma_initializer": {"config": {}, "class_name": "Ones"}, "gamma_constraint": null, "epsilon": 0.001, "beta_regularizer": null, "moving_mean_initializer": {"config": {}, "class_name": "Zeros"}, "center": true, "beta_initializer": {"config": {}, "class_name": "Zeros"}, "momentum": 0.99, "scale": true}, "inbound_nodes": [[["conv_block_conv", 0, 0, {}]]], "class_name": "BatchNormalization", "name": "conv_block_bn"}, {"config": {"name": "conv_block_relu", "trainable": true, "activation": "relu"}, "inbound_nodes": [[["conv_block_bn", 0, 0, {}]]], "class_name": "Activation", "name": "conv_block_relu"}, {"config": {"bias_regularizer": null, "filters": 1, "data_format": "channels_last", "kernel_constraint": null, "activation": "linear", "use_bias": true, "strides": [1, 1], "dilation_rate": [1, 1], "name": "final_conv", "kernel_initializer": {"config": {"seed": null, "mode": "fan_avg", "distribution": "uniform", "scale": 1.0}, "class_name": "VarianceScaling"}, "trainable": true, "activity_regularizer": null, "padding": "same", "bias_constraint": null, "kernel_regularizer": null, "bias_initializer": {"config": {}, "class_name": "Zeros"}, "kernel_size": [3, 3]}, "inbound_nodes": [[["conv_block_relu", 0, 0, {}]]], "class_name": "Conv2D", "name": "final_conv"}, {"config": {"name": "resize_image_5", "factor": [8, 8], "data_format": "channels_last", "trainable": true}, "inbound_nodes": [[["final_conv", 0, 0, {}]]], "class_name": "ResizeImage", "name": "resize_image_5"}, {"config": {"name": "sigmoid", "trainable": true, "activation": "sigmoid"}, "inbound_nodes": [[["resize_image_5", 0, 0, {}]]], "class_name": "Activation", "name": "sigmoid"}], "input_layers": [["data", 0, 0]], "name": "psp-resnet18"}, "class_name": "Model"}