{"backend": "tensorflow", "keras_version": "2.2.4", "class_name": "Model", "config": {"output_layers": [["sigmoid", 0, 0]], "input_layers": [["data", 0, 0]], "layers": [{"inbound_nodes": [], "name": "data", "class_name": "InputLayer", "config": {"sparse": false, "name": "data", "batch_input_shape": [null, null, null, 3], "dtype": "float32"}}, {"inbound_nodes": [[["data", 0, 0, {}]]], "name": "bn_data", "class_name": "BatchNormalization", "config": {"axis": 3, "moving_mean_initializer": {"class_name": "Zeros", "config": {}}, "beta_regularizer": null, "gamma_constraint": null, "name": "bn_data", "trainable": true, "epsilon": 2e-05, "center": true, "beta_initializer": {"class_name": "Zeros", "config": {}}, "scale": false, "gamma_regularizer": null, "beta_constraint": null, "gamma_initializer": {"class_name": "Ones", "config": {}}, "momentum": 0.99, "moving_variance_initializer": {"class_name": "Ones", "config": {}}}}, {"inbound_nodes": [[["bn_data", 0, 0, {}]]], "name": "zero_padding2d_141", "class_name": "ZeroPadding2D", "config": {"padding": [[3, 3], [3, 3]], "data_format": "channels_last", "name": "zero_padding2d_141", "trainable": true}}, {"inbound_nodes": [[["zero_padding2d_141", 0, 0, {}]]], "name": "conv0", "class_name": "Conv2D", "config": {"padding": "valid", "bias_regularizer": null, "strides": [2, 2], "kernel_regularizer": null, "name": "conv0", "bias_constraint": null, "filters": 64, "trainable": true, "activity_regularizer": null, "kernel_size": [7, 7], "dilation_rate": [1, 1], "use_bias": false, "activation": "linear", "data_format": "channels_last", "kernel_constraint": null, "bias_initializer": {"class_name": "Zeros", "config": {}}, "kernel_initializer": {"class_name": "VarianceScaling", "config": {"scale": 2.0, "mode": "fan_in", "distribution": "uniform", "seed": null}}}}, {"inbound_nodes": [[["conv0", 0, 0, {}]]], "name": "bn0", "class_name": "BatchNormalization", "config": {"axis": 3, "moving_mean_initializer": {"class_name": "Zeros", "config": {}}, "beta_regularizer": null, "gamma_constraint": null, "name": "bn0", "trainable": true, "epsilon": 2e-05, "center": true, "beta_initializer": {"class_name": "Zeros", "config": {}}, "scale": true, "gamma_regularizer": null, "beta_constraint": null, "gamma_initializer": {"class_name": "Ones", "config": {}}, "momentum": 0.99, "moving_variance_initializer": {"class_name": "Ones", "config": {}}}}, {"inbound_nodes": [[["bn0", 0, 0, {}]]], "name": "relu0", "class_name": "Activation", "config": {"name": "relu0", "trainable": true, "activation": "relu"}}, {"inbound_nodes": [[["relu0", 0, 0, {}]]], "name": "zero_padding2d_142", "class_name": "ZeroPadding2D", "config": {"padding": [[1, 1], [1, 1]], "data_format": "channels_last", "name": "zero_padding2d_142", "trainable": true}}, {"inbound_nodes": [[["zero_padding2d_142", 0, 0, {}]]], "name": "pooling0", "class_name": "MaxPooling2D", "config": {"padding": "valid", "pool_size": [3, 3], "strides": [2, 2], "data_format": "channels_last", "name": "pooling0", "trainable": true}}, {"inbound_nodes": [[["pooling0", 0, 0, {}]]], "name": "stage1_unit1_bn1", "class_name": "BatchNormalization", "config": {"axis": 3, "moving_mean_initializer": {"class_name": "Zeros", "config": {}}, "beta_regularizer": null, "gamma_constraint": null, "name": "stage1_unit1_bn1", "trainable": true, "epsilon": 2e-05, "center": true, "beta_initializer": {"class_name": "Zeros", "config": {}}, "scale": true, "gamma_regularizer": null, "beta_constraint": null, "gamma_initializer": {"class_name": "Ones", "config": {}}, "momentum": 0.99, "moving_variance_initializer": {"class_name": "Ones", "config": {}}}}, {"inbound_nodes": [[["stage1_unit1_bn1", 0, 0, {}]]], "name": "stage1_unit1_relu1", "class_name": "Activation", "config": {"name": "stage1_unit1_relu1", "trainable": true, "activation": "relu"}}, {"inbound_nodes": [[["stage1_unit1_relu1", 0, 0, {}]]], "name": "zero_padding2d_143", "class_name": "ZeroPadding2D", "config": {"padding": [[1, 1], [1, 1]], "data_format": "channels_last", "name": "zero_padding2d_143", "trainable": true}}, {"inbound_nodes": [[["zero_padding2d_143", 0, 0, {}]]], "name": "stage1_unit1_conv1", "class_name": "Conv2D", "config": {"padding": "valid", "bias_regularizer": null, "strides": [1, 1], "kernel_regularizer": null, "name": "stage1_unit1_conv1", "bias_constraint": null, "filters": 64, "trainable": true, "activity_regularizer": null, "kernel_size": [3, 3], "dilation_rate": [1, 1], "use_bias": false, "activation": "linear", "data_format": "channels_last", "kernel_constraint": null, "bias_initializer": {"class_name": "Zeros", "config": {}}, "kernel_initializer": {"class_name": "VarianceScaling", "config": {"scale": 2.0, "mode": "fan_in", "distribution": "uniform", "seed": null}}}}, {"inbound_nodes": [[["stage1_unit1_conv1", 0, 0, {}]]], "name": "stage1_unit1_bn2", "class_name": "BatchNormalization", "config": {"axis": 3, "moving_mean_initializer": {"class_name": "Zeros", "config": {}}, "beta_regularizer": null, "gamma_constraint": null, "name": "stage1_unit1_bn2", "trainable": true, "epsilon": 2e-05, "center": true, "beta_initializer": {"class_name": "Zeros", "config": {}}, "scale": true, "gamma_regularizer": null, "beta_constraint": null, "gamma_initializer": {"class_name": "Ones", "config": {}}, "momentum": 0.99, "moving_variance_initializer": {"class_name": "Ones", "config": {}}}}, {"inbound_nodes": [[["stage1_unit1_bn2", 0, 0, {}]]], "name": "stage1_unit1_relu2", "class_name": "Activation", "config": {"name": "stage1_unit1_relu2", "trainable": true, "activation": "relu"}}, {"inbound_nodes": [[["stage1_unit1_relu2", 0, 0, {}]]], "name": "zero_padding2d_144", "class_name": "ZeroPadding2D", "config": {"padding": [[1, 1], [1, 1]], "data_format": "channels_last", "name": "zero_padding2d_144", "trainable": true}}, {"inbound_nodes": [[["zero_padding2d_144", 0, 0, {}]]], "name": "stage1_unit1_conv2", "class_name": "Conv2D", "config": {"padding": "valid", "bias_regularizer": null, "strides": [1, 1], "kernel_regularizer": null, "name": "stage1_unit1_conv2", "bias_constraint": null, "filters": 64, "trainable": true, "activity_regularizer": null, "kernel_size": [3, 3], "dilation_rate": [1, 1], "use_bias": false, "activation": "linear", "data_format": "channels_last", "kernel_constraint": null, "bias_initializer": {"class_name": "Zeros", "config": {}}, "kernel_initializer": {"class_name": "VarianceScaling", "config": {"scale": 2.0, "mode": "fan_in", "distribution": "uniform", "seed": null}}}}, {"inbound_nodes": [[["stage1_unit1_relu1", 0, 0, {}]]], "name": "stage1_unit1_sc", "class_name": "Conv2D", "config": {"padding": "valid", "bias_regularizer": null, "strides": [1, 1], "kernel_regularizer": null, "name": "stage1_unit1_sc", "bias_constraint": null, "filters": 64, "trainable": true, "activity_regularizer": null, "kernel_size": [1, 1], "dilation_rate": [1, 1], "use_bias": false, "activation": "linear", "data_format": "channels_last", "kernel_constraint": null, "bias_initializer": {"class_name": "Zeros", "config": {}}, "kernel_initializer": {"class_name": "VarianceScaling", "config": {"scale": 2.0, "mode": "fan_in", "distribution": "uniform", "seed": null}}}}, {"inbound_nodes": [[["stage1_unit1_conv2", 0, 0, {}], ["stage1_unit1_sc", 0, 0, {}]]], "name": "add_62", "class_name": "Add", "config": {"name": "add_62", "trainable": true}}, {"inbound_nodes": [[["add_62", 0, 0, {}]]], "name": "stage1_unit2_bn1", "class_name": "BatchNormalization", "config": {"axis": 3, "moving_mean_initializer": {"class_name": "Zeros", "config": {}}, "beta_regularizer": null, "gamma_constraint": null, "name": "stage1_unit2_bn1", "trainable": true, "epsilon": 2e-05, "center": true, "beta_initializer": {"class_name": "Zeros", "config": {}}, "scale": true, "gamma_regularizer": null, "beta_constraint": null, "gamma_initializer": {"class_name": "Ones", "config": {}}, "momentum": 0.99, "moving_variance_initializer": {"class_name": "Ones", "config": {}}}}, {"inbound_nodes": [[["stage1_unit2_bn1", 0, 0, {}]]], "name": "stage1_unit2_relu1", "class_name": "Activation", "config": {"name": "stage1_unit2_relu1", "trainable": true, "activation": "relu"}}, {"inbound_nodes": [[["stage1_unit2_relu1", 0, 0, {}]]], "name": "zero_padding2d_145", "class_name": "ZeroPadding2D", "config": {"padding": [[1, 1], [1, 1]], "data_format": "channels_last", "name": "zero_padding2d_145", "trainable": true}}, {"inbound_nodes": [[["zero_padding2d_145", 0, 0, {}]]], "name": "stage1_unit2_conv1", "class_name": "Conv2D", "config": {"padding": "valid", "bias_regularizer": null, "strides": [1, 1], "kernel_regularizer": null, "name": "stage1_unit2_conv1", "bias_constraint": null, "filters": 64, "trainable": true, "activity_regularizer": null, "kernel_size": [3, 3], "dilation_rate": [1, 1], "use_bias": false, "activation": "linear", "data_format": "channels_last", "kernel_constraint": null, "bias_initializer": {"class_name": "Zeros", "config": {}}, "kernel_initializer": {"class_name": "VarianceScaling", "config": {"scale": 2.0, "mode": "fan_in", "distribution": "uniform", "seed": null}}}}, {"inbound_nodes": [[["stage1_unit2_conv1", 0, 0, {}]]], "name": "stage1_unit2_bn2", "class_name": "BatchNormalization", "config": {"axis": 3, "moving_mean_initializer": {"class_name": "Zeros", "config": {}}, "beta_regularizer": null, "gamma_constraint": null, "name": "stage1_unit2_bn2", "trainable": true, "epsilon": 2e-05, "center": true, "beta_initializer": {"class_name": "Zeros", "config": {}}, "scale": true, "gamma_regularizer": null, "beta_constraint": null, "gamma_initializer": {"class_name": "Ones", "config": {}}, "momentum": 0.99, "moving_variance_initializer": {"class_name": "Ones", "config": {}}}}, {"inbound_nodes": [[["stage1_unit2_bn2", 0, 0, {}]]], "name": "stage1_unit2_relu2", "class_name": "Activation", "config": {"name": "stage1_unit2_relu2", "trainable": true, "activation": "relu"}}, {"inbound_nodes": [[["stage1_unit2_relu2", 0, 0, {}]]], "name": "zero_padding2d_146", "class_name": "ZeroPadding2D", "config": {"padding": [[1, 1], [1, 1]], "data_format": "channels_last", "name": "zero_padding2d_146", "trainable": true}}, {"inbound_nodes": [[["zero_padding2d_146", 0, 0, {}]]], "name": "stage1_unit2_conv2", "class_name": "Conv2D", "config": {"padding": "valid", "bias_regularizer": null, "strides": [1, 1], "kernel_regularizer": null, "name": "stage1_unit2_conv2", "bias_constraint": null, "filters": 64, "trainable": true, "activity_regularizer": null, "kernel_size": [3, 3], "dilation_rate": [1, 1], "use_bias": false, "activation": "linear", "data_format": "channels_last", "kernel_constraint": null, "bias_initializer": {"class_name": "Zeros", "config": {}}, "kernel_initializer": {"class_name": "VarianceScaling", "config": {"scale": 2.0, "mode": "fan_in", "distribution": "uniform", "seed": null}}}}, {"inbound_nodes": [[["stage1_unit2_conv2", 0, 0, {}], ["add_62", 0, 0, {}]]], "name": "add_63", "class_name": "Add", "config": {"name": "add_63", "trainable": true}}, {"inbound_nodes": [[["add_63", 0, 0, {}]]], "name": "stage2_unit1_bn1", "class_name": "BatchNormalization", "config": {"axis": 3, "moving_mean_initializer": {"class_name": "Zeros", "config": {}}, "beta_regularizer": null, "gamma_constraint": null, "name": "stage2_unit1_bn1", "trainable": true, "epsilon": 2e-05, "center": true, "beta_initializer": {"class_name": "Zeros", "config": {}}, "scale": true, "gamma_regularizer": null, "beta_constraint": null, "gamma_initializer": {"class_name": "Ones", "config": {}}, "momentum": 0.99, "moving_variance_initializer": {"class_name": "Ones", "config": {}}}}, {"inbound_nodes": [[["stage2_unit1_bn1", 0, 0, {}]]], "name": "stage2_unit1_relu1", "class_name": "Activation", "config": {"name": "stage2_unit1_relu1", "trainable": true, "activation": "relu"}}, {"inbound_nodes": [[["stage2_unit1_relu1", 0, 0, {}]]], "name": "zero_padding2d_147", "class_name": "ZeroPadding2D", "config": {"padding": [[1, 1], [1, 1]], "data_format": "channels_last", "name": "zero_padding2d_147", "trainable": true}}, {"inbound_nodes": [[["zero_padding2d_147", 0, 0, {}]]], "name": "stage2_unit1_conv1", "class_name": "Conv2D", "config": {"padding": "valid", "bias_regularizer": null, "strides": [2, 2], "kernel_regularizer": null, "name": "stage2_unit1_conv1", "bias_constraint": null, "filters": 128, "trainable": true, "activity_regularizer": null, "kernel_size": [3, 3], "dilation_rate": [1, 1], "use_bias": false, "activation": "linear", "data_format": "channels_last", "kernel_constraint": null, "bias_initializer": {"class_name": "Zeros", "config": {}}, "kernel_initializer": {"class_name": "VarianceScaling", "config": {"scale": 2.0, "mode": "fan_in", "distribution": "uniform", "seed": null}}}}, {"inbound_nodes": [[["stage2_unit1_conv1", 0, 0, {}]]], "name": "stage2_unit1_bn2", "class_name": "BatchNormalization", "config": {"axis": 3, "moving_mean_initializer": {"class_name": "Zeros", "config": {}}, "beta_regularizer": null, "gamma_constraint": null, "name": "stage2_unit1_bn2", "trainable": true, "epsilon": 2e-05, "center": true, "beta_initializer": {"class_name": "Zeros", "config": {}}, "scale": true, "gamma_regularizer": null, "beta_constraint": null, "gamma_initializer": {"class_name": "Ones", "config": {}}, "momentum": 0.99, "moving_variance_initializer": {"class_name": "Ones", "config": {}}}}, {"inbound_nodes": [[["stage2_unit1_bn2", 0, 0, {}]]], "name": "stage2_unit1_relu2", "class_name": "Activation", "config": {"name": "stage2_unit1_relu2", "trainable": true, "activation": "relu"}}, {"inbound_nodes": [[["stage2_unit1_relu2", 0, 0, {}]]], "name": "zero_padding2d_148", "class_name": "ZeroPadding2D", "config": {"padding": [[1, 1], [1, 1]], "data_format": "channels_last", "name": "zero_padding2d_148", "trainable": true}}, {"inbound_nodes": [[["zero_padding2d_148", 0, 0, {}]]], "name": "stage2_unit1_conv2", "class_name": "Conv2D", "config": {"padding": "valid", "bias_regularizer": null, "strides": [1, 1], "kernel_regularizer": null, "name": "stage2_unit1_conv2", "bias_constraint": null, "filters": 128, "trainable": true, "activity_regularizer": null, "kernel_size": [3, 3], "dilation_rate": [1, 1], "use_bias": false, "activation": "linear", "data_format": "channels_last", "kernel_constraint": null, "bias_initializer": {"class_name": "Zeros", "config": {}}, "kernel_initializer": {"class_name": "VarianceScaling", "config": {"scale": 2.0, "mode": "fan_in", "distribution": "uniform", "seed": null}}}}, {"inbound_nodes": [[["stage2_unit1_relu1", 0, 0, {}]]], "name": "stage2_unit1_sc", "class_name": "Conv2D", "config": {"padding": "valid", "bias_regularizer": null, "strides": [2, 2], "kernel_regularizer": null, "name": "stage2_unit1_sc", "bias_constraint": null, "filters": 128, "trainable": true, "activity_regularizer": null, "kernel_size": [1, 1], "dilation_rate": [1, 1], "use_bias": false, "activation": "linear", "data_format": "channels_last", "kernel_constraint": null, "bias_initializer": {"class_name": "Zeros", "config": {}}, "kernel_initializer": {"class_name": "VarianceScaling", "config": {"scale": 2.0, "mode": "fan_in", "distribution": "uniform", "seed": null}}}}, {"inbound_nodes": [[["stage2_unit1_conv2", 0, 0, {}], ["stage2_unit1_sc", 0, 0, {}]]], "name": "add_64", "class_name": "Add", "config": {"name": "add_64", "trainable": true}}, {"inbound_nodes": [[["add_64", 0, 0, {}]]], "name": "stage2_unit2_bn1", "class_name": "BatchNormalization", "config": {"axis": 3, "moving_mean_initializer": {"class_name": "Zeros", "config": {}}, "beta_regularizer": null, "gamma_constraint": null, "name": "stage2_unit2_bn1", "trainable": true, "epsilon": 2e-05, "center": true, "beta_initializer": {"class_name": "Zeros", "config": {}}, "scale": true, "gamma_regularizer": null, "beta_constraint": null, "gamma_initializer": {"class_name": "Ones", "config": {}}, "momentum": 0.99, "moving_variance_initializer": {"class_name": "Ones", "config": {}}}}, {"inbound_nodes": [[["stage2_unit2_bn1", 0, 0, {}]]], "name": "stage2_unit2_relu1", "class_name": "Activation", "config": {"name": "stage2_unit2_relu1", "trainable": true, "activation": "relu"}}, {"inbound_nodes": [[["stage2_unit2_relu1", 0, 0, {}]]], "name": "zero_padding2d_149", "class_name": "ZeroPadding2D", "config": {"padding": [[1, 1], [1, 1]], "data_format": "channels_last", "name": "zero_padding2d_149", "trainable": true}}, {"inbound_nodes": [[["zero_padding2d_149", 0, 0, {}]]], "name": "stage2_unit2_conv1", "class_name": "Conv2D", "config": {"padding": "valid", "bias_regularizer": null, "strides": [1, 1], "kernel_regularizer": null, "name": "stage2_unit2_conv1", "bias_constraint": null, "filters": 128, "trainable": true, "activity_regularizer": null, "kernel_size": [3, 3], "dilation_rate": [1, 1], "use_bias": false, "activation": "linear", "data_format": "channels_last", "kernel_constraint": null, "bias_initializer": {"class_name": "Zeros", "config": {}}, "kernel_initializer": {"class_name": "VarianceScaling", "config": {"scale": 2.0, "mode": "fan_in", "distribution": "uniform", "seed": null}}}}, {"inbound_nodes": [[["stage2_unit2_conv1", 0, 0, {}]]], "name": "stage2_unit2_bn2", "class_name": "BatchNormalization", "config": {"axis": 3, "moving_mean_initializer": {"class_name": "Zeros", "config": {}}, "beta_regularizer": null, "gamma_constraint": null, "name": "stage2_unit2_bn2", "trainable": true, "epsilon": 2e-05, "center": true, "beta_initializer": {"class_name": "Zeros", "config": {}}, "scale": true, "gamma_regularizer": null, "beta_constraint": null, "gamma_initializer": {"class_name": "Ones", "config": {}}, "momentum": 0.99, "moving_variance_initializer": {"class_name": "Ones", "config": {}}}}, {"inbound_nodes": [[["stage2_unit2_bn2", 0, 0, {}]]], "name": "stage2_unit2_relu2", "class_name": "Activation", "config": {"name": "stage2_unit2_relu2", "trainable": true, "activation": "relu"}}, {"inbound_nodes": [[["stage2_unit2_relu2", 0, 0, {}]]], "name": "zero_padding2d_150", "class_name": "ZeroPadding2D", "config": {"padding": [[1, 1], [1, 1]], "data_format": "channels_last", "name": "zero_padding2d_150", "trainable": true}}, {"inbound_nodes": [[["zero_padding2d_150", 0, 0, {}]]], "name": "stage2_unit2_conv2", "class_name": "Conv2D", "config": {"padding": "valid", "bias_regularizer": null, "strides": [1, 1], "kernel_regularizer": null, "name": "stage2_unit2_conv2", "bias_constraint": null, "filters": 128, "trainable": true, "activity_regularizer": null, "kernel_size": [3, 3], "dilation_rate": [1, 1], "use_bias": false, "activation": "linear", "data_format": "channels_last", "kernel_constraint": null, "bias_initializer": {"class_name": "Zeros", "config": {}}, "kernel_initializer": {"class_name": "VarianceScaling", "config": {"scale": 2.0, "mode": "fan_in", "distribution": "uniform", "seed": null}}}}, {"inbound_nodes": [[["stage2_unit2_conv2", 0, 0, {}], ["add_64", 0, 0, {}]]], "name": "add_65", "class_name": "Add", "config": {"name": "add_65", "trainable": true}}, {"inbound_nodes": [[["add_65", 0, 0, {}]]], "name": "stage3_unit1_bn1", "class_name": "BatchNormalization", "config": {"axis": 3, "moving_mean_initializer": {"class_name": "Zeros", "config": {}}, "beta_regularizer": null, "gamma_constraint": null, "name": "stage3_unit1_bn1", "trainable": true, "epsilon": 2e-05, "center": true, "beta_initializer": {"class_name": "Zeros", "config": {}}, "scale": true, "gamma_regularizer": null, "beta_constraint": null, "gamma_initializer": {"class_name": "Ones", "config": {}}, "momentum": 0.99, "moving_variance_initializer": {"class_name": "Ones", "config": {}}}}, {"inbound_nodes": [[["stage3_unit1_bn1", 0, 0, {}]]], "name": "stage3_unit1_relu1", "class_name": "Activation", "config": {"name": "stage3_unit1_relu1", "trainable": true, "activation": "relu"}}, {"inbound_nodes": [[["stage3_unit1_relu1", 0, 0, {}]]], "name": "zero_padding2d_151", "class_name": "ZeroPadding2D", "config": {"padding": [[1, 1], [1, 1]], "data_format": "channels_last", "name": "zero_padding2d_151", "trainable": true}}, {"inbound_nodes": [[["zero_padding2d_151", 0, 0, {}]]], "name": "stage3_unit1_conv1", "class_name": "Conv2D", "config": {"padding": "valid", "bias_regularizer": null, "strides": [2, 2], "kernel_regularizer": null, "name": "stage3_unit1_conv1", "bias_constraint": null, "filters": 256, "trainable": true, "activity_regularizer": null, "kernel_size": [3, 3], "dilation_rate": [1, 1], "use_bias": false, "activation": "linear", "data_format": "channels_last", "kernel_constraint": null, "bias_initializer": {"class_name": "Zeros", "config": {}}, "kernel_initializer": {"class_name": "VarianceScaling", "config": {"scale": 2.0, "mode": "fan_in", "distribution": "uniform", "seed": null}}}}, {"inbound_nodes": [[["stage3_unit1_conv1", 0, 0, {}]]], "name": "stage3_unit1_bn2", "class_name": "BatchNormalization", "config": {"axis": 3, "moving_mean_initializer": {"class_name": "Zeros", "config": {}}, "beta_regularizer": null, "gamma_constraint": null, "name": "stage3_unit1_bn2", "trainable": true, "epsilon": 2e-05, "center": true, "beta_initializer": {"class_name": "Zeros", "config": {}}, "scale": true, "gamma_regularizer": null, "beta_constraint": null, "gamma_initializer": {"class_name": "Ones", "config": {}}, "momentum": 0.99, "moving_variance_initializer": {"class_name": "Ones", "config": {}}}}, {"inbound_nodes": [[["stage3_unit1_bn2", 0, 0, {}]]], "name": "stage3_unit1_relu2", "class_name": "Activation", "config": {"name": "stage3_unit1_relu2", "trainable": true, "activation": "relu"}}, {"inbound_nodes": [[["stage3_unit1_relu2", 0, 0, {}]]], "name": "zero_padding2d_152", "class_name": "ZeroPadding2D", "config": {"padding": [[1, 1], [1, 1]], "data_format": "channels_last", "name": "zero_padding2d_152", "trainable": true}}, {"inbound_nodes": [[["zero_padding2d_152", 0, 0, {}]]], "name": "stage3_unit1_conv2", "class_name": "Conv2D", "config": {"padding": "valid", "bias_regularizer": null, "strides": [1, 1], "kernel_regularizer": null, "name": "stage3_unit1_conv2", "bias_constraint": null, "filters": 256, "trainable": true, "activity_regularizer": null, "kernel_size": [3, 3], "dilation_rate": [1, 1], "use_bias": false, "activation": "linear", "data_format": "channels_last", "kernel_constraint": null, "bias_initializer": {"class_name": "Zeros", "config": {}}, "kernel_initializer": {"class_name": "VarianceScaling", "config": {"scale": 2.0, "mode": "fan_in", "distribution": "uniform", "seed": null}}}}, {"inbound_nodes": [[["stage3_unit1_relu1", 0, 0, {}]]], "name": "stage3_unit1_sc", "class_name": "Conv2D", "config": {"padding": "valid", "bias_regularizer": null, "strides": [2, 2], "kernel_regularizer": null, "name": "stage3_unit1_sc", "bias_constraint": null, "filters": 256, "trainable": true, "activity_regularizer": null, "kernel_size": [1, 1], "dilation_rate": [1, 1], "use_bias": false, "activation": "linear", "data_format": "channels_last", "kernel_constraint": null, "bias_initializer": {"class_name": "Zeros", "config": {}}, "kernel_initializer": {"class_name": "VarianceScaling", "config": {"scale": 2.0, "mode": "fan_in", "distribution": "uniform", "seed": null}}}}, {"inbound_nodes": [[["stage3_unit1_conv2", 0, 0, {}], ["stage3_unit1_sc", 0, 0, {}]]], "name": "add_66", "class_name": "Add", "config": {"name": "add_66", "trainable": true}}, {"inbound_nodes": [[["add_66", 0, 0, {}]]], "name": "stage3_unit2_bn1", "class_name": "BatchNormalization", "config": {"axis": 3, "moving_mean_initializer": {"class_name": "Zeros", "config": {}}, "beta_regularizer": null, "gamma_constraint": null, "name": "stage3_unit2_bn1", "trainable": true, "epsilon": 2e-05, "center": true, "beta_initializer": {"class_name": "Zeros", "config": {}}, "scale": true, "gamma_regularizer": null, "beta_constraint": null, "gamma_initializer": {"class_name": "Ones", "config": {}}, "momentum": 0.99, "moving_variance_initializer": {"class_name": "Ones", "config": {}}}}, {"inbound_nodes": [[["stage3_unit2_bn1", 0, 0, {}]]], "name": "stage3_unit2_relu1", "class_name": "Activation", "config": {"name": "stage3_unit2_relu1", "trainable": true, "activation": "relu"}}, {"inbound_nodes": [[["stage3_unit2_relu1", 0, 0, {}]]], "name": "zero_padding2d_153", "class_name": "ZeroPadding2D", "config": {"padding": [[1, 1], [1, 1]], "data_format": "channels_last", "name": "zero_padding2d_153", "trainable": true}}, {"inbound_nodes": [[["zero_padding2d_153", 0, 0, {}]]], "name": "stage3_unit2_conv1", "class_name": "Conv2D", "config": {"padding": "valid", "bias_regularizer": null, "strides": [1, 1], "kernel_regularizer": null, "name": "stage3_unit2_conv1", "bias_constraint": null, "filters": 256, "trainable": true, "activity_regularizer": null, "kernel_size": [3, 3], "dilation_rate": [1, 1], "use_bias": false, "activation": "linear", "data_format": "channels_last", "kernel_constraint": null, "bias_initializer": {"class_name": "Zeros", "config": {}}, "kernel_initializer": {"class_name": "VarianceScaling", "config": {"scale": 2.0, "mode": "fan_in", "distribution": "uniform", "seed": null}}}}, {"inbound_nodes": [[["stage3_unit2_conv1", 0, 0, {}]]], "name": "stage3_unit2_bn2", "class_name": "BatchNormalization", "config": {"axis": 3, "moving_mean_initializer": {"class_name": "Zeros", "config": {}}, "beta_regularizer": null, "gamma_constraint": null, "name": "stage3_unit2_bn2", "trainable": true, "epsilon": 2e-05, "center": true, "beta_initializer": {"class_name": "Zeros", "config": {}}, "scale": true, "gamma_regularizer": null, "beta_constraint": null, "gamma_initializer": {"class_name": "Ones", "config": {}}, "momentum": 0.99, "moving_variance_initializer": {"class_name": "Ones", "config": {}}}}, {"inbound_nodes": [[["stage3_unit2_bn2", 0, 0, {}]]], "name": "stage3_unit2_relu2", "class_name": "Activation", "config": {"name": "stage3_unit2_relu2", "trainable": true, "activation": "relu"}}, {"inbound_nodes": [[["stage3_unit2_relu2", 0, 0, {}]]], "name": "zero_padding2d_154", "class_name": "ZeroPadding2D", "config": {"padding": [[1, 1], [1, 1]], "data_format": "channels_last", "name": "zero_padding2d_154", "trainable": true}}, {"inbound_nodes": [[["zero_padding2d_154", 0, 0, {}]]], "name": "stage3_unit2_conv2", "class_name": "Conv2D", "config": {"padding": "valid", "bias_regularizer": null, "strides": [1, 1], "kernel_regularizer": null, "name": "stage3_unit2_conv2", "bias_constraint": null, "filters": 256, "trainable": true, "activity_regularizer": null, "kernel_size": [3, 3], "dilation_rate": [1, 1], "use_bias": false, "activation": "linear", "data_format": "channels_last", "kernel_constraint": null, "bias_initializer": {"class_name": "Zeros", "config": {}}, "kernel_initializer": {"class_name": "VarianceScaling", "config": {"scale": 2.0, "mode": "fan_in", "distribution": "uniform", "seed": null}}}}, {"inbound_nodes": [[["stage3_unit2_conv2", 0, 0, {}], ["add_66", 0, 0, {}]]], "name": "add_67", "class_name": "Add", "config": {"name": "add_67", "trainable": true}}, {"inbound_nodes": [[["add_67", 0, 0, {}]]], "name": "stage4_unit1_bn1", "class_name": "BatchNormalization", "config": {"axis": 3, "moving_mean_initializer": {"class_name": "Zeros", "config": {}}, "beta_regularizer": null, "gamma_constraint": null, "name": "stage4_unit1_bn1", "trainable": true, "epsilon": 2e-05, "center": true, "beta_initializer": {"class_name": "Zeros", "config": {}}, "scale": true, "gamma_regularizer": null, "beta_constraint": null, "gamma_initializer": {"class_name": "Ones", "config": {}}, "momentum": 0.99, "moving_variance_initializer": {"class_name": "Ones", "config": {}}}}, {"inbound_nodes": [[["stage4_unit1_bn1", 0, 0, {}]]], "name": "stage4_unit1_relu1", "class_name": "Activation", "config": {"name": "stage4_unit1_relu1", "trainable": true, "activation": "relu"}}, {"inbound_nodes": [[["stage4_unit1_relu1", 0, 0, {}]]], "name": "zero_padding2d_155", "class_name": "ZeroPadding2D", "config": {"padding": [[1, 1], [1, 1]], "data_format": "channels_last", "name": "zero_padding2d_155", "trainable": true}}, {"inbound_nodes": [[["zero_padding2d_155", 0, 0, {}]]], "name": "stage4_unit1_conv1", "class_name": "Conv2D", "config": {"padding": "valid", "bias_regularizer": null, "strides": [2, 2], "kernel_regularizer": null, "name": "stage4_unit1_conv1", "bias_constraint": null, "filters": 512, "trainable": true, "activity_regularizer": null, "kernel_size": [3, 3], "dilation_rate": [1, 1], "use_bias": false, "activation": "linear", "data_format": "channels_last", "kernel_constraint": null, "bias_initializer": {"class_name": "Zeros", "config": {}}, "kernel_initializer": {"class_name": "VarianceScaling", "config": {"scale": 2.0, "mode": "fan_in", "distribution": "uniform", "seed": null}}}}, {"inbound_nodes": [[["stage4_unit1_conv1", 0, 0, {}]]], "name": "stage4_unit1_bn2", "class_name": "BatchNormalization", "config": {"axis": 3, "moving_mean_initializer": {"class_name": "Zeros", "config": {}}, "beta_regularizer": null, "gamma_constraint": null, "name": "stage4_unit1_bn2", "trainable": true, "epsilon": 2e-05, "center": true, "beta_initializer": {"class_name": "Zeros", "config": {}}, "scale": true, "gamma_regularizer": null, "beta_constraint": null, "gamma_initializer": {"class_name": "Ones", "config": {}}, "momentum": 0.99, "moving_variance_initializer": {"class_name": "Ones", "config": {}}}}, {"inbound_nodes": [[["stage4_unit1_bn2", 0, 0, {}]]], "name": "stage4_unit1_relu2", "class_name": "Activation", "config": {"name": "stage4_unit1_relu2", "trainable": true, "activation": "relu"}}, {"inbound_nodes": [[["stage4_unit1_relu2", 0, 0, {}]]], "name": "zero_padding2d_156", "class_name": "ZeroPadding2D", "config": {"padding": [[1, 1], [1, 1]], "data_format": "channels_last", "name": "zero_padding2d_156", "trainable": true}}, {"inbound_nodes": [[["zero_padding2d_156", 0, 0, {}]]], "name": "stage4_unit1_conv2", "class_name": "Conv2D", "config": {"padding": "valid", "bias_regularizer": null, "strides": [1, 1], "kernel_regularizer": null, "name": "stage4_unit1_conv2", "bias_constraint": null, "filters": 512, "trainable": true, "activity_regularizer": null, "kernel_size": [3, 3], "dilation_rate": [1, 1], "use_bias": false, "activation": "linear", "data_format": "channels_last", "kernel_constraint": null, "bias_initializer": {"class_name": "Zeros", "config": {}}, "kernel_initializer": {"class_name": "VarianceScaling", "config": {"scale": 2.0, "mode": "fan_in", "distribution": "uniform", "seed": null}}}}, {"inbound_nodes": [[["stage4_unit1_relu1", 0, 0, {}]]], "name": "stage4_unit1_sc", "class_name": "Conv2D", "config": {"padding": "valid", "bias_regularizer": null, "strides": [2, 2], "kernel_regularizer": null, "name": "stage4_unit1_sc", "bias_constraint": null, "filters": 512, "trainable": true, "activity_regularizer": null, "kernel_size": [1, 1], "dilation_rate": [1, 1], "use_bias": false, "activation": "linear", "data_format": "channels_last", "kernel_constraint": null, "bias_initializer": {"class_name": "Zeros", "config": {}}, "kernel_initializer": {"class_name": "VarianceScaling", "config": {"scale": 2.0, "mode": "fan_in", "distribution": "uniform", "seed": null}}}}, {"inbound_nodes": [[["stage4_unit1_conv2", 0, 0, {}], ["stage4_unit1_sc", 0, 0, {}]]], "name": "add_68", "class_name": "Add", "config": {"name": "add_68", "trainable": true}}, {"inbound_nodes": [[["add_68", 0, 0, {}]]], "name": "stage4_unit2_bn1", "class_name": "BatchNormalization", "config": {"axis": 3, "moving_mean_initializer": {"class_name": "Zeros", "config": {}}, "beta_regularizer": null, "gamma_constraint": null, "name": "stage4_unit2_bn1", "trainable": true, "epsilon": 2e-05, "center": true, "beta_initializer": {"class_name": "Zeros", "config": {}}, "scale": true, "gamma_regularizer": null, "beta_constraint": null, "gamma_initializer": {"class_name": "Ones", "config": {}}, "momentum": 0.99, "moving_variance_initializer": {"class_name": "Ones", "config": {}}}}, {"inbound_nodes": [[["stage4_unit2_bn1", 0, 0, {}]]], "name": "stage4_unit2_relu1", "class_name": "Activation", "config": {"name": "stage4_unit2_relu1", "trainable": true, "activation": "relu"}}, {"inbound_nodes": [[["stage4_unit2_relu1", 0, 0, {}]]], "name": "zero_padding2d_157", "class_name": "ZeroPadding2D", "config": {"padding": [[1, 1], [1, 1]], "data_format": "channels_last", "name": "zero_padding2d_157", "trainable": true}}, {"inbound_nodes": [[["zero_padding2d_157", 0, 0, {}]]], "name": "stage4_unit2_conv1", "class_name": "Conv2D", "config": {"padding": "valid", "bias_regularizer": null, "strides": [1, 1], "kernel_regularizer": null, "name": "stage4_unit2_conv1", "bias_constraint": null, "filters": 512, "trainable": true, "activity_regularizer": null, "kernel_size": [3, 3], "dilation_rate": [1, 1], "use_bias": false, "activation": "linear", "data_format": "channels_last", "kernel_constraint": null, "bias_initializer": {"class_name": "Zeros", "config": {}}, "kernel_initializer": {"class_name": "VarianceScaling", "config": {"scale": 2.0, "mode": "fan_in", "distribution": "uniform", "seed": null}}}}, {"inbound_nodes": [[["stage4_unit2_conv1", 0, 0, {}]]], "name": "stage4_unit2_bn2", "class_name": "BatchNormalization", "config": {"axis": 3, "moving_mean_initializer": {"class_name": "Zeros", "config": {}}, "beta_regularizer": null, "gamma_constraint": null, "name": "stage4_unit2_bn2", "trainable": true, "epsilon": 2e-05, "center": true, "beta_initializer": {"class_name": "Zeros", "config": {}}, "scale": true, "gamma_regularizer": null, "beta_constraint": null, "gamma_initializer": {"class_name": "Ones", "config": {}}, "momentum": 0.99, "moving_variance_initializer": {"class_name": "Ones", "config": {}}}}, {"inbound_nodes": [[["stage4_unit2_bn2", 0, 0, {}]]], "name": "stage4_unit2_relu2", "class_name": "Activation", "config": {"name": "stage4_unit2_relu2", "trainable": true, "activation": "relu"}}, {"inbound_nodes": [[["stage4_unit2_relu2", 0, 0, {}]]], "name": "zero_padding2d_158", "class_name": "ZeroPadding2D", "config": {"padding": [[1, 1], [1, 1]], "data_format": "channels_last", "name": "zero_padding2d_158", "trainable": true}}, {"inbound_nodes": [[["zero_padding2d_158", 0, 0, {}]]], "name": "stage4_unit2_conv2", "class_name": "Conv2D", "config": {"padding": "valid", "bias_regularizer": null, "strides": [1, 1], "kernel_regularizer": null, "name": "stage4_unit2_conv2", "bias_constraint": null, "filters": 512, "trainable": true, "activity_regularizer": null, "kernel_size": [3, 3], "dilation_rate": [1, 1], "use_bias": false, "activation": "linear", "data_format": "channels_last", "kernel_constraint": null, "bias_initializer": {"class_name": "Zeros", "config": {}}, "kernel_initializer": {"class_name": "VarianceScaling", "config": {"scale": 2.0, "mode": "fan_in", "distribution": "uniform", "seed": null}}}}, {"inbound_nodes": [[["stage4_unit2_conv2", 0, 0, {}], ["add_68", 0, 0, {}]]], "name": "add_69", "class_name": "Add", "config": {"name": "add_69", "trainable": true}}, {"inbound_nodes": [[["add_69", 0, 0, {}]]], "name": "bn1", "class_name": "BatchNormalization", "config": {"axis": 3, "moving_mean_initializer": {"class_name": "Zeros", "config": {}}, "beta_regularizer": null, "gamma_constraint": null, "name": "bn1", "trainable": true, "epsilon": 2e-05, "center": true, "beta_initializer": {"class_name": "Zeros", "config": {}}, "scale": true, "gamma_regularizer": null, "beta_constraint": null, "gamma_initializer": {"class_name": "Ones", "config": {}}, "momentum": 0.99, "moving_variance_initializer": {"class_name": "Ones", "config": {}}}}, {"inbound_nodes": [[["bn1", 0, 0, {}]]], "name": "relu1", "class_name": "Activation", "config": {"name": "relu1", "trainable": true, "activation": "relu"}}, {"inbound_nodes": [[["relu1", 0, 0, {}]]], "name": "decoder_stage0_upsample", "class_name": "UpSampling2D", "config": {"data_format": "channels_last", "name": "decoder_stage0_upsample", "size": [2, 2], "trainable": true, "interpolation": "nearest"}}, {"inbound_nodes": [[["decoder_stage0_upsample", 0, 0, {}], ["stage4_unit1_relu1", 0, 0, {}]]], "name": "concatenate_13", "class_name": "Concatenate", "config": {"axis": -1, "name": "concatenate_13", "trainable": true}}, {"inbound_nodes": [[["concatenate_13", 0, 0, {}]]], "name": "decoder_stage0_conv1", "class_name": "Conv2D", "config": {"padding": "same", "bias_regularizer": null, "strides": [1, 1], "kernel_regularizer": null, "name": "decoder_stage0_conv1", "bias_constraint": null, "filters": 256, "trainable": true, "activity_regularizer": null, "kernel_size": [3, 3], "dilation_rate": [1, 1], "use_bias": false, "activation": "linear", "data_format": "channels_last", "kernel_constraint": null, "bias_initializer": {"class_name": "Zeros", "config": {}}, "kernel_initializer": {"class_name": "VarianceScaling", "config": {"scale": 1.0, "mode": "fan_avg", "distribution": "uniform", "seed": null}}}}, {"inbound_nodes": [[["decoder_stage0_conv1", 0, 0, {}]]], "name": "decoder_stage0_bn1", "class_name": "BatchNormalization", "config": {"axis": -1, "moving_mean_initializer": {"class_name": "Zeros", "config": {}}, "beta_regularizer": null, "gamma_constraint": null, "name": "decoder_stage0_bn1", "trainable": true, "epsilon": 0.001, "center": true, "beta_initializer": {"class_name": "Zeros", "config": {}}, "scale": true, "gamma_regularizer": null, "beta_constraint": null, "gamma_initializer": {"class_name": "Ones", "config": {}}, "momentum": 0.99, "moving_variance_initializer": {"class_name": "Ones", "config": {}}}}, {"inbound_nodes": [[["decoder_stage0_bn1", 0, 0, {}]]], "name": "decoder_stage0_relu1", "class_name": "Activation", "config": {"name": "decoder_stage0_relu1", "trainable": true, "activation": "relu"}}, {"inbound_nodes": [[["decoder_stage0_relu1", 0, 0, {}]]], "name": "decoder_stage0_conv2", "class_name": "Conv2D", "config": {"padding": "same", "bias_regularizer": null, "strides": [1, 1], "kernel_regularizer": null, "name": "decoder_stage0_conv2", "bias_constraint": null, "filters": 256, "trainable": true, "activity_regularizer": null, "kernel_size": [3, 3], "dilation_rate": [1, 1], "use_bias": false, "activation": "linear", "data_format": "channels_last", "kernel_constraint": null, "bias_initializer": {"class_name": "Zeros", "config": {}}, "kernel_initializer": {"class_name": "VarianceScaling", "config": {"scale": 1.0, "mode": "fan_avg", "distribution": "uniform", "seed": null}}}}, {"inbound_nodes": [[["decoder_stage0_conv2", 0, 0, {}]]], "name": "decoder_stage0_bn2", "class_name": "BatchNormalization", "config": {"axis": -1, "moving_mean_initializer": {"class_name": "Zeros", "config": {}}, "beta_regularizer": null, "gamma_constraint": null, "name": "decoder_stage0_bn2", "trainable": true, "epsilon": 0.001, "center": true, "beta_initializer": {"class_name": "Zeros", "config": {}}, "scale": true, "gamma_regularizer": null, "beta_constraint": null, "gamma_initializer": {"class_name": "Ones", "config": {}}, "momentum": 0.99, "moving_variance_initializer": {"class_name": "Ones", "config": {}}}}, {"inbound_nodes": [[["decoder_stage0_bn2", 0, 0, {}]]], "name": "decoder_stage0_relu2", "class_name": "Activation", "config": {"name": "decoder_stage0_relu2", "trainable": true, "activation": "relu"}}, {"inbound_nodes": [[["decoder_stage0_relu2", 0, 0, {}]]], "name": "decoder_stage1_upsample", "class_name": "UpSampling2D", "config": {"data_format": "channels_last", "name": "decoder_stage1_upsample", "size": [2, 2], "trainable": true, "interpolation": "nearest"}}, {"inbound_nodes": [[["decoder_stage1_upsample", 0, 0, {}], ["stage3_unit1_relu1", 0, 0, {}]]], "name": "concatenate_14", "class_name": "Concatenate", "config": {"axis": -1, "name": "concatenate_14", "trainable": true}}, {"inbound_nodes": [[["concatenate_14", 0, 0, {}]]], "name": "decoder_stage1_conv1", "class_name": "Conv2D", "config": {"padding": "same", "bias_regularizer": null, "strides": [1, 1], "kernel_regularizer": null, "name": "decoder_stage1_conv1", "bias_constraint": null, "filters": 128, "trainable": true, "activity_regularizer": null, "kernel_size": [3, 3], "dilation_rate": [1, 1], "use_bias": false, "activation": "linear", "data_format": "channels_last", "kernel_constraint": null, "bias_initializer": {"class_name": "Zeros", "config": {}}, "kernel_initializer": {"class_name": "VarianceScaling", "config": {"scale": 1.0, "mode": "fan_avg", "distribution": "uniform", "seed": null}}}}, {"inbound_nodes": [[["decoder_stage1_conv1", 0, 0, {}]]], "name": "decoder_stage1_bn1", "class_name": "BatchNormalization", "config": {"axis": -1, "moving_mean_initializer": {"class_name": "Zeros", "config": {}}, "beta_regularizer": null, "gamma_constraint": null, "name": "decoder_stage1_bn1", "trainable": true, "epsilon": 0.001, "center": true, "beta_initializer": {"class_name": "Zeros", "config": {}}, "scale": true, "gamma_regularizer": null, "beta_constraint": null, "gamma_initializer": {"class_name": "Ones", "config": {}}, "momentum": 0.99, "moving_variance_initializer": {"class_name": "Ones", "config": {}}}}, {"inbound_nodes": [[["decoder_stage1_bn1", 0, 0, {}]]], "name": "decoder_stage1_relu1", "class_name": "Activation", "config": {"name": "decoder_stage1_relu1", "trainable": true, "activation": "relu"}}, {"inbound_nodes": [[["decoder_stage1_relu1", 0, 0, {}]]], "name": "decoder_stage1_conv2", "class_name": "Conv2D", "config": {"padding": "same", "bias_regularizer": null, "strides": [1, 1], "kernel_regularizer": null, "name": "decoder_stage1_conv2", "bias_constraint": null, "filters": 128, "trainable": true, "activity_regularizer": null, "kernel_size": [3, 3], "dilation_rate": [1, 1], "use_bias": false, "activation": "linear", "data_format": "channels_last", "kernel_constraint": null, "bias_initializer": {"class_name": "Zeros", "config": {}}, "kernel_initializer": {"class_name": "VarianceScaling", "config": {"scale": 1.0, "mode": "fan_avg", "distribution": "uniform", "seed": null}}}}, {"inbound_nodes": [[["decoder_stage1_conv2", 0, 0, {}]]], "name": "decoder_stage1_bn2", "class_name": "BatchNormalization", "config": {"axis": -1, "moving_mean_initializer": {"class_name": "Zeros", "config": {}}, "beta_regularizer": null, "gamma_constraint": null, "name": "decoder_stage1_bn2", "trainable": true, "epsilon": 0.001, "center": true, "beta_initializer": {"class_name": "Zeros", "config": {}}, "scale": true, "gamma_regularizer": null, "beta_constraint": null, "gamma_initializer": {"class_name": "Ones", "config": {}}, "momentum": 0.99, "moving_variance_initializer": {"class_name": "Ones", "config": {}}}}, {"inbound_nodes": [[["decoder_stage1_bn2", 0, 0, {}]]], "name": "decoder_stage1_relu2", "class_name": "Activation", "config": {"name": "decoder_stage1_relu2", "trainable": true, "activation": "relu"}}, {"inbound_nodes": [[["decoder_stage1_relu2", 0, 0, {}]]], "name": "decoder_stage2_upsample", "class_name": "UpSampling2D", "config": {"data_format": "channels_last", "name": "decoder_stage2_upsample", "size": [2, 2], "trainable": true, "interpolation": "nearest"}}, {"inbound_nodes": [[["decoder_stage2_upsample", 0, 0, {}], ["stage2_unit1_relu1", 0, 0, {}]]], "name": "concatenate_15", "class_name": "Concatenate", "config": {"axis": -1, "name": "concatenate_15", "trainable": true}}, {"inbound_nodes": [[["concatenate_15", 0, 0, {}]]], "name": "decoder_stage2_conv1", "class_name": "Conv2D", "config": {"padding": "same", "bias_regularizer": null, "strides": [1, 1], "kernel_regularizer": null, "name": "decoder_stage2_conv1", "bias_constraint": null, "filters": 64, "trainable": true, "activity_regularizer": null, "kernel_size": [3, 3], "dilation_rate": [1, 1], "use_bias": false, "activation": "linear", "data_format": "channels_last", "kernel_constraint": null, "bias_initializer": {"class_name": "Zeros", "config": {}}, "kernel_initializer": {"class_name": "VarianceScaling", "config": {"scale": 1.0, "mode": "fan_avg", "distribution": "uniform", "seed": null}}}}, {"inbound_nodes": [[["decoder_stage2_conv1", 0, 0, {}]]], "name": "decoder_stage2_bn1", "class_name": "BatchNormalization", "config": {"axis": -1, "moving_mean_initializer": {"class_name": "Zeros", "config": {}}, "beta_regularizer": null, "gamma_constraint": null, "name": "decoder_stage2_bn1", "trainable": true, "epsilon": 0.001, "center": true, "beta_initializer": {"class_name": "Zeros", "config": {}}, "scale": true, "gamma_regularizer": null, "beta_constraint": null, "gamma_initializer": {"class_name": "Ones", "config": {}}, "momentum": 0.99, "moving_variance_initializer": {"class_name": "Ones", "config": {}}}}, {"inbound_nodes": [[["decoder_stage2_bn1", 0, 0, {}]]], "name": "decoder_stage2_relu1", "class_name": "Activation", "config": {"name": "decoder_stage2_relu1", "trainable": true, "activation": "relu"}}, {"inbound_nodes": [[["decoder_stage2_relu1", 0, 0, {}]]], "name": "decoder_stage2_conv2", "class_name": "Conv2D", "config": {"padding": "same", "bias_regularizer": null, "strides": [1, 1], "kernel_regularizer": null, "name": "decoder_stage2_conv2", "bias_constraint": null, "filters": 64, "trainable": true, "activity_regularizer": null, "kernel_size": [3, 3], "dilation_rate": [1, 1], "use_bias": false, "activation": "linear", "data_format": "channels_last", "kernel_constraint": null, "bias_initializer": {"class_name": "Zeros", "config": {}}, "kernel_initializer": {"class_name": "VarianceScaling", "config": {"scale": 1.0, "mode": "fan_avg", "distribution": "uniform", "seed": null}}}}, {"inbound_nodes": [[["decoder_stage2_conv2", 0, 0, {}]]], "name": "decoder_stage2_bn2", "class_name": "BatchNormalization", "config": {"axis": -1, "moving_mean_initializer": {"class_name": "Zeros", "config": {}}, "beta_regularizer": null, "gamma_constraint": null, "name": "decoder_stage2_bn2", "trainable": true, "epsilon": 0.001, "center": true, "beta_initializer": {"class_name": "Zeros", "config": {}}, "scale": true, "gamma_regularizer": null, "beta_constraint": null, "gamma_initializer": {"class_name": "Ones", "config": {}}, "momentum": 0.99, "moving_variance_initializer": {"class_name": "Ones", "config": {}}}}, {"inbound_nodes": [[["decoder_stage2_bn2", 0, 0, {}]]], "name": "decoder_stage2_relu2", "class_name": "Activation", "config": {"name": "decoder_stage2_relu2", "trainable": true, "activation": "relu"}}, {"inbound_nodes": [[["decoder_stage2_relu2", 0, 0, {}]]], "name": "decoder_stage3_upsample", "class_name": "UpSampling2D", "config": {"data_format": "channels_last", "name": "decoder_stage3_upsample", "size": [2, 2], "trainable": true, "interpolation": "nearest"}}, {"inbound_nodes": [[["decoder_stage3_upsample", 0, 0, {}], ["relu0", 0, 0, {}]]], "name": "concatenate_16", "class_name": "Concatenate", "config": {"axis": -1, "name": "concatenate_16", "trainable": true}}, {"inbound_nodes": [[["concatenate_16", 0, 0, {}]]], "name": "decoder_stage3_conv1", "class_name": "Conv2D", "config": {"padding": "same", "bias_regularizer": null, "strides": [1, 1], "kernel_regularizer": null, "name": "decoder_stage3_conv1", "bias_constraint": null, "filters": 32, "trainable": true, "activity_regularizer": null, "kernel_size": [3, 3], "dilation_rate": [1, 1], "use_bias": false, "activation": "linear", "data_format": "channels_last", "kernel_constraint": null, "bias_initializer": {"class_name": "Zeros", "config": {}}, "kernel_initializer": {"class_name": "VarianceScaling", "config": {"scale": 1.0, "mode": "fan_avg", "distribution": "uniform", "seed": null}}}}, {"inbound_nodes": [[["decoder_stage3_conv1", 0, 0, {}]]], "name": "decoder_stage3_bn1", "class_name": "BatchNormalization", "config": {"axis": -1, "moving_mean_initializer": {"class_name": "Zeros", "config": {}}, "beta_regularizer": null, "gamma_constraint": null, "name": "decoder_stage3_bn1", "trainable": true, "epsilon": 0.001, "center": true, "beta_initializer": {"class_name": "Zeros", "config": {}}, "scale": true, "gamma_regularizer": null, "beta_constraint": null, "gamma_initializer": {"class_name": "Ones", "config": {}}, "momentum": 0.99, "moving_variance_initializer": {"class_name": "Ones", "config": {}}}}, {"inbound_nodes": [[["decoder_stage3_bn1", 0, 0, {}]]], "name": "decoder_stage3_relu1", "class_name": "Activation", "config": {"name": "decoder_stage3_relu1", "trainable": true, "activation": "relu"}}, {"inbound_nodes": [[["decoder_stage3_relu1", 0, 0, {}]]], "name": "decoder_stage3_conv2", "class_name": "Conv2D", "config": {"padding": "same", "bias_regularizer": null, "strides": [1, 1], "kernel_regularizer": null, "name": "decoder_stage3_conv2", "bias_constraint": null, "filters": 32, "trainable": true, "activity_regularizer": null, "kernel_size": [3, 3], "dilation_rate": [1, 1], "use_bias": false, "activation": "linear", "data_format": "channels_last", "kernel_constraint": null, "bias_initializer": {"class_name": "Zeros", "config": {}}, "kernel_initializer": {"class_name": "VarianceScaling", "config": {"scale": 1.0, "mode": "fan_avg", "distribution": "uniform", "seed": null}}}}, {"inbound_nodes": [[["decoder_stage3_conv2", 0, 0, {}]]], "name": "decoder_stage3_bn2", "class_name": "BatchNormalization", "config": {"axis": -1, "moving_mean_initializer": {"class_name": "Zeros", "config": {}}, "beta_regularizer": null, "gamma_constraint": null, "name": "decoder_stage3_bn2", "trainable": true, "epsilon": 0.001, "center": true, "beta_initializer": {"class_name": "Zeros", "config": {}}, "scale": true, "gamma_regularizer": null, "beta_constraint": null, "gamma_initializer": {"class_name": "Ones", "config": {}}, "momentum": 0.99, "moving_variance_initializer": {"class_name": "Ones", "config": {}}}}, {"inbound_nodes": [[["decoder_stage3_bn2", 0, 0, {}]]], "name": "decoder_stage3_relu2", "class_name": "Activation", "config": {"name": "decoder_stage3_relu2", "trainable": true, "activation": "relu"}}, {"inbound_nodes": [[["decoder_stage3_relu2", 0, 0, {}]]], "name": "decoder_stage4_upsample", "class_name": "UpSampling2D", "config": {"data_format": "channels_last", "name": "decoder_stage4_upsample", "size": [2, 2], "trainable": true, "interpolation": "nearest"}}, {"inbound_nodes": [[["decoder_stage4_upsample", 0, 0, {}]]], "name": "decoder_stage4_conv1", "class_name": "Conv2D", "config": {"padding": "same", "bias_regularizer": null, "strides": [1, 1], "kernel_regularizer": null, "name": "decoder_stage4_conv1", "bias_constraint": null, "filters": 16, "trainable": true, "activity_regularizer": null, "kernel_size": [3, 3], "dilation_rate": [1, 1], "use_bias": false, "activation": "linear", "data_format": "channels_last", "kernel_constraint": null, "bias_initializer": {"class_name": "Zeros", "config": {}}, "kernel_initializer": {"class_name": "VarianceScaling", "config": {"scale": 1.0, "mode": "fan_avg", "distribution": "uniform", "seed": null}}}}, {"inbound_nodes": [[["decoder_stage4_conv1", 0, 0, {}]]], "name": "decoder_stage4_bn1", "class_name": "BatchNormalization", "config": {"axis": -1, "moving_mean_initializer": {"class_name": "Zeros", "config": {}}, "beta_regularizer": null, "gamma_constraint": null, "name": "decoder_stage4_bn1", "trainable": true, "epsilon": 0.001, "center": true, "beta_initializer": {"class_name": "Zeros", "config": {}}, "scale": true, "gamma_regularizer": null, "beta_constraint": null, "gamma_initializer": {"class_name": "Ones", "config": {}}, "momentum": 0.99, "moving_variance_initializer": {"class_name": "Ones", "config": {}}}}, {"inbound_nodes": [[["decoder_stage4_bn1", 0, 0, {}]]], "name": "decoder_stage4_relu1", "class_name": "Activation", "config": {"name": "decoder_stage4_relu1", "trainable": true, "activation": "relu"}}, {"inbound_nodes": [[["decoder_stage4_relu1", 0, 0, {}]]], "name": "decoder_stage4_conv2", "class_name": "Conv2D", "config": {"padding": "same", "bias_regularizer": null, "strides": [1, 1], "kernel_regularizer": null, "name": "decoder_stage4_conv2", "bias_constraint": null, "filters": 16, "trainable": true, "activity_regularizer": null, "kernel_size": [3, 3], "dilation_rate": [1, 1], "use_bias": false, "activation": "linear", "data_format": "channels_last", "kernel_constraint": null, "bias_initializer": {"class_name": "Zeros", "config": {}}, "kernel_initializer": {"class_name": "VarianceScaling", "config": {"scale": 1.0, "mode": "fan_avg", "distribution": "uniform", "seed": null}}}}, {"inbound_nodes": [[["decoder_stage4_conv2", 0, 0, {}]]], "name": "decoder_stage4_bn2", "class_name": "BatchNormalization", "config": {"axis": -1, "moving_mean_initializer": {"class_name": "Zeros", "config": {}}, "beta_regularizer": null, "gamma_constraint": null, "name": "decoder_stage4_bn2", "trainable": true, "epsilon": 0.001, "center": true, "beta_initializer": {"class_name": "Zeros", "config": {}}, "scale": true, "gamma_regularizer": null, "beta_constraint": null, "gamma_initializer": {"class_name": "Ones", "config": {}}, "momentum": 0.99, "moving_variance_initializer": {"class_name": "Ones", "config": {}}}}, {"inbound_nodes": [[["decoder_stage4_bn2", 0, 0, {}]]], "name": "decoder_stage4_relu2", "class_name": "Activation", "config": {"name": "decoder_stage4_relu2", "trainable": true, "activation": "relu"}}, {"inbound_nodes": [[["decoder_stage4_relu2", 0, 0, {}]]], "name": "final_conv", "class_name": "Conv2D", "config": {"padding": "same", "bias_regularizer": null, "strides": [1, 1], "kernel_regularizer": null, "name": "final_conv", "bias_constraint": null, "filters": 1, "trainable": true, "activity_regularizer": null, "kernel_size": [3, 3], "dilation_rate": [1, 1], "use_bias": true, "activation": "linear", "data_format": "channels_last", "kernel_constraint": null, "bias_initializer": {"class_name": "Zeros", "config": {}}, "kernel_initializer": {"class_name": "VarianceScaling", "config": {"scale": 1.0, "mode": "fan_avg", "distribution": "uniform", "seed": null}}}}, {"inbound_nodes": [[["final_conv", 0, 0, {}]]], "name": "sigmoid", "class_name": "Activation", "config": {"name": "sigmoid", "trainable": true, "activation": "sigmoid"}}], "name": "u-resnet18"}}