{"backend": "tensorflow", "class_name": "Model", "keras_version": "2.2.4", "config": {"output_layers": [["sigmoid", 0, 0]], "name": "u-resnet18", "layers": [{"name": "data", "class_name": "InputLayer", "inbound_nodes": [], "config": {"batch_input_shape": [null, null, null, 3], "dtype": "float32", "sparse": false, "name": "data"}}, {"name": "bn_data", "class_name": "BatchNormalization", "inbound_nodes": [[["data", 0, 0, {}]]], "config": {"scale": false, "name": "bn_data", "axis": 3, "momentum": 0.99, "trainable": true, "moving_mean_initializer": {"class_name": "Zeros", "config": {}}, "center": true, "beta_regularizer": null, "moving_variance_initializer": {"class_name": "Ones", "config": {}}, "gamma_constraint": null, "epsilon": 2e-05, "beta_initializer": {"class_name": "Zeros", "config": {}}, "gamma_initializer": {"class_name": "Ones", "config": {}}, "gamma_regularizer": null, "beta_constraint": null}}, {"name": "zero_padding2d_37", "class_name": "ZeroPadding2D", "inbound_nodes": [[["bn_data", 0, 0, {}]]], "config": {"trainable": true, "data_format": "channels_last", "padding": [[3, 3], [3, 3]], "name": "zero_padding2d_37"}}, {"name": "conv0", "class_name": "Conv2D", "inbound_nodes": [[["zero_padding2d_37", 0, 0, {}]]], "config": {"kernel_constraint": null, "padding": "valid", "dilation_rate": [1, 1], "kernel_regularizer": null, "name": "conv0", "bias_initializer": {"class_name": "Zeros", "config": {}}, "trainable": true, "kernel_size": [7, 7], "strides": [2, 2], "use_bias": false, "bias_regularizer": null, "filters": 64, "bias_constraint": null, "activation": "linear", "data_format": "channels_last", "activity_regularizer": null, "kernel_initializer": {"class_name": "VarianceScaling", "config": {"seed": null, "scale": 2.0, "distribution": "uniform", "mode": "fan_in"}}}}, {"name": "bn0", "class_name": "BatchNormalization", "inbound_nodes": [[["conv0", 0, 0, {}]]], "config": {"scale": true, "name": "bn0", "axis": 3, "momentum": 0.99, "trainable": true, "moving_mean_initializer": {"class_name": "Zeros", "config": {}}, "center": true, "beta_regularizer": null, "moving_variance_initializer": {"class_name": "Ones", "config": {}}, "gamma_constraint": null, "epsilon": 2e-05, "beta_initializer": {"class_name": "Zeros", "config": {}}, "gamma_initializer": {"class_name": "Ones", "config": {}}, "gamma_regularizer": null, "beta_constraint": null}}, {"name": "relu0", "class_name": "Activation", "inbound_nodes": [[["bn0", 0, 0, {}]]], "config": {"activation": "relu", "trainable": true, "name": "relu0"}}, {"name": "zero_padding2d_38", "class_name": "ZeroPadding2D", "inbound_nodes": [[["relu0", 0, 0, {}]]], "config": {"trainable": true, "data_format": "channels_last", "padding": [[1, 1], [1, 1]], "name": "zero_padding2d_38"}}, {"name": "pooling0", "class_name": "MaxPooling2D", "inbound_nodes": [[["zero_padding2d_38", 0, 0, {}]]], "config": {"strides": [2, 2], "padding": "valid", "name": "pooling0", "trainable": true, "data_format": "channels_last", "pool_size": [3, 3]}}, {"name": "stage1_unit1_bn1", "class_name": "BatchNormalization", "inbound_nodes": [[["pooling0", 0, 0, {}]]], "config": {"scale": true, "name": "stage1_unit1_bn1", "axis": 3, "momentum": 0.99, "trainable": true, "moving_mean_initializer": {"class_name": "Zeros", "config": {}}, "center": true, "beta_regularizer": null, "moving_variance_initializer": {"class_name": "Ones", "config": {}}, "gamma_constraint": null, "epsilon": 2e-05, "beta_initializer": {"class_name": "Zeros", "config": {}}, "gamma_initializer": {"class_name": "Ones", "config": {}}, "gamma_regularizer": null, "beta_constraint": null}}, {"name": "stage1_unit1_relu1", "class_name": "Activation", "inbound_nodes": [[["stage1_unit1_bn1", 0, 0, {}]]], "config": {"activation": "relu", "trainable": true, "name": "stage1_unit1_relu1"}}, {"name": "zero_padding2d_39", "class_name": "ZeroPadding2D", "inbound_nodes": [[["stage1_unit1_relu1", 0, 0, {}]]], "config": {"trainable": true, "data_format": "channels_last", "padding": [[1, 1], [1, 1]], "name": "zero_padding2d_39"}}, {"name": "stage1_unit1_conv1", "class_name": "Conv2D", "inbound_nodes": [[["zero_padding2d_39", 0, 0, {}]]], "config": {"kernel_constraint": null, "padding": "valid", "dilation_rate": [1, 1], "kernel_regularizer": null, "name": "stage1_unit1_conv1", "bias_initializer": {"class_name": "Zeros", "config": {}}, "trainable": true, "kernel_size": [3, 3], "strides": [1, 1], "use_bias": false, "bias_regularizer": null, "filters": 64, "bias_constraint": null, "activation": "linear", "data_format": "channels_last", "activity_regularizer": null, "kernel_initializer": {"class_name": "VarianceScaling", "config": {"seed": null, "scale": 2.0, "distribution": "uniform", "mode": "fan_in"}}}}, {"name": "stage1_unit1_bn2", "class_name": "BatchNormalization", "inbound_nodes": [[["stage1_unit1_conv1", 0, 0, {}]]], "config": {"scale": true, "name": "stage1_unit1_bn2", "axis": 3, "momentum": 0.99, "trainable": true, "moving_mean_initializer": {"class_name": "Zeros", "config": {}}, "center": true, "beta_regularizer": null, "moving_variance_initializer": {"class_name": "Ones", "config": {}}, "gamma_constraint": null, "epsilon": 2e-05, "beta_initializer": {"class_name": "Zeros", "config": {}}, "gamma_initializer": {"class_name": "Ones", "config": {}}, "gamma_regularizer": null, "beta_constraint": null}}, {"name": "stage1_unit1_relu2", "class_name": "Activation", "inbound_nodes": [[["stage1_unit1_bn2", 0, 0, {}]]], "config": {"activation": "relu", "trainable": true, "name": "stage1_unit1_relu2"}}, {"name": "zero_padding2d_40", "class_name": "ZeroPadding2D", "inbound_nodes": [[["stage1_unit1_relu2", 0, 0, {}]]], "config": {"trainable": true, "data_format": "channels_last", "padding": [[1, 1], [1, 1]], "name": "zero_padding2d_40"}}, {"name": "stage1_unit1_conv2", "class_name": "Conv2D", "inbound_nodes": [[["zero_padding2d_40", 0, 0, {}]]], "config": {"kernel_constraint": null, "padding": "valid", "dilation_rate": [1, 1], "kernel_regularizer": null, "name": "stage1_unit1_conv2", "bias_initializer": {"class_name": "Zeros", "config": {}}, "trainable": true, "kernel_size": [3, 3], "strides": [1, 1], "use_bias": false, "bias_regularizer": null, "filters": 64, "bias_constraint": null, "activation": "linear", "data_format": "channels_last", "activity_regularizer": null, "kernel_initializer": {"class_name": "VarianceScaling", "config": {"seed": null, "scale": 2.0, "distribution": "uniform", "mode": "fan_in"}}}}, {"name": "stage1_unit1_sc", "class_name": "Conv2D", "inbound_nodes": [[["stage1_unit1_relu1", 0, 0, {}]]], "config": {"kernel_constraint": null, "padding": "valid", "dilation_rate": [1, 1], "kernel_regularizer": null, "name": "stage1_unit1_sc", "bias_initializer": {"class_name": "Zeros", "config": {}}, "trainable": true, "kernel_size": [1, 1], "strides": [1, 1], "use_bias": false, "bias_regularizer": null, "filters": 64, "bias_constraint": null, "activation": "linear", "data_format": "channels_last", "activity_regularizer": null, "kernel_initializer": {"class_name": "VarianceScaling", "config": {"seed": null, "scale": 2.0, "distribution": "uniform", "mode": "fan_in"}}}}, {"name": "add_17", "class_name": "Add", "inbound_nodes": [[["stage1_unit1_conv2", 0, 0, {}], ["stage1_unit1_sc", 0, 0, {}]]], "config": {"trainable": true, "name": "add_17"}}, {"name": "stage1_unit2_bn1", "class_name": "BatchNormalization", "inbound_nodes": [[["add_17", 0, 0, {}]]], "config": {"scale": true, "name": "stage1_unit2_bn1", "axis": 3, "momentum": 0.99, "trainable": true, "moving_mean_initializer": {"class_name": "Zeros", "config": {}}, "center": true, "beta_regularizer": null, "moving_variance_initializer": {"class_name": "Ones", "config": {}}, "gamma_constraint": null, "epsilon": 2e-05, "beta_initializer": {"class_name": "Zeros", "config": {}}, "gamma_initializer": {"class_name": "Ones", "config": {}}, "gamma_regularizer": null, "beta_constraint": null}}, {"name": "stage1_unit2_relu1", "class_name": "Activation", "inbound_nodes": [[["stage1_unit2_bn1", 0, 0, {}]]], "config": {"activation": "relu", "trainable": true, "name": "stage1_unit2_relu1"}}, {"name": "zero_padding2d_41", "class_name": "ZeroPadding2D", "inbound_nodes": [[["stage1_unit2_relu1", 0, 0, {}]]], "config": {"trainable": true, "data_format": "channels_last", "padding": [[1, 1], [1, 1]], "name": "zero_padding2d_41"}}, {"name": "stage1_unit2_conv1", "class_name": "Conv2D", "inbound_nodes": [[["zero_padding2d_41", 0, 0, {}]]], "config": {"kernel_constraint": null, "padding": "valid", "dilation_rate": [1, 1], "kernel_regularizer": null, "name": "stage1_unit2_conv1", "bias_initializer": {"class_name": "Zeros", "config": {}}, "trainable": true, "kernel_size": [3, 3], "strides": [1, 1], "use_bias": false, "bias_regularizer": null, "filters": 64, "bias_constraint": null, "activation": "linear", "data_format": "channels_last", "activity_regularizer": null, "kernel_initializer": {"class_name": "VarianceScaling", "config": {"seed": null, "scale": 2.0, "distribution": "uniform", "mode": "fan_in"}}}}, {"name": "stage1_unit2_bn2", "class_name": "BatchNormalization", "inbound_nodes": [[["stage1_unit2_conv1", 0, 0, {}]]], "config": {"scale": true, "name": "stage1_unit2_bn2", "axis": 3, "momentum": 0.99, "trainable": true, "moving_mean_initializer": {"class_name": "Zeros", "config": {}}, "center": true, "beta_regularizer": null, "moving_variance_initializer": {"class_name": "Ones", "config": {}}, "gamma_constraint": null, "epsilon": 2e-05, "beta_initializer": {"class_name": "Zeros", "config": {}}, "gamma_initializer": {"class_name": "Ones", "config": {}}, "gamma_regularizer": null, "beta_constraint": null}}, {"name": "stage1_unit2_relu2", "class_name": "Activation", "inbound_nodes": [[["stage1_unit2_bn2", 0, 0, {}]]], "config": {"activation": "relu", "trainable": true, "name": "stage1_unit2_relu2"}}, {"name": "zero_padding2d_42", "class_name": "ZeroPadding2D", "inbound_nodes": [[["stage1_unit2_relu2", 0, 0, {}]]], "config": {"trainable": true, "data_format": "channels_last", "padding": [[1, 1], [1, 1]], "name": "zero_padding2d_42"}}, {"name": "stage1_unit2_conv2", "class_name": "Conv2D", "inbound_nodes": [[["zero_padding2d_42", 0, 0, {}]]], "config": {"kernel_constraint": null, "padding": "valid", "dilation_rate": [1, 1], "kernel_regularizer": null, "name": "stage1_unit2_conv2", "bias_initializer": {"class_name": "Zeros", "config": {}}, "trainable": true, "kernel_size": [3, 3], "strides": [1, 1], "use_bias": false, "bias_regularizer": null, "filters": 64, "bias_constraint": null, "activation": "linear", "data_format": "channels_last", "activity_regularizer": null, "kernel_initializer": {"class_name": "VarianceScaling", "config": {"seed": null, "scale": 2.0, "distribution": "uniform", "mode": "fan_in"}}}}, {"name": "add_18", "class_name": "Add", "inbound_nodes": [[["stage1_unit2_conv2", 0, 0, {}], ["add_17", 0, 0, {}]]], "config": {"trainable": true, "name": "add_18"}}, {"name": "stage2_unit1_bn1", "class_name": "BatchNormalization", "inbound_nodes": [[["add_18", 0, 0, {}]]], "config": {"scale": true, "name": "stage2_unit1_bn1", "axis": 3, "momentum": 0.99, "trainable": true, "moving_mean_initializer": {"class_name": "Zeros", "config": {}}, "center": true, "beta_regularizer": null, "moving_variance_initializer": {"class_name": "Ones", "config": {}}, "gamma_constraint": null, "epsilon": 2e-05, "beta_initializer": {"class_name": "Zeros", "config": {}}, "gamma_initializer": {"class_name": "Ones", "config": {}}, "gamma_regularizer": null, "beta_constraint": null}}, {"name": "stage2_unit1_relu1", "class_name": "Activation", "inbound_nodes": [[["stage2_unit1_bn1", 0, 0, {}]]], "config": {"activation": "relu", "trainable": true, "name": "stage2_unit1_relu1"}}, {"name": "zero_padding2d_43", "class_name": "ZeroPadding2D", "inbound_nodes": [[["stage2_unit1_relu1", 0, 0, {}]]], "config": {"trainable": true, "data_format": "channels_last", "padding": [[1, 1], [1, 1]], "name": "zero_padding2d_43"}}, {"name": "stage2_unit1_conv1", "class_name": "Conv2D", "inbound_nodes": [[["zero_padding2d_43", 0, 0, {}]]], "config": {"kernel_constraint": null, "padding": "valid", "dilation_rate": [1, 1], "kernel_regularizer": null, "name": "stage2_unit1_conv1", "bias_initializer": {"class_name": "Zeros", "config": {}}, "trainable": true, "kernel_size": [3, 3], "strides": [2, 2], "use_bias": false, "bias_regularizer": null, "filters": 128, "bias_constraint": null, "activation": "linear", "data_format": "channels_last", "activity_regularizer": null, "kernel_initializer": {"class_name": "VarianceScaling", "config": {"seed": null, "scale": 2.0, "distribution": "uniform", "mode": "fan_in"}}}}, {"name": "stage2_unit1_bn2", "class_name": "BatchNormalization", "inbound_nodes": [[["stage2_unit1_conv1", 0, 0, {}]]], "config": {"scale": true, "name": "stage2_unit1_bn2", "axis": 3, "momentum": 0.99, "trainable": true, "moving_mean_initializer": {"class_name": "Zeros", "config": {}}, "center": true, "beta_regularizer": null, "moving_variance_initializer": {"class_name": "Ones", "config": {}}, "gamma_constraint": null, "epsilon": 2e-05, "beta_initializer": {"class_name": "Zeros", "config": {}}, "gamma_initializer": {"class_name": "Ones", "config": {}}, "gamma_regularizer": null, "beta_constraint": null}}, {"name": "stage2_unit1_relu2", "class_name": "Activation", "inbound_nodes": [[["stage2_unit1_bn2", 0, 0, {}]]], "config": {"activation": "relu", "trainable": true, "name": "stage2_unit1_relu2"}}, {"name": "zero_padding2d_44", "class_name": "ZeroPadding2D", "inbound_nodes": [[["stage2_unit1_relu2", 0, 0, {}]]], "config": {"trainable": true, "data_format": "channels_last", "padding": [[1, 1], [1, 1]], "name": "zero_padding2d_44"}}, {"name": "stage2_unit1_conv2", "class_name": "Conv2D", "inbound_nodes": [[["zero_padding2d_44", 0, 0, {}]]], "config": {"kernel_constraint": null, "padding": "valid", "dilation_rate": [1, 1], "kernel_regularizer": null, "name": "stage2_unit1_conv2", "bias_initializer": {"class_name": "Zeros", "config": {}}, "trainable": true, "kernel_size": [3, 3], "strides": [1, 1], "use_bias": false, "bias_regularizer": null, "filters": 128, "bias_constraint": null, "activation": "linear", "data_format": "channels_last", "activity_regularizer": null, "kernel_initializer": {"class_name": "VarianceScaling", "config": {"seed": null, "scale": 2.0, "distribution": "uniform", "mode": "fan_in"}}}}, {"name": "stage2_unit1_sc", "class_name": "Conv2D", "inbound_nodes": [[["stage2_unit1_relu1", 0, 0, {}]]], "config": {"kernel_constraint": null, "padding": "valid", "dilation_rate": [1, 1], "kernel_regularizer": null, "name": "stage2_unit1_sc", "bias_initializer": {"class_name": "Zeros", "config": {}}, "trainable": true, "kernel_size": [1, 1], "strides": [2, 2], "use_bias": false, "bias_regularizer": null, "filters": 128, "bias_constraint": null, "activation": "linear", "data_format": "channels_last", "activity_regularizer": null, "kernel_initializer": {"class_name": "VarianceScaling", "config": {"seed": null, "scale": 2.0, "distribution": "uniform", "mode": "fan_in"}}}}, {"name": "add_19", "class_name": "Add", "inbound_nodes": [[["stage2_unit1_conv2", 0, 0, {}], ["stage2_unit1_sc", 0, 0, {}]]], "config": {"trainable": true, "name": "add_19"}}, {"name": "stage2_unit2_bn1", "class_name": "BatchNormalization", "inbound_nodes": [[["add_19", 0, 0, {}]]], "config": {"scale": true, "name": "stage2_unit2_bn1", "axis": 3, "momentum": 0.99, "trainable": true, "moving_mean_initializer": {"class_name": "Zeros", "config": {}}, "center": true, "beta_regularizer": null, "moving_variance_initializer": {"class_name": "Ones", "config": {}}, "gamma_constraint": null, "epsilon": 2e-05, "beta_initializer": {"class_name": "Zeros", "config": {}}, "gamma_initializer": {"class_name": "Ones", "config": {}}, "gamma_regularizer": null, "beta_constraint": null}}, {"name": "stage2_unit2_relu1", "class_name": "Activation", "inbound_nodes": [[["stage2_unit2_bn1", 0, 0, {}]]], "config": {"activation": "relu", "trainable": true, "name": "stage2_unit2_relu1"}}, {"name": "zero_padding2d_45", "class_name": "ZeroPadding2D", "inbound_nodes": [[["stage2_unit2_relu1", 0, 0, {}]]], "config": {"trainable": true, "data_format": "channels_last", "padding": [[1, 1], [1, 1]], "name": "zero_padding2d_45"}}, {"name": "stage2_unit2_conv1", "class_name": "Conv2D", "inbound_nodes": [[["zero_padding2d_45", 0, 0, {}]]], "config": {"kernel_constraint": null, "padding": "valid", "dilation_rate": [1, 1], "kernel_regularizer": null, "name": "stage2_unit2_conv1", "bias_initializer": {"class_name": "Zeros", "config": {}}, "trainable": true, "kernel_size": [3, 3], "strides": [1, 1], "use_bias": false, "bias_regularizer": null, "filters": 128, "bias_constraint": null, "activation": "linear", "data_format": "channels_last", "activity_regularizer": null, "kernel_initializer": {"class_name": "VarianceScaling", "config": {"seed": null, "scale": 2.0, "distribution": "uniform", "mode": "fan_in"}}}}, {"name": "stage2_unit2_bn2", "class_name": "BatchNormalization", "inbound_nodes": [[["stage2_unit2_conv1", 0, 0, {}]]], "config": {"scale": true, "name": "stage2_unit2_bn2", "axis": 3, "momentum": 0.99, "trainable": true, "moving_mean_initializer": {"class_name": "Zeros", "config": {}}, "center": true, "beta_regularizer": null, "moving_variance_initializer": {"class_name": "Ones", "config": {}}, "gamma_constraint": null, "epsilon": 2e-05, "beta_initializer": {"class_name": "Zeros", "config": {}}, "gamma_initializer": {"class_name": "Ones", "config": {}}, "gamma_regularizer": null, "beta_constraint": null}}, {"name": "stage2_unit2_relu2", "class_name": "Activation", "inbound_nodes": [[["stage2_unit2_bn2", 0, 0, {}]]], "config": {"activation": "relu", "trainable": true, "name": "stage2_unit2_relu2"}}, {"name": "zero_padding2d_46", "class_name": "ZeroPadding2D", "inbound_nodes": [[["stage2_unit2_relu2", 0, 0, {}]]], "config": {"trainable": true, "data_format": "channels_last", "padding": [[1, 1], [1, 1]], "name": "zero_padding2d_46"}}, {"name": "stage2_unit2_conv2", "class_name": "Conv2D", "inbound_nodes": [[["zero_padding2d_46", 0, 0, {}]]], "config": {"kernel_constraint": null, "padding": "valid", "dilation_rate": [1, 1], "kernel_regularizer": null, "name": "stage2_unit2_conv2", "bias_initializer": {"class_name": "Zeros", "config": {}}, "trainable": true, "kernel_size": [3, 3], "strides": [1, 1], "use_bias": false, "bias_regularizer": null, "filters": 128, "bias_constraint": null, "activation": "linear", "data_format": "channels_last", "activity_regularizer": null, "kernel_initializer": {"class_name": "VarianceScaling", "config": {"seed": null, "scale": 2.0, "distribution": "uniform", "mode": "fan_in"}}}}, {"name": "add_20", "class_name": "Add", "inbound_nodes": [[["stage2_unit2_conv2", 0, 0, {}], ["add_19", 0, 0, {}]]], "config": {"trainable": true, "name": "add_20"}}, {"name": "stage3_unit1_bn1", "class_name": "BatchNormalization", "inbound_nodes": [[["add_20", 0, 0, {}]]], "config": {"scale": true, "name": "stage3_unit1_bn1", "axis": 3, "momentum": 0.99, "trainable": true, "moving_mean_initializer": {"class_name": "Zeros", "config": {}}, "center": true, "beta_regularizer": null, "moving_variance_initializer": {"class_name": "Ones", "config": {}}, "gamma_constraint": null, "epsilon": 2e-05, "beta_initializer": {"class_name": "Zeros", "config": {}}, "gamma_initializer": {"class_name": "Ones", "config": {}}, "gamma_regularizer": null, "beta_constraint": null}}, {"name": "stage3_unit1_relu1", "class_name": "Activation", "inbound_nodes": [[["stage3_unit1_bn1", 0, 0, {}]]], "config": {"activation": "relu", "trainable": true, "name": "stage3_unit1_relu1"}}, {"name": "zero_padding2d_47", "class_name": "ZeroPadding2D", "inbound_nodes": [[["stage3_unit1_relu1", 0, 0, {}]]], "config": {"trainable": true, "data_format": "channels_last", "padding": [[1, 1], [1, 1]], "name": "zero_padding2d_47"}}, {"name": "stage3_unit1_conv1", "class_name": "Conv2D", "inbound_nodes": [[["zero_padding2d_47", 0, 0, {}]]], "config": {"kernel_constraint": null, "padding": "valid", "dilation_rate": [1, 1], "kernel_regularizer": null, "name": "stage3_unit1_conv1", "bias_initializer": {"class_name": "Zeros", "config": {}}, "trainable": true, "kernel_size": [3, 3], "strides": [2, 2], "use_bias": false, "bias_regularizer": null, "filters": 256, "bias_constraint": null, "activation": "linear", "data_format": "channels_last", "activity_regularizer": null, "kernel_initializer": {"class_name": "VarianceScaling", "config": {"seed": null, "scale": 2.0, "distribution": "uniform", "mode": "fan_in"}}}}, {"name": "stage3_unit1_bn2", "class_name": "BatchNormalization", "inbound_nodes": [[["stage3_unit1_conv1", 0, 0, {}]]], "config": {"scale": true, "name": "stage3_unit1_bn2", "axis": 3, "momentum": 0.99, "trainable": true, "moving_mean_initializer": {"class_name": "Zeros", "config": {}}, "center": true, "beta_regularizer": null, "moving_variance_initializer": {"class_name": "Ones", "config": {}}, "gamma_constraint": null, "epsilon": 2e-05, "beta_initializer": {"class_name": "Zeros", "config": {}}, "gamma_initializer": {"class_name": "Ones", "config": {}}, "gamma_regularizer": null, "beta_constraint": null}}, {"name": "stage3_unit1_relu2", "class_name": "Activation", "inbound_nodes": [[["stage3_unit1_bn2", 0, 0, {}]]], "config": {"activation": "relu", "trainable": true, "name": "stage3_unit1_relu2"}}, {"name": "zero_padding2d_48", "class_name": "ZeroPadding2D", "inbound_nodes": [[["stage3_unit1_relu2", 0, 0, {}]]], "config": {"trainable": true, "data_format": "channels_last", "padding": [[1, 1], [1, 1]], "name": "zero_padding2d_48"}}, {"name": "stage3_unit1_conv2", "class_name": "Conv2D", "inbound_nodes": [[["zero_padding2d_48", 0, 0, {}]]], "config": {"kernel_constraint": null, "padding": "valid", "dilation_rate": [1, 1], "kernel_regularizer": null, "name": "stage3_unit1_conv2", "bias_initializer": {"class_name": "Zeros", "config": {}}, "trainable": true, "kernel_size": [3, 3], "strides": [1, 1], "use_bias": false, "bias_regularizer": null, "filters": 256, "bias_constraint": null, "activation": "linear", "data_format": "channels_last", "activity_regularizer": null, "kernel_initializer": {"class_name": "VarianceScaling", "config": {"seed": null, "scale": 2.0, "distribution": "uniform", "mode": "fan_in"}}}}, {"name": "stage3_unit1_sc", "class_name": "Conv2D", "inbound_nodes": [[["stage3_unit1_relu1", 0, 0, {}]]], "config": {"kernel_constraint": null, "padding": "valid", "dilation_rate": [1, 1], "kernel_regularizer": null, "name": "stage3_unit1_sc", "bias_initializer": {"class_name": "Zeros", "config": {}}, "trainable": true, "kernel_size": [1, 1], "strides": [2, 2], "use_bias": false, "bias_regularizer": null, "filters": 256, "bias_constraint": null, "activation": "linear", "data_format": "channels_last", "activity_regularizer": null, "kernel_initializer": {"class_name": "VarianceScaling", "config": {"seed": null, "scale": 2.0, "distribution": "uniform", "mode": "fan_in"}}}}, {"name": "add_21", "class_name": "Add", "inbound_nodes": [[["stage3_unit1_conv2", 0, 0, {}], ["stage3_unit1_sc", 0, 0, {}]]], "config": {"trainable": true, "name": "add_21"}}, {"name": "stage3_unit2_bn1", "class_name": "BatchNormalization", "inbound_nodes": [[["add_21", 0, 0, {}]]], "config": {"scale": true, "name": "stage3_unit2_bn1", "axis": 3, "momentum": 0.99, "trainable": true, "moving_mean_initializer": {"class_name": "Zeros", "config": {}}, "center": true, "beta_regularizer": null, "moving_variance_initializer": {"class_name": "Ones", "config": {}}, "gamma_constraint": null, "epsilon": 2e-05, "beta_initializer": {"class_name": "Zeros", "config": {}}, "gamma_initializer": {"class_name": "Ones", "config": {}}, "gamma_regularizer": null, "beta_constraint": null}}, {"name": "stage3_unit2_relu1", "class_name": "Activation", "inbound_nodes": [[["stage3_unit2_bn1", 0, 0, {}]]], "config": {"activation": "relu", "trainable": true, "name": "stage3_unit2_relu1"}}, {"name": "zero_padding2d_49", "class_name": "ZeroPadding2D", "inbound_nodes": [[["stage3_unit2_relu1", 0, 0, {}]]], "config": {"trainable": true, "data_format": "channels_last", "padding": [[1, 1], [1, 1]], "name": "zero_padding2d_49"}}, {"name": "stage3_unit2_conv1", "class_name": "Conv2D", "inbound_nodes": [[["zero_padding2d_49", 0, 0, {}]]], "config": {"kernel_constraint": null, "padding": "valid", "dilation_rate": [1, 1], "kernel_regularizer": null, "name": "stage3_unit2_conv1", "bias_initializer": {"class_name": "Zeros", "config": {}}, "trainable": true, "kernel_size": [3, 3], "strides": [1, 1], "use_bias": false, "bias_regularizer": null, "filters": 256, "bias_constraint": null, "activation": "linear", "data_format": "channels_last", "activity_regularizer": null, "kernel_initializer": {"class_name": "VarianceScaling", "config": {"seed": null, "scale": 2.0, "distribution": "uniform", "mode": "fan_in"}}}}, {"name": "stage3_unit2_bn2", "class_name": "BatchNormalization", "inbound_nodes": [[["stage3_unit2_conv1", 0, 0, {}]]], "config": {"scale": true, "name": "stage3_unit2_bn2", "axis": 3, "momentum": 0.99, "trainable": true, "moving_mean_initializer": {"class_name": "Zeros", "config": {}}, "center": true, "beta_regularizer": null, "moving_variance_initializer": {"class_name": "Ones", "config": {}}, "gamma_constraint": null, "epsilon": 2e-05, "beta_initializer": {"class_name": "Zeros", "config": {}}, "gamma_initializer": {"class_name": "Ones", "config": {}}, "gamma_regularizer": null, "beta_constraint": null}}, {"name": "stage3_unit2_relu2", "class_name": "Activation", "inbound_nodes": [[["stage3_unit2_bn2", 0, 0, {}]]], "config": {"activation": "relu", "trainable": true, "name": "stage3_unit2_relu2"}}, {"name": "zero_padding2d_50", "class_name": "ZeroPadding2D", "inbound_nodes": [[["stage3_unit2_relu2", 0, 0, {}]]], "config": {"trainable": true, "data_format": "channels_last", "padding": [[1, 1], [1, 1]], "name": "zero_padding2d_50"}}, {"name": "stage3_unit2_conv2", "class_name": "Conv2D", "inbound_nodes": [[["zero_padding2d_50", 0, 0, {}]]], "config": {"kernel_constraint": null, "padding": "valid", "dilation_rate": [1, 1], "kernel_regularizer": null, "name": "stage3_unit2_conv2", "bias_initializer": {"class_name": "Zeros", "config": {}}, "trainable": true, "kernel_size": [3, 3], "strides": [1, 1], "use_bias": false, "bias_regularizer": null, "filters": 256, "bias_constraint": null, "activation": "linear", "data_format": "channels_last", "activity_regularizer": null, "kernel_initializer": {"class_name": "VarianceScaling", "config": {"seed": null, "scale": 2.0, "distribution": "uniform", "mode": "fan_in"}}}}, {"name": "add_22", "class_name": "Add", "inbound_nodes": [[["stage3_unit2_conv2", 0, 0, {}], ["add_21", 0, 0, {}]]], "config": {"trainable": true, "name": "add_22"}}, {"name": "stage4_unit1_bn1", "class_name": "BatchNormalization", "inbound_nodes": [[["add_22", 0, 0, {}]]], "config": {"scale": true, "name": "stage4_unit1_bn1", "axis": 3, "momentum": 0.99, "trainable": true, "moving_mean_initializer": {"class_name": "Zeros", "config": {}}, "center": true, "beta_regularizer": null, "moving_variance_initializer": {"class_name": "Ones", "config": {}}, "gamma_constraint": null, "epsilon": 2e-05, "beta_initializer": {"class_name": "Zeros", "config": {}}, "gamma_initializer": {"class_name": "Ones", "config": {}}, "gamma_regularizer": null, "beta_constraint": null}}, {"name": "stage4_unit1_relu1", "class_name": "Activation", "inbound_nodes": [[["stage4_unit1_bn1", 0, 0, {}]]], "config": {"activation": "relu", "trainable": true, "name": "stage4_unit1_relu1"}}, {"name": "zero_padding2d_51", "class_name": "ZeroPadding2D", "inbound_nodes": [[["stage4_unit1_relu1", 0, 0, {}]]], "config": {"trainable": true, "data_format": "channels_last", "padding": [[1, 1], [1, 1]], "name": "zero_padding2d_51"}}, {"name": "stage4_unit1_conv1", "class_name": "Conv2D", "inbound_nodes": [[["zero_padding2d_51", 0, 0, {}]]], "config": {"kernel_constraint": null, "padding": "valid", "dilation_rate": [1, 1], "kernel_regularizer": null, "name": "stage4_unit1_conv1", "bias_initializer": {"class_name": "Zeros", "config": {}}, "trainable": true, "kernel_size": [3, 3], "strides": [2, 2], "use_bias": false, "bias_regularizer": null, "filters": 512, "bias_constraint": null, "activation": "linear", "data_format": "channels_last", "activity_regularizer": null, "kernel_initializer": {"class_name": "VarianceScaling", "config": {"seed": null, "scale": 2.0, "distribution": "uniform", "mode": "fan_in"}}}}, {"name": "stage4_unit1_bn2", "class_name": "BatchNormalization", "inbound_nodes": [[["stage4_unit1_conv1", 0, 0, {}]]], "config": {"scale": true, "name": "stage4_unit1_bn2", "axis": 3, "momentum": 0.99, "trainable": true, "moving_mean_initializer": {"class_name": "Zeros", "config": {}}, "center": true, "beta_regularizer": null, "moving_variance_initializer": {"class_name": "Ones", "config": {}}, "gamma_constraint": null, "epsilon": 2e-05, "beta_initializer": {"class_name": "Zeros", "config": {}}, "gamma_initializer": {"class_name": "Ones", "config": {}}, "gamma_regularizer": null, "beta_constraint": null}}, {"name": "stage4_unit1_relu2", "class_name": "Activation", "inbound_nodes": [[["stage4_unit1_bn2", 0, 0, {}]]], "config": {"activation": "relu", "trainable": true, "name": "stage4_unit1_relu2"}}, {"name": "zero_padding2d_52", "class_name": "ZeroPadding2D", "inbound_nodes": [[["stage4_unit1_relu2", 0, 0, {}]]], "config": {"trainable": true, "data_format": "channels_last", "padding": [[1, 1], [1, 1]], "name": "zero_padding2d_52"}}, {"name": "stage4_unit1_conv2", "class_name": "Conv2D", "inbound_nodes": [[["zero_padding2d_52", 0, 0, {}]]], "config": {"kernel_constraint": null, "padding": "valid", "dilation_rate": [1, 1], "kernel_regularizer": null, "name": "stage4_unit1_conv2", "bias_initializer": {"class_name": "Zeros", "config": {}}, "trainable": true, "kernel_size": [3, 3], "strides": [1, 1], "use_bias": false, "bias_regularizer": null, "filters": 512, "bias_constraint": null, "activation": "linear", "data_format": "channels_last", "activity_regularizer": null, "kernel_initializer": {"class_name": "VarianceScaling", "config": {"seed": null, "scale": 2.0, "distribution": "uniform", "mode": "fan_in"}}}}, {"name": "stage4_unit1_sc", "class_name": "Conv2D", "inbound_nodes": [[["stage4_unit1_relu1", 0, 0, {}]]], "config": {"kernel_constraint": null, "padding": "valid", "dilation_rate": [1, 1], "kernel_regularizer": null, "name": "stage4_unit1_sc", "bias_initializer": {"class_name": "Zeros", "config": {}}, "trainable": true, "kernel_size": [1, 1], "strides": [2, 2], "use_bias": false, "bias_regularizer": null, "filters": 512, "bias_constraint": null, "activation": "linear", "data_format": "channels_last", "activity_regularizer": null, "kernel_initializer": {"class_name": "VarianceScaling", "config": {"seed": null, "scale": 2.0, "distribution": "uniform", "mode": "fan_in"}}}}, {"name": "add_23", "class_name": "Add", "inbound_nodes": [[["stage4_unit1_conv2", 0, 0, {}], ["stage4_unit1_sc", 0, 0, {}]]], "config": {"trainable": true, "name": "add_23"}}, {"name": "stage4_unit2_bn1", "class_name": "BatchNormalization", "inbound_nodes": [[["add_23", 0, 0, {}]]], "config": {"scale": true, "name": "stage4_unit2_bn1", "axis": 3, "momentum": 0.99, "trainable": true, "moving_mean_initializer": {"class_name": "Zeros", "config": {}}, "center": true, "beta_regularizer": null, "moving_variance_initializer": {"class_name": "Ones", "config": {}}, "gamma_constraint": null, "epsilon": 2e-05, "beta_initializer": {"class_name": "Zeros", "config": {}}, "gamma_initializer": {"class_name": "Ones", "config": {}}, "gamma_regularizer": null, "beta_constraint": null}}, {"name": "stage4_unit2_relu1", "class_name": "Activation", "inbound_nodes": [[["stage4_unit2_bn1", 0, 0, {}]]], "config": {"activation": "relu", "trainable": true, "name": "stage4_unit2_relu1"}}, {"name": "zero_padding2d_53", "class_name": "ZeroPadding2D", "inbound_nodes": [[["stage4_unit2_relu1", 0, 0, {}]]], "config": {"trainable": true, "data_format": "channels_last", "padding": [[1, 1], [1, 1]], "name": "zero_padding2d_53"}}, {"name": "stage4_unit2_conv1", "class_name": "Conv2D", "inbound_nodes": [[["zero_padding2d_53", 0, 0, {}]]], "config": {"kernel_constraint": null, "padding": "valid", "dilation_rate": [1, 1], "kernel_regularizer": null, "name": "stage4_unit2_conv1", "bias_initializer": {"class_name": "Zeros", "config": {}}, "trainable": true, "kernel_size": [3, 3], "strides": [1, 1], "use_bias": false, "bias_regularizer": null, "filters": 512, "bias_constraint": null, "activation": "linear", "data_format": "channels_last", "activity_regularizer": null, "kernel_initializer": {"class_name": "VarianceScaling", "config": {"seed": null, "scale": 2.0, "distribution": "uniform", "mode": "fan_in"}}}}, {"name": "stage4_unit2_bn2", "class_name": "BatchNormalization", "inbound_nodes": [[["stage4_unit2_conv1", 0, 0, {}]]], "config": {"scale": true, "name": "stage4_unit2_bn2", "axis": 3, "momentum": 0.99, "trainable": true, "moving_mean_initializer": {"class_name": "Zeros", "config": {}}, "center": true, "beta_regularizer": null, "moving_variance_initializer": {"class_name": "Ones", "config": {}}, "gamma_constraint": null, "epsilon": 2e-05, "beta_initializer": {"class_name": "Zeros", "config": {}}, "gamma_initializer": {"class_name": "Ones", "config": {}}, "gamma_regularizer": null, "beta_constraint": null}}, {"name": "stage4_unit2_relu2", "class_name": "Activation", "inbound_nodes": [[["stage4_unit2_bn2", 0, 0, {}]]], "config": {"activation": "relu", "trainable": true, "name": "stage4_unit2_relu2"}}, {"name": "zero_padding2d_54", "class_name": "ZeroPadding2D", "inbound_nodes": [[["stage4_unit2_relu2", 0, 0, {}]]], "config": {"trainable": true, "data_format": "channels_last", "padding": [[1, 1], [1, 1]], "name": "zero_padding2d_54"}}, {"name": "stage4_unit2_conv2", "class_name": "Conv2D", "inbound_nodes": [[["zero_padding2d_54", 0, 0, {}]]], "config": {"kernel_constraint": null, "padding": "valid", "dilation_rate": [1, 1], "kernel_regularizer": null, "name": "stage4_unit2_conv2", "bias_initializer": {"class_name": "Zeros", "config": {}}, "trainable": true, "kernel_size": [3, 3], "strides": [1, 1], "use_bias": false, "bias_regularizer": null, "filters": 512, "bias_constraint": null, "activation": "linear", "data_format": "channels_last", "activity_regularizer": null, "kernel_initializer": {"class_name": "VarianceScaling", "config": {"seed": null, "scale": 2.0, "distribution": "uniform", "mode": "fan_in"}}}}, {"name": "add_24", "class_name": "Add", "inbound_nodes": [[["stage4_unit2_conv2", 0, 0, {}], ["add_23", 0, 0, {}]]], "config": {"trainable": true, "name": "add_24"}}, {"name": "bn1", "class_name": "BatchNormalization", "inbound_nodes": [[["add_24", 0, 0, {}]]], "config": {"scale": true, "name": "bn1", "axis": 3, "momentum": 0.99, "trainable": true, "moving_mean_initializer": {"class_name": "Zeros", "config": {}}, "center": true, "beta_regularizer": null, "moving_variance_initializer": {"class_name": "Ones", "config": {}}, "gamma_constraint": null, "epsilon": 2e-05, "beta_initializer": {"class_name": "Zeros", "config": {}}, "gamma_initializer": {"class_name": "Ones", "config": {}}, "gamma_regularizer": null, "beta_constraint": null}}, {"name": "relu1", "class_name": "Activation", "inbound_nodes": [[["bn1", 0, 0, {}]]], "config": {"activation": "relu", "trainable": true, "name": "relu1"}}, {"name": "decoder_stage0_upsample", "class_name": "UpSampling2D", "inbound_nodes": [[["relu1", 0, 0, {}]]], "config": {"interpolation": "nearest", "name": "decoder_stage0_upsample", "trainable": true, "data_format": "channels_last", "size": [2, 2]}}, {"name": "concatenate_9", "class_name": "Concatenate", "inbound_nodes": [[["decoder_stage0_upsample", 0, 0, {}], ["stage4_unit1_relu1", 0, 0, {}]]], "config": {"trainable": true, "axis": -1, "name": "concatenate_9"}}, {"name": "decoder_stage0_conv1", "class_name": "Conv2D", "inbound_nodes": [[["concatenate_9", 0, 0, {}]]], "config": {"kernel_constraint": null, "padding": "same", "dilation_rate": [1, 1], "kernel_regularizer": null, "name": "decoder_stage0_conv1", "bias_initializer": {"class_name": "Zeros", "config": {}}, "trainable": true, "kernel_size": [3, 3], "strides": [1, 1], "use_bias": false, "bias_regularizer": null, "filters": 256, "bias_constraint": null, "activation": "linear", "data_format": "channels_last", "activity_regularizer": null, "kernel_initializer": {"class_name": "VarianceScaling", "config": {"seed": null, "scale": 1.0, "distribution": "uniform", "mode": "fan_avg"}}}}, {"name": "decoder_stage0_bn1", "class_name": "BatchNormalization", "inbound_nodes": [[["decoder_stage0_conv1", 0, 0, {}]]], "config": {"scale": true, "name": "decoder_stage0_bn1", "axis": -1, "momentum": 0.99, "trainable": true, "moving_mean_initializer": {"class_name": "Zeros", "config": {}}, "center": true, "beta_regularizer": null, "moving_variance_initializer": {"class_name": "Ones", "config": {}}, "gamma_constraint": null, "epsilon": 0.001, "beta_initializer": {"class_name": "Zeros", "config": {}}, "gamma_initializer": {"class_name": "Ones", "config": {}}, "gamma_regularizer": null, "beta_constraint": null}}, {"name": "decoder_stage0_relu1", "class_name": "Activation", "inbound_nodes": [[["decoder_stage0_bn1", 0, 0, {}]]], "config": {"activation": "relu", "trainable": true, "name": "decoder_stage0_relu1"}}, {"name": "decoder_stage0_conv2", "class_name": "Conv2D", "inbound_nodes": [[["decoder_stage0_relu1", 0, 0, {}]]], "config": {"kernel_constraint": null, "padding": "same", "dilation_rate": [1, 1], "kernel_regularizer": null, "name": "decoder_stage0_conv2", "bias_initializer": {"class_name": "Zeros", "config": {}}, "trainable": true, "kernel_size": [3, 3], "strides": [1, 1], "use_bias": false, "bias_regularizer": null, "filters": 256, "bias_constraint": null, "activation": "linear", "data_format": "channels_last", "activity_regularizer": null, "kernel_initializer": {"class_name": "VarianceScaling", "config": {"seed": null, "scale": 1.0, "distribution": "uniform", "mode": "fan_avg"}}}}, {"name": "decoder_stage0_bn2", "class_name": "BatchNormalization", "inbound_nodes": [[["decoder_stage0_conv2", 0, 0, {}]]], "config": {"scale": true, "name": "decoder_stage0_bn2", "axis": -1, "momentum": 0.99, "trainable": true, "moving_mean_initializer": {"class_name": "Zeros", "config": {}}, "center": true, "beta_regularizer": null, "moving_variance_initializer": {"class_name": "Ones", "config": {}}, "gamma_constraint": null, "epsilon": 0.001, "beta_initializer": {"class_name": "Zeros", "config": {}}, "gamma_initializer": {"class_name": "Ones", "config": {}}, "gamma_regularizer": null, "beta_constraint": null}}, {"name": "decoder_stage0_relu2", "class_name": "Activation", "inbound_nodes": [[["decoder_stage0_bn2", 0, 0, {}]]], "config": {"activation": "relu", "trainable": true, "name": "decoder_stage0_relu2"}}, {"name": "decoder_stage1_upsample", "class_name": "UpSampling2D", "inbound_nodes": [[["decoder_stage0_relu2", 0, 0, {}]]], "config": {"interpolation": "nearest", "name": "decoder_stage1_upsample", "trainable": true, "data_format": "channels_last", "size": [2, 2]}}, {"name": "concatenate_10", "class_name": "Concatenate", "inbound_nodes": [[["decoder_stage1_upsample", 0, 0, {}], ["stage3_unit1_relu1", 0, 0, {}]]], "config": {"trainable": true, "axis": -1, "name": "concatenate_10"}}, {"name": "decoder_stage1_conv1", "class_name": "Conv2D", "inbound_nodes": [[["concatenate_10", 0, 0, {}]]], "config": {"kernel_constraint": null, "padding": "same", "dilation_rate": [1, 1], "kernel_regularizer": null, "name": "decoder_stage1_conv1", "bias_initializer": {"class_name": "Zeros", "config": {}}, "trainable": true, "kernel_size": [3, 3], "strides": [1, 1], "use_bias": false, "bias_regularizer": null, "filters": 128, "bias_constraint": null, "activation": "linear", "data_format": "channels_last", "activity_regularizer": null, "kernel_initializer": {"class_name": "VarianceScaling", "config": {"seed": null, "scale": 1.0, "distribution": "uniform", "mode": "fan_avg"}}}}, {"name": "decoder_stage1_bn1", "class_name": "BatchNormalization", "inbound_nodes": [[["decoder_stage1_conv1", 0, 0, {}]]], "config": {"scale": true, "name": "decoder_stage1_bn1", "axis": -1, "momentum": 0.99, "trainable": true, "moving_mean_initializer": {"class_name": "Zeros", "config": {}}, "center": true, "beta_regularizer": null, "moving_variance_initializer": {"class_name": "Ones", "config": {}}, "gamma_constraint": null, "epsilon": 0.001, "beta_initializer": {"class_name": "Zeros", "config": {}}, "gamma_initializer": {"class_name": "Ones", "config": {}}, "gamma_regularizer": null, "beta_constraint": null}}, {"name": "decoder_stage1_relu1", "class_name": "Activation", "inbound_nodes": [[["decoder_stage1_bn1", 0, 0, {}]]], "config": {"activation": "relu", "trainable": true, "name": "decoder_stage1_relu1"}}, {"name": "decoder_stage1_conv2", "class_name": "Conv2D", "inbound_nodes": [[["decoder_stage1_relu1", 0, 0, {}]]], "config": {"kernel_constraint": null, "padding": "same", "dilation_rate": [1, 1], "kernel_regularizer": null, "name": "decoder_stage1_conv2", "bias_initializer": {"class_name": "Zeros", "config": {}}, "trainable": true, "kernel_size": [3, 3], "strides": [1, 1], "use_bias": false, "bias_regularizer": null, "filters": 128, "bias_constraint": null, "activation": "linear", "data_format": "channels_last", "activity_regularizer": null, "kernel_initializer": {"class_name": "VarianceScaling", "config": {"seed": null, "scale": 1.0, "distribution": "uniform", "mode": "fan_avg"}}}}, {"name": "decoder_stage1_bn2", "class_name": "BatchNormalization", "inbound_nodes": [[["decoder_stage1_conv2", 0, 0, {}]]], "config": {"scale": true, "name": "decoder_stage1_bn2", "axis": -1, "momentum": 0.99, "trainable": true, "moving_mean_initializer": {"class_name": "Zeros", "config": {}}, "center": true, "beta_regularizer": null, "moving_variance_initializer": {"class_name": "Ones", "config": {}}, "gamma_constraint": null, "epsilon": 0.001, "beta_initializer": {"class_name": "Zeros", "config": {}}, "gamma_initializer": {"class_name": "Ones", "config": {}}, "gamma_regularizer": null, "beta_constraint": null}}, {"name": "decoder_stage1_relu2", "class_name": "Activation", "inbound_nodes": [[["decoder_stage1_bn2", 0, 0, {}]]], "config": {"activation": "relu", "trainable": true, "name": "decoder_stage1_relu2"}}, {"name": "decoder_stage2_upsample", "class_name": "UpSampling2D", "inbound_nodes": [[["decoder_stage1_relu2", 0, 0, {}]]], "config": {"interpolation": "nearest", "name": "decoder_stage2_upsample", "trainable": true, "data_format": "channels_last", "size": [2, 2]}}, {"name": "concatenate_11", "class_name": "Concatenate", "inbound_nodes": [[["decoder_stage2_upsample", 0, 0, {}], ["stage2_unit1_relu1", 0, 0, {}]]], "config": {"trainable": true, "axis": -1, "name": "concatenate_11"}}, {"name": "decoder_stage2_conv1", "class_name": "Conv2D", "inbound_nodes": [[["concatenate_11", 0, 0, {}]]], "config": {"kernel_constraint": null, "padding": "same", "dilation_rate": [1, 1], "kernel_regularizer": null, "name": "decoder_stage2_conv1", "bias_initializer": {"class_name": "Zeros", "config": {}}, "trainable": true, "kernel_size": [3, 3], "strides": [1, 1], "use_bias": false, "bias_regularizer": null, "filters": 64, "bias_constraint": null, "activation": "linear", "data_format": "channels_last", "activity_regularizer": null, "kernel_initializer": {"class_name": "VarianceScaling", "config": {"seed": null, "scale": 1.0, "distribution": "uniform", "mode": "fan_avg"}}}}, {"name": "decoder_stage2_bn1", "class_name": "BatchNormalization", "inbound_nodes": [[["decoder_stage2_conv1", 0, 0, {}]]], "config": {"scale": true, "name": "decoder_stage2_bn1", "axis": -1, "momentum": 0.99, "trainable": true, "moving_mean_initializer": {"class_name": "Zeros", "config": {}}, "center": true, "beta_regularizer": null, "moving_variance_initializer": {"class_name": "Ones", "config": {}}, "gamma_constraint": null, "epsilon": 0.001, "beta_initializer": {"class_name": "Zeros", "config": {}}, "gamma_initializer": {"class_name": "Ones", "config": {}}, "gamma_regularizer": null, "beta_constraint": null}}, {"name": "decoder_stage2_relu1", "class_name": "Activation", "inbound_nodes": [[["decoder_stage2_bn1", 0, 0, {}]]], "config": {"activation": "relu", "trainable": true, "name": "decoder_stage2_relu1"}}, {"name": "decoder_stage2_conv2", "class_name": "Conv2D", "inbound_nodes": [[["decoder_stage2_relu1", 0, 0, {}]]], "config": {"kernel_constraint": null, "padding": "same", "dilation_rate": [1, 1], "kernel_regularizer": null, "name": "decoder_stage2_conv2", "bias_initializer": {"class_name": "Zeros", "config": {}}, "trainable": true, "kernel_size": [3, 3], "strides": [1, 1], "use_bias": false, "bias_regularizer": null, "filters": 64, "bias_constraint": null, "activation": "linear", "data_format": "channels_last", "activity_regularizer": null, "kernel_initializer": {"class_name": "VarianceScaling", "config": {"seed": null, "scale": 1.0, "distribution": "uniform", "mode": "fan_avg"}}}}, {"name": "decoder_stage2_bn2", "class_name": "BatchNormalization", "inbound_nodes": [[["decoder_stage2_conv2", 0, 0, {}]]], "config": {"scale": true, "name": "decoder_stage2_bn2", "axis": -1, "momentum": 0.99, "trainable": true, "moving_mean_initializer": {"class_name": "Zeros", "config": {}}, "center": true, "beta_regularizer": null, "moving_variance_initializer": {"class_name": "Ones", "config": {}}, "gamma_constraint": null, "epsilon": 0.001, "beta_initializer": {"class_name": "Zeros", "config": {}}, "gamma_initializer": {"class_name": "Ones", "config": {}}, "gamma_regularizer": null, "beta_constraint": null}}, {"name": "decoder_stage2_relu2", "class_name": "Activation", "inbound_nodes": [[["decoder_stage2_bn2", 0, 0, {}]]], "config": {"activation": "relu", "trainable": true, "name": "decoder_stage2_relu2"}}, {"name": "decoder_stage3_upsample", "class_name": "UpSampling2D", "inbound_nodes": [[["decoder_stage2_relu2", 0, 0, {}]]], "config": {"interpolation": "nearest", "name": "decoder_stage3_upsample", "trainable": true, "data_format": "channels_last", "size": [2, 2]}}, {"name": "concatenate_12", "class_name": "Concatenate", "inbound_nodes": [[["decoder_stage3_upsample", 0, 0, {}], ["relu0", 0, 0, {}]]], "config": {"trainable": true, "axis": -1, "name": "concatenate_12"}}, {"name": "decoder_stage3_conv1", "class_name": "Conv2D", "inbound_nodes": [[["concatenate_12", 0, 0, {}]]], "config": {"kernel_constraint": null, "padding": "same", "dilation_rate": [1, 1], "kernel_regularizer": null, "name": "decoder_stage3_conv1", "bias_initializer": {"class_name": "Zeros", "config": {}}, "trainable": true, "kernel_size": [3, 3], "strides": [1, 1], "use_bias": false, "bias_regularizer": null, "filters": 32, "bias_constraint": null, "activation": "linear", "data_format": "channels_last", "activity_regularizer": null, "kernel_initializer": {"class_name": "VarianceScaling", "config": {"seed": null, "scale": 1.0, "distribution": "uniform", "mode": "fan_avg"}}}}, {"name": "decoder_stage3_bn1", "class_name": "BatchNormalization", "inbound_nodes": [[["decoder_stage3_conv1", 0, 0, {}]]], "config": {"scale": true, "name": "decoder_stage3_bn1", "axis": -1, "momentum": 0.99, "trainable": true, "moving_mean_initializer": {"class_name": "Zeros", "config": {}}, "center": true, "beta_regularizer": null, "moving_variance_initializer": {"class_name": "Ones", "config": {}}, "gamma_constraint": null, "epsilon": 0.001, "beta_initializer": {"class_name": "Zeros", "config": {}}, "gamma_initializer": {"class_name": "Ones", "config": {}}, "gamma_regularizer": null, "beta_constraint": null}}, {"name": "decoder_stage3_relu1", "class_name": "Activation", "inbound_nodes": [[["decoder_stage3_bn1", 0, 0, {}]]], "config": {"activation": "relu", "trainable": true, "name": "decoder_stage3_relu1"}}, {"name": "decoder_stage3_conv2", "class_name": "Conv2D", "inbound_nodes": [[["decoder_stage3_relu1", 0, 0, {}]]], "config": {"kernel_constraint": null, "padding": "same", "dilation_rate": [1, 1], "kernel_regularizer": null, "name": "decoder_stage3_conv2", "bias_initializer": {"class_name": "Zeros", "config": {}}, "trainable": true, "kernel_size": [3, 3], "strides": [1, 1], "use_bias": false, "bias_regularizer": null, "filters": 32, "bias_constraint": null, "activation": "linear", "data_format": "channels_last", "activity_regularizer": null, "kernel_initializer": {"class_name": "VarianceScaling", "config": {"seed": null, "scale": 1.0, "distribution": "uniform", "mode": "fan_avg"}}}}, {"name": "decoder_stage3_bn2", "class_name": "BatchNormalization", "inbound_nodes": [[["decoder_stage3_conv2", 0, 0, {}]]], "config": {"scale": true, "name": "decoder_stage3_bn2", "axis": -1, "momentum": 0.99, "trainable": true, "moving_mean_initializer": {"class_name": "Zeros", "config": {}}, "center": true, "beta_regularizer": null, "moving_variance_initializer": {"class_name": "Ones", "config": {}}, "gamma_constraint": null, "epsilon": 0.001, "beta_initializer": {"class_name": "Zeros", "config": {}}, "gamma_initializer": {"class_name": "Ones", "config": {}}, "gamma_regularizer": null, "beta_constraint": null}}, {"name": "decoder_stage3_relu2", "class_name": "Activation", "inbound_nodes": [[["decoder_stage3_bn2", 0, 0, {}]]], "config": {"activation": "relu", "trainable": true, "name": "decoder_stage3_relu2"}}, {"name": "decoder_stage4_upsample", "class_name": "UpSampling2D", "inbound_nodes": [[["decoder_stage3_relu2", 0, 0, {}]]], "config": {"interpolation": "nearest", "name": "decoder_stage4_upsample", "trainable": true, "data_format": "channels_last", "size": [2, 2]}}, {"name": "decoder_stage4_conv1", "class_name": "Conv2D", "inbound_nodes": [[["decoder_stage4_upsample", 0, 0, {}]]], "config": {"kernel_constraint": null, "padding": "same", "dilation_rate": [1, 1], "kernel_regularizer": null, "name": "decoder_stage4_conv1", "bias_initializer": {"class_name": "Zeros", "config": {}}, "trainable": true, "kernel_size": [3, 3], "strides": [1, 1], "use_bias": false, "bias_regularizer": null, "filters": 16, "bias_constraint": null, "activation": "linear", "data_format": "channels_last", "activity_regularizer": null, "kernel_initializer": {"class_name": "VarianceScaling", "config": {"seed": null, "scale": 1.0, "distribution": "uniform", "mode": "fan_avg"}}}}, {"name": "decoder_stage4_bn1", "class_name": "BatchNormalization", "inbound_nodes": [[["decoder_stage4_conv1", 0, 0, {}]]], "config": {"scale": true, "name": "decoder_stage4_bn1", "axis": -1, "momentum": 0.99, "trainable": true, "moving_mean_initializer": {"class_name": "Zeros", "config": {}}, "center": true, "beta_regularizer": null, "moving_variance_initializer": {"class_name": "Ones", "config": {}}, "gamma_constraint": null, "epsilon": 0.001, "beta_initializer": {"class_name": "Zeros", "config": {}}, "gamma_initializer": {"class_name": "Ones", "config": {}}, "gamma_regularizer": null, "beta_constraint": null}}, {"name": "decoder_stage4_relu1", "class_name": "Activation", "inbound_nodes": [[["decoder_stage4_bn1", 0, 0, {}]]], "config": {"activation": "relu", "trainable": true, "name": "decoder_stage4_relu1"}}, {"name": "decoder_stage4_conv2", "class_name": "Conv2D", "inbound_nodes": [[["decoder_stage4_relu1", 0, 0, {}]]], "config": {"kernel_constraint": null, "padding": "same", "dilation_rate": [1, 1], "kernel_regularizer": null, "name": "decoder_stage4_conv2", "bias_initializer": {"class_name": "Zeros", "config": {}}, "trainable": true, "kernel_size": [3, 3], "strides": [1, 1], "use_bias": false, "bias_regularizer": null, "filters": 16, "bias_constraint": null, "activation": "linear", "data_format": "channels_last", "activity_regularizer": null, "kernel_initializer": {"class_name": "VarianceScaling", "config": {"seed": null, "scale": 1.0, "distribution": "uniform", "mode": "fan_avg"}}}}, {"name": "decoder_stage4_bn2", "class_name": "BatchNormalization", "inbound_nodes": [[["decoder_stage4_conv2", 0, 0, {}]]], "config": {"scale": true, "name": "decoder_stage4_bn2", "axis": -1, "momentum": 0.99, "trainable": true, "moving_mean_initializer": {"class_name": "Zeros", "config": {}}, "center": true, "beta_regularizer": null, "moving_variance_initializer": {"class_name": "Ones", "config": {}}, "gamma_constraint": null, "epsilon": 0.001, "beta_initializer": {"class_name": "Zeros", "config": {}}, "gamma_initializer": {"class_name": "Ones", "config": {}}, "gamma_regularizer": null, "beta_constraint": null}}, {"name": "decoder_stage4_relu2", "class_name": "Activation", "inbound_nodes": [[["decoder_stage4_bn2", 0, 0, {}]]], "config": {"activation": "relu", "trainable": true, "name": "decoder_stage4_relu2"}}, {"name": "final_conv", "class_name": "Conv2D", "inbound_nodes": [[["decoder_stage4_relu2", 0, 0, {}]]], "config": {"kernel_constraint": null, "padding": "same", "dilation_rate": [1, 1], "kernel_regularizer": null, "name": "final_conv", "bias_initializer": {"class_name": "Zeros", "config": {}}, "trainable": true, "kernel_size": [3, 3], "strides": [1, 1], "use_bias": true, "bias_regularizer": null, "filters": 1, "bias_constraint": null, "activation": "linear", "data_format": "channels_last", "activity_regularizer": null, "kernel_initializer": {"class_name": "VarianceScaling", "config": {"seed": null, "scale": 1.0, "distribution": "uniform", "mode": "fan_avg"}}}}, {"name": "sigmoid", "class_name": "Activation", "inbound_nodes": [[["final_conv", 0, 0, {}]]], "config": {"activation": "sigmoid", "trainable": true, "name": "sigmoid"}}], "input_layers": [["data", 0, 0]]}}