{"keras_version": "2.2.4", "backend": "tensorflow", "config": {"name": "u-resnet18", "layers": [{"name": "data", "inbound_nodes": [], "config": {"sparse": false, "name": "data", "dtype": "float32", "batch_input_shape": [null, null, null, 3]}, "class_name": "InputLayer"}, {"name": "bn_data", "inbound_nodes": [[["data", 0, 0, {}]]], "config": {"scale": false, "beta_initializer": {"config": {}, "class_name": "Zeros"}, "gamma_regularizer": null, "moving_variance_initializer": {"config": {}, "class_name": "Ones"}, "beta_constraint": null, "trainable": true, "beta_regularizer": null, "gamma_constraint": null, "momentum": 0.99, "name": "bn_data", "gamma_initializer": {"config": {}, "class_name": "Ones"}, "moving_mean_initializer": {"config": {}, "class_name": "Zeros"}, "axis": 3, "center": true, "epsilon": 2e-05}, "class_name": "BatchNormalization"}, {"name": "zero_padding2d_55", "inbound_nodes": [[["bn_data", 0, 0, {}]]], "config": {"name": "zero_padding2d_55", "data_format": "channels_last", "trainable": true, "padding": [[3, 3], [3, 3]]}, "class_name": "ZeroPadding2D"}, {"name": "conv0", "inbound_nodes": [[["zero_padding2d_55", 0, 0, {}]]], "config": {"strides": [2, 2], "kernel_constraint": null, "use_bias": false, "filters": 64, "kernel_regularizer": null, "kernel_initializer": {"config": {"scale": 2.0, "seed": null, "mode": "fan_in", "distribution": "uniform"}, "class_name": "VarianceScaling"}, "dilation_rate": [1, 1], "bias_constraint": null, "trainable": true, "activation": "linear", "bias_initializer": {"config": {}, "class_name": "Zeros"}, "data_format": "channels_last", "activity_regularizer": null, "name": "conv0", "kernel_size": [7, 7], "bias_regularizer": null, "padding": "valid"}, "class_name": "Conv2D"}, {"name": "bn0", "inbound_nodes": [[["conv0", 0, 0, {}]]], "config": {"scale": true, "beta_initializer": {"config": {}, "class_name": "Zeros"}, "gamma_regularizer": null, "moving_variance_initializer": {"config": {}, "class_name": "Ones"}, "beta_constraint": null, "trainable": true, "beta_regularizer": null, "gamma_constraint": null, "momentum": 0.99, "name": "bn0", "gamma_initializer": {"config": {}, "class_name": "Ones"}, "moving_mean_initializer": {"config": {}, "class_name": "Zeros"}, "axis": 3, "center": true, "epsilon": 2e-05}, "class_name": "BatchNormalization"}, {"name": "relu0", "inbound_nodes": [[["bn0", 0, 0, {}]]], "config": {"name": "relu0", "trainable": true, "activation": "relu"}, "class_name": "Activation"}, {"name": "zero_padding2d_56", "inbound_nodes": [[["relu0", 0, 0, {}]]], "config": {"name": "zero_padding2d_56", "data_format": "channels_last", "trainable": true, "padding": [[1, 1], [1, 1]]}, "class_name": "ZeroPadding2D"}, {"name": "pooling0", "inbound_nodes": [[["zero_padding2d_56", 0, 0, {}]]], "config": {"strides": [2, 2], "data_format": "channels_last", "name": "pooling0", "pool_size": [3, 3], "trainable": true, "padding": "valid"}, "class_name": "MaxPooling2D"}, {"name": "stage1_unit1_bn1", "inbound_nodes": [[["pooling0", 0, 0, {}]]], "config": {"scale": true, "beta_initializer": {"config": {}, "class_name": "Zeros"}, "gamma_regularizer": null, "moving_variance_initializer": {"config": {}, "class_name": "Ones"}, "beta_constraint": null, "trainable": true, "beta_regularizer": null, "gamma_constraint": null, "momentum": 0.99, "name": "stage1_unit1_bn1", "gamma_initializer": {"config": {}, "class_name": "Ones"}, "moving_mean_initializer": {"config": {}, "class_name": "Zeros"}, "axis": 3, "center": true, "epsilon": 2e-05}, "class_name": "BatchNormalization"}, {"name": "stage1_unit1_relu1", "inbound_nodes": [[["stage1_unit1_bn1", 0, 0, {}]]], "config": {"name": "stage1_unit1_relu1", "trainable": true, "activation": "relu"}, "class_name": "Activation"}, {"name": "zero_padding2d_57", "inbound_nodes": [[["stage1_unit1_relu1", 0, 0, {}]]], "config": {"name": "zero_padding2d_57", "data_format": "channels_last", "trainable": true, "padding": [[1, 1], [1, 1]]}, "class_name": "ZeroPadding2D"}, {"name": "stage1_unit1_conv1", "inbound_nodes": [[["zero_padding2d_57", 0, 0, {}]]], "config": {"strides": [1, 1], "kernel_constraint": null, "use_bias": false, "filters": 64, "kernel_regularizer": null, "kernel_initializer": {"config": {"scale": 2.0, "seed": null, "mode": "fan_in", "distribution": "uniform"}, "class_name": "VarianceScaling"}, "dilation_rate": [1, 1], "bias_constraint": null, "trainable": true, "activation": "linear", "bias_initializer": {"config": {}, "class_name": "Zeros"}, "data_format": "channels_last", "activity_regularizer": null, "name": "stage1_unit1_conv1", "kernel_size": [3, 3], "bias_regularizer": null, "padding": "valid"}, "class_name": "Conv2D"}, {"name": "stage1_unit1_bn2", "inbound_nodes": [[["stage1_unit1_conv1", 0, 0, {}]]], "config": {"scale": true, "beta_initializer": {"config": {}, "class_name": "Zeros"}, "gamma_regularizer": null, "moving_variance_initializer": {"config": {}, "class_name": "Ones"}, "beta_constraint": null, "trainable": true, "beta_regularizer": null, "gamma_constraint": null, "momentum": 0.99, "name": "stage1_unit1_bn2", "gamma_initializer": {"config": {}, "class_name": "Ones"}, "moving_mean_initializer": {"config": {}, "class_name": "Zeros"}, "axis": 3, "center": true, "epsilon": 2e-05}, "class_name": "BatchNormalization"}, {"name": "stage1_unit1_relu2", "inbound_nodes": [[["stage1_unit1_bn2", 0, 0, {}]]], "config": {"name": "stage1_unit1_relu2", "trainable": true, "activation": "relu"}, "class_name": "Activation"}, {"name": "zero_padding2d_58", "inbound_nodes": [[["stage1_unit1_relu2", 0, 0, {}]]], "config": {"name": "zero_padding2d_58", "data_format": "channels_last", "trainable": true, "padding": [[1, 1], [1, 1]]}, "class_name": "ZeroPadding2D"}, {"name": "stage1_unit1_conv2", "inbound_nodes": [[["zero_padding2d_58", 0, 0, {}]]], "config": {"strides": [1, 1], "kernel_constraint": null, "use_bias": false, "filters": 64, "kernel_regularizer": null, "kernel_initializer": {"config": {"scale": 2.0, "seed": null, "mode": "fan_in", "distribution": "uniform"}, "class_name": "VarianceScaling"}, "dilation_rate": [1, 1], "bias_constraint": null, "trainable": true, "activation": "linear", "bias_initializer": {"config": {}, "class_name": "Zeros"}, "data_format": "channels_last", "activity_regularizer": null, "name": "stage1_unit1_conv2", "kernel_size": [3, 3], "bias_regularizer": null, "padding": "valid"}, "class_name": "Conv2D"}, {"name": "stage1_unit1_sc", "inbound_nodes": [[["stage1_unit1_relu1", 0, 0, {}]]], "config": {"strides": [1, 1], "kernel_constraint": null, "use_bias": false, "filters": 64, "kernel_regularizer": null, "kernel_initializer": {"config": {"scale": 2.0, "seed": null, "mode": "fan_in", "distribution": "uniform"}, "class_name": "VarianceScaling"}, "dilation_rate": [1, 1], "bias_constraint": null, "trainable": true, "activation": "linear", "bias_initializer": {"config": {}, "class_name": "Zeros"}, "data_format": "channels_last", "activity_regularizer": null, "name": "stage1_unit1_sc", "kernel_size": [1, 1], "bias_regularizer": null, "padding": "valid"}, "class_name": "Conv2D"}, {"name": "add_25", "inbound_nodes": [[["stage1_unit1_conv2", 0, 0, {}], ["stage1_unit1_sc", 0, 0, {}]]], "config": {"name": "add_25", "trainable": true}, "class_name": "Add"}, {"name": "stage1_unit2_bn1", "inbound_nodes": [[["add_25", 0, 0, {}]]], "config": {"scale": true, "beta_initializer": {"config": {}, "class_name": "Zeros"}, "gamma_regularizer": null, "moving_variance_initializer": {"config": {}, "class_name": "Ones"}, "beta_constraint": null, "trainable": true, "beta_regularizer": null, "gamma_constraint": null, "momentum": 0.99, "name": "stage1_unit2_bn1", "gamma_initializer": {"config": {}, "class_name": "Ones"}, "moving_mean_initializer": {"config": {}, "class_name": "Zeros"}, "axis": 3, "center": true, "epsilon": 2e-05}, "class_name": "BatchNormalization"}, {"name": "stage1_unit2_relu1", "inbound_nodes": [[["stage1_unit2_bn1", 0, 0, {}]]], "config": {"name": "stage1_unit2_relu1", "trainable": true, "activation": "relu"}, "class_name": "Activation"}, {"name": "zero_padding2d_59", "inbound_nodes": [[["stage1_unit2_relu1", 0, 0, {}]]], "config": {"name": "zero_padding2d_59", "data_format": "channels_last", "trainable": true, "padding": [[1, 1], [1, 1]]}, "class_name": "ZeroPadding2D"}, {"name": "stage1_unit2_conv1", "inbound_nodes": [[["zero_padding2d_59", 0, 0, {}]]], "config": {"strides": [1, 1], "kernel_constraint": null, "use_bias": false, "filters": 64, "kernel_regularizer": null, "kernel_initializer": {"config": {"scale": 2.0, "seed": null, "mode": "fan_in", "distribution": "uniform"}, "class_name": "VarianceScaling"}, "dilation_rate": [1, 1], "bias_constraint": null, "trainable": true, "activation": "linear", "bias_initializer": {"config": {}, "class_name": "Zeros"}, "data_format": "channels_last", "activity_regularizer": null, "name": "stage1_unit2_conv1", "kernel_size": [3, 3], "bias_regularizer": null, "padding": "valid"}, "class_name": "Conv2D"}, {"name": "stage1_unit2_bn2", "inbound_nodes": [[["stage1_unit2_conv1", 0, 0, {}]]], "config": {"scale": true, "beta_initializer": {"config": {}, "class_name": "Zeros"}, "gamma_regularizer": null, "moving_variance_initializer": {"config": {}, "class_name": "Ones"}, "beta_constraint": null, "trainable": true, "beta_regularizer": null, "gamma_constraint": null, "momentum": 0.99, "name": "stage1_unit2_bn2", "gamma_initializer": {"config": {}, "class_name": "Ones"}, "moving_mean_initializer": {"config": {}, "class_name": "Zeros"}, "axis": 3, "center": true, "epsilon": 2e-05}, "class_name": "BatchNormalization"}, {"name": "stage1_unit2_relu2", "inbound_nodes": [[["stage1_unit2_bn2", 0, 0, {}]]], "config": {"name": "stage1_unit2_relu2", "trainable": true, "activation": "relu"}, "class_name": "Activation"}, {"name": "zero_padding2d_60", "inbound_nodes": [[["stage1_unit2_relu2", 0, 0, {}]]], "config": {"name": "zero_padding2d_60", "data_format": "channels_last", "trainable": true, "padding": [[1, 1], [1, 1]]}, "class_name": "ZeroPadding2D"}, {"name": "stage1_unit2_conv2", "inbound_nodes": [[["zero_padding2d_60", 0, 0, {}]]], "config": {"strides": [1, 1], "kernel_constraint": null, "use_bias": false, "filters": 64, "kernel_regularizer": null, "kernel_initializer": {"config": {"scale": 2.0, "seed": null, "mode": "fan_in", "distribution": "uniform"}, "class_name": "VarianceScaling"}, "dilation_rate": [1, 1], "bias_constraint": null, "trainable": true, "activation": "linear", "bias_initializer": {"config": {}, "class_name": "Zeros"}, "data_format": "channels_last", "activity_regularizer": null, "name": "stage1_unit2_conv2", "kernel_size": [3, 3], "bias_regularizer": null, "padding": "valid"}, "class_name": "Conv2D"}, {"name": "add_26", "inbound_nodes": [[["stage1_unit2_conv2", 0, 0, {}], ["add_25", 0, 0, {}]]], "config": {"name": "add_26", "trainable": true}, "class_name": "Add"}, {"name": "stage2_unit1_bn1", "inbound_nodes": [[["add_26", 0, 0, {}]]], "config": {"scale": true, "beta_initializer": {"config": {}, "class_name": "Zeros"}, "gamma_regularizer": null, "moving_variance_initializer": {"config": {}, "class_name": "Ones"}, "beta_constraint": null, "trainable": true, "beta_regularizer": null, "gamma_constraint": null, "momentum": 0.99, "name": "stage2_unit1_bn1", "gamma_initializer": {"config": {}, "class_name": "Ones"}, "moving_mean_initializer": {"config": {}, "class_name": "Zeros"}, "axis": 3, "center": true, "epsilon": 2e-05}, "class_name": "BatchNormalization"}, {"name": "stage2_unit1_relu1", "inbound_nodes": [[["stage2_unit1_bn1", 0, 0, {}]]], "config": {"name": "stage2_unit1_relu1", "trainable": true, "activation": "relu"}, "class_name": "Activation"}, {"name": "zero_padding2d_61", "inbound_nodes": [[["stage2_unit1_relu1", 0, 0, {}]]], "config": {"name": "zero_padding2d_61", "data_format": "channels_last", "trainable": true, "padding": [[1, 1], [1, 1]]}, "class_name": "ZeroPadding2D"}, {"name": "stage2_unit1_conv1", "inbound_nodes": [[["zero_padding2d_61", 0, 0, {}]]], "config": {"strides": [2, 2], "kernel_constraint": null, "use_bias": false, "filters": 128, "kernel_regularizer": null, "kernel_initializer": {"config": {"scale": 2.0, "seed": null, "mode": "fan_in", "distribution": "uniform"}, "class_name": "VarianceScaling"}, "dilation_rate": [1, 1], "bias_constraint": null, "trainable": true, "activation": "linear", "bias_initializer": {"config": {}, "class_name": "Zeros"}, "data_format": "channels_last", "activity_regularizer": null, "name": "stage2_unit1_conv1", "kernel_size": [3, 3], "bias_regularizer": null, "padding": "valid"}, "class_name": "Conv2D"}, {"name": "stage2_unit1_bn2", "inbound_nodes": [[["stage2_unit1_conv1", 0, 0, {}]]], "config": {"scale": true, "beta_initializer": {"config": {}, "class_name": "Zeros"}, "gamma_regularizer": null, "moving_variance_initializer": {"config": {}, "class_name": "Ones"}, "beta_constraint": null, "trainable": true, "beta_regularizer": null, "gamma_constraint": null, "momentum": 0.99, "name": "stage2_unit1_bn2", "gamma_initializer": {"config": {}, "class_name": "Ones"}, "moving_mean_initializer": {"config": {}, "class_name": "Zeros"}, "axis": 3, "center": true, "epsilon": 2e-05}, "class_name": "BatchNormalization"}, {"name": "stage2_unit1_relu2", "inbound_nodes": [[["stage2_unit1_bn2", 0, 0, {}]]], "config": {"name": "stage2_unit1_relu2", "trainable": true, "activation": "relu"}, "class_name": "Activation"}, {"name": "zero_padding2d_62", "inbound_nodes": [[["stage2_unit1_relu2", 0, 0, {}]]], "config": {"name": "zero_padding2d_62", "data_format": "channels_last", "trainable": true, "padding": [[1, 1], [1, 1]]}, "class_name": "ZeroPadding2D"}, {"name": "stage2_unit1_conv2", "inbound_nodes": [[["zero_padding2d_62", 0, 0, {}]]], "config": {"strides": [1, 1], "kernel_constraint": null, "use_bias": false, "filters": 128, "kernel_regularizer": null, "kernel_initializer": {"config": {"scale": 2.0, "seed": null, "mode": "fan_in", "distribution": "uniform"}, "class_name": "VarianceScaling"}, "dilation_rate": [1, 1], "bias_constraint": null, "trainable": true, "activation": "linear", "bias_initializer": {"config": {}, "class_name": "Zeros"}, "data_format": "channels_last", "activity_regularizer": null, "name": "stage2_unit1_conv2", "kernel_size": [3, 3], "bias_regularizer": null, "padding": "valid"}, "class_name": "Conv2D"}, {"name": "stage2_unit1_sc", "inbound_nodes": [[["stage2_unit1_relu1", 0, 0, {}]]], "config": {"strides": [2, 2], "kernel_constraint": null, "use_bias": false, "filters": 128, "kernel_regularizer": null, "kernel_initializer": {"config": {"scale": 2.0, "seed": null, "mode": "fan_in", "distribution": "uniform"}, "class_name": "VarianceScaling"}, "dilation_rate": [1, 1], "bias_constraint": null, "trainable": true, "activation": "linear", "bias_initializer": {"config": {}, "class_name": "Zeros"}, "data_format": "channels_last", "activity_regularizer": null, "name": "stage2_unit1_sc", "kernel_size": [1, 1], "bias_regularizer": null, "padding": "valid"}, "class_name": "Conv2D"}, {"name": "add_27", "inbound_nodes": [[["stage2_unit1_conv2", 0, 0, {}], ["stage2_unit1_sc", 0, 0, {}]]], "config": {"name": "add_27", "trainable": true}, "class_name": "Add"}, {"name": "stage2_unit2_bn1", "inbound_nodes": [[["add_27", 0, 0, {}]]], "config": {"scale": true, "beta_initializer": {"config": {}, "class_name": "Zeros"}, "gamma_regularizer": null, "moving_variance_initializer": {"config": {}, "class_name": "Ones"}, "beta_constraint": null, "trainable": true, "beta_regularizer": null, "gamma_constraint": null, "momentum": 0.99, "name": "stage2_unit2_bn1", "gamma_initializer": {"config": {}, "class_name": "Ones"}, "moving_mean_initializer": {"config": {}, "class_name": "Zeros"}, "axis": 3, "center": true, "epsilon": 2e-05}, "class_name": "BatchNormalization"}, {"name": "stage2_unit2_relu1", "inbound_nodes": [[["stage2_unit2_bn1", 0, 0, {}]]], "config": {"name": "stage2_unit2_relu1", "trainable": true, "activation": "relu"}, "class_name": "Activation"}, {"name": "zero_padding2d_63", "inbound_nodes": [[["stage2_unit2_relu1", 0, 0, {}]]], "config": {"name": "zero_padding2d_63", "data_format": "channels_last", "trainable": true, "padding": [[1, 1], [1, 1]]}, "class_name": "ZeroPadding2D"}, {"name": "stage2_unit2_conv1", "inbound_nodes": [[["zero_padding2d_63", 0, 0, {}]]], "config": {"strides": [1, 1], "kernel_constraint": null, "use_bias": false, "filters": 128, "kernel_regularizer": null, "kernel_initializer": {"config": {"scale": 2.0, "seed": null, "mode": "fan_in", "distribution": "uniform"}, "class_name": "VarianceScaling"}, "dilation_rate": [1, 1], "bias_constraint": null, "trainable": true, "activation": "linear", "bias_initializer": {"config": {}, "class_name": "Zeros"}, "data_format": "channels_last", "activity_regularizer": null, "name": "stage2_unit2_conv1", "kernel_size": [3, 3], "bias_regularizer": null, "padding": "valid"}, "class_name": "Conv2D"}, {"name": "stage2_unit2_bn2", "inbound_nodes": [[["stage2_unit2_conv1", 0, 0, {}]]], "config": {"scale": true, "beta_initializer": {"config": {}, "class_name": "Zeros"}, "gamma_regularizer": null, "moving_variance_initializer": {"config": {}, "class_name": "Ones"}, "beta_constraint": null, "trainable": true, "beta_regularizer": null, "gamma_constraint": null, "momentum": 0.99, "name": "stage2_unit2_bn2", "gamma_initializer": {"config": {}, "class_name": "Ones"}, "moving_mean_initializer": {"config": {}, "class_name": "Zeros"}, "axis": 3, "center": true, "epsilon": 2e-05}, "class_name": "BatchNormalization"}, {"name": "stage2_unit2_relu2", "inbound_nodes": [[["stage2_unit2_bn2", 0, 0, {}]]], "config": {"name": "stage2_unit2_relu2", "trainable": true, "activation": "relu"}, "class_name": "Activation"}, {"name": "zero_padding2d_64", "inbound_nodes": [[["stage2_unit2_relu2", 0, 0, {}]]], "config": {"name": "zero_padding2d_64", "data_format": "channels_last", "trainable": true, "padding": [[1, 1], [1, 1]]}, "class_name": "ZeroPadding2D"}, {"name": "stage2_unit2_conv2", "inbound_nodes": [[["zero_padding2d_64", 0, 0, {}]]], "config": {"strides": [1, 1], "kernel_constraint": null, "use_bias": false, "filters": 128, "kernel_regularizer": null, "kernel_initializer": {"config": {"scale": 2.0, "seed": null, "mode": "fan_in", "distribution": "uniform"}, "class_name": "VarianceScaling"}, "dilation_rate": [1, 1], "bias_constraint": null, "trainable": true, "activation": "linear", "bias_initializer": {"config": {}, "class_name": "Zeros"}, "data_format": "channels_last", "activity_regularizer": null, "name": "stage2_unit2_conv2", "kernel_size": [3, 3], "bias_regularizer": null, "padding": "valid"}, "class_name": "Conv2D"}, {"name": "add_28", "inbound_nodes": [[["stage2_unit2_conv2", 0, 0, {}], ["add_27", 0, 0, {}]]], "config": {"name": "add_28", "trainable": true}, "class_name": "Add"}, {"name": "stage3_unit1_bn1", "inbound_nodes": [[["add_28", 0, 0, {}]]], "config": {"scale": true, "beta_initializer": {"config": {}, "class_name": "Zeros"}, "gamma_regularizer": null, "moving_variance_initializer": {"config": {}, "class_name": "Ones"}, "beta_constraint": null, "trainable": true, "beta_regularizer": null, "gamma_constraint": null, "momentum": 0.99, "name": "stage3_unit1_bn1", "gamma_initializer": {"config": {}, "class_name": "Ones"}, "moving_mean_initializer": {"config": {}, "class_name": "Zeros"}, "axis": 3, "center": true, "epsilon": 2e-05}, "class_name": "BatchNormalization"}, {"name": "stage3_unit1_relu1", "inbound_nodes": [[["stage3_unit1_bn1", 0, 0, {}]]], "config": {"name": "stage3_unit1_relu1", "trainable": true, "activation": "relu"}, "class_name": "Activation"}, {"name": "zero_padding2d_65", "inbound_nodes": [[["stage3_unit1_relu1", 0, 0, {}]]], "config": {"name": "zero_padding2d_65", "data_format": "channels_last", "trainable": true, "padding": [[1, 1], [1, 1]]}, "class_name": "ZeroPadding2D"}, {"name": "stage3_unit1_conv1", "inbound_nodes": [[["zero_padding2d_65", 0, 0, {}]]], "config": {"strides": [2, 2], "kernel_constraint": null, "use_bias": false, "filters": 256, "kernel_regularizer": null, "kernel_initializer": {"config": {"scale": 2.0, "seed": null, "mode": "fan_in", "distribution": "uniform"}, "class_name": "VarianceScaling"}, "dilation_rate": [1, 1], "bias_constraint": null, "trainable": true, "activation": "linear", "bias_initializer": {"config": {}, "class_name": "Zeros"}, "data_format": "channels_last", "activity_regularizer": null, "name": "stage3_unit1_conv1", "kernel_size": [3, 3], "bias_regularizer": null, "padding": "valid"}, "class_name": "Conv2D"}, {"name": "stage3_unit1_bn2", "inbound_nodes": [[["stage3_unit1_conv1", 0, 0, {}]]], "config": {"scale": true, "beta_initializer": {"config": {}, "class_name": "Zeros"}, "gamma_regularizer": null, "moving_variance_initializer": {"config": {}, "class_name": "Ones"}, "beta_constraint": null, "trainable": true, "beta_regularizer": null, "gamma_constraint": null, "momentum": 0.99, "name": "stage3_unit1_bn2", "gamma_initializer": {"config": {}, "class_name": "Ones"}, "moving_mean_initializer": {"config": {}, "class_name": "Zeros"}, "axis": 3, "center": true, "epsilon": 2e-05}, "class_name": "BatchNormalization"}, {"name": "stage3_unit1_relu2", "inbound_nodes": [[["stage3_unit1_bn2", 0, 0, {}]]], "config": {"name": "stage3_unit1_relu2", "trainable": true, "activation": "relu"}, "class_name": "Activation"}, {"name": "zero_padding2d_66", "inbound_nodes": [[["stage3_unit1_relu2", 0, 0, {}]]], "config": {"name": "zero_padding2d_66", "data_format": "channels_last", "trainable": true, "padding": [[1, 1], [1, 1]]}, "class_name": "ZeroPadding2D"}, {"name": "stage3_unit1_conv2", "inbound_nodes": [[["zero_padding2d_66", 0, 0, {}]]], "config": {"strides": [1, 1], "kernel_constraint": null, "use_bias": false, "filters": 256, "kernel_regularizer": null, "kernel_initializer": {"config": {"scale": 2.0, "seed": null, "mode": "fan_in", "distribution": "uniform"}, "class_name": "VarianceScaling"}, "dilation_rate": [1, 1], "bias_constraint": null, "trainable": true, "activation": "linear", "bias_initializer": {"config": {}, "class_name": "Zeros"}, "data_format": "channels_last", "activity_regularizer": null, "name": "stage3_unit1_conv2", "kernel_size": [3, 3], "bias_regularizer": null, "padding": "valid"}, "class_name": "Conv2D"}, {"name": "stage3_unit1_sc", "inbound_nodes": [[["stage3_unit1_relu1", 0, 0, {}]]], "config": {"strides": [2, 2], "kernel_constraint": null, "use_bias": false, "filters": 256, "kernel_regularizer": null, "kernel_initializer": {"config": {"scale": 2.0, "seed": null, "mode": "fan_in", "distribution": "uniform"}, "class_name": "VarianceScaling"}, "dilation_rate": [1, 1], "bias_constraint": null, "trainable": true, "activation": "linear", "bias_initializer": {"config": {}, "class_name": "Zeros"}, "data_format": "channels_last", "activity_regularizer": null, "name": "stage3_unit1_sc", "kernel_size": [1, 1], "bias_regularizer": null, "padding": "valid"}, "class_name": "Conv2D"}, {"name": "add_29", "inbound_nodes": [[["stage3_unit1_conv2", 0, 0, {}], ["stage3_unit1_sc", 0, 0, {}]]], "config": {"name": "add_29", "trainable": true}, "class_name": "Add"}, {"name": "stage3_unit2_bn1", "inbound_nodes": [[["add_29", 0, 0, {}]]], "config": {"scale": true, "beta_initializer": {"config": {}, "class_name": "Zeros"}, "gamma_regularizer": null, "moving_variance_initializer": {"config": {}, "class_name": "Ones"}, "beta_constraint": null, "trainable": true, "beta_regularizer": null, "gamma_constraint": null, "momentum": 0.99, "name": "stage3_unit2_bn1", "gamma_initializer": {"config": {}, "class_name": "Ones"}, "moving_mean_initializer": {"config": {}, "class_name": "Zeros"}, "axis": 3, "center": true, "epsilon": 2e-05}, "class_name": "BatchNormalization"}, {"name": "stage3_unit2_relu1", "inbound_nodes": [[["stage3_unit2_bn1", 0, 0, {}]]], "config": {"name": "stage3_unit2_relu1", "trainable": true, "activation": "relu"}, "class_name": "Activation"}, {"name": "zero_padding2d_67", "inbound_nodes": [[["stage3_unit2_relu1", 0, 0, {}]]], "config": {"name": "zero_padding2d_67", "data_format": "channels_last", "trainable": true, "padding": [[1, 1], [1, 1]]}, "class_name": "ZeroPadding2D"}, {"name": "stage3_unit2_conv1", "inbound_nodes": [[["zero_padding2d_67", 0, 0, {}]]], "config": {"strides": [1, 1], "kernel_constraint": null, "use_bias": false, "filters": 256, "kernel_regularizer": null, "kernel_initializer": {"config": {"scale": 2.0, "seed": null, "mode": "fan_in", "distribution": "uniform"}, "class_name": "VarianceScaling"}, "dilation_rate": [1, 1], "bias_constraint": null, "trainable": true, "activation": "linear", "bias_initializer": {"config": {}, "class_name": "Zeros"}, "data_format": "channels_last", "activity_regularizer": null, "name": "stage3_unit2_conv1", "kernel_size": [3, 3], "bias_regularizer": null, "padding": "valid"}, "class_name": "Conv2D"}, {"name": "stage3_unit2_bn2", "inbound_nodes": [[["stage3_unit2_conv1", 0, 0, {}]]], "config": {"scale": true, "beta_initializer": {"config": {}, "class_name": "Zeros"}, "gamma_regularizer": null, "moving_variance_initializer": {"config": {}, "class_name": "Ones"}, "beta_constraint": null, "trainable": true, "beta_regularizer": null, "gamma_constraint": null, "momentum": 0.99, "name": "stage3_unit2_bn2", "gamma_initializer": {"config": {}, "class_name": "Ones"}, "moving_mean_initializer": {"config": {}, "class_name": "Zeros"}, "axis": 3, "center": true, "epsilon": 2e-05}, "class_name": "BatchNormalization"}, {"name": "stage3_unit2_relu2", "inbound_nodes": [[["stage3_unit2_bn2", 0, 0, {}]]], "config": {"name": "stage3_unit2_relu2", "trainable": true, "activation": "relu"}, "class_name": "Activation"}, {"name": "zero_padding2d_68", "inbound_nodes": [[["stage3_unit2_relu2", 0, 0, {}]]], "config": {"name": "zero_padding2d_68", "data_format": "channels_last", "trainable": true, "padding": [[1, 1], [1, 1]]}, "class_name": "ZeroPadding2D"}, {"name": "stage3_unit2_conv2", "inbound_nodes": [[["zero_padding2d_68", 0, 0, {}]]], "config": {"strides": [1, 1], "kernel_constraint": null, "use_bias": false, "filters": 256, "kernel_regularizer": null, "kernel_initializer": {"config": {"scale": 2.0, "seed": null, "mode": "fan_in", "distribution": "uniform"}, "class_name": "VarianceScaling"}, "dilation_rate": [1, 1], "bias_constraint": null, "trainable": true, "activation": "linear", "bias_initializer": {"config": {}, "class_name": "Zeros"}, "data_format": "channels_last", "activity_regularizer": null, "name": "stage3_unit2_conv2", "kernel_size": [3, 3], "bias_regularizer": null, "padding": "valid"}, "class_name": "Conv2D"}, {"name": "add_30", "inbound_nodes": [[["stage3_unit2_conv2", 0, 0, {}], ["add_29", 0, 0, {}]]], "config": {"name": "add_30", "trainable": true}, "class_name": "Add"}, {"name": "stage4_unit1_bn1", "inbound_nodes": [[["add_30", 0, 0, {}]]], "config": {"scale": true, "beta_initializer": {"config": {}, "class_name": "Zeros"}, "gamma_regularizer": null, "moving_variance_initializer": {"config": {}, "class_name": "Ones"}, "beta_constraint": null, "trainable": true, "beta_regularizer": null, "gamma_constraint": null, "momentum": 0.99, "name": "stage4_unit1_bn1", "gamma_initializer": {"config": {}, "class_name": "Ones"}, "moving_mean_initializer": {"config": {}, "class_name": "Zeros"}, "axis": 3, "center": true, "epsilon": 2e-05}, "class_name": "BatchNormalization"}, {"name": "stage4_unit1_relu1", "inbound_nodes": [[["stage4_unit1_bn1", 0, 0, {}]]], "config": {"name": "stage4_unit1_relu1", "trainable": true, "activation": "relu"}, "class_name": "Activation"}, {"name": "zero_padding2d_69", "inbound_nodes": [[["stage4_unit1_relu1", 0, 0, {}]]], "config": {"name": "zero_padding2d_69", "data_format": "channels_last", "trainable": true, "padding": [[1, 1], [1, 1]]}, "class_name": "ZeroPadding2D"}, {"name": "stage4_unit1_conv1", "inbound_nodes": [[["zero_padding2d_69", 0, 0, {}]]], "config": {"strides": [2, 2], "kernel_constraint": null, "use_bias": false, "filters": 512, "kernel_regularizer": null, "kernel_initializer": {"config": {"scale": 2.0, "seed": null, "mode": "fan_in", "distribution": "uniform"}, "class_name": "VarianceScaling"}, "dilation_rate": [1, 1], "bias_constraint": null, "trainable": true, "activation": "linear", "bias_initializer": {"config": {}, "class_name": "Zeros"}, "data_format": "channels_last", "activity_regularizer": null, "name": "stage4_unit1_conv1", "kernel_size": [3, 3], "bias_regularizer": null, "padding": "valid"}, "class_name": "Conv2D"}, {"name": "stage4_unit1_bn2", "inbound_nodes": [[["stage4_unit1_conv1", 0, 0, {}]]], "config": {"scale": true, "beta_initializer": {"config": {}, "class_name": "Zeros"}, "gamma_regularizer": null, "moving_variance_initializer": {"config": {}, "class_name": "Ones"}, "beta_constraint": null, "trainable": true, "beta_regularizer": null, "gamma_constraint": null, "momentum": 0.99, "name": "stage4_unit1_bn2", "gamma_initializer": {"config": {}, "class_name": "Ones"}, "moving_mean_initializer": {"config": {}, "class_name": "Zeros"}, "axis": 3, "center": true, "epsilon": 2e-05}, "class_name": "BatchNormalization"}, {"name": "stage4_unit1_relu2", "inbound_nodes": [[["stage4_unit1_bn2", 0, 0, {}]]], "config": {"name": "stage4_unit1_relu2", "trainable": true, "activation": "relu"}, "class_name": "Activation"}, {"name": "zero_padding2d_70", "inbound_nodes": [[["stage4_unit1_relu2", 0, 0, {}]]], "config": {"name": "zero_padding2d_70", "data_format": "channels_last", "trainable": true, "padding": [[1, 1], [1, 1]]}, "class_name": "ZeroPadding2D"}, {"name": "stage4_unit1_conv2", "inbound_nodes": [[["zero_padding2d_70", 0, 0, {}]]], "config": {"strides": [1, 1], "kernel_constraint": null, "use_bias": false, "filters": 512, "kernel_regularizer": null, "kernel_initializer": {"config": {"scale": 2.0, "seed": null, "mode": "fan_in", "distribution": "uniform"}, "class_name": "VarianceScaling"}, "dilation_rate": [1, 1], "bias_constraint": null, "trainable": true, "activation": "linear", "bias_initializer": {"config": {}, "class_name": "Zeros"}, "data_format": "channels_last", "activity_regularizer": null, "name": "stage4_unit1_conv2", "kernel_size": [3, 3], "bias_regularizer": null, "padding": "valid"}, "class_name": "Conv2D"}, {"name": "stage4_unit1_sc", "inbound_nodes": [[["stage4_unit1_relu1", 0, 0, {}]]], "config": {"strides": [2, 2], "kernel_constraint": null, "use_bias": false, "filters": 512, "kernel_regularizer": null, "kernel_initializer": {"config": {"scale": 2.0, "seed": null, "mode": "fan_in", "distribution": "uniform"}, "class_name": "VarianceScaling"}, "dilation_rate": [1, 1], "bias_constraint": null, "trainable": true, "activation": "linear", "bias_initializer": {"config": {}, "class_name": "Zeros"}, "data_format": "channels_last", "activity_regularizer": null, "name": "stage4_unit1_sc", "kernel_size": [1, 1], "bias_regularizer": null, "padding": "valid"}, "class_name": "Conv2D"}, {"name": "add_31", "inbound_nodes": [[["stage4_unit1_conv2", 0, 0, {}], ["stage4_unit1_sc", 0, 0, {}]]], "config": {"name": "add_31", "trainable": true}, "class_name": "Add"}, {"name": "stage4_unit2_bn1", "inbound_nodes": [[["add_31", 0, 0, {}]]], "config": {"scale": true, "beta_initializer": {"config": {}, "class_name": "Zeros"}, "gamma_regularizer": null, "moving_variance_initializer": {"config": {}, "class_name": "Ones"}, "beta_constraint": null, "trainable": true, "beta_regularizer": null, "gamma_constraint": null, "momentum": 0.99, "name": "stage4_unit2_bn1", "gamma_initializer": {"config": {}, "class_name": "Ones"}, "moving_mean_initializer": {"config": {}, "class_name": "Zeros"}, "axis": 3, "center": true, "epsilon": 2e-05}, "class_name": "BatchNormalization"}, {"name": "stage4_unit2_relu1", "inbound_nodes": [[["stage4_unit2_bn1", 0, 0, {}]]], "config": {"name": "stage4_unit2_relu1", "trainable": true, "activation": "relu"}, "class_name": "Activation"}, {"name": "zero_padding2d_71", "inbound_nodes": [[["stage4_unit2_relu1", 0, 0, {}]]], "config": {"name": "zero_padding2d_71", "data_format": "channels_last", "trainable": true, "padding": [[1, 1], [1, 1]]}, "class_name": "ZeroPadding2D"}, {"name": "stage4_unit2_conv1", "inbound_nodes": [[["zero_padding2d_71", 0, 0, {}]]], "config": {"strides": [1, 1], "kernel_constraint": null, "use_bias": false, "filters": 512, "kernel_regularizer": null, "kernel_initializer": {"config": {"scale": 2.0, "seed": null, "mode": "fan_in", "distribution": "uniform"}, "class_name": "VarianceScaling"}, "dilation_rate": [1, 1], "bias_constraint": null, "trainable": true, "activation": "linear", "bias_initializer": {"config": {}, "class_name": "Zeros"}, "data_format": "channels_last", "activity_regularizer": null, "name": "stage4_unit2_conv1", "kernel_size": [3, 3], "bias_regularizer": null, "padding": "valid"}, "class_name": "Conv2D"}, {"name": "stage4_unit2_bn2", "inbound_nodes": [[["stage4_unit2_conv1", 0, 0, {}]]], "config": {"scale": true, "beta_initializer": {"config": {}, "class_name": "Zeros"}, "gamma_regularizer": null, "moving_variance_initializer": {"config": {}, "class_name": "Ones"}, "beta_constraint": null, "trainable": true, "beta_regularizer": null, "gamma_constraint": null, "momentum": 0.99, "name": "stage4_unit2_bn2", "gamma_initializer": {"config": {}, "class_name": "Ones"}, "moving_mean_initializer": {"config": {}, "class_name": "Zeros"}, "axis": 3, "center": true, "epsilon": 2e-05}, "class_name": "BatchNormalization"}, {"name": "stage4_unit2_relu2", "inbound_nodes": [[["stage4_unit2_bn2", 0, 0, {}]]], "config": {"name": "stage4_unit2_relu2", "trainable": true, "activation": "relu"}, "class_name": "Activation"}, {"name": "zero_padding2d_72", "inbound_nodes": [[["stage4_unit2_relu2", 0, 0, {}]]], "config": {"name": "zero_padding2d_72", "data_format": "channels_last", "trainable": true, "padding": [[1, 1], [1, 1]]}, "class_name": "ZeroPadding2D"}, {"name": "stage4_unit2_conv2", "inbound_nodes": [[["zero_padding2d_72", 0, 0, {}]]], "config": {"strides": [1, 1], "kernel_constraint": null, "use_bias": false, "filters": 512, "kernel_regularizer": null, "kernel_initializer": {"config": {"scale": 2.0, "seed": null, "mode": "fan_in", "distribution": "uniform"}, "class_name": "VarianceScaling"}, "dilation_rate": [1, 1], "bias_constraint": null, "trainable": true, "activation": "linear", "bias_initializer": {"config": {}, "class_name": "Zeros"}, "data_format": "channels_last", "activity_regularizer": null, "name": "stage4_unit2_conv2", "kernel_size": [3, 3], "bias_regularizer": null, "padding": "valid"}, "class_name": "Conv2D"}, {"name": "add_32", "inbound_nodes": [[["stage4_unit2_conv2", 0, 0, {}], ["add_31", 0, 0, {}]]], "config": {"name": "add_32", "trainable": true}, "class_name": "Add"}, {"name": "bn1", "inbound_nodes": [[["add_32", 0, 0, {}]]], "config": {"scale": true, "beta_initializer": {"config": {}, "class_name": "Zeros"}, "gamma_regularizer": null, "moving_variance_initializer": {"config": {}, "class_name": "Ones"}, "beta_constraint": null, "trainable": true, "beta_regularizer": null, "gamma_constraint": null, "momentum": 0.99, "name": "bn1", "gamma_initializer": {"config": {}, "class_name": "Ones"}, "moving_mean_initializer": {"config": {}, "class_name": "Zeros"}, "axis": 3, "center": true, "epsilon": 2e-05}, "class_name": "BatchNormalization"}, {"name": "relu1", "inbound_nodes": [[["bn1", 0, 0, {}]]], "config": {"name": "relu1", "trainable": true, "activation": "relu"}, "class_name": "Activation"}, {"name": "decoder_stage0_upsample", "inbound_nodes": [[["relu1", 0, 0, {}]]], "config": {"name": "decoder_stage0_upsample", "size": [2, 2], "interpolation": "nearest", "trainable": true, "data_format": "channels_last"}, "class_name": "UpSampling2D"}, {"name": "concatenate_13", "inbound_nodes": [[["decoder_stage0_upsample", 0, 0, {}], ["stage4_unit1_relu1", 0, 0, {}]]], "config": {"name": "concatenate_13", "axis": -1, "trainable": true}, "class_name": "Concatenate"}, {"name": "decoder_stage0_conv1", "inbound_nodes": [[["concatenate_13", 0, 0, {}]]], "config": {"strides": [1, 1], "kernel_constraint": null, "use_bias": false, "filters": 256, "kernel_regularizer": null, "kernel_initializer": {"config": {"scale": 1.0, "seed": null, "mode": "fan_avg", "distribution": "uniform"}, "class_name": "VarianceScaling"}, "dilation_rate": [1, 1], "bias_constraint": null, "trainable": true, "activation": "linear", "bias_initializer": {"config": {}, "class_name": "Zeros"}, "data_format": "channels_last", "activity_regularizer": null, "name": "decoder_stage0_conv1", "kernel_size": [3, 3], "bias_regularizer": null, "padding": "same"}, "class_name": "Conv2D"}, {"name": "decoder_stage0_bn1", "inbound_nodes": [[["decoder_stage0_conv1", 0, 0, {}]]], "config": {"scale": true, "beta_initializer": {"config": {}, "class_name": "Zeros"}, "gamma_regularizer": null, "moving_variance_initializer": {"config": {}, "class_name": "Ones"}, "beta_constraint": null, "trainable": true, "beta_regularizer": null, "gamma_constraint": null, "momentum": 0.99, "name": "decoder_stage0_bn1", "gamma_initializer": {"config": {}, "class_name": "Ones"}, "moving_mean_initializer": {"config": {}, "class_name": "Zeros"}, "axis": -1, "center": true, "epsilon": 0.001}, "class_name": "BatchNormalization"}, {"name": "decoder_stage0_relu1", "inbound_nodes": [[["decoder_stage0_bn1", 0, 0, {}]]], "config": {"name": "decoder_stage0_relu1", "trainable": true, "activation": "relu"}, "class_name": "Activation"}, {"name": "decoder_stage0_conv2", "inbound_nodes": [[["decoder_stage0_relu1", 0, 0, {}]]], "config": {"strides": [1, 1], "kernel_constraint": null, "use_bias": false, "filters": 256, "kernel_regularizer": null, "kernel_initializer": {"config": {"scale": 1.0, "seed": null, "mode": "fan_avg", "distribution": "uniform"}, "class_name": "VarianceScaling"}, "dilation_rate": [1, 1], "bias_constraint": null, "trainable": true, "activation": "linear", "bias_initializer": {"config": {}, "class_name": "Zeros"}, "data_format": "channels_last", "activity_regularizer": null, "name": "decoder_stage0_conv2", "kernel_size": [3, 3], "bias_regularizer": null, "padding": "same"}, "class_name": "Conv2D"}, {"name": "decoder_stage0_bn2", "inbound_nodes": [[["decoder_stage0_conv2", 0, 0, {}]]], "config": {"scale": true, "beta_initializer": {"config": {}, "class_name": "Zeros"}, "gamma_regularizer": null, "moving_variance_initializer": {"config": {}, "class_name": "Ones"}, "beta_constraint": null, "trainable": true, "beta_regularizer": null, "gamma_constraint": null, "momentum": 0.99, "name": "decoder_stage0_bn2", "gamma_initializer": {"config": {}, "class_name": "Ones"}, "moving_mean_initializer": {"config": {}, "class_name": "Zeros"}, "axis": -1, "center": true, "epsilon": 0.001}, "class_name": "BatchNormalization"}, {"name": "decoder_stage0_relu2", "inbound_nodes": [[["decoder_stage0_bn2", 0, 0, {}]]], "config": {"name": "decoder_stage0_relu2", "trainable": true, "activation": "relu"}, "class_name": "Activation"}, {"name": "decoder_stage1_upsample", "inbound_nodes": [[["decoder_stage0_relu2", 0, 0, {}]]], "config": {"name": "decoder_stage1_upsample", "size": [2, 2], "interpolation": "nearest", "trainable": true, "data_format": "channels_last"}, "class_name": "UpSampling2D"}, {"name": "concatenate_14", "inbound_nodes": [[["decoder_stage1_upsample", 0, 0, {}], ["stage3_unit1_relu1", 0, 0, {}]]], "config": {"name": "concatenate_14", "axis": -1, "trainable": true}, "class_name": "Concatenate"}, {"name": "decoder_stage1_conv1", "inbound_nodes": [[["concatenate_14", 0, 0, {}]]], "config": {"strides": [1, 1], "kernel_constraint": null, "use_bias": false, "filters": 128, "kernel_regularizer": null, "kernel_initializer": {"config": {"scale": 1.0, "seed": null, "mode": "fan_avg", "distribution": "uniform"}, "class_name": "VarianceScaling"}, "dilation_rate": [1, 1], "bias_constraint": null, "trainable": true, "activation": "linear", "bias_initializer": {"config": {}, "class_name": "Zeros"}, "data_format": "channels_last", "activity_regularizer": null, "name": "decoder_stage1_conv1", "kernel_size": [3, 3], "bias_regularizer": null, "padding": "same"}, "class_name": "Conv2D"}, {"name": "decoder_stage1_bn1", "inbound_nodes": [[["decoder_stage1_conv1", 0, 0, {}]]], "config": {"scale": true, "beta_initializer": {"config": {}, "class_name": "Zeros"}, "gamma_regularizer": null, "moving_variance_initializer": {"config": {}, "class_name": "Ones"}, "beta_constraint": null, "trainable": true, "beta_regularizer": null, "gamma_constraint": null, "momentum": 0.99, "name": "decoder_stage1_bn1", "gamma_initializer": {"config": {}, "class_name": "Ones"}, "moving_mean_initializer": {"config": {}, "class_name": "Zeros"}, "axis": -1, "center": true, "epsilon": 0.001}, "class_name": "BatchNormalization"}, {"name": "decoder_stage1_relu1", "inbound_nodes": [[["decoder_stage1_bn1", 0, 0, {}]]], "config": {"name": "decoder_stage1_relu1", "trainable": true, "activation": "relu"}, "class_name": "Activation"}, {"name": "decoder_stage1_conv2", "inbound_nodes": [[["decoder_stage1_relu1", 0, 0, {}]]], "config": {"strides": [1, 1], "kernel_constraint": null, "use_bias": false, "filters": 128, "kernel_regularizer": null, "kernel_initializer": {"config": {"scale": 1.0, "seed": null, "mode": "fan_avg", "distribution": "uniform"}, "class_name": "VarianceScaling"}, "dilation_rate": [1, 1], "bias_constraint": null, "trainable": true, "activation": "linear", "bias_initializer": {"config": {}, "class_name": "Zeros"}, "data_format": "channels_last", "activity_regularizer": null, "name": "decoder_stage1_conv2", "kernel_size": [3, 3], "bias_regularizer": null, "padding": "same"}, "class_name": "Conv2D"}, {"name": "decoder_stage1_bn2", "inbound_nodes": [[["decoder_stage1_conv2", 0, 0, {}]]], "config": {"scale": true, "beta_initializer": {"config": {}, "class_name": "Zeros"}, "gamma_regularizer": null, "moving_variance_initializer": {"config": {}, "class_name": "Ones"}, "beta_constraint": null, "trainable": true, "beta_regularizer": null, "gamma_constraint": null, "momentum": 0.99, "name": "decoder_stage1_bn2", "gamma_initializer": {"config": {}, "class_name": "Ones"}, "moving_mean_initializer": {"config": {}, "class_name": "Zeros"}, "axis": -1, "center": true, "epsilon": 0.001}, "class_name": "BatchNormalization"}, {"name": "decoder_stage1_relu2", "inbound_nodes": [[["decoder_stage1_bn2", 0, 0, {}]]], "config": {"name": "decoder_stage1_relu2", "trainable": true, "activation": "relu"}, "class_name": "Activation"}, {"name": "decoder_stage2_upsample", "inbound_nodes": [[["decoder_stage1_relu2", 0, 0, {}]]], "config": {"name": "decoder_stage2_upsample", "size": [2, 2], "interpolation": "nearest", "trainable": true, "data_format": "channels_last"}, "class_name": "UpSampling2D"}, {"name": "concatenate_15", "inbound_nodes": [[["decoder_stage2_upsample", 0, 0, {}], ["stage2_unit1_relu1", 0, 0, {}]]], "config": {"name": "concatenate_15", "axis": -1, "trainable": true}, "class_name": "Concatenate"}, {"name": "decoder_stage2_conv1", "inbound_nodes": [[["concatenate_15", 0, 0, {}]]], "config": {"strides": [1, 1], "kernel_constraint": null, "use_bias": false, "filters": 64, "kernel_regularizer": null, "kernel_initializer": {"config": {"scale": 1.0, "seed": null, "mode": "fan_avg", "distribution": "uniform"}, "class_name": "VarianceScaling"}, "dilation_rate": [1, 1], "bias_constraint": null, "trainable": true, "activation": "linear", "bias_initializer": {"config": {}, "class_name": "Zeros"}, "data_format": "channels_last", "activity_regularizer": null, "name": "decoder_stage2_conv1", "kernel_size": [3, 3], "bias_regularizer": null, "padding": "same"}, "class_name": "Conv2D"}, {"name": "decoder_stage2_bn1", "inbound_nodes": [[["decoder_stage2_conv1", 0, 0, {}]]], "config": {"scale": true, "beta_initializer": {"config": {}, "class_name": "Zeros"}, "gamma_regularizer": null, "moving_variance_initializer": {"config": {}, "class_name": "Ones"}, "beta_constraint": null, "trainable": true, "beta_regularizer": null, "gamma_constraint": null, "momentum": 0.99, "name": "decoder_stage2_bn1", "gamma_initializer": {"config": {}, "class_name": "Ones"}, "moving_mean_initializer": {"config": {}, "class_name": "Zeros"}, "axis": -1, "center": true, "epsilon": 0.001}, "class_name": "BatchNormalization"}, {"name": "decoder_stage2_relu1", "inbound_nodes": [[["decoder_stage2_bn1", 0, 0, {}]]], "config": {"name": "decoder_stage2_relu1", "trainable": true, "activation": "relu"}, "class_name": "Activation"}, {"name": "decoder_stage2_conv2", "inbound_nodes": [[["decoder_stage2_relu1", 0, 0, {}]]], "config": {"strides": [1, 1], "kernel_constraint": null, "use_bias": false, "filters": 64, "kernel_regularizer": null, "kernel_initializer": {"config": {"scale": 1.0, "seed": null, "mode": "fan_avg", "distribution": "uniform"}, "class_name": "VarianceScaling"}, "dilation_rate": [1, 1], "bias_constraint": null, "trainable": true, "activation": "linear", "bias_initializer": {"config": {}, "class_name": "Zeros"}, "data_format": "channels_last", "activity_regularizer": null, "name": "decoder_stage2_conv2", "kernel_size": [3, 3], "bias_regularizer": null, "padding": "same"}, "class_name": "Conv2D"}, {"name": "decoder_stage2_bn2", "inbound_nodes": [[["decoder_stage2_conv2", 0, 0, {}]]], "config": {"scale": true, "beta_initializer": {"config": {}, "class_name": "Zeros"}, "gamma_regularizer": null, "moving_variance_initializer": {"config": {}, "class_name": "Ones"}, "beta_constraint": null, "trainable": true, "beta_regularizer": null, "gamma_constraint": null, "momentum": 0.99, "name": "decoder_stage2_bn2", "gamma_initializer": {"config": {}, "class_name": "Ones"}, "moving_mean_initializer": {"config": {}, "class_name": "Zeros"}, "axis": -1, "center": true, "epsilon": 0.001}, "class_name": "BatchNormalization"}, {"name": "decoder_stage2_relu2", "inbound_nodes": [[["decoder_stage2_bn2", 0, 0, {}]]], "config": {"name": "decoder_stage2_relu2", "trainable": true, "activation": "relu"}, "class_name": "Activation"}, {"name": "decoder_stage3_upsample", "inbound_nodes": [[["decoder_stage2_relu2", 0, 0, {}]]], "config": {"name": "decoder_stage3_upsample", "size": [2, 2], "interpolation": "nearest", "trainable": true, "data_format": "channels_last"}, "class_name": "UpSampling2D"}, {"name": "concatenate_16", "inbound_nodes": [[["decoder_stage3_upsample", 0, 0, {}], ["relu0", 0, 0, {}]]], "config": {"name": "concatenate_16", "axis": -1, "trainable": true}, "class_name": "Concatenate"}, {"name": "decoder_stage3_conv1", "inbound_nodes": [[["concatenate_16", 0, 0, {}]]], "config": {"strides": [1, 1], "kernel_constraint": null, "use_bias": false, "filters": 32, "kernel_regularizer": null, "kernel_initializer": {"config": {"scale": 1.0, "seed": null, "mode": "fan_avg", "distribution": "uniform"}, "class_name": "VarianceScaling"}, "dilation_rate": [1, 1], "bias_constraint": null, "trainable": true, "activation": "linear", "bias_initializer": {"config": {}, "class_name": "Zeros"}, "data_format": "channels_last", "activity_regularizer": null, "name": "decoder_stage3_conv1", "kernel_size": [3, 3], "bias_regularizer": null, "padding": "same"}, "class_name": "Conv2D"}, {"name": "decoder_stage3_bn1", "inbound_nodes": [[["decoder_stage3_conv1", 0, 0, {}]]], "config": {"scale": true, "beta_initializer": {"config": {}, "class_name": "Zeros"}, "gamma_regularizer": null, "moving_variance_initializer": {"config": {}, "class_name": "Ones"}, "beta_constraint": null, "trainable": true, "beta_regularizer": null, "gamma_constraint": null, "momentum": 0.99, "name": "decoder_stage3_bn1", "gamma_initializer": {"config": {}, "class_name": "Ones"}, "moving_mean_initializer": {"config": {}, "class_name": "Zeros"}, "axis": -1, "center": true, "epsilon": 0.001}, "class_name": "BatchNormalization"}, {"name": "decoder_stage3_relu1", "inbound_nodes": [[["decoder_stage3_bn1", 0, 0, {}]]], "config": {"name": "decoder_stage3_relu1", "trainable": true, "activation": "relu"}, "class_name": "Activation"}, {"name": "decoder_stage3_conv2", "inbound_nodes": [[["decoder_stage3_relu1", 0, 0, {}]]], "config": {"strides": [1, 1], "kernel_constraint": null, "use_bias": false, "filters": 32, "kernel_regularizer": null, "kernel_initializer": {"config": {"scale": 1.0, "seed": null, "mode": "fan_avg", "distribution": "uniform"}, "class_name": "VarianceScaling"}, "dilation_rate": [1, 1], "bias_constraint": null, "trainable": true, "activation": "linear", "bias_initializer": {"config": {}, "class_name": "Zeros"}, "data_format": "channels_last", "activity_regularizer": null, "name": "decoder_stage3_conv2", "kernel_size": [3, 3], "bias_regularizer": null, "padding": "same"}, "class_name": "Conv2D"}, {"name": "decoder_stage3_bn2", "inbound_nodes": [[["decoder_stage3_conv2", 0, 0, {}]]], "config": {"scale": true, "beta_initializer": {"config": {}, "class_name": "Zeros"}, "gamma_regularizer": null, "moving_variance_initializer": {"config": {}, "class_name": "Ones"}, "beta_constraint": null, "trainable": true, "beta_regularizer": null, "gamma_constraint": null, "momentum": 0.99, "name": "decoder_stage3_bn2", "gamma_initializer": {"config": {}, "class_name": "Ones"}, "moving_mean_initializer": {"config": {}, "class_name": "Zeros"}, "axis": -1, "center": true, "epsilon": 0.001}, "class_name": "BatchNormalization"}, {"name": "decoder_stage3_relu2", "inbound_nodes": [[["decoder_stage3_bn2", 0, 0, {}]]], "config": {"name": "decoder_stage3_relu2", "trainable": true, "activation": "relu"}, "class_name": "Activation"}, {"name": "decoder_stage4_upsample", "inbound_nodes": [[["decoder_stage3_relu2", 0, 0, {}]]], "config": {"name": "decoder_stage4_upsample", "size": [2, 2], "interpolation": "nearest", "trainable": true, "data_format": "channels_last"}, "class_name": "UpSampling2D"}, {"name": "decoder_stage4_conv1", "inbound_nodes": [[["decoder_stage4_upsample", 0, 0, {}]]], "config": {"strides": [1, 1], "kernel_constraint": null, "use_bias": false, "filters": 16, "kernel_regularizer": null, "kernel_initializer": {"config": {"scale": 1.0, "seed": null, "mode": "fan_avg", "distribution": "uniform"}, "class_name": "VarianceScaling"}, "dilation_rate": [1, 1], "bias_constraint": null, "trainable": true, "activation": "linear", "bias_initializer": {"config": {}, "class_name": "Zeros"}, "data_format": "channels_last", "activity_regularizer": null, "name": "decoder_stage4_conv1", "kernel_size": [3, 3], "bias_regularizer": null, "padding": "same"}, "class_name": "Conv2D"}, {"name": "decoder_stage4_bn1", "inbound_nodes": [[["decoder_stage4_conv1", 0, 0, {}]]], "config": {"scale": true, "beta_initializer": {"config": {}, "class_name": "Zeros"}, "gamma_regularizer": null, "moving_variance_initializer": {"config": {}, "class_name": "Ones"}, "beta_constraint": null, "trainable": true, "beta_regularizer": null, "gamma_constraint": null, "momentum": 0.99, "name": "decoder_stage4_bn1", "gamma_initializer": {"config": {}, "class_name": "Ones"}, "moving_mean_initializer": {"config": {}, "class_name": "Zeros"}, "axis": -1, "center": true, "epsilon": 0.001}, "class_name": "BatchNormalization"}, {"name": "decoder_stage4_relu1", "inbound_nodes": [[["decoder_stage4_bn1", 0, 0, {}]]], "config": {"name": "decoder_stage4_relu1", "trainable": true, "activation": "relu"}, "class_name": "Activation"}, {"name": "decoder_stage4_conv2", "inbound_nodes": [[["decoder_stage4_relu1", 0, 0, {}]]], "config": {"strides": [1, 1], "kernel_constraint": null, "use_bias": false, "filters": 16, "kernel_regularizer": null, "kernel_initializer": {"config": {"scale": 1.0, "seed": null, "mode": "fan_avg", "distribution": "uniform"}, "class_name": "VarianceScaling"}, "dilation_rate": [1, 1], "bias_constraint": null, "trainable": true, "activation": "linear", "bias_initializer": {"config": {}, "class_name": "Zeros"}, "data_format": "channels_last", "activity_regularizer": null, "name": "decoder_stage4_conv2", "kernel_size": [3, 3], "bias_regularizer": null, "padding": "same"}, "class_name": "Conv2D"}, {"name": "decoder_stage4_bn2", "inbound_nodes": [[["decoder_stage4_conv2", 0, 0, {}]]], "config": {"scale": true, "beta_initializer": {"config": {}, "class_name": "Zeros"}, "gamma_regularizer": null, "moving_variance_initializer": {"config": {}, "class_name": "Ones"}, "beta_constraint": null, "trainable": true, "beta_regularizer": null, "gamma_constraint": null, "momentum": 0.99, "name": "decoder_stage4_bn2", "gamma_initializer": {"config": {}, "class_name": "Ones"}, "moving_mean_initializer": {"config": {}, "class_name": "Zeros"}, "axis": -1, "center": true, "epsilon": 0.001}, "class_name": "BatchNormalization"}, {"name": "decoder_stage4_relu2", "inbound_nodes": [[["decoder_stage4_bn2", 0, 0, {}]]], "config": {"name": "decoder_stage4_relu2", "trainable": true, "activation": "relu"}, "class_name": "Activation"}, {"name": "final_conv", "inbound_nodes": [[["decoder_stage4_relu2", 0, 0, {}]]], "config": {"strides": [1, 1], "kernel_constraint": null, "use_bias": true, "filters": 1, "kernel_regularizer": null, "kernel_initializer": {"config": {"scale": 1.0, "seed": null, "mode": "fan_avg", "distribution": "uniform"}, "class_name": "VarianceScaling"}, "dilation_rate": [1, 1], "bias_constraint": null, "trainable": true, "activation": "linear", "bias_initializer": {"config": {}, "class_name": "Zeros"}, "data_format": "channels_last", "activity_regularizer": null, "name": "final_conv", "kernel_size": [3, 3], "bias_regularizer": null, "padding": "same"}, "class_name": "Conv2D"}, {"name": "sigmoid", "inbound_nodes": [[["final_conv", 0, 0, {}]]], "config": {"name": "sigmoid", "trainable": true, "activation": "sigmoid"}, "class_name": "Activation"}], "input_layers": [["data", 0, 0]], "output_layers": [["sigmoid", 0, 0]]}, "class_name": "Model"}