{"backend": "tensorflow", "keras_version": "2.2.4", "class_name": "Model", "config": {"output_layers": [["sigmoid", 0, 0]], "input_layers": [["data", 0, 0]], "layers": [{"inbound_nodes": [], "name": "data", "class_name": "InputLayer", "config": {"sparse": false, "name": "data", "batch_input_shape": [null, null, null, 3], "dtype": "float32"}}, {"inbound_nodes": [[["data", 0, 0, {}]]], "name": "bn_data", "class_name": "BatchNormalization", "config": {"axis": 3, "moving_mean_initializer": {"class_name": "Zeros", "config": {}}, "beta_regularizer": null, "gamma_constraint": null, "name": "bn_data", "trainable": true, "epsilon": 2e-05, "center": true, "beta_initializer": {"class_name": "Zeros", "config": {}}, "scale": false, "gamma_regularizer": null, "beta_constraint": null, "gamma_initializer": {"class_name": "Ones", "config": {}}, "momentum": 0.99, "moving_variance_initializer": {"class_name": "Ones", "config": {}}}}, {"inbound_nodes": [[["bn_data", 0, 0, {}]]], "name": "zero_padding2d_105", "class_name": "ZeroPadding2D", "config": {"padding": [[3, 3], [3, 3]], "data_format": "channels_last", "name": "zero_padding2d_105", "trainable": true}}, {"inbound_nodes": [[["zero_padding2d_105", 0, 0, {}]]], "name": "conv0", "class_name": "Conv2D", "config": {"padding": "valid", "bias_regularizer": null, "strides": [2, 2], "kernel_regularizer": null, "name": "conv0", "bias_constraint": null, "filters": 64, "trainable": true, "activity_regularizer": null, "kernel_size": [7, 7], "dilation_rate": [1, 1], "use_bias": false, "activation": "linear", "data_format": "channels_last", "kernel_constraint": null, "bias_initializer": {"class_name": "Zeros", "config": {}}, "kernel_initializer": {"class_name": "VarianceScaling", "config": {"scale": 2.0, "mode": "fan_in", "distribution": "uniform", "seed": null}}}}, {"inbound_nodes": [[["conv0", 0, 0, {}]]], "name": "bn0", "class_name": "BatchNormalization", "config": {"axis": 3, "moving_mean_initializer": {"class_name": "Zeros", "config": {}}, "beta_regularizer": null, "gamma_constraint": null, "name": "bn0", "trainable": true, "epsilon": 2e-05, "center": true, "beta_initializer": {"class_name": "Zeros", "config": {}}, "scale": true, "gamma_regularizer": null, "beta_constraint": null, "gamma_initializer": {"class_name": "Ones", "config": {}}, "momentum": 0.99, "moving_variance_initializer": {"class_name": "Ones", "config": {}}}}, {"inbound_nodes": [[["bn0", 0, 0, {}]]], "name": "relu0", "class_name": "Activation", "config": {"name": "relu0", "trainable": true, "activation": "relu"}}, {"inbound_nodes": [[["relu0", 0, 0, {}]]], "name": "zero_padding2d_106", "class_name": "ZeroPadding2D", "config": {"padding": [[1, 1], [1, 1]], "data_format": "channels_last", "name": "zero_padding2d_106", "trainable": true}}, {"inbound_nodes": [[["zero_padding2d_106", 0, 0, {}]]], "name": "pooling0", "class_name": "MaxPooling2D", "config": {"padding": "valid", "pool_size": [3, 3], "strides": [2, 2], "data_format": "channels_last", "name": "pooling0", "trainable": true}}, {"inbound_nodes": [[["pooling0", 0, 0, {}]]], "name": "stage1_unit1_bn1", "class_name": "BatchNormalization", "config": {"axis": 3, "moving_mean_initializer": {"class_name": "Zeros", "config": {}}, "beta_regularizer": null, "gamma_constraint": null, "name": "stage1_unit1_bn1", "trainable": true, "epsilon": 2e-05, "center": true, "beta_initializer": {"class_name": "Zeros", "config": {}}, "scale": true, "gamma_regularizer": null, "beta_constraint": null, "gamma_initializer": {"class_name": "Ones", "config": {}}, "momentum": 0.99, "moving_variance_initializer": {"class_name": "Ones", "config": {}}}}, {"inbound_nodes": [[["stage1_unit1_bn1", 0, 0, {}]]], "name": "stage1_unit1_relu1", "class_name": "Activation", "config": {"name": "stage1_unit1_relu1", "trainable": true, "activation": "relu"}}, {"inbound_nodes": [[["stage1_unit1_relu1", 0, 0, {}]]], "name": "zero_padding2d_107", "class_name": "ZeroPadding2D", "config": {"padding": [[1, 1], [1, 1]], "data_format": "channels_last", "name": "zero_padding2d_107", "trainable": true}}, {"inbound_nodes": [[["zero_padding2d_107", 0, 0, {}]]], "name": "stage1_unit1_conv1", "class_name": "Conv2D", "config": {"padding": "valid", "bias_regularizer": null, "strides": [1, 1], "kernel_regularizer": null, "name": "stage1_unit1_conv1", "bias_constraint": null, "filters": 64, "trainable": true, "activity_regularizer": null, "kernel_size": [3, 3], "dilation_rate": [1, 1], "use_bias": false, "activation": "linear", "data_format": "channels_last", "kernel_constraint": null, "bias_initializer": {"class_name": "Zeros", "config": {}}, "kernel_initializer": {"class_name": "VarianceScaling", "config": {"scale": 2.0, "mode": "fan_in", "distribution": "uniform", "seed": null}}}}, {"inbound_nodes": [[["stage1_unit1_conv1", 0, 0, {}]]], "name": "stage1_unit1_bn2", "class_name": "BatchNormalization", "config": {"axis": 3, "moving_mean_initializer": {"class_name": "Zeros", "config": {}}, "beta_regularizer": null, "gamma_constraint": null, "name": "stage1_unit1_bn2", "trainable": true, "epsilon": 2e-05, "center": true, "beta_initializer": {"class_name": "Zeros", "config": {}}, "scale": true, "gamma_regularizer": null, "beta_constraint": null, "gamma_initializer": {"class_name": "Ones", "config": {}}, "momentum": 0.99, "moving_variance_initializer": {"class_name": "Ones", "config": {}}}}, {"inbound_nodes": [[["stage1_unit1_bn2", 0, 0, {}]]], "name": "stage1_unit1_relu2", "class_name": "Activation", "config": {"name": "stage1_unit1_relu2", "trainable": true, "activation": "relu"}}, {"inbound_nodes": [[["stage1_unit1_relu2", 0, 0, {}]]], "name": "zero_padding2d_108", "class_name": "ZeroPadding2D", "config": {"padding": [[1, 1], [1, 1]], "data_format": "channels_last", "name": "zero_padding2d_108", "trainable": true}}, {"inbound_nodes": [[["zero_padding2d_108", 0, 0, {}]]], "name": "stage1_unit1_conv2", "class_name": "Conv2D", "config": {"padding": "valid", "bias_regularizer": null, "strides": [1, 1], "kernel_regularizer": null, "name": "stage1_unit1_conv2", "bias_constraint": null, "filters": 64, "trainable": true, "activity_regularizer": null, "kernel_size": [3, 3], "dilation_rate": [1, 1], "use_bias": false, "activation": "linear", "data_format": "channels_last", "kernel_constraint": null, "bias_initializer": {"class_name": "Zeros", "config": {}}, "kernel_initializer": {"class_name": "VarianceScaling", "config": {"scale": 2.0, "mode": "fan_in", "distribution": "uniform", "seed": null}}}}, {"inbound_nodes": [[["stage1_unit1_relu1", 0, 0, {}]]], "name": "stage1_unit1_sc", "class_name": "Conv2D", "config": {"padding": "valid", "bias_regularizer": null, "strides": [1, 1], "kernel_regularizer": null, "name": "stage1_unit1_sc", "bias_constraint": null, "filters": 64, "trainable": true, "activity_regularizer": null, "kernel_size": [1, 1], "dilation_rate": [1, 1], "use_bias": false, "activation": "linear", "data_format": "channels_last", "kernel_constraint": null, "bias_initializer": {"class_name": "Zeros", "config": {}}, "kernel_initializer": {"class_name": "VarianceScaling", "config": {"scale": 2.0, "mode": "fan_in", "distribution": "uniform", "seed": null}}}}, {"inbound_nodes": [[["stage1_unit1_conv2", 0, 0, {}], ["stage1_unit1_sc", 0, 0, {}]]], "name": "add_46", "class_name": "Add", "config": {"name": "add_46", "trainable": true}}, {"inbound_nodes": [[["add_46", 0, 0, {}]]], "name": "stage1_unit2_bn1", "class_name": "BatchNormalization", "config": {"axis": 3, "moving_mean_initializer": {"class_name": "Zeros", "config": {}}, "beta_regularizer": null, "gamma_constraint": null, "name": "stage1_unit2_bn1", "trainable": true, "epsilon": 2e-05, "center": true, "beta_initializer": {"class_name": "Zeros", "config": {}}, "scale": true, "gamma_regularizer": null, "beta_constraint": null, "gamma_initializer": {"class_name": "Ones", "config": {}}, "momentum": 0.99, "moving_variance_initializer": {"class_name": "Ones", "config": {}}}}, {"inbound_nodes": [[["stage1_unit2_bn1", 0, 0, {}]]], "name": "stage1_unit2_relu1", "class_name": "Activation", "config": {"name": "stage1_unit2_relu1", "trainable": true, "activation": "relu"}}, {"inbound_nodes": [[["stage1_unit2_relu1", 0, 0, {}]]], "name": "zero_padding2d_109", "class_name": "ZeroPadding2D", "config": {"padding": [[1, 1], [1, 1]], "data_format": "channels_last", "name": "zero_padding2d_109", "trainable": true}}, {"inbound_nodes": [[["zero_padding2d_109", 0, 0, {}]]], "name": "stage1_unit2_conv1", "class_name": "Conv2D", "config": {"padding": "valid", "bias_regularizer": null, "strides": [1, 1], "kernel_regularizer": null, "name": "stage1_unit2_conv1", "bias_constraint": null, "filters": 64, "trainable": true, "activity_regularizer": null, "kernel_size": [3, 3], "dilation_rate": [1, 1], "use_bias": false, "activation": "linear", "data_format": "channels_last", "kernel_constraint": null, "bias_initializer": {"class_name": "Zeros", "config": {}}, "kernel_initializer": {"class_name": "VarianceScaling", "config": {"scale": 2.0, "mode": "fan_in", "distribution": "uniform", "seed": null}}}}, {"inbound_nodes": [[["stage1_unit2_conv1", 0, 0, {}]]], "name": "stage1_unit2_bn2", "class_name": "BatchNormalization", "config": {"axis": 3, "moving_mean_initializer": {"class_name": "Zeros", "config": {}}, "beta_regularizer": null, "gamma_constraint": null, "name": "stage1_unit2_bn2", "trainable": true, "epsilon": 2e-05, "center": true, "beta_initializer": {"class_name": "Zeros", "config": {}}, "scale": true, "gamma_regularizer": null, "beta_constraint": null, "gamma_initializer": {"class_name": "Ones", "config": {}}, "momentum": 0.99, "moving_variance_initializer": {"class_name": "Ones", "config": {}}}}, {"inbound_nodes": [[["stage1_unit2_bn2", 0, 0, {}]]], "name": "stage1_unit2_relu2", "class_name": "Activation", "config": {"name": "stage1_unit2_relu2", "trainable": true, "activation": "relu"}}, {"inbound_nodes": [[["stage1_unit2_relu2", 0, 0, {}]]], "name": "zero_padding2d_110", "class_name": "ZeroPadding2D", "config": {"padding": [[1, 1], [1, 1]], "data_format": "channels_last", "name": "zero_padding2d_110", "trainable": true}}, {"inbound_nodes": [[["zero_padding2d_110", 0, 0, {}]]], "name": "stage1_unit2_conv2", "class_name": "Conv2D", "config": {"padding": "valid", "bias_regularizer": null, "strides": [1, 1], "kernel_regularizer": null, "name": "stage1_unit2_conv2", "bias_constraint": null, "filters": 64, "trainable": true, "activity_regularizer": null, "kernel_size": [3, 3], "dilation_rate": [1, 1], "use_bias": false, "activation": "linear", "data_format": "channels_last", "kernel_constraint": null, "bias_initializer": {"class_name": "Zeros", "config": {}}, "kernel_initializer": {"class_name": "VarianceScaling", "config": {"scale": 2.0, "mode": "fan_in", "distribution": "uniform", "seed": null}}}}, {"inbound_nodes": [[["stage1_unit2_conv2", 0, 0, {}], ["add_46", 0, 0, {}]]], "name": "add_47", "class_name": "Add", "config": {"name": "add_47", "trainable": true}}, {"inbound_nodes": [[["add_47", 0, 0, {}]]], "name": "stage2_unit1_bn1", "class_name": "BatchNormalization", "config": {"axis": 3, "moving_mean_initializer": {"class_name": "Zeros", "config": {}}, "beta_regularizer": null, "gamma_constraint": null, "name": "stage2_unit1_bn1", "trainable": true, "epsilon": 2e-05, "center": true, "beta_initializer": {"class_name": "Zeros", "config": {}}, "scale": true, "gamma_regularizer": null, "beta_constraint": null, "gamma_initializer": {"class_name": "Ones", "config": {}}, "momentum": 0.99, "moving_variance_initializer": {"class_name": "Ones", "config": {}}}}, {"inbound_nodes": [[["stage2_unit1_bn1", 0, 0, {}]]], "name": "stage2_unit1_relu1", "class_name": "Activation", "config": {"name": "stage2_unit1_relu1", "trainable": true, "activation": "relu"}}, {"inbound_nodes": [[["stage2_unit1_relu1", 0, 0, {}]]], "name": "zero_padding2d_111", "class_name": "ZeroPadding2D", "config": {"padding": [[1, 1], [1, 1]], "data_format": "channels_last", "name": "zero_padding2d_111", "trainable": true}}, {"inbound_nodes": [[["zero_padding2d_111", 0, 0, {}]]], "name": "stage2_unit1_conv1", "class_name": "Conv2D", "config": {"padding": "valid", "bias_regularizer": null, "strides": [2, 2], "kernel_regularizer": null, "name": "stage2_unit1_conv1", "bias_constraint": null, "filters": 128, "trainable": true, "activity_regularizer": null, "kernel_size": [3, 3], "dilation_rate": [1, 1], "use_bias": false, "activation": "linear", "data_format": "channels_last", "kernel_constraint": null, "bias_initializer": {"class_name": "Zeros", "config": {}}, "kernel_initializer": {"class_name": "VarianceScaling", "config": {"scale": 2.0, "mode": "fan_in", "distribution": "uniform", "seed": null}}}}, {"inbound_nodes": [[["stage2_unit1_conv1", 0, 0, {}]]], "name": "stage2_unit1_bn2", "class_name": "BatchNormalization", "config": {"axis": 3, "moving_mean_initializer": {"class_name": "Zeros", "config": {}}, "beta_regularizer": null, "gamma_constraint": null, "name": "stage2_unit1_bn2", "trainable": true, "epsilon": 2e-05, "center": true, "beta_initializer": {"class_name": "Zeros", "config": {}}, "scale": true, "gamma_regularizer": null, "beta_constraint": null, "gamma_initializer": {"class_name": "Ones", "config": {}}, "momentum": 0.99, "moving_variance_initializer": {"class_name": "Ones", "config": {}}}}, {"inbound_nodes": [[["stage2_unit1_bn2", 0, 0, {}]]], "name": "stage2_unit1_relu2", "class_name": "Activation", "config": {"name": "stage2_unit1_relu2", "trainable": true, "activation": "relu"}}, {"inbound_nodes": [[["stage2_unit1_relu2", 0, 0, {}]]], "name": "zero_padding2d_112", "class_name": "ZeroPadding2D", "config": {"padding": [[1, 1], [1, 1]], "data_format": "channels_last", "name": "zero_padding2d_112", "trainable": true}}, {"inbound_nodes": [[["zero_padding2d_112", 0, 0, {}]]], "name": "stage2_unit1_conv2", "class_name": "Conv2D", "config": {"padding": "valid", "bias_regularizer": null, "strides": [1, 1], "kernel_regularizer": null, "name": "stage2_unit1_conv2", "bias_constraint": null, "filters": 128, "trainable": true, "activity_regularizer": null, "kernel_size": [3, 3], "dilation_rate": [1, 1], "use_bias": false, "activation": "linear", "data_format": "channels_last", "kernel_constraint": null, "bias_initializer": {"class_name": "Zeros", "config": {}}, "kernel_initializer": {"class_name": "VarianceScaling", "config": {"scale": 2.0, "mode": "fan_in", "distribution": "uniform", "seed": null}}}}, {"inbound_nodes": [[["stage2_unit1_relu1", 0, 0, {}]]], "name": "stage2_unit1_sc", "class_name": "Conv2D", "config": {"padding": "valid", "bias_regularizer": null, "strides": [2, 2], "kernel_regularizer": null, "name": "stage2_unit1_sc", "bias_constraint": null, "filters": 128, "trainable": true, "activity_regularizer": null, "kernel_size": [1, 1], "dilation_rate": [1, 1], "use_bias": false, "activation": "linear", "data_format": "channels_last", "kernel_constraint": null, "bias_initializer": {"class_name": "Zeros", "config": {}}, "kernel_initializer": {"class_name": "VarianceScaling", "config": {"scale": 2.0, "mode": "fan_in", "distribution": "uniform", "seed": null}}}}, {"inbound_nodes": [[["stage2_unit1_conv2", 0, 0, {}], ["stage2_unit1_sc", 0, 0, {}]]], "name": "add_48", "class_name": "Add", "config": {"name": "add_48", "trainable": true}}, {"inbound_nodes": [[["add_48", 0, 0, {}]]], "name": "stage2_unit2_bn1", "class_name": "BatchNormalization", "config": {"axis": 3, "moving_mean_initializer": {"class_name": "Zeros", "config": {}}, "beta_regularizer": null, "gamma_constraint": null, "name": "stage2_unit2_bn1", "trainable": true, "epsilon": 2e-05, "center": true, "beta_initializer": {"class_name": "Zeros", "config": {}}, "scale": true, "gamma_regularizer": null, "beta_constraint": null, "gamma_initializer": {"class_name": "Ones", "config": {}}, "momentum": 0.99, "moving_variance_initializer": {"class_name": "Ones", "config": {}}}}, {"inbound_nodes": [[["stage2_unit2_bn1", 0, 0, {}]]], "name": "stage2_unit2_relu1", "class_name": "Activation", "config": {"name": "stage2_unit2_relu1", "trainable": true, "activation": "relu"}}, {"inbound_nodes": [[["stage2_unit2_relu1", 0, 0, {}]]], "name": "zero_padding2d_113", "class_name": "ZeroPadding2D", "config": {"padding": [[1, 1], [1, 1]], "data_format": "channels_last", "name": "zero_padding2d_113", "trainable": true}}, {"inbound_nodes": [[["zero_padding2d_113", 0, 0, {}]]], "name": "stage2_unit2_conv1", "class_name": "Conv2D", "config": {"padding": "valid", "bias_regularizer": null, "strides": [1, 1], "kernel_regularizer": null, "name": "stage2_unit2_conv1", "bias_constraint": null, "filters": 128, "trainable": true, "activity_regularizer": null, "kernel_size": [3, 3], "dilation_rate": [1, 1], "use_bias": false, "activation": "linear", "data_format": "channels_last", "kernel_constraint": null, "bias_initializer": {"class_name": "Zeros", "config": {}}, "kernel_initializer": {"class_name": "VarianceScaling", "config": {"scale": 2.0, "mode": "fan_in", "distribution": "uniform", "seed": null}}}}, {"inbound_nodes": [[["stage2_unit2_conv1", 0, 0, {}]]], "name": "stage2_unit2_bn2", "class_name": "BatchNormalization", "config": {"axis": 3, "moving_mean_initializer": {"class_name": "Zeros", "config": {}}, "beta_regularizer": null, "gamma_constraint": null, "name": "stage2_unit2_bn2", "trainable": true, "epsilon": 2e-05, "center": true, "beta_initializer": {"class_name": "Zeros", "config": {}}, "scale": true, "gamma_regularizer": null, "beta_constraint": null, "gamma_initializer": {"class_name": "Ones", "config": {}}, "momentum": 0.99, "moving_variance_initializer": {"class_name": "Ones", "config": {}}}}, {"inbound_nodes": [[["stage2_unit2_bn2", 0, 0, {}]]], "name": "stage2_unit2_relu2", "class_name": "Activation", "config": {"name": "stage2_unit2_relu2", "trainable": true, "activation": "relu"}}, {"inbound_nodes": [[["stage2_unit2_relu2", 0, 0, {}]]], "name": "zero_padding2d_114", "class_name": "ZeroPadding2D", "config": {"padding": [[1, 1], [1, 1]], "data_format": "channels_last", "name": "zero_padding2d_114", "trainable": true}}, {"inbound_nodes": [[["zero_padding2d_114", 0, 0, {}]]], "name": "stage2_unit2_conv2", "class_name": "Conv2D", "config": {"padding": "valid", "bias_regularizer": null, "strides": [1, 1], "kernel_regularizer": null, "name": "stage2_unit2_conv2", "bias_constraint": null, "filters": 128, "trainable": true, "activity_regularizer": null, "kernel_size": [3, 3], "dilation_rate": [1, 1], "use_bias": false, "activation": "linear", "data_format": "channels_last", "kernel_constraint": null, "bias_initializer": {"class_name": "Zeros", "config": {}}, "kernel_initializer": {"class_name": "VarianceScaling", "config": {"scale": 2.0, "mode": "fan_in", "distribution": "uniform", "seed": null}}}}, {"inbound_nodes": [[["stage2_unit2_conv2", 0, 0, {}], ["add_48", 0, 0, {}]]], "name": "add_49", "class_name": "Add", "config": {"name": "add_49", "trainable": true}}, {"inbound_nodes": [[["add_49", 0, 0, {}]]], "name": "stage3_unit1_bn1", "class_name": "BatchNormalization", "config": {"axis": 3, "moving_mean_initializer": {"class_name": "Zeros", "config": {}}, "beta_regularizer": null, "gamma_constraint": null, "name": "stage3_unit1_bn1", "trainable": true, "epsilon": 2e-05, "center": true, "beta_initializer": {"class_name": "Zeros", "config": {}}, "scale": true, "gamma_regularizer": null, "beta_constraint": null, "gamma_initializer": {"class_name": "Ones", "config": {}}, "momentum": 0.99, "moving_variance_initializer": {"class_name": "Ones", "config": {}}}}, {"inbound_nodes": [[["stage3_unit1_bn1", 0, 0, {}]]], "name": "stage3_unit1_relu1", "class_name": "Activation", "config": {"name": "stage3_unit1_relu1", "trainable": true, "activation": "relu"}}, {"inbound_nodes": [[["stage3_unit1_relu1", 0, 0, {}]]], "name": "zero_padding2d_115", "class_name": "ZeroPadding2D", "config": {"padding": [[1, 1], [1, 1]], "data_format": "channels_last", "name": "zero_padding2d_115", "trainable": true}}, {"inbound_nodes": [[["zero_padding2d_115", 0, 0, {}]]], "name": "stage3_unit1_conv1", "class_name": "Conv2D", "config": {"padding": "valid", "bias_regularizer": null, "strides": [2, 2], "kernel_regularizer": null, "name": "stage3_unit1_conv1", "bias_constraint": null, "filters": 256, "trainable": true, "activity_regularizer": null, "kernel_size": [3, 3], "dilation_rate": [1, 1], "use_bias": false, "activation": "linear", "data_format": "channels_last", "kernel_constraint": null, "bias_initializer": {"class_name": "Zeros", "config": {}}, "kernel_initializer": {"class_name": "VarianceScaling", "config": {"scale": 2.0, "mode": "fan_in", "distribution": "uniform", "seed": null}}}}, {"inbound_nodes": [[["stage3_unit1_conv1", 0, 0, {}]]], "name": "stage3_unit1_bn2", "class_name": "BatchNormalization", "config": {"axis": 3, "moving_mean_initializer": {"class_name": "Zeros", "config": {}}, "beta_regularizer": null, "gamma_constraint": null, "name": "stage3_unit1_bn2", "trainable": true, "epsilon": 2e-05, "center": true, "beta_initializer": {"class_name": "Zeros", "config": {}}, "scale": true, "gamma_regularizer": null, "beta_constraint": null, "gamma_initializer": {"class_name": "Ones", "config": {}}, "momentum": 0.99, "moving_variance_initializer": {"class_name": "Ones", "config": {}}}}, {"inbound_nodes": [[["stage3_unit1_bn2", 0, 0, {}]]], "name": "stage3_unit1_relu2", "class_name": "Activation", "config": {"name": "stage3_unit1_relu2", "trainable": true, "activation": "relu"}}, {"inbound_nodes": [[["stage3_unit1_relu2", 0, 0, {}]]], "name": "zero_padding2d_116", "class_name": "ZeroPadding2D", "config": {"padding": [[1, 1], [1, 1]], "data_format": "channels_last", "name": "zero_padding2d_116", "trainable": true}}, {"inbound_nodes": [[["zero_padding2d_116", 0, 0, {}]]], "name": "stage3_unit1_conv2", "class_name": "Conv2D", "config": {"padding": "valid", "bias_regularizer": null, "strides": [1, 1], "kernel_regularizer": null, "name": "stage3_unit1_conv2", "bias_constraint": null, "filters": 256, "trainable": true, "activity_regularizer": null, "kernel_size": [3, 3], "dilation_rate": [1, 1], "use_bias": false, "activation": "linear", "data_format": "channels_last", "kernel_constraint": null, "bias_initializer": {"class_name": "Zeros", "config": {}}, "kernel_initializer": {"class_name": "VarianceScaling", "config": {"scale": 2.0, "mode": "fan_in", "distribution": "uniform", "seed": null}}}}, {"inbound_nodes": [[["stage3_unit1_relu1", 0, 0, {}]]], "name": "stage3_unit1_sc", "class_name": "Conv2D", "config": {"padding": "valid", "bias_regularizer": null, "strides": [2, 2], "kernel_regularizer": null, "name": "stage3_unit1_sc", "bias_constraint": null, "filters": 256, "trainable": true, "activity_regularizer": null, "kernel_size": [1, 1], "dilation_rate": [1, 1], "use_bias": false, "activation": "linear", "data_format": "channels_last", "kernel_constraint": null, "bias_initializer": {"class_name": "Zeros", "config": {}}, "kernel_initializer": {"class_name": "VarianceScaling", "config": {"scale": 2.0, "mode": "fan_in", "distribution": "uniform", "seed": null}}}}, {"inbound_nodes": [[["stage3_unit1_conv2", 0, 0, {}], ["stage3_unit1_sc", 0, 0, {}]]], "name": "add_50", "class_name": "Add", "config": {"name": "add_50", "trainable": true}}, {"inbound_nodes": [[["add_50", 0, 0, {}]]], "name": "stage3_unit2_bn1", "class_name": "BatchNormalization", "config": {"axis": 3, "moving_mean_initializer": {"class_name": "Zeros", "config": {}}, "beta_regularizer": null, "gamma_constraint": null, "name": "stage3_unit2_bn1", "trainable": true, "epsilon": 2e-05, "center": true, "beta_initializer": {"class_name": "Zeros", "config": {}}, "scale": true, "gamma_regularizer": null, "beta_constraint": null, "gamma_initializer": {"class_name": "Ones", "config": {}}, "momentum": 0.99, "moving_variance_initializer": {"class_name": "Ones", "config": {}}}}, {"inbound_nodes": [[["stage3_unit2_bn1", 0, 0, {}]]], "name": "stage3_unit2_relu1", "class_name": "Activation", "config": {"name": "stage3_unit2_relu1", "trainable": true, "activation": "relu"}}, {"inbound_nodes": [[["stage3_unit2_relu1", 0, 0, {}]]], "name": "zero_padding2d_117", "class_name": "ZeroPadding2D", "config": {"padding": [[1, 1], [1, 1]], "data_format": "channels_last", "name": "zero_padding2d_117", "trainable": true}}, {"inbound_nodes": [[["zero_padding2d_117", 0, 0, {}]]], "name": "stage3_unit2_conv1", "class_name": "Conv2D", "config": {"padding": "valid", "bias_regularizer": null, "strides": [1, 1], "kernel_regularizer": null, "name": "stage3_unit2_conv1", "bias_constraint": null, "filters": 256, "trainable": true, "activity_regularizer": null, "kernel_size": [3, 3], "dilation_rate": [1, 1], "use_bias": false, "activation": "linear", "data_format": "channels_last", "kernel_constraint": null, "bias_initializer": {"class_name": "Zeros", "config": {}}, "kernel_initializer": {"class_name": "VarianceScaling", "config": {"scale": 2.0, "mode": "fan_in", "distribution": "uniform", "seed": null}}}}, {"inbound_nodes": [[["stage3_unit2_conv1", 0, 0, {}]]], "name": "stage3_unit2_bn2", "class_name": "BatchNormalization", "config": {"axis": 3, "moving_mean_initializer": {"class_name": "Zeros", "config": {}}, "beta_regularizer": null, "gamma_constraint": null, "name": "stage3_unit2_bn2", "trainable": true, "epsilon": 2e-05, "center": true, "beta_initializer": {"class_name": "Zeros", "config": {}}, "scale": true, "gamma_regularizer": null, "beta_constraint": null, "gamma_initializer": {"class_name": "Ones", "config": {}}, "momentum": 0.99, "moving_variance_initializer": {"class_name": "Ones", "config": {}}}}, {"inbound_nodes": [[["stage3_unit2_bn2", 0, 0, {}]]], "name": "stage3_unit2_relu2", "class_name": "Activation", "config": {"name": "stage3_unit2_relu2", "trainable": true, "activation": "relu"}}, {"inbound_nodes": [[["stage3_unit2_relu2", 0, 0, {}]]], "name": "zero_padding2d_118", "class_name": "ZeroPadding2D", "config": {"padding": [[1, 1], [1, 1]], "data_format": "channels_last", "name": "zero_padding2d_118", "trainable": true}}, {"inbound_nodes": [[["zero_padding2d_118", 0, 0, {}]]], "name": "stage3_unit2_conv2", "class_name": "Conv2D", "config": {"padding": "valid", "bias_regularizer": null, "strides": [1, 1], "kernel_regularizer": null, "name": "stage3_unit2_conv2", "bias_constraint": null, "filters": 256, "trainable": true, "activity_regularizer": null, "kernel_size": [3, 3], "dilation_rate": [1, 1], "use_bias": false, "activation": "linear", "data_format": "channels_last", "kernel_constraint": null, "bias_initializer": {"class_name": "Zeros", "config": {}}, "kernel_initializer": {"class_name": "VarianceScaling", "config": {"scale": 2.0, "mode": "fan_in", "distribution": "uniform", "seed": null}}}}, {"inbound_nodes": [[["stage3_unit2_conv2", 0, 0, {}], ["add_50", 0, 0, {}]]], "name": "add_51", "class_name": "Add", "config": {"name": "add_51", "trainable": true}}, {"inbound_nodes": [[["add_51", 0, 0, {}]]], "name": "stage4_unit1_bn1", "class_name": "BatchNormalization", "config": {"axis": 3, "moving_mean_initializer": {"class_name": "Zeros", "config": {}}, "beta_regularizer": null, "gamma_constraint": null, "name": "stage4_unit1_bn1", "trainable": true, "epsilon": 2e-05, "center": true, "beta_initializer": {"class_name": "Zeros", "config": {}}, "scale": true, "gamma_regularizer": null, "beta_constraint": null, "gamma_initializer": {"class_name": "Ones", "config": {}}, "momentum": 0.99, "moving_variance_initializer": {"class_name": "Ones", "config": {}}}}, {"inbound_nodes": [[["stage4_unit1_bn1", 0, 0, {}]]], "name": "stage4_unit1_relu1", "class_name": "Activation", "config": {"name": "stage4_unit1_relu1", "trainable": true, "activation": "relu"}}, {"inbound_nodes": [[["stage4_unit1_relu1", 0, 0, {}]]], "name": "zero_padding2d_119", "class_name": "ZeroPadding2D", "config": {"padding": [[1, 1], [1, 1]], "data_format": "channels_last", "name": "zero_padding2d_119", "trainable": true}}, {"inbound_nodes": [[["zero_padding2d_119", 0, 0, {}]]], "name": "stage4_unit1_conv1", "class_name": "Conv2D", "config": {"padding": "valid", "bias_regularizer": null, "strides": [2, 2], "kernel_regularizer": null, "name": "stage4_unit1_conv1", "bias_constraint": null, "filters": 512, "trainable": true, "activity_regularizer": null, "kernel_size": [3, 3], "dilation_rate": [1, 1], "use_bias": false, "activation": "linear", "data_format": "channels_last", "kernel_constraint": null, "bias_initializer": {"class_name": "Zeros", "config": {}}, "kernel_initializer": {"class_name": "VarianceScaling", "config": {"scale": 2.0, "mode": "fan_in", "distribution": "uniform", "seed": null}}}}, {"inbound_nodes": [[["stage4_unit1_conv1", 0, 0, {}]]], "name": "stage4_unit1_bn2", "class_name": "BatchNormalization", "config": {"axis": 3, "moving_mean_initializer": {"class_name": "Zeros", "config": {}}, "beta_regularizer": null, "gamma_constraint": null, "name": "stage4_unit1_bn2", "trainable": true, "epsilon": 2e-05, "center": true, "beta_initializer": {"class_name": "Zeros", "config": {}}, "scale": true, "gamma_regularizer": null, "beta_constraint": null, "gamma_initializer": {"class_name": "Ones", "config": {}}, "momentum": 0.99, "moving_variance_initializer": {"class_name": "Ones", "config": {}}}}, {"inbound_nodes": [[["stage4_unit1_bn2", 0, 0, {}]]], "name": "stage4_unit1_relu2", "class_name": "Activation", "config": {"name": "stage4_unit1_relu2", "trainable": true, "activation": "relu"}}, {"inbound_nodes": [[["stage4_unit1_relu2", 0, 0, {}]]], "name": "zero_padding2d_120", "class_name": "ZeroPadding2D", "config": {"padding": [[1, 1], [1, 1]], "data_format": "channels_last", "name": "zero_padding2d_120", "trainable": true}}, {"inbound_nodes": [[["zero_padding2d_120", 0, 0, {}]]], "name": "stage4_unit1_conv2", "class_name": "Conv2D", "config": {"padding": "valid", "bias_regularizer": null, "strides": [1, 1], "kernel_regularizer": null, "name": "stage4_unit1_conv2", "bias_constraint": null, "filters": 512, "trainable": true, "activity_regularizer": null, "kernel_size": [3, 3], "dilation_rate": [1, 1], "use_bias": false, "activation": "linear", "data_format": "channels_last", "kernel_constraint": null, "bias_initializer": {"class_name": "Zeros", "config": {}}, "kernel_initializer": {"class_name": "VarianceScaling", "config": {"scale": 2.0, "mode": "fan_in", "distribution": "uniform", "seed": null}}}}, {"inbound_nodes": [[["stage4_unit1_relu1", 0, 0, {}]]], "name": "stage4_unit1_sc", "class_name": "Conv2D", "config": {"padding": "valid", "bias_regularizer": null, "strides": [2, 2], "kernel_regularizer": null, "name": "stage4_unit1_sc", "bias_constraint": null, "filters": 512, "trainable": true, "activity_regularizer": null, "kernel_size": [1, 1], "dilation_rate": [1, 1], "use_bias": false, "activation": "linear", "data_format": "channels_last", "kernel_constraint": null, "bias_initializer": {"class_name": "Zeros", "config": {}}, "kernel_initializer": {"class_name": "VarianceScaling", "config": {"scale": 2.0, "mode": "fan_in", "distribution": "uniform", "seed": null}}}}, {"inbound_nodes": [[["stage4_unit1_conv2", 0, 0, {}], ["stage4_unit1_sc", 0, 0, {}]]], "name": "add_52", "class_name": "Add", "config": {"name": "add_52", "trainable": true}}, {"inbound_nodes": [[["add_52", 0, 0, {}]]], "name": "stage4_unit2_bn1", "class_name": "BatchNormalization", "config": {"axis": 3, "moving_mean_initializer": {"class_name": "Zeros", "config": {}}, "beta_regularizer": null, "gamma_constraint": null, "name": "stage4_unit2_bn1", "trainable": true, "epsilon": 2e-05, "center": true, "beta_initializer": {"class_name": "Zeros", "config": {}}, "scale": true, "gamma_regularizer": null, "beta_constraint": null, "gamma_initializer": {"class_name": "Ones", "config": {}}, "momentum": 0.99, "moving_variance_initializer": {"class_name": "Ones", "config": {}}}}, {"inbound_nodes": [[["stage4_unit2_bn1", 0, 0, {}]]], "name": "stage4_unit2_relu1", "class_name": "Activation", "config": {"name": "stage4_unit2_relu1", "trainable": true, "activation": "relu"}}, {"inbound_nodes": [[["stage4_unit2_relu1", 0, 0, {}]]], "name": "zero_padding2d_121", "class_name": "ZeroPadding2D", "config": {"padding": [[1, 1], [1, 1]], "data_format": "channels_last", "name": "zero_padding2d_121", "trainable": true}}, {"inbound_nodes": [[["zero_padding2d_121", 0, 0, {}]]], "name": "stage4_unit2_conv1", "class_name": "Conv2D", "config": {"padding": "valid", "bias_regularizer": null, "strides": [1, 1], "kernel_regularizer": null, "name": "stage4_unit2_conv1", "bias_constraint": null, "filters": 512, "trainable": true, "activity_regularizer": null, "kernel_size": [3, 3], "dilation_rate": [1, 1], "use_bias": false, "activation": "linear", "data_format": "channels_last", "kernel_constraint": null, "bias_initializer": {"class_name": "Zeros", "config": {}}, "kernel_initializer": {"class_name": "VarianceScaling", "config": {"scale": 2.0, "mode": "fan_in", "distribution": "uniform", "seed": null}}}}, {"inbound_nodes": [[["stage4_unit2_conv1", 0, 0, {}]]], "name": "stage4_unit2_bn2", "class_name": "BatchNormalization", "config": {"axis": 3, "moving_mean_initializer": {"class_name": "Zeros", "config": {}}, "beta_regularizer": null, "gamma_constraint": null, "name": "stage4_unit2_bn2", "trainable": true, "epsilon": 2e-05, "center": true, "beta_initializer": {"class_name": "Zeros", "config": {}}, "scale": true, "gamma_regularizer": null, "beta_constraint": null, "gamma_initializer": {"class_name": "Ones", "config": {}}, "momentum": 0.99, "moving_variance_initializer": {"class_name": "Ones", "config": {}}}}, {"inbound_nodes": [[["stage4_unit2_bn2", 0, 0, {}]]], "name": "stage4_unit2_relu2", "class_name": "Activation", "config": {"name": "stage4_unit2_relu2", "trainable": true, "activation": "relu"}}, {"inbound_nodes": [[["stage4_unit2_relu2", 0, 0, {}]]], "name": "zero_padding2d_122", "class_name": "ZeroPadding2D", "config": {"padding": [[1, 1], [1, 1]], "data_format": "channels_last", "name": "zero_padding2d_122", "trainable": true}}, {"inbound_nodes": [[["zero_padding2d_122", 0, 0, {}]]], "name": "stage4_unit2_conv2", "class_name": "Conv2D", "config": {"padding": "valid", "bias_regularizer": null, "strides": [1, 1], "kernel_regularizer": null, "name": "stage4_unit2_conv2", "bias_constraint": null, "filters": 512, "trainable": true, "activity_regularizer": null, "kernel_size": [3, 3], "dilation_rate": [1, 1], "use_bias": false, "activation": "linear", "data_format": "channels_last", "kernel_constraint": null, "bias_initializer": {"class_name": "Zeros", "config": {}}, "kernel_initializer": {"class_name": "VarianceScaling", "config": {"scale": 2.0, "mode": "fan_in", "distribution": "uniform", "seed": null}}}}, {"inbound_nodes": [[["stage4_unit2_conv2", 0, 0, {}], ["add_52", 0, 0, {}]]], "name": "add_53", "class_name": "Add", "config": {"name": "add_53", "trainable": true}}, {"inbound_nodes": [[["add_53", 0, 0, {}]]], "name": "bn1", "class_name": "BatchNormalization", "config": {"axis": 3, "moving_mean_initializer": {"class_name": "Zeros", "config": {}}, "beta_regularizer": null, "gamma_constraint": null, "name": "bn1", "trainable": true, "epsilon": 2e-05, "center": true, "beta_initializer": {"class_name": "Zeros", "config": {}}, "scale": true, "gamma_regularizer": null, "beta_constraint": null, "gamma_initializer": {"class_name": "Ones", "config": {}}, "momentum": 0.99, "moving_variance_initializer": {"class_name": "Ones", "config": {}}}}, {"inbound_nodes": [[["bn1", 0, 0, {}]]], "name": "relu1", "class_name": "Activation", "config": {"name": "relu1", "trainable": true, "activation": "relu"}}, {"inbound_nodes": [[["relu1", 0, 0, {}]]], "name": "decoder_stage0_upsample", "class_name": "UpSampling2D", "config": {"data_format": "channels_last", "name": "decoder_stage0_upsample", "size": [2, 2], "trainable": true, "interpolation": "nearest"}}, {"inbound_nodes": [[["decoder_stage0_upsample", 0, 0, {}], ["stage4_unit1_relu1", 0, 0, {}]]], "name": "concatenate_5", "class_name": "Concatenate", "config": {"axis": -1, "name": "concatenate_5", "trainable": true}}, {"inbound_nodes": [[["concatenate_5", 0, 0, {}]]], "name": "decoder_stage0_conv1", "class_name": "Conv2D", "config": {"padding": "same", "bias_regularizer": null, "strides": [1, 1], "kernel_regularizer": null, "name": "decoder_stage0_conv1", "bias_constraint": null, "filters": 256, "trainable": true, "activity_regularizer": null, "kernel_size": [3, 3], "dilation_rate": [1, 1], "use_bias": false, "activation": "linear", "data_format": "channels_last", "kernel_constraint": null, "bias_initializer": {"class_name": "Zeros", "config": {}}, "kernel_initializer": {"class_name": "VarianceScaling", "config": {"scale": 1.0, "mode": "fan_avg", "distribution": "uniform", "seed": null}}}}, {"inbound_nodes": [[["decoder_stage0_conv1", 0, 0, {}]]], "name": "decoder_stage0_bn1", "class_name": "BatchNormalization", "config": {"axis": -1, "moving_mean_initializer": {"class_name": "Zeros", "config": {}}, "beta_regularizer": null, "gamma_constraint": null, "name": "decoder_stage0_bn1", "trainable": true, "epsilon": 0.001, "center": true, "beta_initializer": {"class_name": "Zeros", "config": {}}, "scale": true, "gamma_regularizer": null, "beta_constraint": null, "gamma_initializer": {"class_name": "Ones", "config": {}}, "momentum": 0.99, "moving_variance_initializer": {"class_name": "Ones", "config": {}}}}, {"inbound_nodes": [[["decoder_stage0_bn1", 0, 0, {}]]], "name": "decoder_stage0_relu1", "class_name": "Activation", "config": {"name": "decoder_stage0_relu1", "trainable": true, "activation": "relu"}}, {"inbound_nodes": [[["decoder_stage0_relu1", 0, 0, {}]]], "name": "decoder_stage0_conv2", "class_name": "Conv2D", "config": {"padding": "same", "bias_regularizer": null, "strides": [1, 1], "kernel_regularizer": null, "name": "decoder_stage0_conv2", "bias_constraint": null, "filters": 256, "trainable": true, "activity_regularizer": null, "kernel_size": [3, 3], "dilation_rate": [1, 1], "use_bias": false, "activation": "linear", "data_format": "channels_last", "kernel_constraint": null, "bias_initializer": {"class_name": "Zeros", "config": {}}, "kernel_initializer": {"class_name": "VarianceScaling", "config": {"scale": 1.0, "mode": "fan_avg", "distribution": "uniform", "seed": null}}}}, {"inbound_nodes": [[["decoder_stage0_conv2", 0, 0, {}]]], "name": "decoder_stage0_bn2", "class_name": "BatchNormalization", "config": {"axis": -1, "moving_mean_initializer": {"class_name": "Zeros", "config": {}}, "beta_regularizer": null, "gamma_constraint": null, "name": "decoder_stage0_bn2", "trainable": true, "epsilon": 0.001, "center": true, "beta_initializer": {"class_name": "Zeros", "config": {}}, "scale": true, "gamma_regularizer": null, "beta_constraint": null, "gamma_initializer": {"class_name": "Ones", "config": {}}, "momentum": 0.99, "moving_variance_initializer": {"class_name": "Ones", "config": {}}}}, {"inbound_nodes": [[["decoder_stage0_bn2", 0, 0, {}]]], "name": "decoder_stage0_relu2", "class_name": "Activation", "config": {"name": "decoder_stage0_relu2", "trainable": true, "activation": "relu"}}, {"inbound_nodes": [[["decoder_stage0_relu2", 0, 0, {}]]], "name": "decoder_stage1_upsample", "class_name": "UpSampling2D", "config": {"data_format": "channels_last", "name": "decoder_stage1_upsample", "size": [2, 2], "trainable": true, "interpolation": "nearest"}}, {"inbound_nodes": [[["decoder_stage1_upsample", 0, 0, {}], ["stage3_unit1_relu1", 0, 0, {}]]], "name": "concatenate_6", "class_name": "Concatenate", "config": {"axis": -1, "name": "concatenate_6", "trainable": true}}, {"inbound_nodes": [[["concatenate_6", 0, 0, {}]]], "name": "decoder_stage1_conv1", "class_name": "Conv2D", "config": {"padding": "same", "bias_regularizer": null, "strides": [1, 1], "kernel_regularizer": null, "name": "decoder_stage1_conv1", "bias_constraint": null, "filters": 128, "trainable": true, "activity_regularizer": null, "kernel_size": [3, 3], "dilation_rate": [1, 1], "use_bias": false, "activation": "linear", "data_format": "channels_last", "kernel_constraint": null, "bias_initializer": {"class_name": "Zeros", "config": {}}, "kernel_initializer": {"class_name": "VarianceScaling", "config": {"scale": 1.0, "mode": "fan_avg", "distribution": "uniform", "seed": null}}}}, {"inbound_nodes": [[["decoder_stage1_conv1", 0, 0, {}]]], "name": "decoder_stage1_bn1", "class_name": "BatchNormalization", "config": {"axis": -1, "moving_mean_initializer": {"class_name": "Zeros", "config": {}}, "beta_regularizer": null, "gamma_constraint": null, "name": "decoder_stage1_bn1", "trainable": true, "epsilon": 0.001, "center": true, "beta_initializer": {"class_name": "Zeros", "config": {}}, "scale": true, "gamma_regularizer": null, "beta_constraint": null, "gamma_initializer": {"class_name": "Ones", "config": {}}, "momentum": 0.99, "moving_variance_initializer": {"class_name": "Ones", "config": {}}}}, {"inbound_nodes": [[["decoder_stage1_bn1", 0, 0, {}]]], "name": "decoder_stage1_relu1", "class_name": "Activation", "config": {"name": "decoder_stage1_relu1", "trainable": true, "activation": "relu"}}, {"inbound_nodes": [[["decoder_stage1_relu1", 0, 0, {}]]], "name": "decoder_stage1_conv2", "class_name": "Conv2D", "config": {"padding": "same", "bias_regularizer": null, "strides": [1, 1], "kernel_regularizer": null, "name": "decoder_stage1_conv2", "bias_constraint": null, "filters": 128, "trainable": true, "activity_regularizer": null, "kernel_size": [3, 3], "dilation_rate": [1, 1], "use_bias": false, "activation": "linear", "data_format": "channels_last", "kernel_constraint": null, "bias_initializer": {"class_name": "Zeros", "config": {}}, "kernel_initializer": {"class_name": "VarianceScaling", "config": {"scale": 1.0, "mode": "fan_avg", "distribution": "uniform", "seed": null}}}}, {"inbound_nodes": [[["decoder_stage1_conv2", 0, 0, {}]]], "name": "decoder_stage1_bn2", "class_name": "BatchNormalization", "config": {"axis": -1, "moving_mean_initializer": {"class_name": "Zeros", "config": {}}, "beta_regularizer": null, "gamma_constraint": null, "name": "decoder_stage1_bn2", "trainable": true, "epsilon": 0.001, "center": true, "beta_initializer": {"class_name": "Zeros", "config": {}}, "scale": true, "gamma_regularizer": null, "beta_constraint": null, "gamma_initializer": {"class_name": "Ones", "config": {}}, "momentum": 0.99, "moving_variance_initializer": {"class_name": "Ones", "config": {}}}}, {"inbound_nodes": [[["decoder_stage1_bn2", 0, 0, {}]]], "name": "decoder_stage1_relu2", "class_name": "Activation", "config": {"name": "decoder_stage1_relu2", "trainable": true, "activation": "relu"}}, {"inbound_nodes": [[["decoder_stage1_relu2", 0, 0, {}]]], "name": "decoder_stage2_upsample", "class_name": "UpSampling2D", "config": {"data_format": "channels_last", "name": "decoder_stage2_upsample", "size": [2, 2], "trainable": true, "interpolation": "nearest"}}, {"inbound_nodes": [[["decoder_stage2_upsample", 0, 0, {}], ["stage2_unit1_relu1", 0, 0, {}]]], "name": "concatenate_7", "class_name": "Concatenate", "config": {"axis": -1, "name": "concatenate_7", "trainable": true}}, {"inbound_nodes": [[["concatenate_7", 0, 0, {}]]], "name": "decoder_stage2_conv1", "class_name": "Conv2D", "config": {"padding": "same", "bias_regularizer": null, "strides": [1, 1], "kernel_regularizer": null, "name": "decoder_stage2_conv1", "bias_constraint": null, "filters": 64, "trainable": true, "activity_regularizer": null, "kernel_size": [3, 3], "dilation_rate": [1, 1], "use_bias": false, "activation": "linear", "data_format": "channels_last", "kernel_constraint": null, "bias_initializer": {"class_name": "Zeros", "config": {}}, "kernel_initializer": {"class_name": "VarianceScaling", "config": {"scale": 1.0, "mode": "fan_avg", "distribution": "uniform", "seed": null}}}}, {"inbound_nodes": [[["decoder_stage2_conv1", 0, 0, {}]]], "name": "decoder_stage2_bn1", "class_name": "BatchNormalization", "config": {"axis": -1, "moving_mean_initializer": {"class_name": "Zeros", "config": {}}, "beta_regularizer": null, "gamma_constraint": null, "name": "decoder_stage2_bn1", "trainable": true, "epsilon": 0.001, "center": true, "beta_initializer": {"class_name": "Zeros", "config": {}}, "scale": true, "gamma_regularizer": null, "beta_constraint": null, "gamma_initializer": {"class_name": "Ones", "config": {}}, "momentum": 0.99, "moving_variance_initializer": {"class_name": "Ones", "config": {}}}}, {"inbound_nodes": [[["decoder_stage2_bn1", 0, 0, {}]]], "name": "decoder_stage2_relu1", "class_name": "Activation", "config": {"name": "decoder_stage2_relu1", "trainable": true, "activation": "relu"}}, {"inbound_nodes": [[["decoder_stage2_relu1", 0, 0, {}]]], "name": "decoder_stage2_conv2", "class_name": "Conv2D", "config": {"padding": "same", "bias_regularizer": null, "strides": [1, 1], "kernel_regularizer": null, "name": "decoder_stage2_conv2", "bias_constraint": null, "filters": 64, "trainable": true, "activity_regularizer": null, "kernel_size": [3, 3], "dilation_rate": [1, 1], "use_bias": false, "activation": "linear", "data_format": "channels_last", "kernel_constraint": null, "bias_initializer": {"class_name": "Zeros", "config": {}}, "kernel_initializer": {"class_name": "VarianceScaling", "config": {"scale": 1.0, "mode": "fan_avg", "distribution": "uniform", "seed": null}}}}, {"inbound_nodes": [[["decoder_stage2_conv2", 0, 0, {}]]], "name": "decoder_stage2_bn2", "class_name": "BatchNormalization", "config": {"axis": -1, "moving_mean_initializer": {"class_name": "Zeros", "config": {}}, "beta_regularizer": null, "gamma_constraint": null, "name": "decoder_stage2_bn2", "trainable": true, "epsilon": 0.001, "center": true, "beta_initializer": {"class_name": "Zeros", "config": {}}, "scale": true, "gamma_regularizer": null, "beta_constraint": null, "gamma_initializer": {"class_name": "Ones", "config": {}}, "momentum": 0.99, "moving_variance_initializer": {"class_name": "Ones", "config": {}}}}, {"inbound_nodes": [[["decoder_stage2_bn2", 0, 0, {}]]], "name": "decoder_stage2_relu2", "class_name": "Activation", "config": {"name": "decoder_stage2_relu2", "trainable": true, "activation": "relu"}}, {"inbound_nodes": [[["decoder_stage2_relu2", 0, 0, {}]]], "name": "decoder_stage3_upsample", "class_name": "UpSampling2D", "config": {"data_format": "channels_last", "name": "decoder_stage3_upsample", "size": [2, 2], "trainable": true, "interpolation": "nearest"}}, {"inbound_nodes": [[["decoder_stage3_upsample", 0, 0, {}], ["relu0", 0, 0, {}]]], "name": "concatenate_8", "class_name": "Concatenate", "config": {"axis": -1, "name": "concatenate_8", "trainable": true}}, {"inbound_nodes": [[["concatenate_8", 0, 0, {}]]], "name": "decoder_stage3_conv1", "class_name": "Conv2D", "config": {"padding": "same", "bias_regularizer": null, "strides": [1, 1], "kernel_regularizer": null, "name": "decoder_stage3_conv1", "bias_constraint": null, "filters": 32, "trainable": true, "activity_regularizer": null, "kernel_size": [3, 3], "dilation_rate": [1, 1], "use_bias": false, "activation": "linear", "data_format": "channels_last", "kernel_constraint": null, "bias_initializer": {"class_name": "Zeros", "config": {}}, "kernel_initializer": {"class_name": "VarianceScaling", "config": {"scale": 1.0, "mode": "fan_avg", "distribution": "uniform", "seed": null}}}}, {"inbound_nodes": [[["decoder_stage3_conv1", 0, 0, {}]]], "name": "decoder_stage3_bn1", "class_name": "BatchNormalization", "config": {"axis": -1, "moving_mean_initializer": {"class_name": "Zeros", "config": {}}, "beta_regularizer": null, "gamma_constraint": null, "name": "decoder_stage3_bn1", "trainable": true, "epsilon": 0.001, "center": true, "beta_initializer": {"class_name": "Zeros", "config": {}}, "scale": true, "gamma_regularizer": null, "beta_constraint": null, "gamma_initializer": {"class_name": "Ones", "config": {}}, "momentum": 0.99, "moving_variance_initializer": {"class_name": "Ones", "config": {}}}}, {"inbound_nodes": [[["decoder_stage3_bn1", 0, 0, {}]]], "name": "decoder_stage3_relu1", "class_name": "Activation", "config": {"name": "decoder_stage3_relu1", "trainable": true, "activation": "relu"}}, {"inbound_nodes": [[["decoder_stage3_relu1", 0, 0, {}]]], "name": "decoder_stage3_conv2", "class_name": "Conv2D", "config": {"padding": "same", "bias_regularizer": null, "strides": [1, 1], "kernel_regularizer": null, "name": "decoder_stage3_conv2", "bias_constraint": null, "filters": 32, "trainable": true, "activity_regularizer": null, "kernel_size": [3, 3], "dilation_rate": [1, 1], "use_bias": false, "activation": "linear", "data_format": "channels_last", "kernel_constraint": null, "bias_initializer": {"class_name": "Zeros", "config": {}}, "kernel_initializer": {"class_name": "VarianceScaling", "config": {"scale": 1.0, "mode": "fan_avg", "distribution": "uniform", "seed": null}}}}, {"inbound_nodes": [[["decoder_stage3_conv2", 0, 0, {}]]], "name": "decoder_stage3_bn2", "class_name": "BatchNormalization", "config": {"axis": -1, "moving_mean_initializer": {"class_name": "Zeros", "config": {}}, "beta_regularizer": null, "gamma_constraint": null, "name": "decoder_stage3_bn2", "trainable": true, "epsilon": 0.001, "center": true, "beta_initializer": {"class_name": "Zeros", "config": {}}, "scale": true, "gamma_regularizer": null, "beta_constraint": null, "gamma_initializer": {"class_name": "Ones", "config": {}}, "momentum": 0.99, "moving_variance_initializer": {"class_name": "Ones", "config": {}}}}, {"inbound_nodes": [[["decoder_stage3_bn2", 0, 0, {}]]], "name": "decoder_stage3_relu2", "class_name": "Activation", "config": {"name": "decoder_stage3_relu2", "trainable": true, "activation": "relu"}}, {"inbound_nodes": [[["decoder_stage3_relu2", 0, 0, {}]]], "name": "decoder_stage4_upsample", "class_name": "UpSampling2D", "config": {"data_format": "channels_last", "name": "decoder_stage4_upsample", "size": [2, 2], "trainable": true, "interpolation": "nearest"}}, {"inbound_nodes": [[["decoder_stage4_upsample", 0, 0, {}]]], "name": "decoder_stage4_conv1", "class_name": "Conv2D", "config": {"padding": "same", "bias_regularizer": null, "strides": [1, 1], "kernel_regularizer": null, "name": "decoder_stage4_conv1", "bias_constraint": null, "filters": 16, "trainable": true, "activity_regularizer": null, "kernel_size": [3, 3], "dilation_rate": [1, 1], "use_bias": false, "activation": "linear", "data_format": "channels_last", "kernel_constraint": null, "bias_initializer": {"class_name": "Zeros", "config": {}}, "kernel_initializer": {"class_name": "VarianceScaling", "config": {"scale": 1.0, "mode": "fan_avg", "distribution": "uniform", "seed": null}}}}, {"inbound_nodes": [[["decoder_stage4_conv1", 0, 0, {}]]], "name": "decoder_stage4_bn1", "class_name": "BatchNormalization", "config": {"axis": -1, "moving_mean_initializer": {"class_name": "Zeros", "config": {}}, "beta_regularizer": null, "gamma_constraint": null, "name": "decoder_stage4_bn1", "trainable": true, "epsilon": 0.001, "center": true, "beta_initializer": {"class_name": "Zeros", "config": {}}, "scale": true, "gamma_regularizer": null, "beta_constraint": null, "gamma_initializer": {"class_name": "Ones", "config": {}}, "momentum": 0.99, "moving_variance_initializer": {"class_name": "Ones", "config": {}}}}, {"inbound_nodes": [[["decoder_stage4_bn1", 0, 0, {}]]], "name": "decoder_stage4_relu1", "class_name": "Activation", "config": {"name": "decoder_stage4_relu1", "trainable": true, "activation": "relu"}}, {"inbound_nodes": [[["decoder_stage4_relu1", 0, 0, {}]]], "name": "decoder_stage4_conv2", "class_name": "Conv2D", "config": {"padding": "same", "bias_regularizer": null, "strides": [1, 1], "kernel_regularizer": null, "name": "decoder_stage4_conv2", "bias_constraint": null, "filters": 16, "trainable": true, "activity_regularizer": null, "kernel_size": [3, 3], "dilation_rate": [1, 1], "use_bias": false, "activation": "linear", "data_format": "channels_last", "kernel_constraint": null, "bias_initializer": {"class_name": "Zeros", "config": {}}, "kernel_initializer": {"class_name": "VarianceScaling", "config": {"scale": 1.0, "mode": "fan_avg", "distribution": "uniform", "seed": null}}}}, {"inbound_nodes": [[["decoder_stage4_conv2", 0, 0, {}]]], "name": "decoder_stage4_bn2", "class_name": "BatchNormalization", "config": {"axis": -1, "moving_mean_initializer": {"class_name": "Zeros", "config": {}}, "beta_regularizer": null, "gamma_constraint": null, "name": "decoder_stage4_bn2", "trainable": true, "epsilon": 0.001, "center": true, "beta_initializer": {"class_name": "Zeros", "config": {}}, "scale": true, "gamma_regularizer": null, "beta_constraint": null, "gamma_initializer": {"class_name": "Ones", "config": {}}, "momentum": 0.99, "moving_variance_initializer": {"class_name": "Ones", "config": {}}}}, {"inbound_nodes": [[["decoder_stage4_bn2", 0, 0, {}]]], "name": "decoder_stage4_relu2", "class_name": "Activation", "config": {"name": "decoder_stage4_relu2", "trainable": true, "activation": "relu"}}, {"inbound_nodes": [[["decoder_stage4_relu2", 0, 0, {}]]], "name": "final_conv", "class_name": "Conv2D", "config": {"padding": "same", "bias_regularizer": null, "strides": [1, 1], "kernel_regularizer": null, "name": "final_conv", "bias_constraint": null, "filters": 1, "trainable": true, "activity_regularizer": null, "kernel_size": [3, 3], "dilation_rate": [1, 1], "use_bias": true, "activation": "linear", "data_format": "channels_last", "kernel_constraint": null, "bias_initializer": {"class_name": "Zeros", "config": {}}, "kernel_initializer": {"class_name": "VarianceScaling", "config": {"scale": 1.0, "mode": "fan_avg", "distribution": "uniform", "seed": null}}}}, {"inbound_nodes": [[["final_conv", 0, 0, {}]]], "name": "sigmoid", "class_name": "Activation", "config": {"name": "sigmoid", "trainable": true, "activation": "sigmoid"}}], "name": "u-resnet18"}}