{"keras_version": "2.2.4", "backend": "tensorflow", "config": {"name": "u-resnet18", "layers": [{"name": "data", "inbound_nodes": [], "config": {"sparse": false, "name": "data", "dtype": "float32", "batch_input_shape": [null, null, null, 3]}, "class_name": "InputLayer"}, {"name": "bn_data", "inbound_nodes": [[["data", 0, 0, {}]]], "config": {"scale": false, "beta_initializer": {"config": {}, "class_name": "Zeros"}, "gamma_regularizer": null, "moving_variance_initializer": {"config": {}, "class_name": "Ones"}, "beta_constraint": null, "trainable": true, "beta_regularizer": null, "gamma_constraint": null, "momentum": 0.99, "name": "bn_data", "gamma_initializer": {"config": {}, "class_name": "Ones"}, "moving_mean_initializer": {"config": {}, "class_name": "Zeros"}, "axis": 3, "center": true, "epsilon": 2e-05}, "class_name": "BatchNormalization"}, {"name": "zero_padding2d_19", "inbound_nodes": [[["bn_data", 0, 0, {}]]], "config": {"name": "zero_padding2d_19", "data_format": "channels_last", "trainable": true, "padding": [[3, 3], [3, 3]]}, "class_name": "ZeroPadding2D"}, {"name": "conv0", "inbound_nodes": [[["zero_padding2d_19", 0, 0, {}]]], "config": {"strides": [2, 2], "kernel_constraint": null, "use_bias": false, "filters": 64, "kernel_regularizer": null, "kernel_initializer": {"config": {"scale": 2.0, "seed": null, "mode": "fan_in", "distribution": "uniform"}, "class_name": "VarianceScaling"}, "dilation_rate": [1, 1], "bias_constraint": null, "trainable": true, "activation": "linear", "bias_initializer": {"config": {}, "class_name": "Zeros"}, "data_format": "channels_last", "activity_regularizer": null, "name": "conv0", "kernel_size": [7, 7], "bias_regularizer": null, "padding": "valid"}, "class_name": "Conv2D"}, {"name": "bn0", "inbound_nodes": [[["conv0", 0, 0, {}]]], "config": {"scale": true, "beta_initializer": {"config": {}, "class_name": "Zeros"}, "gamma_regularizer": null, "moving_variance_initializer": {"config": {}, "class_name": "Ones"}, "beta_constraint": null, "trainable": true, "beta_regularizer": null, "gamma_constraint": null, "momentum": 0.99, "name": "bn0", "gamma_initializer": {"config": {}, "class_name": "Ones"}, "moving_mean_initializer": {"config": {}, "class_name": "Zeros"}, "axis": 3, "center": true, "epsilon": 2e-05}, "class_name": "BatchNormalization"}, {"name": "relu0", "inbound_nodes": [[["bn0", 0, 0, {}]]], "config": {"name": "relu0", "trainable": true, "activation": "relu"}, "class_name": "Activation"}, {"name": "zero_padding2d_20", "inbound_nodes": [[["relu0", 0, 0, {}]]], "config": {"name": "zero_padding2d_20", "data_format": "channels_last", "trainable": true, "padding": [[1, 1], [1, 1]]}, "class_name": "ZeroPadding2D"}, {"name": "pooling0", "inbound_nodes": [[["zero_padding2d_20", 0, 0, {}]]], "config": {"strides": [2, 2], "data_format": "channels_last", "name": "pooling0", "pool_size": [3, 3], "trainable": true, "padding": "valid"}, "class_name": "MaxPooling2D"}, {"name": "stage1_unit1_bn1", "inbound_nodes": [[["pooling0", 0, 0, {}]]], "config": {"scale": true, "beta_initializer": {"config": {}, "class_name": "Zeros"}, "gamma_regularizer": null, "moving_variance_initializer": {"config": {}, "class_name": "Ones"}, "beta_constraint": null, "trainable": true, "beta_regularizer": null, "gamma_constraint": null, "momentum": 0.99, "name": "stage1_unit1_bn1", "gamma_initializer": {"config": {}, "class_name": "Ones"}, "moving_mean_initializer": {"config": {}, "class_name": "Zeros"}, "axis": 3, "center": true, "epsilon": 2e-05}, "class_name": "BatchNormalization"}, {"name": "stage1_unit1_relu1", "inbound_nodes": [[["stage1_unit1_bn1", 0, 0, {}]]], "config": {"name": "stage1_unit1_relu1", "trainable": true, "activation": "relu"}, "class_name": "Activation"}, {"name": "zero_padding2d_21", "inbound_nodes": [[["stage1_unit1_relu1", 0, 0, {}]]], "config": {"name": "zero_padding2d_21", "data_format": "channels_last", "trainable": true, "padding": [[1, 1], [1, 1]]}, "class_name": "ZeroPadding2D"}, {"name": "stage1_unit1_conv1", "inbound_nodes": [[["zero_padding2d_21", 0, 0, {}]]], "config": {"strides": [1, 1], "kernel_constraint": null, "use_bias": false, "filters": 64, "kernel_regularizer": null, "kernel_initializer": {"config": {"scale": 2.0, "seed": null, "mode": "fan_in", "distribution": "uniform"}, "class_name": "VarianceScaling"}, "dilation_rate": [1, 1], "bias_constraint": null, "trainable": true, "activation": "linear", "bias_initializer": {"config": {}, "class_name": "Zeros"}, "data_format": "channels_last", "activity_regularizer": null, "name": "stage1_unit1_conv1", "kernel_size": [3, 3], "bias_regularizer": null, "padding": "valid"}, "class_name": "Conv2D"}, {"name": "stage1_unit1_bn2", "inbound_nodes": [[["stage1_unit1_conv1", 0, 0, {}]]], "config": {"scale": true, "beta_initializer": {"config": {}, "class_name": "Zeros"}, "gamma_regularizer": null, "moving_variance_initializer": {"config": {}, "class_name": "Ones"}, "beta_constraint": null, "trainable": true, "beta_regularizer": null, "gamma_constraint": null, "momentum": 0.99, "name": "stage1_unit1_bn2", "gamma_initializer": {"config": {}, "class_name": "Ones"}, "moving_mean_initializer": {"config": {}, "class_name": "Zeros"}, "axis": 3, "center": true, "epsilon": 2e-05}, "class_name": "BatchNormalization"}, {"name": "stage1_unit1_relu2", "inbound_nodes": [[["stage1_unit1_bn2", 0, 0, {}]]], "config": {"name": "stage1_unit1_relu2", "trainable": true, "activation": "relu"}, "class_name": "Activation"}, {"name": "zero_padding2d_22", "inbound_nodes": [[["stage1_unit1_relu2", 0, 0, {}]]], "config": {"name": "zero_padding2d_22", "data_format": "channels_last", "trainable": true, "padding": [[1, 1], [1, 1]]}, "class_name": "ZeroPadding2D"}, {"name": "stage1_unit1_conv2", "inbound_nodes": [[["zero_padding2d_22", 0, 0, {}]]], "config": {"strides": [1, 1], "kernel_constraint": null, "use_bias": false, "filters": 64, "kernel_regularizer": null, "kernel_initializer": {"config": {"scale": 2.0, "seed": null, "mode": "fan_in", "distribution": "uniform"}, "class_name": "VarianceScaling"}, "dilation_rate": [1, 1], "bias_constraint": null, "trainable": true, "activation": "linear", "bias_initializer": {"config": {}, "class_name": "Zeros"}, "data_format": "channels_last", "activity_regularizer": null, "name": "stage1_unit1_conv2", "kernel_size": [3, 3], "bias_regularizer": null, "padding": "valid"}, "class_name": "Conv2D"}, {"name": "stage1_unit1_sc", "inbound_nodes": [[["stage1_unit1_relu1", 0, 0, {}]]], "config": {"strides": [1, 1], "kernel_constraint": null, "use_bias": false, "filters": 64, "kernel_regularizer": null, "kernel_initializer": {"config": {"scale": 2.0, "seed": null, "mode": "fan_in", "distribution": "uniform"}, "class_name": "VarianceScaling"}, "dilation_rate": [1, 1], "bias_constraint": null, "trainable": true, "activation": "linear", "bias_initializer": {"config": {}, "class_name": "Zeros"}, "data_format": "channels_last", "activity_regularizer": null, "name": "stage1_unit1_sc", "kernel_size": [1, 1], "bias_regularizer": null, "padding": "valid"}, "class_name": "Conv2D"}, {"name": "add_9", "inbound_nodes": [[["stage1_unit1_conv2", 0, 0, {}], ["stage1_unit1_sc", 0, 0, {}]]], "config": {"name": "add_9", "trainable": true}, "class_name": "Add"}, {"name": "stage1_unit2_bn1", "inbound_nodes": [[["add_9", 0, 0, {}]]], "config": {"scale": true, "beta_initializer": {"config": {}, "class_name": "Zeros"}, "gamma_regularizer": null, "moving_variance_initializer": {"config": {}, "class_name": "Ones"}, "beta_constraint": null, "trainable": true, "beta_regularizer": null, "gamma_constraint": null, "momentum": 0.99, "name": "stage1_unit2_bn1", "gamma_initializer": {"config": {}, "class_name": "Ones"}, "moving_mean_initializer": {"config": {}, "class_name": "Zeros"}, "axis": 3, "center": true, "epsilon": 2e-05}, "class_name": "BatchNormalization"}, {"name": "stage1_unit2_relu1", "inbound_nodes": [[["stage1_unit2_bn1", 0, 0, {}]]], "config": {"name": "stage1_unit2_relu1", "trainable": true, "activation": "relu"}, "class_name": "Activation"}, {"name": "zero_padding2d_23", "inbound_nodes": [[["stage1_unit2_relu1", 0, 0, {}]]], "config": {"name": "zero_padding2d_23", "data_format": "channels_last", "trainable": true, "padding": [[1, 1], [1, 1]]}, "class_name": "ZeroPadding2D"}, {"name": "stage1_unit2_conv1", "inbound_nodes": [[["zero_padding2d_23", 0, 0, {}]]], "config": {"strides": [1, 1], "kernel_constraint": null, "use_bias": false, "filters": 64, "kernel_regularizer": null, "kernel_initializer": {"config": {"scale": 2.0, "seed": null, "mode": "fan_in", "distribution": "uniform"}, "class_name": "VarianceScaling"}, "dilation_rate": [1, 1], "bias_constraint": null, "trainable": true, "activation": "linear", "bias_initializer": {"config": {}, "class_name": "Zeros"}, "data_format": "channels_last", "activity_regularizer": null, "name": "stage1_unit2_conv1", "kernel_size": [3, 3], "bias_regularizer": null, "padding": "valid"}, "class_name": "Conv2D"}, {"name": "stage1_unit2_bn2", "inbound_nodes": [[["stage1_unit2_conv1", 0, 0, {}]]], "config": {"scale": true, "beta_initializer": {"config": {}, "class_name": "Zeros"}, "gamma_regularizer": null, "moving_variance_initializer": {"config": {}, "class_name": "Ones"}, "beta_constraint": null, "trainable": true, "beta_regularizer": null, "gamma_constraint": null, "momentum": 0.99, "name": "stage1_unit2_bn2", "gamma_initializer": {"config": {}, "class_name": "Ones"}, "moving_mean_initializer": {"config": {}, "class_name": "Zeros"}, "axis": 3, "center": true, "epsilon": 2e-05}, "class_name": "BatchNormalization"}, {"name": "stage1_unit2_relu2", "inbound_nodes": [[["stage1_unit2_bn2", 0, 0, {}]]], "config": {"name": "stage1_unit2_relu2", "trainable": true, "activation": "relu"}, "class_name": "Activation"}, {"name": "zero_padding2d_24", "inbound_nodes": [[["stage1_unit2_relu2", 0, 0, {}]]], "config": {"name": "zero_padding2d_24", "data_format": "channels_last", "trainable": true, "padding": [[1, 1], [1, 1]]}, "class_name": "ZeroPadding2D"}, {"name": "stage1_unit2_conv2", "inbound_nodes": [[["zero_padding2d_24", 0, 0, {}]]], "config": {"strides": [1, 1], "kernel_constraint": null, "use_bias": false, "filters": 64, "kernel_regularizer": null, "kernel_initializer": {"config": {"scale": 2.0, "seed": null, "mode": "fan_in", "distribution": "uniform"}, "class_name": "VarianceScaling"}, "dilation_rate": [1, 1], "bias_constraint": null, "trainable": true, "activation": "linear", "bias_initializer": {"config": {}, "class_name": "Zeros"}, "data_format": "channels_last", "activity_regularizer": null, "name": "stage1_unit2_conv2", "kernel_size": [3, 3], "bias_regularizer": null, "padding": "valid"}, "class_name": "Conv2D"}, {"name": "add_10", "inbound_nodes": [[["stage1_unit2_conv2", 0, 0, {}], ["add_9", 0, 0, {}]]], "config": {"name": "add_10", "trainable": true}, "class_name": "Add"}, {"name": "stage2_unit1_bn1", "inbound_nodes": [[["add_10", 0, 0, {}]]], "config": {"scale": true, "beta_initializer": {"config": {}, "class_name": "Zeros"}, "gamma_regularizer": null, "moving_variance_initializer": {"config": {}, "class_name": "Ones"}, "beta_constraint": null, "trainable": true, "beta_regularizer": null, "gamma_constraint": null, "momentum": 0.99, "name": "stage2_unit1_bn1", "gamma_initializer": {"config": {}, "class_name": "Ones"}, "moving_mean_initializer": {"config": {}, "class_name": "Zeros"}, "axis": 3, "center": true, "epsilon": 2e-05}, "class_name": "BatchNormalization"}, {"name": "stage2_unit1_relu1", "inbound_nodes": [[["stage2_unit1_bn1", 0, 0, {}]]], "config": {"name": "stage2_unit1_relu1", "trainable": true, "activation": "relu"}, "class_name": "Activation"}, {"name": "zero_padding2d_25", "inbound_nodes": [[["stage2_unit1_relu1", 0, 0, {}]]], "config": {"name": "zero_padding2d_25", "data_format": "channels_last", "trainable": true, "padding": [[1, 1], [1, 1]]}, "class_name": "ZeroPadding2D"}, {"name": "stage2_unit1_conv1", "inbound_nodes": [[["zero_padding2d_25", 0, 0, {}]]], "config": {"strides": [2, 2], "kernel_constraint": null, "use_bias": false, "filters": 128, "kernel_regularizer": null, "kernel_initializer": {"config": {"scale": 2.0, "seed": null, "mode": "fan_in", "distribution": "uniform"}, "class_name": "VarianceScaling"}, "dilation_rate": [1, 1], "bias_constraint": null, "trainable": true, "activation": "linear", "bias_initializer": {"config": {}, "class_name": "Zeros"}, "data_format": "channels_last", "activity_regularizer": null, "name": "stage2_unit1_conv1", "kernel_size": [3, 3], "bias_regularizer": null, "padding": "valid"}, "class_name": "Conv2D"}, {"name": "stage2_unit1_bn2", "inbound_nodes": [[["stage2_unit1_conv1", 0, 0, {}]]], "config": {"scale": true, "beta_initializer": {"config": {}, "class_name": "Zeros"}, "gamma_regularizer": null, "moving_variance_initializer": {"config": {}, "class_name": "Ones"}, "beta_constraint": null, "trainable": true, "beta_regularizer": null, "gamma_constraint": null, "momentum": 0.99, "name": "stage2_unit1_bn2", "gamma_initializer": {"config": {}, "class_name": "Ones"}, "moving_mean_initializer": {"config": {}, "class_name": "Zeros"}, "axis": 3, "center": true, "epsilon": 2e-05}, "class_name": "BatchNormalization"}, {"name": "stage2_unit1_relu2", "inbound_nodes": [[["stage2_unit1_bn2", 0, 0, {}]]], "config": {"name": "stage2_unit1_relu2", "trainable": true, "activation": "relu"}, "class_name": "Activation"}, {"name": "zero_padding2d_26", "inbound_nodes": [[["stage2_unit1_relu2", 0, 0, {}]]], "config": {"name": "zero_padding2d_26", "data_format": "channels_last", "trainable": true, "padding": [[1, 1], [1, 1]]}, "class_name": "ZeroPadding2D"}, {"name": "stage2_unit1_conv2", "inbound_nodes": [[["zero_padding2d_26", 0, 0, {}]]], "config": {"strides": [1, 1], "kernel_constraint": null, "use_bias": false, "filters": 128, "kernel_regularizer": null, "kernel_initializer": {"config": {"scale": 2.0, "seed": null, "mode": "fan_in", "distribution": "uniform"}, "class_name": "VarianceScaling"}, "dilation_rate": [1, 1], "bias_constraint": null, "trainable": true, "activation": "linear", "bias_initializer": {"config": {}, "class_name": "Zeros"}, "data_format": "channels_last", "activity_regularizer": null, "name": "stage2_unit1_conv2", "kernel_size": [3, 3], "bias_regularizer": null, "padding": "valid"}, "class_name": "Conv2D"}, {"name": "stage2_unit1_sc", "inbound_nodes": [[["stage2_unit1_relu1", 0, 0, {}]]], "config": {"strides": [2, 2], "kernel_constraint": null, "use_bias": false, "filters": 128, "kernel_regularizer": null, "kernel_initializer": {"config": {"scale": 2.0, "seed": null, "mode": "fan_in", "distribution": "uniform"}, "class_name": "VarianceScaling"}, "dilation_rate": [1, 1], "bias_constraint": null, "trainable": true, "activation": "linear", "bias_initializer": {"config": {}, "class_name": "Zeros"}, "data_format": "channels_last", "activity_regularizer": null, "name": "stage2_unit1_sc", "kernel_size": [1, 1], "bias_regularizer": null, "padding": "valid"}, "class_name": "Conv2D"}, {"name": "add_11", "inbound_nodes": [[["stage2_unit1_conv2", 0, 0, {}], ["stage2_unit1_sc", 0, 0, {}]]], "config": {"name": "add_11", "trainable": true}, "class_name": "Add"}, {"name": "stage2_unit2_bn1", "inbound_nodes": [[["add_11", 0, 0, {}]]], "config": {"scale": true, "beta_initializer": {"config": {}, "class_name": "Zeros"}, "gamma_regularizer": null, "moving_variance_initializer": {"config": {}, "class_name": "Ones"}, "beta_constraint": null, "trainable": true, "beta_regularizer": null, "gamma_constraint": null, "momentum": 0.99, "name": "stage2_unit2_bn1", "gamma_initializer": {"config": {}, "class_name": "Ones"}, "moving_mean_initializer": {"config": {}, "class_name": "Zeros"}, "axis": 3, "center": true, "epsilon": 2e-05}, "class_name": "BatchNormalization"}, {"name": "stage2_unit2_relu1", "inbound_nodes": [[["stage2_unit2_bn1", 0, 0, {}]]], "config": {"name": "stage2_unit2_relu1", "trainable": true, "activation": "relu"}, "class_name": "Activation"}, {"name": "zero_padding2d_27", "inbound_nodes": [[["stage2_unit2_relu1", 0, 0, {}]]], "config": {"name": "zero_padding2d_27", "data_format": "channels_last", "trainable": true, "padding": [[1, 1], [1, 1]]}, "class_name": "ZeroPadding2D"}, {"name": "stage2_unit2_conv1", "inbound_nodes": [[["zero_padding2d_27", 0, 0, {}]]], "config": {"strides": [1, 1], "kernel_constraint": null, "use_bias": false, "filters": 128, "kernel_regularizer": null, "kernel_initializer": {"config": {"scale": 2.0, "seed": null, "mode": "fan_in", "distribution": "uniform"}, "class_name": "VarianceScaling"}, "dilation_rate": [1, 1], "bias_constraint": null, "trainable": true, "activation": "linear", "bias_initializer": {"config": {}, "class_name": "Zeros"}, "data_format": "channels_last", "activity_regularizer": null, "name": "stage2_unit2_conv1", "kernel_size": [3, 3], "bias_regularizer": null, "padding": "valid"}, "class_name": "Conv2D"}, {"name": "stage2_unit2_bn2", "inbound_nodes": [[["stage2_unit2_conv1", 0, 0, {}]]], "config": {"scale": true, "beta_initializer": {"config": {}, "class_name": "Zeros"}, "gamma_regularizer": null, "moving_variance_initializer": {"config": {}, "class_name": "Ones"}, "beta_constraint": null, "trainable": true, "beta_regularizer": null, "gamma_constraint": null, "momentum": 0.99, "name": "stage2_unit2_bn2", "gamma_initializer": {"config": {}, "class_name": "Ones"}, "moving_mean_initializer": {"config": {}, "class_name": "Zeros"}, "axis": 3, "center": true, "epsilon": 2e-05}, "class_name": "BatchNormalization"}, {"name": "stage2_unit2_relu2", "inbound_nodes": [[["stage2_unit2_bn2", 0, 0, {}]]], "config": {"name": "stage2_unit2_relu2", "trainable": true, "activation": "relu"}, "class_name": "Activation"}, {"name": "zero_padding2d_28", "inbound_nodes": [[["stage2_unit2_relu2", 0, 0, {}]]], "config": {"name": "zero_padding2d_28", "data_format": "channels_last", "trainable": true, "padding": [[1, 1], [1, 1]]}, "class_name": "ZeroPadding2D"}, {"name": "stage2_unit2_conv2", "inbound_nodes": [[["zero_padding2d_28", 0, 0, {}]]], "config": {"strides": [1, 1], "kernel_constraint": null, "use_bias": false, "filters": 128, "kernel_regularizer": null, "kernel_initializer": {"config": {"scale": 2.0, "seed": null, "mode": "fan_in", "distribution": "uniform"}, "class_name": "VarianceScaling"}, "dilation_rate": [1, 1], "bias_constraint": null, "trainable": true, "activation": "linear", "bias_initializer": {"config": {}, "class_name": "Zeros"}, "data_format": "channels_last", "activity_regularizer": null, "name": "stage2_unit2_conv2", "kernel_size": [3, 3], "bias_regularizer": null, "padding": "valid"}, "class_name": "Conv2D"}, {"name": "add_12", "inbound_nodes": [[["stage2_unit2_conv2", 0, 0, {}], ["add_11", 0, 0, {}]]], "config": {"name": "add_12", "trainable": true}, "class_name": "Add"}, {"name": "stage3_unit1_bn1", "inbound_nodes": [[["add_12", 0, 0, {}]]], "config": {"scale": true, "beta_initializer": {"config": {}, "class_name": "Zeros"}, "gamma_regularizer": null, "moving_variance_initializer": {"config": {}, "class_name": "Ones"}, "beta_constraint": null, "trainable": true, "beta_regularizer": null, "gamma_constraint": null, "momentum": 0.99, "name": "stage3_unit1_bn1", "gamma_initializer": {"config": {}, "class_name": "Ones"}, "moving_mean_initializer": {"config": {}, "class_name": "Zeros"}, "axis": 3, "center": true, "epsilon": 2e-05}, "class_name": "BatchNormalization"}, {"name": "stage3_unit1_relu1", "inbound_nodes": [[["stage3_unit1_bn1", 0, 0, {}]]], "config": {"name": "stage3_unit1_relu1", "trainable": true, "activation": "relu"}, "class_name": "Activation"}, {"name": "zero_padding2d_29", "inbound_nodes": [[["stage3_unit1_relu1", 0, 0, {}]]], "config": {"name": "zero_padding2d_29", "data_format": "channels_last", "trainable": true, "padding": [[1, 1], [1, 1]]}, "class_name": "ZeroPadding2D"}, {"name": "stage3_unit1_conv1", "inbound_nodes": [[["zero_padding2d_29", 0, 0, {}]]], "config": {"strides": [2, 2], "kernel_constraint": null, "use_bias": false, "filters": 256, "kernel_regularizer": null, "kernel_initializer": {"config": {"scale": 2.0, "seed": null, "mode": "fan_in", "distribution": "uniform"}, "class_name": "VarianceScaling"}, "dilation_rate": [1, 1], "bias_constraint": null, "trainable": true, "activation": "linear", "bias_initializer": {"config": {}, "class_name": "Zeros"}, "data_format": "channels_last", "activity_regularizer": null, "name": "stage3_unit1_conv1", "kernel_size": [3, 3], "bias_regularizer": null, "padding": "valid"}, "class_name": "Conv2D"}, {"name": "stage3_unit1_bn2", "inbound_nodes": [[["stage3_unit1_conv1", 0, 0, {}]]], "config": {"scale": true, "beta_initializer": {"config": {}, "class_name": "Zeros"}, "gamma_regularizer": null, "moving_variance_initializer": {"config": {}, "class_name": "Ones"}, "beta_constraint": null, "trainable": true, "beta_regularizer": null, "gamma_constraint": null, "momentum": 0.99, "name": "stage3_unit1_bn2", "gamma_initializer": {"config": {}, "class_name": "Ones"}, "moving_mean_initializer": {"config": {}, "class_name": "Zeros"}, "axis": 3, "center": true, "epsilon": 2e-05}, "class_name": "BatchNormalization"}, {"name": "stage3_unit1_relu2", "inbound_nodes": [[["stage3_unit1_bn2", 0, 0, {}]]], "config": {"name": "stage3_unit1_relu2", "trainable": true, "activation": "relu"}, "class_name": "Activation"}, {"name": "zero_padding2d_30", "inbound_nodes": [[["stage3_unit1_relu2", 0, 0, {}]]], "config": {"name": "zero_padding2d_30", "data_format": "channels_last", "trainable": true, "padding": [[1, 1], [1, 1]]}, "class_name": "ZeroPadding2D"}, {"name": "stage3_unit1_conv2", "inbound_nodes": [[["zero_padding2d_30", 0, 0, {}]]], "config": {"strides": [1, 1], "kernel_constraint": null, "use_bias": false, "filters": 256, "kernel_regularizer": null, "kernel_initializer": {"config": {"scale": 2.0, "seed": null, "mode": "fan_in", "distribution": "uniform"}, "class_name": "VarianceScaling"}, "dilation_rate": [1, 1], "bias_constraint": null, "trainable": true, "activation": "linear", "bias_initializer": {"config": {}, "class_name": "Zeros"}, "data_format": "channels_last", "activity_regularizer": null, "name": "stage3_unit1_conv2", "kernel_size": [3, 3], "bias_regularizer": null, "padding": "valid"}, "class_name": "Conv2D"}, {"name": "stage3_unit1_sc", "inbound_nodes": [[["stage3_unit1_relu1", 0, 0, {}]]], "config": {"strides": [2, 2], "kernel_constraint": null, "use_bias": false, "filters": 256, "kernel_regularizer": null, "kernel_initializer": {"config": {"scale": 2.0, "seed": null, "mode": "fan_in", "distribution": "uniform"}, "class_name": "VarianceScaling"}, "dilation_rate": [1, 1], "bias_constraint": null, "trainable": true, "activation": "linear", "bias_initializer": {"config": {}, "class_name": "Zeros"}, "data_format": "channels_last", "activity_regularizer": null, "name": "stage3_unit1_sc", "kernel_size": [1, 1], "bias_regularizer": null, "padding": "valid"}, "class_name": "Conv2D"}, {"name": "add_13", "inbound_nodes": [[["stage3_unit1_conv2", 0, 0, {}], ["stage3_unit1_sc", 0, 0, {}]]], "config": {"name": "add_13", "trainable": true}, "class_name": "Add"}, {"name": "stage3_unit2_bn1", "inbound_nodes": [[["add_13", 0, 0, {}]]], "config": {"scale": true, "beta_initializer": {"config": {}, "class_name": "Zeros"}, "gamma_regularizer": null, "moving_variance_initializer": {"config": {}, "class_name": "Ones"}, "beta_constraint": null, "trainable": true, "beta_regularizer": null, "gamma_constraint": null, "momentum": 0.99, "name": "stage3_unit2_bn1", "gamma_initializer": {"config": {}, "class_name": "Ones"}, "moving_mean_initializer": {"config": {}, "class_name": "Zeros"}, "axis": 3, "center": true, "epsilon": 2e-05}, "class_name": "BatchNormalization"}, {"name": "stage3_unit2_relu1", "inbound_nodes": [[["stage3_unit2_bn1", 0, 0, {}]]], "config": {"name": "stage3_unit2_relu1", "trainable": true, "activation": "relu"}, "class_name": "Activation"}, {"name": "zero_padding2d_31", "inbound_nodes": [[["stage3_unit2_relu1", 0, 0, {}]]], "config": {"name": "zero_padding2d_31", "data_format": "channels_last", "trainable": true, "padding": [[1, 1], [1, 1]]}, "class_name": "ZeroPadding2D"}, {"name": "stage3_unit2_conv1", "inbound_nodes": [[["zero_padding2d_31", 0, 0, {}]]], "config": {"strides": [1, 1], "kernel_constraint": null, "use_bias": false, "filters": 256, "kernel_regularizer": null, "kernel_initializer": {"config": {"scale": 2.0, "seed": null, "mode": "fan_in", "distribution": "uniform"}, "class_name": "VarianceScaling"}, "dilation_rate": [1, 1], "bias_constraint": null, "trainable": true, "activation": "linear", "bias_initializer": {"config": {}, "class_name": "Zeros"}, "data_format": "channels_last", "activity_regularizer": null, "name": "stage3_unit2_conv1", "kernel_size": [3, 3], "bias_regularizer": null, "padding": "valid"}, "class_name": "Conv2D"}, {"name": "stage3_unit2_bn2", "inbound_nodes": [[["stage3_unit2_conv1", 0, 0, {}]]], "config": {"scale": true, "beta_initializer": {"config": {}, "class_name": "Zeros"}, "gamma_regularizer": null, "moving_variance_initializer": {"config": {}, "class_name": "Ones"}, "beta_constraint": null, "trainable": true, "beta_regularizer": null, "gamma_constraint": null, "momentum": 0.99, "name": "stage3_unit2_bn2", "gamma_initializer": {"config": {}, "class_name": "Ones"}, "moving_mean_initializer": {"config": {}, "class_name": "Zeros"}, "axis": 3, "center": true, "epsilon": 2e-05}, "class_name": "BatchNormalization"}, {"name": "stage3_unit2_relu2", "inbound_nodes": [[["stage3_unit2_bn2", 0, 0, {}]]], "config": {"name": "stage3_unit2_relu2", "trainable": true, "activation": "relu"}, "class_name": "Activation"}, {"name": "zero_padding2d_32", "inbound_nodes": [[["stage3_unit2_relu2", 0, 0, {}]]], "config": {"name": "zero_padding2d_32", "data_format": "channels_last", "trainable": true, "padding": [[1, 1], [1, 1]]}, "class_name": "ZeroPadding2D"}, {"name": "stage3_unit2_conv2", "inbound_nodes": [[["zero_padding2d_32", 0, 0, {}]]], "config": {"strides": [1, 1], "kernel_constraint": null, "use_bias": false, "filters": 256, "kernel_regularizer": null, "kernel_initializer": {"config": {"scale": 2.0, "seed": null, "mode": "fan_in", "distribution": "uniform"}, "class_name": "VarianceScaling"}, "dilation_rate": [1, 1], "bias_constraint": null, "trainable": true, "activation": "linear", "bias_initializer": {"config": {}, "class_name": "Zeros"}, "data_format": "channels_last", "activity_regularizer": null, "name": "stage3_unit2_conv2", "kernel_size": [3, 3], "bias_regularizer": null, "padding": "valid"}, "class_name": "Conv2D"}, {"name": "add_14", "inbound_nodes": [[["stage3_unit2_conv2", 0, 0, {}], ["add_13", 0, 0, {}]]], "config": {"name": "add_14", "trainable": true}, "class_name": "Add"}, {"name": "stage4_unit1_bn1", "inbound_nodes": [[["add_14", 0, 0, {}]]], "config": {"scale": true, "beta_initializer": {"config": {}, "class_name": "Zeros"}, "gamma_regularizer": null, "moving_variance_initializer": {"config": {}, "class_name": "Ones"}, "beta_constraint": null, "trainable": true, "beta_regularizer": null, "gamma_constraint": null, "momentum": 0.99, "name": "stage4_unit1_bn1", "gamma_initializer": {"config": {}, "class_name": "Ones"}, "moving_mean_initializer": {"config": {}, "class_name": "Zeros"}, "axis": 3, "center": true, "epsilon": 2e-05}, "class_name": "BatchNormalization"}, {"name": "stage4_unit1_relu1", "inbound_nodes": [[["stage4_unit1_bn1", 0, 0, {}]]], "config": {"name": "stage4_unit1_relu1", "trainable": true, "activation": "relu"}, "class_name": "Activation"}, {"name": "zero_padding2d_33", "inbound_nodes": [[["stage4_unit1_relu1", 0, 0, {}]]], "config": {"name": "zero_padding2d_33", "data_format": "channels_last", "trainable": true, "padding": [[1, 1], [1, 1]]}, "class_name": "ZeroPadding2D"}, {"name": "stage4_unit1_conv1", "inbound_nodes": [[["zero_padding2d_33", 0, 0, {}]]], "config": {"strides": [2, 2], "kernel_constraint": null, "use_bias": false, "filters": 512, "kernel_regularizer": null, "kernel_initializer": {"config": {"scale": 2.0, "seed": null, "mode": "fan_in", "distribution": "uniform"}, "class_name": "VarianceScaling"}, "dilation_rate": [1, 1], "bias_constraint": null, "trainable": true, "activation": "linear", "bias_initializer": {"config": {}, "class_name": "Zeros"}, "data_format": "channels_last", "activity_regularizer": null, "name": "stage4_unit1_conv1", "kernel_size": [3, 3], "bias_regularizer": null, "padding": "valid"}, "class_name": "Conv2D"}, {"name": "stage4_unit1_bn2", "inbound_nodes": [[["stage4_unit1_conv1", 0, 0, {}]]], "config": {"scale": true, "beta_initializer": {"config": {}, "class_name": "Zeros"}, "gamma_regularizer": null, "moving_variance_initializer": {"config": {}, "class_name": "Ones"}, "beta_constraint": null, "trainable": true, "beta_regularizer": null, "gamma_constraint": null, "momentum": 0.99, "name": "stage4_unit1_bn2", "gamma_initializer": {"config": {}, "class_name": "Ones"}, "moving_mean_initializer": {"config": {}, "class_name": "Zeros"}, "axis": 3, "center": true, "epsilon": 2e-05}, "class_name": "BatchNormalization"}, {"name": "stage4_unit1_relu2", "inbound_nodes": [[["stage4_unit1_bn2", 0, 0, {}]]], "config": {"name": "stage4_unit1_relu2", "trainable": true, "activation": "relu"}, "class_name": "Activation"}, {"name": "zero_padding2d_34", "inbound_nodes": [[["stage4_unit1_relu2", 0, 0, {}]]], "config": {"name": "zero_padding2d_34", "data_format": "channels_last", "trainable": true, "padding": [[1, 1], [1, 1]]}, "class_name": "ZeroPadding2D"}, {"name": "stage4_unit1_conv2", "inbound_nodes": [[["zero_padding2d_34", 0, 0, {}]]], "config": {"strides": [1, 1], "kernel_constraint": null, "use_bias": false, "filters": 512, "kernel_regularizer": null, "kernel_initializer": {"config": {"scale": 2.0, "seed": null, "mode": "fan_in", "distribution": "uniform"}, "class_name": "VarianceScaling"}, "dilation_rate": [1, 1], "bias_constraint": null, "trainable": true, "activation": "linear", "bias_initializer": {"config": {}, "class_name": "Zeros"}, "data_format": "channels_last", "activity_regularizer": null, "name": "stage4_unit1_conv2", "kernel_size": [3, 3], "bias_regularizer": null, "padding": "valid"}, "class_name": "Conv2D"}, {"name": "stage4_unit1_sc", "inbound_nodes": [[["stage4_unit1_relu1", 0, 0, {}]]], "config": {"strides": [2, 2], "kernel_constraint": null, "use_bias": false, "filters": 512, "kernel_regularizer": null, "kernel_initializer": {"config": {"scale": 2.0, "seed": null, "mode": "fan_in", "distribution": "uniform"}, "class_name": "VarianceScaling"}, "dilation_rate": [1, 1], "bias_constraint": null, "trainable": true, "activation": "linear", "bias_initializer": {"config": {}, "class_name": "Zeros"}, "data_format": "channels_last", "activity_regularizer": null, "name": "stage4_unit1_sc", "kernel_size": [1, 1], "bias_regularizer": null, "padding": "valid"}, "class_name": "Conv2D"}, {"name": "add_15", "inbound_nodes": [[["stage4_unit1_conv2", 0, 0, {}], ["stage4_unit1_sc", 0, 0, {}]]], "config": {"name": "add_15", "trainable": true}, "class_name": "Add"}, {"name": "stage4_unit2_bn1", "inbound_nodes": [[["add_15", 0, 0, {}]]], "config": {"scale": true, "beta_initializer": {"config": {}, "class_name": "Zeros"}, "gamma_regularizer": null, "moving_variance_initializer": {"config": {}, "class_name": "Ones"}, "beta_constraint": null, "trainable": true, "beta_regularizer": null, "gamma_constraint": null, "momentum": 0.99, "name": "stage4_unit2_bn1", "gamma_initializer": {"config": {}, "class_name": "Ones"}, "moving_mean_initializer": {"config": {}, "class_name": "Zeros"}, "axis": 3, "center": true, "epsilon": 2e-05}, "class_name": "BatchNormalization"}, {"name": "stage4_unit2_relu1", "inbound_nodes": [[["stage4_unit2_bn1", 0, 0, {}]]], "config": {"name": "stage4_unit2_relu1", "trainable": true, "activation": "relu"}, "class_name": "Activation"}, {"name": "zero_padding2d_35", "inbound_nodes": [[["stage4_unit2_relu1", 0, 0, {}]]], "config": {"name": "zero_padding2d_35", "data_format": "channels_last", "trainable": true, "padding": [[1, 1], [1, 1]]}, "class_name": "ZeroPadding2D"}, {"name": "stage4_unit2_conv1", "inbound_nodes": [[["zero_padding2d_35", 0, 0, {}]]], "config": {"strides": [1, 1], "kernel_constraint": null, "use_bias": false, "filters": 512, "kernel_regularizer": null, "kernel_initializer": {"config": {"scale": 2.0, "seed": null, "mode": "fan_in", "distribution": "uniform"}, "class_name": "VarianceScaling"}, "dilation_rate": [1, 1], "bias_constraint": null, "trainable": true, "activation": "linear", "bias_initializer": {"config": {}, "class_name": "Zeros"}, "data_format": "channels_last", "activity_regularizer": null, "name": "stage4_unit2_conv1", "kernel_size": [3, 3], "bias_regularizer": null, "padding": "valid"}, "class_name": "Conv2D"}, {"name": "stage4_unit2_bn2", "inbound_nodes": [[["stage4_unit2_conv1", 0, 0, {}]]], "config": {"scale": true, "beta_initializer": {"config": {}, "class_name": "Zeros"}, "gamma_regularizer": null, "moving_variance_initializer": {"config": {}, "class_name": "Ones"}, "beta_constraint": null, "trainable": true, "beta_regularizer": null, "gamma_constraint": null, "momentum": 0.99, "name": "stage4_unit2_bn2", "gamma_initializer": {"config": {}, "class_name": "Ones"}, "moving_mean_initializer": {"config": {}, "class_name": "Zeros"}, "axis": 3, "center": true, "epsilon": 2e-05}, "class_name": "BatchNormalization"}, {"name": "stage4_unit2_relu2", "inbound_nodes": [[["stage4_unit2_bn2", 0, 0, {}]]], "config": {"name": "stage4_unit2_relu2", "trainable": true, "activation": "relu"}, "class_name": "Activation"}, {"name": "zero_padding2d_36", "inbound_nodes": [[["stage4_unit2_relu2", 0, 0, {}]]], "config": {"name": "zero_padding2d_36", "data_format": "channels_last", "trainable": true, "padding": [[1, 1], [1, 1]]}, "class_name": "ZeroPadding2D"}, {"name": "stage4_unit2_conv2", "inbound_nodes": [[["zero_padding2d_36", 0, 0, {}]]], "config": {"strides": [1, 1], "kernel_constraint": null, "use_bias": false, "filters": 512, "kernel_regularizer": null, "kernel_initializer": {"config": {"scale": 2.0, "seed": null, "mode": "fan_in", "distribution": "uniform"}, "class_name": "VarianceScaling"}, "dilation_rate": [1, 1], "bias_constraint": null, "trainable": true, "activation": "linear", "bias_initializer": {"config": {}, "class_name": "Zeros"}, "data_format": "channels_last", "activity_regularizer": null, "name": "stage4_unit2_conv2", "kernel_size": [3, 3], "bias_regularizer": null, "padding": "valid"}, "class_name": "Conv2D"}, {"name": "add_16", "inbound_nodes": [[["stage4_unit2_conv2", 0, 0, {}], ["add_15", 0, 0, {}]]], "config": {"name": "add_16", "trainable": true}, "class_name": "Add"}, {"name": "bn1", "inbound_nodes": [[["add_16", 0, 0, {}]]], "config": {"scale": true, "beta_initializer": {"config": {}, "class_name": "Zeros"}, "gamma_regularizer": null, "moving_variance_initializer": {"config": {}, "class_name": "Ones"}, "beta_constraint": null, "trainable": true, "beta_regularizer": null, "gamma_constraint": null, "momentum": 0.99, "name": "bn1", "gamma_initializer": {"config": {}, "class_name": "Ones"}, "moving_mean_initializer": {"config": {}, "class_name": "Zeros"}, "axis": 3, "center": true, "epsilon": 2e-05}, "class_name": "BatchNormalization"}, {"name": "relu1", "inbound_nodes": [[["bn1", 0, 0, {}]]], "config": {"name": "relu1", "trainable": true, "activation": "relu"}, "class_name": "Activation"}, {"name": "decoder_stage0_upsample", "inbound_nodes": [[["relu1", 0, 0, {}]]], "config": {"name": "decoder_stage0_upsample", "size": [2, 2], "interpolation": "nearest", "trainable": true, "data_format": "channels_last"}, "class_name": "UpSampling2D"}, {"name": "concatenate_5", "inbound_nodes": [[["decoder_stage0_upsample", 0, 0, {}], ["stage4_unit1_relu1", 0, 0, {}]]], "config": {"name": "concatenate_5", "axis": -1, "trainable": true}, "class_name": "Concatenate"}, {"name": "decoder_stage0_conv1", "inbound_nodes": [[["concatenate_5", 0, 0, {}]]], "config": {"strides": [1, 1], "kernel_constraint": null, "use_bias": false, "filters": 256, "kernel_regularizer": null, "kernel_initializer": {"config": {"scale": 1.0, "seed": null, "mode": "fan_avg", "distribution": "uniform"}, "class_name": "VarianceScaling"}, "dilation_rate": [1, 1], "bias_constraint": null, "trainable": true, "activation": "linear", "bias_initializer": {"config": {}, "class_name": "Zeros"}, "data_format": "channels_last", "activity_regularizer": null, "name": "decoder_stage0_conv1", "kernel_size": [3, 3], "bias_regularizer": null, "padding": "same"}, "class_name": "Conv2D"}, {"name": "decoder_stage0_bn1", "inbound_nodes": [[["decoder_stage0_conv1", 0, 0, {}]]], "config": {"scale": true, "beta_initializer": {"config": {}, "class_name": "Zeros"}, "gamma_regularizer": null, "moving_variance_initializer": {"config": {}, "class_name": "Ones"}, "beta_constraint": null, "trainable": true, "beta_regularizer": null, "gamma_constraint": null, "momentum": 0.99, "name": "decoder_stage0_bn1", "gamma_initializer": {"config": {}, "class_name": "Ones"}, "moving_mean_initializer": {"config": {}, "class_name": "Zeros"}, "axis": -1, "center": true, "epsilon": 0.001}, "class_name": "BatchNormalization"}, {"name": "decoder_stage0_relu1", "inbound_nodes": [[["decoder_stage0_bn1", 0, 0, {}]]], "config": {"name": "decoder_stage0_relu1", "trainable": true, "activation": "relu"}, "class_name": "Activation"}, {"name": "decoder_stage0_conv2", "inbound_nodes": [[["decoder_stage0_relu1", 0, 0, {}]]], "config": {"strides": [1, 1], "kernel_constraint": null, "use_bias": false, "filters": 256, "kernel_regularizer": null, "kernel_initializer": {"config": {"scale": 1.0, "seed": null, "mode": "fan_avg", "distribution": "uniform"}, "class_name": "VarianceScaling"}, "dilation_rate": [1, 1], "bias_constraint": null, "trainable": true, "activation": "linear", "bias_initializer": {"config": {}, "class_name": "Zeros"}, "data_format": "channels_last", "activity_regularizer": null, "name": "decoder_stage0_conv2", "kernel_size": [3, 3], "bias_regularizer": null, "padding": "same"}, "class_name": "Conv2D"}, {"name": "decoder_stage0_bn2", "inbound_nodes": [[["decoder_stage0_conv2", 0, 0, {}]]], "config": {"scale": true, "beta_initializer": {"config": {}, "class_name": "Zeros"}, "gamma_regularizer": null, "moving_variance_initializer": {"config": {}, "class_name": "Ones"}, "beta_constraint": null, "trainable": true, "beta_regularizer": null, "gamma_constraint": null, "momentum": 0.99, "name": "decoder_stage0_bn2", "gamma_initializer": {"config": {}, "class_name": "Ones"}, "moving_mean_initializer": {"config": {}, "class_name": "Zeros"}, "axis": -1, "center": true, "epsilon": 0.001}, "class_name": "BatchNormalization"}, {"name": "decoder_stage0_relu2", "inbound_nodes": [[["decoder_stage0_bn2", 0, 0, {}]]], "config": {"name": "decoder_stage0_relu2", "trainable": true, "activation": "relu"}, "class_name": "Activation"}, {"name": "decoder_stage1_upsample", "inbound_nodes": [[["decoder_stage0_relu2", 0, 0, {}]]], "config": {"name": "decoder_stage1_upsample", "size": [2, 2], "interpolation": "nearest", "trainable": true, "data_format": "channels_last"}, "class_name": "UpSampling2D"}, {"name": "concatenate_6", "inbound_nodes": [[["decoder_stage1_upsample", 0, 0, {}], ["stage3_unit1_relu1", 0, 0, {}]]], "config": {"name": "concatenate_6", "axis": -1, "trainable": true}, "class_name": "Concatenate"}, {"name": "decoder_stage1_conv1", "inbound_nodes": [[["concatenate_6", 0, 0, {}]]], "config": {"strides": [1, 1], "kernel_constraint": null, "use_bias": false, "filters": 128, "kernel_regularizer": null, "kernel_initializer": {"config": {"scale": 1.0, "seed": null, "mode": "fan_avg", "distribution": "uniform"}, "class_name": "VarianceScaling"}, "dilation_rate": [1, 1], "bias_constraint": null, "trainable": true, "activation": "linear", "bias_initializer": {"config": {}, "class_name": "Zeros"}, "data_format": "channels_last", "activity_regularizer": null, "name": "decoder_stage1_conv1", "kernel_size": [3, 3], "bias_regularizer": null, "padding": "same"}, "class_name": "Conv2D"}, {"name": "decoder_stage1_bn1", "inbound_nodes": [[["decoder_stage1_conv1", 0, 0, {}]]], "config": {"scale": true, "beta_initializer": {"config": {}, "class_name": "Zeros"}, "gamma_regularizer": null, "moving_variance_initializer": {"config": {}, "class_name": "Ones"}, "beta_constraint": null, "trainable": true, "beta_regularizer": null, "gamma_constraint": null, "momentum": 0.99, "name": "decoder_stage1_bn1", "gamma_initializer": {"config": {}, "class_name": "Ones"}, "moving_mean_initializer": {"config": {}, "class_name": "Zeros"}, "axis": -1, "center": true, "epsilon": 0.001}, "class_name": "BatchNormalization"}, {"name": "decoder_stage1_relu1", "inbound_nodes": [[["decoder_stage1_bn1", 0, 0, {}]]], "config": {"name": "decoder_stage1_relu1", "trainable": true, "activation": "relu"}, "class_name": "Activation"}, {"name": "decoder_stage1_conv2", "inbound_nodes": [[["decoder_stage1_relu1", 0, 0, {}]]], "config": {"strides": [1, 1], "kernel_constraint": null, "use_bias": false, "filters": 128, "kernel_regularizer": null, "kernel_initializer": {"config": {"scale": 1.0, "seed": null, "mode": "fan_avg", "distribution": "uniform"}, "class_name": "VarianceScaling"}, "dilation_rate": [1, 1], "bias_constraint": null, "trainable": true, "activation": "linear", "bias_initializer": {"config": {}, "class_name": "Zeros"}, "data_format": "channels_last", "activity_regularizer": null, "name": "decoder_stage1_conv2", "kernel_size": [3, 3], "bias_regularizer": null, "padding": "same"}, "class_name": "Conv2D"}, {"name": "decoder_stage1_bn2", "inbound_nodes": [[["decoder_stage1_conv2", 0, 0, {}]]], "config": {"scale": true, "beta_initializer": {"config": {}, "class_name": "Zeros"}, "gamma_regularizer": null, "moving_variance_initializer": {"config": {}, "class_name": "Ones"}, "beta_constraint": null, "trainable": true, "beta_regularizer": null, "gamma_constraint": null, "momentum": 0.99, "name": "decoder_stage1_bn2", "gamma_initializer": {"config": {}, "class_name": "Ones"}, "moving_mean_initializer": {"config": {}, "class_name": "Zeros"}, "axis": -1, "center": true, "epsilon": 0.001}, "class_name": "BatchNormalization"}, {"name": "decoder_stage1_relu2", "inbound_nodes": [[["decoder_stage1_bn2", 0, 0, {}]]], "config": {"name": "decoder_stage1_relu2", "trainable": true, "activation": "relu"}, "class_name": "Activation"}, {"name": "decoder_stage2_upsample", "inbound_nodes": [[["decoder_stage1_relu2", 0, 0, {}]]], "config": {"name": "decoder_stage2_upsample", "size": [2, 2], "interpolation": "nearest", "trainable": true, "data_format": "channels_last"}, "class_name": "UpSampling2D"}, {"name": "concatenate_7", "inbound_nodes": [[["decoder_stage2_upsample", 0, 0, {}], ["stage2_unit1_relu1", 0, 0, {}]]], "config": {"name": "concatenate_7", "axis": -1, "trainable": true}, "class_name": "Concatenate"}, {"name": "decoder_stage2_conv1", "inbound_nodes": [[["concatenate_7", 0, 0, {}]]], "config": {"strides": [1, 1], "kernel_constraint": null, "use_bias": false, "filters": 64, "kernel_regularizer": null, "kernel_initializer": {"config": {"scale": 1.0, "seed": null, "mode": "fan_avg", "distribution": "uniform"}, "class_name": "VarianceScaling"}, "dilation_rate": [1, 1], "bias_constraint": null, "trainable": true, "activation": "linear", "bias_initializer": {"config": {}, "class_name": "Zeros"}, "data_format": "channels_last", "activity_regularizer": null, "name": "decoder_stage2_conv1", "kernel_size": [3, 3], "bias_regularizer": null, "padding": "same"}, "class_name": "Conv2D"}, {"name": "decoder_stage2_bn1", "inbound_nodes": [[["decoder_stage2_conv1", 0, 0, {}]]], "config": {"scale": true, "beta_initializer": {"config": {}, "class_name": "Zeros"}, "gamma_regularizer": null, "moving_variance_initializer": {"config": {}, "class_name": "Ones"}, "beta_constraint": null, "trainable": true, "beta_regularizer": null, "gamma_constraint": null, "momentum": 0.99, "name": "decoder_stage2_bn1", "gamma_initializer": {"config": {}, "class_name": "Ones"}, "moving_mean_initializer": {"config": {}, "class_name": "Zeros"}, "axis": -1, "center": true, "epsilon": 0.001}, "class_name": "BatchNormalization"}, {"name": "decoder_stage2_relu1", "inbound_nodes": [[["decoder_stage2_bn1", 0, 0, {}]]], "config": {"name": "decoder_stage2_relu1", "trainable": true, "activation": "relu"}, "class_name": "Activation"}, {"name": "decoder_stage2_conv2", "inbound_nodes": [[["decoder_stage2_relu1", 0, 0, {}]]], "config": {"strides": [1, 1], "kernel_constraint": null, "use_bias": false, "filters": 64, "kernel_regularizer": null, "kernel_initializer": {"config": {"scale": 1.0, "seed": null, "mode": "fan_avg", "distribution": "uniform"}, "class_name": "VarianceScaling"}, "dilation_rate": [1, 1], "bias_constraint": null, "trainable": true, "activation": "linear", "bias_initializer": {"config": {}, "class_name": "Zeros"}, "data_format": "channels_last", "activity_regularizer": null, "name": "decoder_stage2_conv2", "kernel_size": [3, 3], "bias_regularizer": null, "padding": "same"}, "class_name": "Conv2D"}, {"name": "decoder_stage2_bn2", "inbound_nodes": [[["decoder_stage2_conv2", 0, 0, {}]]], "config": {"scale": true, "beta_initializer": {"config": {}, "class_name": "Zeros"}, "gamma_regularizer": null, "moving_variance_initializer": {"config": {}, "class_name": "Ones"}, "beta_constraint": null, "trainable": true, "beta_regularizer": null, "gamma_constraint": null, "momentum": 0.99, "name": "decoder_stage2_bn2", "gamma_initializer": {"config": {}, "class_name": "Ones"}, "moving_mean_initializer": {"config": {}, "class_name": "Zeros"}, "axis": -1, "center": true, "epsilon": 0.001}, "class_name": "BatchNormalization"}, {"name": "decoder_stage2_relu2", "inbound_nodes": [[["decoder_stage2_bn2", 0, 0, {}]]], "config": {"name": "decoder_stage2_relu2", "trainable": true, "activation": "relu"}, "class_name": "Activation"}, {"name": "decoder_stage3_upsample", "inbound_nodes": [[["decoder_stage2_relu2", 0, 0, {}]]], "config": {"name": "decoder_stage3_upsample", "size": [2, 2], "interpolation": "nearest", "trainable": true, "data_format": "channels_last"}, "class_name": "UpSampling2D"}, {"name": "concatenate_8", "inbound_nodes": [[["decoder_stage3_upsample", 0, 0, {}], ["relu0", 0, 0, {}]]], "config": {"name": "concatenate_8", "axis": -1, "trainable": true}, "class_name": "Concatenate"}, {"name": "decoder_stage3_conv1", "inbound_nodes": [[["concatenate_8", 0, 0, {}]]], "config": {"strides": [1, 1], "kernel_constraint": null, "use_bias": false, "filters": 32, "kernel_regularizer": null, "kernel_initializer": {"config": {"scale": 1.0, "seed": null, "mode": "fan_avg", "distribution": "uniform"}, "class_name": "VarianceScaling"}, "dilation_rate": [1, 1], "bias_constraint": null, "trainable": true, "activation": "linear", "bias_initializer": {"config": {}, "class_name": "Zeros"}, "data_format": "channels_last", "activity_regularizer": null, "name": "decoder_stage3_conv1", "kernel_size": [3, 3], "bias_regularizer": null, "padding": "same"}, "class_name": "Conv2D"}, {"name": "decoder_stage3_bn1", "inbound_nodes": [[["decoder_stage3_conv1", 0, 0, {}]]], "config": {"scale": true, "beta_initializer": {"config": {}, "class_name": "Zeros"}, "gamma_regularizer": null, "moving_variance_initializer": {"config": {}, "class_name": "Ones"}, "beta_constraint": null, "trainable": true, "beta_regularizer": null, "gamma_constraint": null, "momentum": 0.99, "name": "decoder_stage3_bn1", "gamma_initializer": {"config": {}, "class_name": "Ones"}, "moving_mean_initializer": {"config": {}, "class_name": "Zeros"}, "axis": -1, "center": true, "epsilon": 0.001}, "class_name": "BatchNormalization"}, {"name": "decoder_stage3_relu1", "inbound_nodes": [[["decoder_stage3_bn1", 0, 0, {}]]], "config": {"name": "decoder_stage3_relu1", "trainable": true, "activation": "relu"}, "class_name": "Activation"}, {"name": "decoder_stage3_conv2", "inbound_nodes": [[["decoder_stage3_relu1", 0, 0, {}]]], "config": {"strides": [1, 1], "kernel_constraint": null, "use_bias": false, "filters": 32, "kernel_regularizer": null, "kernel_initializer": {"config": {"scale": 1.0, "seed": null, "mode": "fan_avg", "distribution": "uniform"}, "class_name": "VarianceScaling"}, "dilation_rate": [1, 1], "bias_constraint": null, "trainable": true, "activation": "linear", "bias_initializer": {"config": {}, "class_name": "Zeros"}, "data_format": "channels_last", "activity_regularizer": null, "name": "decoder_stage3_conv2", "kernel_size": [3, 3], "bias_regularizer": null, "padding": "same"}, "class_name": "Conv2D"}, {"name": "decoder_stage3_bn2", "inbound_nodes": [[["decoder_stage3_conv2", 0, 0, {}]]], "config": {"scale": true, "beta_initializer": {"config": {}, "class_name": "Zeros"}, "gamma_regularizer": null, "moving_variance_initializer": {"config": {}, "class_name": "Ones"}, "beta_constraint": null, "trainable": true, "beta_regularizer": null, "gamma_constraint": null, "momentum": 0.99, "name": "decoder_stage3_bn2", "gamma_initializer": {"config": {}, "class_name": "Ones"}, "moving_mean_initializer": {"config": {}, "class_name": "Zeros"}, "axis": -1, "center": true, "epsilon": 0.001}, "class_name": "BatchNormalization"}, {"name": "decoder_stage3_relu2", "inbound_nodes": [[["decoder_stage3_bn2", 0, 0, {}]]], "config": {"name": "decoder_stage3_relu2", "trainable": true, "activation": "relu"}, "class_name": "Activation"}, {"name": "decoder_stage4_upsample", "inbound_nodes": [[["decoder_stage3_relu2", 0, 0, {}]]], "config": {"name": "decoder_stage4_upsample", "size": [2, 2], "interpolation": "nearest", "trainable": true, "data_format": "channels_last"}, "class_name": "UpSampling2D"}, {"name": "decoder_stage4_conv1", "inbound_nodes": [[["decoder_stage4_upsample", 0, 0, {}]]], "config": {"strides": [1, 1], "kernel_constraint": null, "use_bias": false, "filters": 16, "kernel_regularizer": null, "kernel_initializer": {"config": {"scale": 1.0, "seed": null, "mode": "fan_avg", "distribution": "uniform"}, "class_name": "VarianceScaling"}, "dilation_rate": [1, 1], "bias_constraint": null, "trainable": true, "activation": "linear", "bias_initializer": {"config": {}, "class_name": "Zeros"}, "data_format": "channels_last", "activity_regularizer": null, "name": "decoder_stage4_conv1", "kernel_size": [3, 3], "bias_regularizer": null, "padding": "same"}, "class_name": "Conv2D"}, {"name": "decoder_stage4_bn1", "inbound_nodes": [[["decoder_stage4_conv1", 0, 0, {}]]], "config": {"scale": true, "beta_initializer": {"config": {}, "class_name": "Zeros"}, "gamma_regularizer": null, "moving_variance_initializer": {"config": {}, "class_name": "Ones"}, "beta_constraint": null, "trainable": true, "beta_regularizer": null, "gamma_constraint": null, "momentum": 0.99, "name": "decoder_stage4_bn1", "gamma_initializer": {"config": {}, "class_name": "Ones"}, "moving_mean_initializer": {"config": {}, "class_name": "Zeros"}, "axis": -1, "center": true, "epsilon": 0.001}, "class_name": "BatchNormalization"}, {"name": "decoder_stage4_relu1", "inbound_nodes": [[["decoder_stage4_bn1", 0, 0, {}]]], "config": {"name": "decoder_stage4_relu1", "trainable": true, "activation": "relu"}, "class_name": "Activation"}, {"name": "decoder_stage4_conv2", "inbound_nodes": [[["decoder_stage4_relu1", 0, 0, {}]]], "config": {"strides": [1, 1], "kernel_constraint": null, "use_bias": false, "filters": 16, "kernel_regularizer": null, "kernel_initializer": {"config": {"scale": 1.0, "seed": null, "mode": "fan_avg", "distribution": "uniform"}, "class_name": "VarianceScaling"}, "dilation_rate": [1, 1], "bias_constraint": null, "trainable": true, "activation": "linear", "bias_initializer": {"config": {}, "class_name": "Zeros"}, "data_format": "channels_last", "activity_regularizer": null, "name": "decoder_stage4_conv2", "kernel_size": [3, 3], "bias_regularizer": null, "padding": "same"}, "class_name": "Conv2D"}, {"name": "decoder_stage4_bn2", "inbound_nodes": [[["decoder_stage4_conv2", 0, 0, {}]]], "config": {"scale": true, "beta_initializer": {"config": {}, "class_name": "Zeros"}, "gamma_regularizer": null, "moving_variance_initializer": {"config": {}, "class_name": "Ones"}, "beta_constraint": null, "trainable": true, "beta_regularizer": null, "gamma_constraint": null, "momentum": 0.99, "name": "decoder_stage4_bn2", "gamma_initializer": {"config": {}, "class_name": "Ones"}, "moving_mean_initializer": {"config": {}, "class_name": "Zeros"}, "axis": -1, "center": true, "epsilon": 0.001}, "class_name": "BatchNormalization"}, {"name": "decoder_stage4_relu2", "inbound_nodes": [[["decoder_stage4_bn2", 0, 0, {}]]], "config": {"name": "decoder_stage4_relu2", "trainable": true, "activation": "relu"}, "class_name": "Activation"}, {"name": "final_conv", "inbound_nodes": [[["decoder_stage4_relu2", 0, 0, {}]]], "config": {"strides": [1, 1], "kernel_constraint": null, "use_bias": true, "filters": 1, "kernel_regularizer": null, "kernel_initializer": {"config": {"scale": 1.0, "seed": null, "mode": "fan_avg", "distribution": "uniform"}, "class_name": "VarianceScaling"}, "dilation_rate": [1, 1], "bias_constraint": null, "trainable": true, "activation": "linear", "bias_initializer": {"config": {}, "class_name": "Zeros"}, "data_format": "channels_last", "activity_regularizer": null, "name": "final_conv", "kernel_size": [3, 3], "bias_regularizer": null, "padding": "same"}, "class_name": "Conv2D"}, {"name": "sigmoid", "inbound_nodes": [[["final_conv", 0, 0, {}]]], "config": {"name": "sigmoid", "trainable": true, "activation": "sigmoid"}, "class_name": "Activation"}], "input_layers": [["data", 0, 0]], "output_layers": [["sigmoid", 0, 0]]}, "class_name": "Model"}