{"config": {"layers": [{"config": {"batch_input_shape": [null, null, null, 3], "sparse": false, "name": "data", "dtype": "float32"}, "class_name": "InputLayer", "name": "data", "inbound_nodes": []}, {"config": {"scale": false, "name": "bn_data", "momentum": 0.99, "axis": 3, "gamma_regularizer": null, "epsilon": 2e-05, "gamma_constraint": null, "beta_regularizer": null, "moving_mean_initializer": {"config": {}, "class_name": "Zeros"}, "center": true, "trainable": true, "beta_constraint": null, "gamma_initializer": {"config": {}, "class_name": "Ones"}, "beta_initializer": {"config": {}, "class_name": "Zeros"}, "moving_variance_initializer": {"config": {}, "class_name": "Ones"}}, "class_name": "BatchNormalization", "name": "bn_data", "inbound_nodes": [[["data", 0, 0, {}]]]}, {"config": {"data_format": "channels_last", "name": "zero_padding2d_1", "padding": [[3, 3], [3, 3]], "trainable": true}, "class_name": "ZeroPadding2D", "name": "zero_padding2d_1", "inbound_nodes": [[["bn_data", 0, 0, {}]]]}, {"config": {"bias_initializer": {"config": {}, "class_name": "Zeros"}, "name": "conv0", "padding": "valid", "dilation_rate": [1, 1], "use_bias": false, "data_format": "channels_last", "bias_regularizer": null, "kernel_regularizer": null, "bias_constraint": null, "strides": [2, 2], "trainable": true, "activation": "linear", "kernel_size": [7, 7], "kernel_initializer": {"config": {"distribution": "uniform", "scale": 2.0, "seed": null, "mode": "fan_in"}, "class_name": "VarianceScaling"}, "kernel_constraint": null, "activity_regularizer": null, "filters": 64}, "class_name": "Conv2D", "name": "conv0", "inbound_nodes": [[["zero_padding2d_1", 0, 0, {}]]]}, {"config": {"scale": true, "name": "bn0", "momentum": 0.99, "axis": 3, "gamma_regularizer": null, "epsilon": 2e-05, "gamma_constraint": null, "beta_regularizer": null, "moving_mean_initializer": {"config": {}, "class_name": "Zeros"}, "center": true, "trainable": true, "beta_constraint": null, "gamma_initializer": {"config": {}, "class_name": "Ones"}, "beta_initializer": {"config": {}, "class_name": "Zeros"}, "moving_variance_initializer": {"config": {}, "class_name": "Ones"}}, "class_name": "BatchNormalization", "name": "bn0", "inbound_nodes": [[["conv0", 0, 0, {}]]]}, {"config": {"activation": "relu", "name": "relu0", "trainable": true}, "class_name": "Activation", "name": "relu0", "inbound_nodes": [[["bn0", 0, 0, {}]]]}, {"config": {"data_format": "channels_last", "name": "zero_padding2d_2", "padding": [[1, 1], [1, 1]], "trainable": true}, "class_name": "ZeroPadding2D", "name": "zero_padding2d_2", "inbound_nodes": [[["relu0", 0, 0, {}]]]}, {"config": {"pool_size": [3, 3], "data_format": "channels_last", "strides": [2, 2], "trainable": true, "padding": "valid", "name": "pooling0"}, "class_name": "MaxPooling2D", "name": "pooling0", "inbound_nodes": [[["zero_padding2d_2", 0, 0, {}]]]}, {"config": {"scale": true, "name": "stage1_unit1_bn1", "momentum": 0.99, "axis": 3, "gamma_regularizer": null, "epsilon": 2e-05, "gamma_constraint": null, "beta_regularizer": null, "moving_mean_initializer": {"config": {}, "class_name": "Zeros"}, "center": true, "trainable": true, "beta_constraint": null, "gamma_initializer": {"config": {}, "class_name": "Ones"}, "beta_initializer": {"config": {}, "class_name": "Zeros"}, "moving_variance_initializer": {"config": {}, "class_name": "Ones"}}, "class_name": "BatchNormalization", "name": "stage1_unit1_bn1", "inbound_nodes": [[["pooling0", 0, 0, {}]]]}, {"config": {"activation": "relu", "name": "stage1_unit1_relu1", "trainable": true}, "class_name": "Activation", "name": "stage1_unit1_relu1", "inbound_nodes": [[["stage1_unit1_bn1", 0, 0, {}]]]}, {"config": {"data_format": "channels_last", "name": "zero_padding2d_3", "padding": [[1, 1], [1, 1]], "trainable": true}, "class_name": "ZeroPadding2D", "name": "zero_padding2d_3", "inbound_nodes": [[["stage1_unit1_relu1", 0, 0, {}]]]}, {"config": {"bias_initializer": {"config": {}, "class_name": "Zeros"}, "name": "stage1_unit1_conv1", "padding": "valid", "dilation_rate": [1, 1], "use_bias": false, "data_format": "channels_last", "bias_regularizer": null, "kernel_regularizer": null, "bias_constraint": null, "strides": [1, 1], "trainable": true, "activation": "linear", "kernel_size": [3, 3], "kernel_initializer": {"config": {"distribution": "uniform", "scale": 2.0, "seed": null, "mode": "fan_in"}, "class_name": "VarianceScaling"}, "kernel_constraint": null, "activity_regularizer": null, "filters": 64}, "class_name": "Conv2D", "name": "stage1_unit1_conv1", "inbound_nodes": [[["zero_padding2d_3", 0, 0, {}]]]}, {"config": {"scale": true, "name": "stage1_unit1_bn2", "momentum": 0.99, "axis": 3, "gamma_regularizer": null, "epsilon": 2e-05, "gamma_constraint": null, "beta_regularizer": null, "moving_mean_initializer": {"config": {}, "class_name": "Zeros"}, "center": true, "trainable": true, "beta_constraint": null, "gamma_initializer": {"config": {}, "class_name": "Ones"}, "beta_initializer": {"config": {}, "class_name": "Zeros"}, "moving_variance_initializer": {"config": {}, "class_name": "Ones"}}, "class_name": "BatchNormalization", "name": "stage1_unit1_bn2", "inbound_nodes": [[["stage1_unit1_conv1", 0, 0, {}]]]}, {"config": {"activation": "relu", "name": "stage1_unit1_relu2", "trainable": true}, "class_name": "Activation", "name": "stage1_unit1_relu2", "inbound_nodes": [[["stage1_unit1_bn2", 0, 0, {}]]]}, {"config": {"data_format": "channels_last", "name": "zero_padding2d_4", "padding": [[1, 1], [1, 1]], "trainable": true}, "class_name": "ZeroPadding2D", "name": "zero_padding2d_4", "inbound_nodes": [[["stage1_unit1_relu2", 0, 0, {}]]]}, {"config": {"bias_initializer": {"config": {}, "class_name": "Zeros"}, "name": "stage1_unit1_conv2", "padding": "valid", "dilation_rate": [1, 1], "use_bias": false, "data_format": "channels_last", "bias_regularizer": null, "kernel_regularizer": null, "bias_constraint": null, "strides": [1, 1], "trainable": true, "activation": "linear", "kernel_size": [3, 3], "kernel_initializer": {"config": {"distribution": "uniform", "scale": 2.0, "seed": null, "mode": "fan_in"}, "class_name": "VarianceScaling"}, "kernel_constraint": null, "activity_regularizer": null, "filters": 64}, "class_name": "Conv2D", "name": "stage1_unit1_conv2", "inbound_nodes": [[["zero_padding2d_4", 0, 0, {}]]]}, {"config": {"bias_initializer": {"config": {}, "class_name": "Zeros"}, "name": "stage1_unit1_sc", "padding": "valid", "dilation_rate": [1, 1], "use_bias": false, "data_format": "channels_last", "bias_regularizer": null, "kernel_regularizer": null, "bias_constraint": null, "strides": [1, 1], "trainable": true, "activation": "linear", "kernel_size": [1, 1], "kernel_initializer": {"config": {"distribution": "uniform", "scale": 2.0, "seed": null, "mode": "fan_in"}, "class_name": "VarianceScaling"}, "kernel_constraint": null, "activity_regularizer": null, "filters": 64}, "class_name": "Conv2D", "name": "stage1_unit1_sc", "inbound_nodes": [[["stage1_unit1_relu1", 0, 0, {}]]]}, {"config": {"name": "add_1", "trainable": true}, "class_name": "Add", "name": "add_1", "inbound_nodes": [[["stage1_unit1_conv2", 0, 0, {}], ["stage1_unit1_sc", 0, 0, {}]]]}, {"config": {"scale": true, "name": "stage1_unit2_bn1", "momentum": 0.99, "axis": 3, "gamma_regularizer": null, "epsilon": 2e-05, "gamma_constraint": null, "beta_regularizer": null, "moving_mean_initializer": {"config": {}, "class_name": "Zeros"}, "center": true, "trainable": true, "beta_constraint": null, "gamma_initializer": {"config": {}, "class_name": "Ones"}, "beta_initializer": {"config": {}, "class_name": "Zeros"}, "moving_variance_initializer": {"config": {}, "class_name": "Ones"}}, "class_name": "BatchNormalization", "name": "stage1_unit2_bn1", "inbound_nodes": [[["add_1", 0, 0, {}]]]}, {"config": {"activation": "relu", "name": "stage1_unit2_relu1", "trainable": true}, "class_name": "Activation", "name": "stage1_unit2_relu1", "inbound_nodes": [[["stage1_unit2_bn1", 0, 0, {}]]]}, {"config": {"data_format": "channels_last", "name": "zero_padding2d_5", "padding": [[1, 1], [1, 1]], "trainable": true}, "class_name": "ZeroPadding2D", "name": "zero_padding2d_5", "inbound_nodes": [[["stage1_unit2_relu1", 0, 0, {}]]]}, {"config": {"bias_initializer": {"config": {}, "class_name": "Zeros"}, "name": "stage1_unit2_conv1", "padding": "valid", "dilation_rate": [1, 1], "use_bias": false, "data_format": "channels_last", "bias_regularizer": null, "kernel_regularizer": null, "bias_constraint": null, "strides": [1, 1], "trainable": true, "activation": "linear", "kernel_size": [3, 3], "kernel_initializer": {"config": {"distribution": "uniform", "scale": 2.0, "seed": null, "mode": "fan_in"}, "class_name": "VarianceScaling"}, "kernel_constraint": null, "activity_regularizer": null, "filters": 64}, "class_name": "Conv2D", "name": "stage1_unit2_conv1", "inbound_nodes": [[["zero_padding2d_5", 0, 0, {}]]]}, {"config": {"scale": true, "name": "stage1_unit2_bn2", "momentum": 0.99, "axis": 3, "gamma_regularizer": null, "epsilon": 2e-05, "gamma_constraint": null, "beta_regularizer": null, "moving_mean_initializer": {"config": {}, "class_name": "Zeros"}, "center": true, "trainable": true, "beta_constraint": null, "gamma_initializer": {"config": {}, "class_name": "Ones"}, "beta_initializer": {"config": {}, "class_name": "Zeros"}, "moving_variance_initializer": {"config": {}, "class_name": "Ones"}}, "class_name": "BatchNormalization", "name": "stage1_unit2_bn2", "inbound_nodes": [[["stage1_unit2_conv1", 0, 0, {}]]]}, {"config": {"activation": "relu", "name": "stage1_unit2_relu2", "trainable": true}, "class_name": "Activation", "name": "stage1_unit2_relu2", "inbound_nodes": [[["stage1_unit2_bn2", 0, 0, {}]]]}, {"config": {"data_format": "channels_last", "name": "zero_padding2d_6", "padding": [[1, 1], [1, 1]], "trainable": true}, "class_name": "ZeroPadding2D", "name": "zero_padding2d_6", "inbound_nodes": [[["stage1_unit2_relu2", 0, 0, {}]]]}, {"config": {"bias_initializer": {"config": {}, "class_name": "Zeros"}, "name": "stage1_unit2_conv2", "padding": "valid", "dilation_rate": [1, 1], "use_bias": false, "data_format": "channels_last", "bias_regularizer": null, "kernel_regularizer": null, "bias_constraint": null, "strides": [1, 1], "trainable": true, "activation": "linear", "kernel_size": [3, 3], "kernel_initializer": {"config": {"distribution": "uniform", "scale": 2.0, "seed": null, "mode": "fan_in"}, "class_name": "VarianceScaling"}, "kernel_constraint": null, "activity_regularizer": null, "filters": 64}, "class_name": "Conv2D", "name": "stage1_unit2_conv2", "inbound_nodes": [[["zero_padding2d_6", 0, 0, {}]]]}, {"config": {"name": "add_2", "trainable": true}, "class_name": "Add", "name": "add_2", "inbound_nodes": [[["stage1_unit2_conv2", 0, 0, {}], ["add_1", 0, 0, {}]]]}, {"config": {"scale": true, "name": "stage2_unit1_bn1", "momentum": 0.99, "axis": 3, "gamma_regularizer": null, "epsilon": 2e-05, "gamma_constraint": null, "beta_regularizer": null, "moving_mean_initializer": {"config": {}, "class_name": "Zeros"}, "center": true, "trainable": true, "beta_constraint": null, "gamma_initializer": {"config": {}, "class_name": "Ones"}, "beta_initializer": {"config": {}, "class_name": "Zeros"}, "moving_variance_initializer": {"config": {}, "class_name": "Ones"}}, "class_name": "BatchNormalization", "name": "stage2_unit1_bn1", "inbound_nodes": [[["add_2", 0, 0, {}]]]}, {"config": {"activation": "relu", "name": "stage2_unit1_relu1", "trainable": true}, "class_name": "Activation", "name": "stage2_unit1_relu1", "inbound_nodes": [[["stage2_unit1_bn1", 0, 0, {}]]]}, {"config": {"data_format": "channels_last", "name": "zero_padding2d_7", "padding": [[1, 1], [1, 1]], "trainable": true}, "class_name": "ZeroPadding2D", "name": "zero_padding2d_7", "inbound_nodes": [[["stage2_unit1_relu1", 0, 0, {}]]]}, {"config": {"bias_initializer": {"config": {}, "class_name": "Zeros"}, "name": "stage2_unit1_conv1", "padding": "valid", "dilation_rate": [1, 1], "use_bias": false, "data_format": "channels_last", "bias_regularizer": null, "kernel_regularizer": null, "bias_constraint": null, "strides": [2, 2], "trainable": true, "activation": "linear", "kernel_size": [3, 3], "kernel_initializer": {"config": {"distribution": "uniform", "scale": 2.0, "seed": null, "mode": "fan_in"}, "class_name": "VarianceScaling"}, "kernel_constraint": null, "activity_regularizer": null, "filters": 128}, "class_name": "Conv2D", "name": "stage2_unit1_conv1", "inbound_nodes": [[["zero_padding2d_7", 0, 0, {}]]]}, {"config": {"scale": true, "name": "stage2_unit1_bn2", "momentum": 0.99, "axis": 3, "gamma_regularizer": null, "epsilon": 2e-05, "gamma_constraint": null, "beta_regularizer": null, "moving_mean_initializer": {"config": {}, "class_name": "Zeros"}, "center": true, "trainable": true, "beta_constraint": null, "gamma_initializer": {"config": {}, "class_name": "Ones"}, "beta_initializer": {"config": {}, "class_name": "Zeros"}, "moving_variance_initializer": {"config": {}, "class_name": "Ones"}}, "class_name": "BatchNormalization", "name": "stage2_unit1_bn2", "inbound_nodes": [[["stage2_unit1_conv1", 0, 0, {}]]]}, {"config": {"activation": "relu", "name": "stage2_unit1_relu2", "trainable": true}, "class_name": "Activation", "name": "stage2_unit1_relu2", "inbound_nodes": [[["stage2_unit1_bn2", 0, 0, {}]]]}, {"config": {"data_format": "channels_last", "name": "zero_padding2d_8", "padding": [[1, 1], [1, 1]], "trainable": true}, "class_name": "ZeroPadding2D", "name": "zero_padding2d_8", "inbound_nodes": [[["stage2_unit1_relu2", 0, 0, {}]]]}, {"config": {"bias_initializer": {"config": {}, "class_name": "Zeros"}, "name": "stage2_unit1_conv2", "padding": "valid", "dilation_rate": [1, 1], "use_bias": false, "data_format": "channels_last", "bias_regularizer": null, "kernel_regularizer": null, "bias_constraint": null, "strides": [1, 1], "trainable": true, "activation": "linear", "kernel_size": [3, 3], "kernel_initializer": {"config": {"distribution": "uniform", "scale": 2.0, "seed": null, "mode": "fan_in"}, "class_name": "VarianceScaling"}, "kernel_constraint": null, "activity_regularizer": null, "filters": 128}, "class_name": "Conv2D", "name": "stage2_unit1_conv2", "inbound_nodes": [[["zero_padding2d_8", 0, 0, {}]]]}, {"config": {"bias_initializer": {"config": {}, "class_name": "Zeros"}, "name": "stage2_unit1_sc", "padding": "valid", "dilation_rate": [1, 1], "use_bias": false, "data_format": "channels_last", "bias_regularizer": null, "kernel_regularizer": null, "bias_constraint": null, "strides": [2, 2], "trainable": true, "activation": "linear", "kernel_size": [1, 1], "kernel_initializer": {"config": {"distribution": "uniform", "scale": 2.0, "seed": null, "mode": "fan_in"}, "class_name": "VarianceScaling"}, "kernel_constraint": null, "activity_regularizer": null, "filters": 128}, "class_name": "Conv2D", "name": "stage2_unit1_sc", "inbound_nodes": [[["stage2_unit1_relu1", 0, 0, {}]]]}, {"config": {"name": "add_3", "trainable": true}, "class_name": "Add", "name": "add_3", "inbound_nodes": [[["stage2_unit1_conv2", 0, 0, {}], ["stage2_unit1_sc", 0, 0, {}]]]}, {"config": {"scale": true, "name": "stage2_unit2_bn1", "momentum": 0.99, "axis": 3, "gamma_regularizer": null, "epsilon": 2e-05, "gamma_constraint": null, "beta_regularizer": null, "moving_mean_initializer": {"config": {}, "class_name": "Zeros"}, "center": true, "trainable": true, "beta_constraint": null, "gamma_initializer": {"config": {}, "class_name": "Ones"}, "beta_initializer": {"config": {}, "class_name": "Zeros"}, "moving_variance_initializer": {"config": {}, "class_name": "Ones"}}, "class_name": "BatchNormalization", "name": "stage2_unit2_bn1", "inbound_nodes": [[["add_3", 0, 0, {}]]]}, {"config": {"activation": "relu", "name": "stage2_unit2_relu1", "trainable": true}, "class_name": "Activation", "name": "stage2_unit2_relu1", "inbound_nodes": [[["stage2_unit2_bn1", 0, 0, {}]]]}, {"config": {"data_format": "channels_last", "name": "zero_padding2d_9", "padding": [[1, 1], [1, 1]], "trainable": true}, "class_name": "ZeroPadding2D", "name": "zero_padding2d_9", "inbound_nodes": [[["stage2_unit2_relu1", 0, 0, {}]]]}, {"config": {"bias_initializer": {"config": {}, "class_name": "Zeros"}, "name": "stage2_unit2_conv1", "padding": "valid", "dilation_rate": [1, 1], "use_bias": false, "data_format": "channels_last", "bias_regularizer": null, "kernel_regularizer": null, "bias_constraint": null, "strides": [1, 1], "trainable": true, "activation": "linear", "kernel_size": [3, 3], "kernel_initializer": {"config": {"distribution": "uniform", "scale": 2.0, "seed": null, "mode": "fan_in"}, "class_name": "VarianceScaling"}, "kernel_constraint": null, "activity_regularizer": null, "filters": 128}, "class_name": "Conv2D", "name": "stage2_unit2_conv1", "inbound_nodes": [[["zero_padding2d_9", 0, 0, {}]]]}, {"config": {"scale": true, "name": "stage2_unit2_bn2", "momentum": 0.99, "axis": 3, "gamma_regularizer": null, "epsilon": 2e-05, "gamma_constraint": null, "beta_regularizer": null, "moving_mean_initializer": {"config": {}, "class_name": "Zeros"}, "center": true, "trainable": true, "beta_constraint": null, "gamma_initializer": {"config": {}, "class_name": "Ones"}, "beta_initializer": {"config": {}, "class_name": "Zeros"}, "moving_variance_initializer": {"config": {}, "class_name": "Ones"}}, "class_name": "BatchNormalization", "name": "stage2_unit2_bn2", "inbound_nodes": [[["stage2_unit2_conv1", 0, 0, {}]]]}, {"config": {"activation": "relu", "name": "stage2_unit2_relu2", "trainable": true}, "class_name": "Activation", "name": "stage2_unit2_relu2", "inbound_nodes": [[["stage2_unit2_bn2", 0, 0, {}]]]}, {"config": {"data_format": "channels_last", "name": "zero_padding2d_10", "padding": [[1, 1], [1, 1]], "trainable": true}, "class_name": "ZeroPadding2D", "name": "zero_padding2d_10", "inbound_nodes": [[["stage2_unit2_relu2", 0, 0, {}]]]}, {"config": {"bias_initializer": {"config": {}, "class_name": "Zeros"}, "name": "stage2_unit2_conv2", "padding": "valid", "dilation_rate": [1, 1], "use_bias": false, "data_format": "channels_last", "bias_regularizer": null, "kernel_regularizer": null, "bias_constraint": null, "strides": [1, 1], "trainable": true, "activation": "linear", "kernel_size": [3, 3], "kernel_initializer": {"config": {"distribution": "uniform", "scale": 2.0, "seed": null, "mode": "fan_in"}, "class_name": "VarianceScaling"}, "kernel_constraint": null, "activity_regularizer": null, "filters": 128}, "class_name": "Conv2D", "name": "stage2_unit2_conv2", "inbound_nodes": [[["zero_padding2d_10", 0, 0, {}]]]}, {"config": {"name": "add_4", "trainable": true}, "class_name": "Add", "name": "add_4", "inbound_nodes": [[["stage2_unit2_conv2", 0, 0, {}], ["add_3", 0, 0, {}]]]}, {"config": {"scale": true, "name": "stage3_unit1_bn1", "momentum": 0.99, "axis": 3, "gamma_regularizer": null, "epsilon": 2e-05, "gamma_constraint": null, "beta_regularizer": null, "moving_mean_initializer": {"config": {}, "class_name": "Zeros"}, "center": true, "trainable": true, "beta_constraint": null, "gamma_initializer": {"config": {}, "class_name": "Ones"}, "beta_initializer": {"config": {}, "class_name": "Zeros"}, "moving_variance_initializer": {"config": {}, "class_name": "Ones"}}, "class_name": "BatchNormalization", "name": "stage3_unit1_bn1", "inbound_nodes": [[["add_4", 0, 0, {}]]]}, {"config": {"activation": "relu", "name": "stage3_unit1_relu1", "trainable": true}, "class_name": "Activation", "name": "stage3_unit1_relu1", "inbound_nodes": [[["stage3_unit1_bn1", 0, 0, {}]]]}, {"config": {"data_format": "channels_last", "name": "zero_padding2d_11", "padding": [[1, 1], [1, 1]], "trainable": true}, "class_name": "ZeroPadding2D", "name": "zero_padding2d_11", "inbound_nodes": [[["stage3_unit1_relu1", 0, 0, {}]]]}, {"config": {"bias_initializer": {"config": {}, "class_name": "Zeros"}, "name": "stage3_unit1_conv1", "padding": "valid", "dilation_rate": [1, 1], "use_bias": false, "data_format": "channels_last", "bias_regularizer": null, "kernel_regularizer": null, "bias_constraint": null, "strides": [2, 2], "trainable": true, "activation": "linear", "kernel_size": [3, 3], "kernel_initializer": {"config": {"distribution": "uniform", "scale": 2.0, "seed": null, "mode": "fan_in"}, "class_name": "VarianceScaling"}, "kernel_constraint": null, "activity_regularizer": null, "filters": 256}, "class_name": "Conv2D", "name": "stage3_unit1_conv1", "inbound_nodes": [[["zero_padding2d_11", 0, 0, {}]]]}, {"config": {"scale": true, "name": "stage3_unit1_bn2", "momentum": 0.99, "axis": 3, "gamma_regularizer": null, "epsilon": 2e-05, "gamma_constraint": null, "beta_regularizer": null, "moving_mean_initializer": {"config": {}, "class_name": "Zeros"}, "center": true, "trainable": true, "beta_constraint": null, "gamma_initializer": {"config": {}, "class_name": "Ones"}, "beta_initializer": {"config": {}, "class_name": "Zeros"}, "moving_variance_initializer": {"config": {}, "class_name": "Ones"}}, "class_name": "BatchNormalization", "name": "stage3_unit1_bn2", "inbound_nodes": [[["stage3_unit1_conv1", 0, 0, {}]]]}, {"config": {"activation": "relu", "name": "stage3_unit1_relu2", "trainable": true}, "class_name": "Activation", "name": "stage3_unit1_relu2", "inbound_nodes": [[["stage3_unit1_bn2", 0, 0, {}]]]}, {"config": {"data_format": "channels_last", "name": "zero_padding2d_12", "padding": [[1, 1], [1, 1]], "trainable": true}, "class_name": "ZeroPadding2D", "name": "zero_padding2d_12", "inbound_nodes": [[["stage3_unit1_relu2", 0, 0, {}]]]}, {"config": {"bias_initializer": {"config": {}, "class_name": "Zeros"}, "name": "stage3_unit1_conv2", "padding": "valid", "dilation_rate": [1, 1], "use_bias": false, "data_format": "channels_last", "bias_regularizer": null, "kernel_regularizer": null, "bias_constraint": null, "strides": [1, 1], "trainable": true, "activation": "linear", "kernel_size": [3, 3], "kernel_initializer": {"config": {"distribution": "uniform", "scale": 2.0, "seed": null, "mode": "fan_in"}, "class_name": "VarianceScaling"}, "kernel_constraint": null, "activity_regularizer": null, "filters": 256}, "class_name": "Conv2D", "name": "stage3_unit1_conv2", "inbound_nodes": [[["zero_padding2d_12", 0, 0, {}]]]}, {"config": {"bias_initializer": {"config": {}, "class_name": "Zeros"}, "name": "stage3_unit1_sc", "padding": "valid", "dilation_rate": [1, 1], "use_bias": false, "data_format": "channels_last", "bias_regularizer": null, "kernel_regularizer": null, "bias_constraint": null, "strides": [2, 2], "trainable": true, "activation": "linear", "kernel_size": [1, 1], "kernel_initializer": {"config": {"distribution": "uniform", "scale": 2.0, "seed": null, "mode": "fan_in"}, "class_name": "VarianceScaling"}, "kernel_constraint": null, "activity_regularizer": null, "filters": 256}, "class_name": "Conv2D", "name": "stage3_unit1_sc", "inbound_nodes": [[["stage3_unit1_relu1", 0, 0, {}]]]}, {"config": {"name": "add_5", "trainable": true}, "class_name": "Add", "name": "add_5", "inbound_nodes": [[["stage3_unit1_conv2", 0, 0, {}], ["stage3_unit1_sc", 0, 0, {}]]]}, {"config": {"scale": true, "name": "stage3_unit2_bn1", "momentum": 0.99, "axis": 3, "gamma_regularizer": null, "epsilon": 2e-05, "gamma_constraint": null, "beta_regularizer": null, "moving_mean_initializer": {"config": {}, "class_name": "Zeros"}, "center": true, "trainable": true, "beta_constraint": null, "gamma_initializer": {"config": {}, "class_name": "Ones"}, "beta_initializer": {"config": {}, "class_name": "Zeros"}, "moving_variance_initializer": {"config": {}, "class_name": "Ones"}}, "class_name": "BatchNormalization", "name": "stage3_unit2_bn1", "inbound_nodes": [[["add_5", 0, 0, {}]]]}, {"config": {"activation": "relu", "name": "stage3_unit2_relu1", "trainable": true}, "class_name": "Activation", "name": "stage3_unit2_relu1", "inbound_nodes": [[["stage3_unit2_bn1", 0, 0, {}]]]}, {"config": {"data_format": "channels_last", "name": "zero_padding2d_13", "padding": [[1, 1], [1, 1]], "trainable": true}, "class_name": "ZeroPadding2D", "name": "zero_padding2d_13", "inbound_nodes": [[["stage3_unit2_relu1", 0, 0, {}]]]}, {"config": {"bias_initializer": {"config": {}, "class_name": "Zeros"}, "name": "stage3_unit2_conv1", "padding": "valid", "dilation_rate": [1, 1], "use_bias": false, "data_format": "channels_last", "bias_regularizer": null, "kernel_regularizer": null, "bias_constraint": null, "strides": [1, 1], "trainable": true, "activation": "linear", "kernel_size": [3, 3], "kernel_initializer": {"config": {"distribution": "uniform", "scale": 2.0, "seed": null, "mode": "fan_in"}, "class_name": "VarianceScaling"}, "kernel_constraint": null, "activity_regularizer": null, "filters": 256}, "class_name": "Conv2D", "name": "stage3_unit2_conv1", "inbound_nodes": [[["zero_padding2d_13", 0, 0, {}]]]}, {"config": {"scale": true, "name": "stage3_unit2_bn2", "momentum": 0.99, "axis": 3, "gamma_regularizer": null, "epsilon": 2e-05, "gamma_constraint": null, "beta_regularizer": null, "moving_mean_initializer": {"config": {}, "class_name": "Zeros"}, "center": true, "trainable": true, "beta_constraint": null, "gamma_initializer": {"config": {}, "class_name": "Ones"}, "beta_initializer": {"config": {}, "class_name": "Zeros"}, "moving_variance_initializer": {"config": {}, "class_name": "Ones"}}, "class_name": "BatchNormalization", "name": "stage3_unit2_bn2", "inbound_nodes": [[["stage3_unit2_conv1", 0, 0, {}]]]}, {"config": {"activation": "relu", "name": "stage3_unit2_relu2", "trainable": true}, "class_name": "Activation", "name": "stage3_unit2_relu2", "inbound_nodes": [[["stage3_unit2_bn2", 0, 0, {}]]]}, {"config": {"data_format": "channels_last", "name": "zero_padding2d_14", "padding": [[1, 1], [1, 1]], "trainable": true}, "class_name": "ZeroPadding2D", "name": "zero_padding2d_14", "inbound_nodes": [[["stage3_unit2_relu2", 0, 0, {}]]]}, {"config": {"bias_initializer": {"config": {}, "class_name": "Zeros"}, "name": "stage3_unit2_conv2", "padding": "valid", "dilation_rate": [1, 1], "use_bias": false, "data_format": "channels_last", "bias_regularizer": null, "kernel_regularizer": null, "bias_constraint": null, "strides": [1, 1], "trainable": true, "activation": "linear", "kernel_size": [3, 3], "kernel_initializer": {"config": {"distribution": "uniform", "scale": 2.0, "seed": null, "mode": "fan_in"}, "class_name": "VarianceScaling"}, "kernel_constraint": null, "activity_regularizer": null, "filters": 256}, "class_name": "Conv2D", "name": "stage3_unit2_conv2", "inbound_nodes": [[["zero_padding2d_14", 0, 0, {}]]]}, {"config": {"name": "add_6", "trainable": true}, "class_name": "Add", "name": "add_6", "inbound_nodes": [[["stage3_unit2_conv2", 0, 0, {}], ["add_5", 0, 0, {}]]]}, {"config": {"scale": true, "name": "stage4_unit1_bn1", "momentum": 0.99, "axis": 3, "gamma_regularizer": null, "epsilon": 2e-05, "gamma_constraint": null, "beta_regularizer": null, "moving_mean_initializer": {"config": {}, "class_name": "Zeros"}, "center": true, "trainable": true, "beta_constraint": null, "gamma_initializer": {"config": {}, "class_name": "Ones"}, "beta_initializer": {"config": {}, "class_name": "Zeros"}, "moving_variance_initializer": {"config": {}, "class_name": "Ones"}}, "class_name": "BatchNormalization", "name": "stage4_unit1_bn1", "inbound_nodes": [[["add_6", 0, 0, {}]]]}, {"config": {"activation": "relu", "name": "stage4_unit1_relu1", "trainable": true}, "class_name": "Activation", "name": "stage4_unit1_relu1", "inbound_nodes": [[["stage4_unit1_bn1", 0, 0, {}]]]}, {"config": {"data_format": "channels_last", "name": "zero_padding2d_15", "padding": [[1, 1], [1, 1]], "trainable": true}, "class_name": "ZeroPadding2D", "name": "zero_padding2d_15", "inbound_nodes": [[["stage4_unit1_relu1", 0, 0, {}]]]}, {"config": {"bias_initializer": {"config": {}, "class_name": "Zeros"}, "name": "stage4_unit1_conv1", "padding": "valid", "dilation_rate": [1, 1], "use_bias": false, "data_format": "channels_last", "bias_regularizer": null, "kernel_regularizer": null, "bias_constraint": null, "strides": [2, 2], "trainable": true, "activation": "linear", "kernel_size": [3, 3], "kernel_initializer": {"config": {"distribution": "uniform", "scale": 2.0, "seed": null, "mode": "fan_in"}, "class_name": "VarianceScaling"}, "kernel_constraint": null, "activity_regularizer": null, "filters": 512}, "class_name": "Conv2D", "name": "stage4_unit1_conv1", "inbound_nodes": [[["zero_padding2d_15", 0, 0, {}]]]}, {"config": {"scale": true, "name": "stage4_unit1_bn2", "momentum": 0.99, "axis": 3, "gamma_regularizer": null, "epsilon": 2e-05, "gamma_constraint": null, "beta_regularizer": null, "moving_mean_initializer": {"config": {}, "class_name": "Zeros"}, "center": true, "trainable": true, "beta_constraint": null, "gamma_initializer": {"config": {}, "class_name": "Ones"}, "beta_initializer": {"config": {}, "class_name": "Zeros"}, "moving_variance_initializer": {"config": {}, "class_name": "Ones"}}, "class_name": "BatchNormalization", "name": "stage4_unit1_bn2", "inbound_nodes": [[["stage4_unit1_conv1", 0, 0, {}]]]}, {"config": {"activation": "relu", "name": "stage4_unit1_relu2", "trainable": true}, "class_name": "Activation", "name": "stage4_unit1_relu2", "inbound_nodes": [[["stage4_unit1_bn2", 0, 0, {}]]]}, {"config": {"data_format": "channels_last", "name": "zero_padding2d_16", "padding": [[1, 1], [1, 1]], "trainable": true}, "class_name": "ZeroPadding2D", "name": "zero_padding2d_16", "inbound_nodes": [[["stage4_unit1_relu2", 0, 0, {}]]]}, {"config": {"bias_initializer": {"config": {}, "class_name": "Zeros"}, "name": "stage4_unit1_conv2", "padding": "valid", "dilation_rate": [1, 1], "use_bias": false, "data_format": "channels_last", "bias_regularizer": null, "kernel_regularizer": null, "bias_constraint": null, "strides": [1, 1], "trainable": true, "activation": "linear", "kernel_size": [3, 3], "kernel_initializer": {"config": {"distribution": "uniform", "scale": 2.0, "seed": null, "mode": "fan_in"}, "class_name": "VarianceScaling"}, "kernel_constraint": null, "activity_regularizer": null, "filters": 512}, "class_name": "Conv2D", "name": "stage4_unit1_conv2", "inbound_nodes": [[["zero_padding2d_16", 0, 0, {}]]]}, {"config": {"bias_initializer": {"config": {}, "class_name": "Zeros"}, "name": "stage4_unit1_sc", "padding": "valid", "dilation_rate": [1, 1], "use_bias": false, "data_format": "channels_last", "bias_regularizer": null, "kernel_regularizer": null, "bias_constraint": null, "strides": [2, 2], "trainable": true, "activation": "linear", "kernel_size": [1, 1], "kernel_initializer": {"config": {"distribution": "uniform", "scale": 2.0, "seed": null, "mode": "fan_in"}, "class_name": "VarianceScaling"}, "kernel_constraint": null, "activity_regularizer": null, "filters": 512}, "class_name": "Conv2D", "name": "stage4_unit1_sc", "inbound_nodes": [[["stage4_unit1_relu1", 0, 0, {}]]]}, {"config": {"name": "add_7", "trainable": true}, "class_name": "Add", "name": "add_7", "inbound_nodes": [[["stage4_unit1_conv2", 0, 0, {}], ["stage4_unit1_sc", 0, 0, {}]]]}, {"config": {"scale": true, "name": "stage4_unit2_bn1", "momentum": 0.99, "axis": 3, "gamma_regularizer": null, "epsilon": 2e-05, "gamma_constraint": null, "beta_regularizer": null, "moving_mean_initializer": {"config": {}, "class_name": "Zeros"}, "center": true, "trainable": true, "beta_constraint": null, "gamma_initializer": {"config": {}, "class_name": "Ones"}, "beta_initializer": {"config": {}, "class_name": "Zeros"}, "moving_variance_initializer": {"config": {}, "class_name": "Ones"}}, "class_name": "BatchNormalization", "name": "stage4_unit2_bn1", "inbound_nodes": [[["add_7", 0, 0, {}]]]}, {"config": {"activation": "relu", "name": "stage4_unit2_relu1", "trainable": true}, "class_name": "Activation", "name": "stage4_unit2_relu1", "inbound_nodes": [[["stage4_unit2_bn1", 0, 0, {}]]]}, {"config": {"data_format": "channels_last", "name": "zero_padding2d_17", "padding": [[1, 1], [1, 1]], "trainable": true}, "class_name": "ZeroPadding2D", "name": "zero_padding2d_17", "inbound_nodes": [[["stage4_unit2_relu1", 0, 0, {}]]]}, {"config": {"bias_initializer": {"config": {}, "class_name": "Zeros"}, "name": "stage4_unit2_conv1", "padding": "valid", "dilation_rate": [1, 1], "use_bias": false, "data_format": "channels_last", "bias_regularizer": null, "kernel_regularizer": null, "bias_constraint": null, "strides": [1, 1], "trainable": true, "activation": "linear", "kernel_size": [3, 3], "kernel_initializer": {"config": {"distribution": "uniform", "scale": 2.0, "seed": null, "mode": "fan_in"}, "class_name": "VarianceScaling"}, "kernel_constraint": null, "activity_regularizer": null, "filters": 512}, "class_name": "Conv2D", "name": "stage4_unit2_conv1", "inbound_nodes": [[["zero_padding2d_17", 0, 0, {}]]]}, {"config": {"scale": true, "name": "stage4_unit2_bn2", "momentum": 0.99, "axis": 3, "gamma_regularizer": null, "epsilon": 2e-05, "gamma_constraint": null, "beta_regularizer": null, "moving_mean_initializer": {"config": {}, "class_name": "Zeros"}, "center": true, "trainable": true, "beta_constraint": null, "gamma_initializer": {"config": {}, "class_name": "Ones"}, "beta_initializer": {"config": {}, "class_name": "Zeros"}, "moving_variance_initializer": {"config": {}, "class_name": "Ones"}}, "class_name": "BatchNormalization", "name": "stage4_unit2_bn2", "inbound_nodes": [[["stage4_unit2_conv1", 0, 0, {}]]]}, {"config": {"activation": "relu", "name": "stage4_unit2_relu2", "trainable": true}, "class_name": "Activation", "name": "stage4_unit2_relu2", "inbound_nodes": [[["stage4_unit2_bn2", 0, 0, {}]]]}, {"config": {"data_format": "channels_last", "name": "zero_padding2d_18", "padding": [[1, 1], [1, 1]], "trainable": true}, "class_name": "ZeroPadding2D", "name": "zero_padding2d_18", "inbound_nodes": [[["stage4_unit2_relu2", 0, 0, {}]]]}, {"config": {"bias_initializer": {"config": {}, "class_name": "Zeros"}, "name": "stage4_unit2_conv2", "padding": "valid", "dilation_rate": [1, 1], "use_bias": false, "data_format": "channels_last", "bias_regularizer": null, "kernel_regularizer": null, "bias_constraint": null, "strides": [1, 1], "trainable": true, "activation": "linear", "kernel_size": [3, 3], "kernel_initializer": {"config": {"distribution": "uniform", "scale": 2.0, "seed": null, "mode": "fan_in"}, "class_name": "VarianceScaling"}, "kernel_constraint": null, "activity_regularizer": null, "filters": 512}, "class_name": "Conv2D", "name": "stage4_unit2_conv2", "inbound_nodes": [[["zero_padding2d_18", 0, 0, {}]]]}, {"config": {"name": "add_8", "trainable": true}, "class_name": "Add", "name": "add_8", "inbound_nodes": [[["stage4_unit2_conv2", 0, 0, {}], ["add_7", 0, 0, {}]]]}, {"config": {"scale": true, "name": "bn1", "momentum": 0.99, "axis": 3, "gamma_regularizer": null, "epsilon": 2e-05, "gamma_constraint": null, "beta_regularizer": null, "moving_mean_initializer": {"config": {}, "class_name": "Zeros"}, "center": true, "trainable": true, "beta_constraint": null, "gamma_initializer": {"config": {}, "class_name": "Ones"}, "beta_initializer": {"config": {}, "class_name": "Zeros"}, "moving_variance_initializer": {"config": {}, "class_name": "Ones"}}, "class_name": "BatchNormalization", "name": "bn1", "inbound_nodes": [[["add_8", 0, 0, {}]]]}, {"config": {"activation": "relu", "name": "relu1", "trainable": true}, "class_name": "Activation", "name": "relu1", "inbound_nodes": [[["bn1", 0, 0, {}]]]}, {"config": {"data_format": "channels_last", "size": [2, 2], "name": "decoder_stage0_upsample", "interpolation": "nearest", "trainable": true}, "class_name": "UpSampling2D", "name": "decoder_stage0_upsample", "inbound_nodes": [[["relu1", 0, 0, {}]]]}, {"config": {"name": "concatenate_1", "trainable": true, "axis": -1}, "class_name": "Concatenate", "name": "concatenate_1", "inbound_nodes": [[["decoder_stage0_upsample", 0, 0, {}], ["stage4_unit1_relu1", 0, 0, {}]]]}, {"config": {"bias_initializer": {"config": {}, "class_name": "Zeros"}, "name": "decoder_stage0_conv1", "padding": "same", "dilation_rate": [1, 1], "use_bias": false, "data_format": "channels_last", "bias_regularizer": null, "kernel_regularizer": null, "bias_constraint": null, "strides": [1, 1], "trainable": true, "activation": "linear", "kernel_size": [3, 3], "kernel_initializer": {"config": {"distribution": "uniform", "scale": 1.0, "seed": null, "mode": "fan_avg"}, "class_name": "VarianceScaling"}, "kernel_constraint": null, "activity_regularizer": null, "filters": 256}, "class_name": "Conv2D", "name": "decoder_stage0_conv1", "inbound_nodes": [[["concatenate_1", 0, 0, {}]]]}, {"config": {"scale": true, "name": "decoder_stage0_bn1", "momentum": 0.99, "axis": -1, "gamma_regularizer": null, "epsilon": 0.001, "gamma_constraint": null, "beta_regularizer": null, "moving_mean_initializer": {"config": {}, "class_name": "Zeros"}, "center": true, "trainable": true, "beta_constraint": null, "gamma_initializer": {"config": {}, "class_name": "Ones"}, "beta_initializer": {"config": {}, "class_name": "Zeros"}, "moving_variance_initializer": {"config": {}, "class_name": "Ones"}}, "class_name": "BatchNormalization", "name": "decoder_stage0_bn1", "inbound_nodes": [[["decoder_stage0_conv1", 0, 0, {}]]]}, {"config": {"activation": "relu", "name": "decoder_stage0_relu1", "trainable": true}, "class_name": "Activation", "name": "decoder_stage0_relu1", "inbound_nodes": [[["decoder_stage0_bn1", 0, 0, {}]]]}, {"config": {"bias_initializer": {"config": {}, "class_name": "Zeros"}, "name": "decoder_stage0_conv2", "padding": "same", "dilation_rate": [1, 1], "use_bias": false, "data_format": "channels_last", "bias_regularizer": null, "kernel_regularizer": null, "bias_constraint": null, "strides": [1, 1], "trainable": true, "activation": "linear", "kernel_size": [3, 3], "kernel_initializer": {"config": {"distribution": "uniform", "scale": 1.0, "seed": null, "mode": "fan_avg"}, "class_name": "VarianceScaling"}, "kernel_constraint": null, "activity_regularizer": null, "filters": 256}, "class_name": "Conv2D", "name": "decoder_stage0_conv2", "inbound_nodes": [[["decoder_stage0_relu1", 0, 0, {}]]]}, {"config": {"scale": true, "name": "decoder_stage0_bn2", "momentum": 0.99, "axis": -1, "gamma_regularizer": null, "epsilon": 0.001, "gamma_constraint": null, "beta_regularizer": null, "moving_mean_initializer": {"config": {}, "class_name": "Zeros"}, "center": true, "trainable": true, "beta_constraint": null, "gamma_initializer": {"config": {}, "class_name": "Ones"}, "beta_initializer": {"config": {}, "class_name": "Zeros"}, "moving_variance_initializer": {"config": {}, "class_name": "Ones"}}, "class_name": "BatchNormalization", "name": "decoder_stage0_bn2", "inbound_nodes": [[["decoder_stage0_conv2", 0, 0, {}]]]}, {"config": {"activation": "relu", "name": "decoder_stage0_relu2", "trainable": true}, "class_name": "Activation", "name": "decoder_stage0_relu2", "inbound_nodes": [[["decoder_stage0_bn2", 0, 0, {}]]]}, {"config": {"data_format": "channels_last", "size": [2, 2], "name": "decoder_stage1_upsample", "interpolation": "nearest", "trainable": true}, "class_name": "UpSampling2D", "name": "decoder_stage1_upsample", "inbound_nodes": [[["decoder_stage0_relu2", 0, 0, {}]]]}, {"config": {"name": "concatenate_2", "trainable": true, "axis": -1}, "class_name": "Concatenate", "name": "concatenate_2", "inbound_nodes": [[["decoder_stage1_upsample", 0, 0, {}], ["stage3_unit1_relu1", 0, 0, {}]]]}, {"config": {"bias_initializer": {"config": {}, "class_name": "Zeros"}, "name": "decoder_stage1_conv1", "padding": "same", "dilation_rate": [1, 1], "use_bias": false, "data_format": "channels_last", "bias_regularizer": null, "kernel_regularizer": null, "bias_constraint": null, "strides": [1, 1], "trainable": true, "activation": "linear", "kernel_size": [3, 3], "kernel_initializer": {"config": {"distribution": "uniform", "scale": 1.0, "seed": null, "mode": "fan_avg"}, "class_name": "VarianceScaling"}, "kernel_constraint": null, "activity_regularizer": null, "filters": 128}, "class_name": "Conv2D", "name": "decoder_stage1_conv1", "inbound_nodes": [[["concatenate_2", 0, 0, {}]]]}, {"config": {"scale": true, "name": "decoder_stage1_bn1", "momentum": 0.99, "axis": -1, "gamma_regularizer": null, "epsilon": 0.001, "gamma_constraint": null, "beta_regularizer": null, "moving_mean_initializer": {"config": {}, "class_name": "Zeros"}, "center": true, "trainable": true, "beta_constraint": null, "gamma_initializer": {"config": {}, "class_name": "Ones"}, "beta_initializer": {"config": {}, "class_name": "Zeros"}, "moving_variance_initializer": {"config": {}, "class_name": "Ones"}}, "class_name": "BatchNormalization", "name": "decoder_stage1_bn1", "inbound_nodes": [[["decoder_stage1_conv1", 0, 0, {}]]]}, {"config": {"activation": "relu", "name": "decoder_stage1_relu1", "trainable": true}, "class_name": "Activation", "name": "decoder_stage1_relu1", "inbound_nodes": [[["decoder_stage1_bn1", 0, 0, {}]]]}, {"config": {"bias_initializer": {"config": {}, "class_name": "Zeros"}, "name": "decoder_stage1_conv2", "padding": "same", "dilation_rate": [1, 1], "use_bias": false, "data_format": "channels_last", "bias_regularizer": null, "kernel_regularizer": null, "bias_constraint": null, "strides": [1, 1], "trainable": true, "activation": "linear", "kernel_size": [3, 3], "kernel_initializer": {"config": {"distribution": "uniform", "scale": 1.0, "seed": null, "mode": "fan_avg"}, "class_name": "VarianceScaling"}, "kernel_constraint": null, "activity_regularizer": null, "filters": 128}, "class_name": "Conv2D", "name": "decoder_stage1_conv2", "inbound_nodes": [[["decoder_stage1_relu1", 0, 0, {}]]]}, {"config": {"scale": true, "name": "decoder_stage1_bn2", "momentum": 0.99, "axis": -1, "gamma_regularizer": null, "epsilon": 0.001, "gamma_constraint": null, "beta_regularizer": null, "moving_mean_initializer": {"config": {}, "class_name": "Zeros"}, "center": true, "trainable": true, "beta_constraint": null, "gamma_initializer": {"config": {}, "class_name": "Ones"}, "beta_initializer": {"config": {}, "class_name": "Zeros"}, "moving_variance_initializer": {"config": {}, "class_name": "Ones"}}, "class_name": "BatchNormalization", "name": "decoder_stage1_bn2", "inbound_nodes": [[["decoder_stage1_conv2", 0, 0, {}]]]}, {"config": {"activation": "relu", "name": "decoder_stage1_relu2", "trainable": true}, "class_name": "Activation", "name": "decoder_stage1_relu2", "inbound_nodes": [[["decoder_stage1_bn2", 0, 0, {}]]]}, {"config": {"data_format": "channels_last", "size": [2, 2], "name": "decoder_stage2_upsample", "interpolation": "nearest", "trainable": true}, "class_name": "UpSampling2D", "name": "decoder_stage2_upsample", "inbound_nodes": [[["decoder_stage1_relu2", 0, 0, {}]]]}, {"config": {"name": "concatenate_3", "trainable": true, "axis": -1}, "class_name": "Concatenate", "name": "concatenate_3", "inbound_nodes": [[["decoder_stage2_upsample", 0, 0, {}], ["stage2_unit1_relu1", 0, 0, {}]]]}, {"config": {"bias_initializer": {"config": {}, "class_name": "Zeros"}, "name": "decoder_stage2_conv1", "padding": "same", "dilation_rate": [1, 1], "use_bias": false, "data_format": "channels_last", "bias_regularizer": null, "kernel_regularizer": null, "bias_constraint": null, "strides": [1, 1], "trainable": true, "activation": "linear", "kernel_size": [3, 3], "kernel_initializer": {"config": {"distribution": "uniform", "scale": 1.0, "seed": null, "mode": "fan_avg"}, "class_name": "VarianceScaling"}, "kernel_constraint": null, "activity_regularizer": null, "filters": 64}, "class_name": "Conv2D", "name": "decoder_stage2_conv1", "inbound_nodes": [[["concatenate_3", 0, 0, {}]]]}, {"config": {"scale": true, "name": "decoder_stage2_bn1", "momentum": 0.99, "axis": -1, "gamma_regularizer": null, "epsilon": 0.001, "gamma_constraint": null, "beta_regularizer": null, "moving_mean_initializer": {"config": {}, "class_name": "Zeros"}, "center": true, "trainable": true, "beta_constraint": null, "gamma_initializer": {"config": {}, "class_name": "Ones"}, "beta_initializer": {"config": {}, "class_name": "Zeros"}, "moving_variance_initializer": {"config": {}, "class_name": "Ones"}}, "class_name": "BatchNormalization", "name": "decoder_stage2_bn1", "inbound_nodes": [[["decoder_stage2_conv1", 0, 0, {}]]]}, {"config": {"activation": "relu", "name": "decoder_stage2_relu1", "trainable": true}, "class_name": "Activation", "name": "decoder_stage2_relu1", "inbound_nodes": [[["decoder_stage2_bn1", 0, 0, {}]]]}, {"config": {"bias_initializer": {"config": {}, "class_name": "Zeros"}, "name": "decoder_stage2_conv2", "padding": "same", "dilation_rate": [1, 1], "use_bias": false, "data_format": "channels_last", "bias_regularizer": null, "kernel_regularizer": null, "bias_constraint": null, "strides": [1, 1], "trainable": true, "activation": "linear", "kernel_size": [3, 3], "kernel_initializer": {"config": {"distribution": "uniform", "scale": 1.0, "seed": null, "mode": "fan_avg"}, "class_name": "VarianceScaling"}, "kernel_constraint": null, "activity_regularizer": null, "filters": 64}, "class_name": "Conv2D", "name": "decoder_stage2_conv2", "inbound_nodes": [[["decoder_stage2_relu1", 0, 0, {}]]]}, {"config": {"scale": true, "name": "decoder_stage2_bn2", "momentum": 0.99, "axis": -1, "gamma_regularizer": null, "epsilon": 0.001, "gamma_constraint": null, "beta_regularizer": null, "moving_mean_initializer": {"config": {}, "class_name": "Zeros"}, "center": true, "trainable": true, "beta_constraint": null, "gamma_initializer": {"config": {}, "class_name": "Ones"}, "beta_initializer": {"config": {}, "class_name": "Zeros"}, "moving_variance_initializer": {"config": {}, "class_name": "Ones"}}, "class_name": "BatchNormalization", "name": "decoder_stage2_bn2", "inbound_nodes": [[["decoder_stage2_conv2", 0, 0, {}]]]}, {"config": {"activation": "relu", "name": "decoder_stage2_relu2", "trainable": true}, "class_name": "Activation", "name": "decoder_stage2_relu2", "inbound_nodes": [[["decoder_stage2_bn2", 0, 0, {}]]]}, {"config": {"data_format": "channels_last", "size": [2, 2], "name": "decoder_stage3_upsample", "interpolation": "nearest", "trainable": true}, "class_name": "UpSampling2D", "name": "decoder_stage3_upsample", "inbound_nodes": [[["decoder_stage2_relu2", 0, 0, {}]]]}, {"config": {"name": "concatenate_4", "trainable": true, "axis": -1}, "class_name": "Concatenate", "name": "concatenate_4", "inbound_nodes": [[["decoder_stage3_upsample", 0, 0, {}], ["relu0", 0, 0, {}]]]}, {"config": {"bias_initializer": {"config": {}, "class_name": "Zeros"}, "name": "decoder_stage3_conv1", "padding": "same", "dilation_rate": [1, 1], "use_bias": false, "data_format": "channels_last", "bias_regularizer": null, "kernel_regularizer": null, "bias_constraint": null, "strides": [1, 1], "trainable": true, "activation": "linear", "kernel_size": [3, 3], "kernel_initializer": {"config": {"distribution": "uniform", "scale": 1.0, "seed": null, "mode": "fan_avg"}, "class_name": "VarianceScaling"}, "kernel_constraint": null, "activity_regularizer": null, "filters": 32}, "class_name": "Conv2D", "name": "decoder_stage3_conv1", "inbound_nodes": [[["concatenate_4", 0, 0, {}]]]}, {"config": {"scale": true, "name": "decoder_stage3_bn1", "momentum": 0.99, "axis": -1, "gamma_regularizer": null, "epsilon": 0.001, "gamma_constraint": null, "beta_regularizer": null, "moving_mean_initializer": {"config": {}, "class_name": "Zeros"}, "center": true, "trainable": true, "beta_constraint": null, "gamma_initializer": {"config": {}, "class_name": "Ones"}, "beta_initializer": {"config": {}, "class_name": "Zeros"}, "moving_variance_initializer": {"config": {}, "class_name": "Ones"}}, "class_name": "BatchNormalization", "name": "decoder_stage3_bn1", "inbound_nodes": [[["decoder_stage3_conv1", 0, 0, {}]]]}, {"config": {"activation": "relu", "name": "decoder_stage3_relu1", "trainable": true}, "class_name": "Activation", "name": "decoder_stage3_relu1", "inbound_nodes": [[["decoder_stage3_bn1", 0, 0, {}]]]}, {"config": {"bias_initializer": {"config": {}, "class_name": "Zeros"}, "name": "decoder_stage3_conv2", "padding": "same", "dilation_rate": [1, 1], "use_bias": false, "data_format": "channels_last", "bias_regularizer": null, "kernel_regularizer": null, "bias_constraint": null, "strides": [1, 1], "trainable": true, "activation": "linear", "kernel_size": [3, 3], "kernel_initializer": {"config": {"distribution": "uniform", "scale": 1.0, "seed": null, "mode": "fan_avg"}, "class_name": "VarianceScaling"}, "kernel_constraint": null, "activity_regularizer": null, "filters": 32}, "class_name": "Conv2D", "name": "decoder_stage3_conv2", "inbound_nodes": [[["decoder_stage3_relu1", 0, 0, {}]]]}, {"config": {"scale": true, "name": "decoder_stage3_bn2", "momentum": 0.99, "axis": -1, "gamma_regularizer": null, "epsilon": 0.001, "gamma_constraint": null, "beta_regularizer": null, "moving_mean_initializer": {"config": {}, "class_name": "Zeros"}, "center": true, "trainable": true, "beta_constraint": null, "gamma_initializer": {"config": {}, "class_name": "Ones"}, "beta_initializer": {"config": {}, "class_name": "Zeros"}, "moving_variance_initializer": {"config": {}, "class_name": "Ones"}}, "class_name": "BatchNormalization", "name": "decoder_stage3_bn2", "inbound_nodes": [[["decoder_stage3_conv2", 0, 0, {}]]]}, {"config": {"activation": "relu", "name": "decoder_stage3_relu2", "trainable": true}, "class_name": "Activation", "name": "decoder_stage3_relu2", "inbound_nodes": [[["decoder_stage3_bn2", 0, 0, {}]]]}, {"config": {"data_format": "channels_last", "size": [2, 2], "name": "decoder_stage4_upsample", "interpolation": "nearest", "trainable": true}, "class_name": "UpSampling2D", "name": "decoder_stage4_upsample", "inbound_nodes": [[["decoder_stage3_relu2", 0, 0, {}]]]}, {"config": {"bias_initializer": {"config": {}, "class_name": "Zeros"}, "name": "decoder_stage4_conv1", "padding": "same", "dilation_rate": [1, 1], "use_bias": false, "data_format": "channels_last", "bias_regularizer": null, "kernel_regularizer": null, "bias_constraint": null, "strides": [1, 1], "trainable": true, "activation": "linear", "kernel_size": [3, 3], "kernel_initializer": {"config": {"distribution": "uniform", "scale": 1.0, "seed": null, "mode": "fan_avg"}, "class_name": "VarianceScaling"}, "kernel_constraint": null, "activity_regularizer": null, "filters": 16}, "class_name": "Conv2D", "name": "decoder_stage4_conv1", "inbound_nodes": [[["decoder_stage4_upsample", 0, 0, {}]]]}, {"config": {"scale": true, "name": "decoder_stage4_bn1", "momentum": 0.99, "axis": -1, "gamma_regularizer": null, "epsilon": 0.001, "gamma_constraint": null, "beta_regularizer": null, "moving_mean_initializer": {"config": {}, "class_name": "Zeros"}, "center": true, "trainable": true, "beta_constraint": null, "gamma_initializer": {"config": {}, "class_name": "Ones"}, "beta_initializer": {"config": {}, "class_name": "Zeros"}, "moving_variance_initializer": {"config": {}, "class_name": "Ones"}}, "class_name": "BatchNormalization", "name": "decoder_stage4_bn1", "inbound_nodes": [[["decoder_stage4_conv1", 0, 0, {}]]]}, {"config": {"activation": "relu", "name": "decoder_stage4_relu1", "trainable": true}, "class_name": "Activation", "name": "decoder_stage4_relu1", "inbound_nodes": [[["decoder_stage4_bn1", 0, 0, {}]]]}, {"config": {"bias_initializer": {"config": {}, "class_name": "Zeros"}, "name": "decoder_stage4_conv2", "padding": "same", "dilation_rate": [1, 1], "use_bias": false, "data_format": "channels_last", "bias_regularizer": null, "kernel_regularizer": null, "bias_constraint": null, "strides": [1, 1], "trainable": true, "activation": "linear", "kernel_size": [3, 3], "kernel_initializer": {"config": {"distribution": "uniform", "scale": 1.0, "seed": null, "mode": "fan_avg"}, "class_name": "VarianceScaling"}, "kernel_constraint": null, "activity_regularizer": null, "filters": 16}, "class_name": "Conv2D", "name": "decoder_stage4_conv2", "inbound_nodes": [[["decoder_stage4_relu1", 0, 0, {}]]]}, {"config": {"scale": true, "name": "decoder_stage4_bn2", "momentum": 0.99, "axis": -1, "gamma_regularizer": null, "epsilon": 0.001, "gamma_constraint": null, "beta_regularizer": null, "moving_mean_initializer": {"config": {}, "class_name": "Zeros"}, "center": true, "trainable": true, "beta_constraint": null, "gamma_initializer": {"config": {}, "class_name": "Ones"}, "beta_initializer": {"config": {}, "class_name": "Zeros"}, "moving_variance_initializer": {"config": {}, "class_name": "Ones"}}, "class_name": "BatchNormalization", "name": "decoder_stage4_bn2", "inbound_nodes": [[["decoder_stage4_conv2", 0, 0, {}]]]}, {"config": {"activation": "relu", "name": "decoder_stage4_relu2", "trainable": true}, "class_name": "Activation", "name": "decoder_stage4_relu2", "inbound_nodes": [[["decoder_stage4_bn2", 0, 0, {}]]]}, {"config": {"bias_initializer": {"config": {}, "class_name": "Zeros"}, "name": "final_conv", "padding": "same", "dilation_rate": [1, 1], "use_bias": true, "data_format": "channels_last", "bias_regularizer": null, "kernel_regularizer": null, "bias_constraint": null, "strides": [1, 1], "trainable": true, "activation": "linear", "kernel_size": [3, 3], "kernel_initializer": {"config": {"distribution": "uniform", "scale": 1.0, "seed": null, "mode": "fan_avg"}, "class_name": "VarianceScaling"}, "kernel_constraint": null, "activity_regularizer": null, "filters": 1}, "class_name": "Conv2D", "name": "final_conv", "inbound_nodes": [[["decoder_stage4_relu2", 0, 0, {}]]]}, {"config": {"activation": "sigmoid", "name": "sigmoid", "trainable": true}, "class_name": "Activation", "name": "sigmoid", "inbound_nodes": [[["final_conv", 0, 0, {}]]]}], "name": "u-resnet18", "output_layers": [["sigmoid", 0, 0]], "input_layers": [["data", 0, 0]]}, "keras_version": "2.2.4", "backend": "tensorflow", "class_name": "Model"}