{"keras_version": "2.2.4", "config": {"name": "model_1", "input_layers": [["input_1", 0, 0]], "output_layers": [["conv2d_19", 0, 0]], "layers": [{"name": "input_1", "config": {"batch_input_shape": [null, 224, 224, 3], "name": "input_1", "sparse": false, "dtype": "float32"}, "class_name": "InputLayer", "inbound_nodes": []}, {"name": "lambda_1", "config": {"output_shape": null, "trainable": true, "output_shape_type": "raw", "function": ["4wEAAAAAAAAAAQAAAAEAAABTAAAAcwQAAAB8AABTKQFOqQApAdoBeHIBAAAAcgEAAAD6Wi9ob21l\nL2FqdXNrYS9Eb2t1bWVudHkvU2tvbGEvdW5ldF9pbXBsZW1lbnRhdGlvbi92ZXNzZWxfc2VnbWVu\ndGF0aW9uL3VuZXRfcHJvamVjdC91X25ldC5wedoIPGxhbWJkYT4UAAAA8wAAAAA=\n", null, null], "arguments": {}, "name": "lambda_1", "function_type": "lambda"}, "class_name": "Lambda", "inbound_nodes": [[["input_1", 0, 0, {}]]]}, {"name": "conv2d_1", "config": {"activity_regularizer": null, "dilation_rate": [1, 1], "trainable": true, "activation": "elu", "kernel_size": [3, 3], "strides": [1, 1], "filters": 16, "bias_constraint": null, "padding": "same", "kernel_initializer": {"config": {"scale": 2.0, "mode": "fan_in", "distribution": "normal", "seed": null}, "class_name": "VarianceScaling"}, "data_format": "channels_last", "use_bias": true, "kernel_regularizer": null, "bias_initializer": {"config": {}, "class_name": "Zeros"}, "name": "conv2d_1", "kernel_constraint": null, "bias_regularizer": null}, "class_name": "Conv2D", "inbound_nodes": [[["lambda_1", 0, 0, {}]]]}, {"name": "dropout_1", "config": {"name": "dropout_1", "rate": 0.1, "trainable": true, "seed": null, "noise_shape": null}, "class_name": "Dropout", "inbound_nodes": [[["conv2d_1", 0, 0, {}]]]}, {"name": "conv2d_2", "config": {"activity_regularizer": null, "dilation_rate": [1, 1], "trainable": true, "activation": "elu", "kernel_size": [3, 3], "strides": [1, 1], "filters": 16, "bias_constraint": null, "padding": "same", "kernel_initializer": {"config": {"scale": 2.0, "mode": "fan_in", "distribution": "normal", "seed": null}, "class_name": "VarianceScaling"}, "data_format": "channels_last", "use_bias": true, "kernel_regularizer": null, "bias_initializer": {"config": {}, "class_name": "Zeros"}, "name": "conv2d_2", "kernel_constraint": null, "bias_regularizer": null}, "class_name": "Conv2D", "inbound_nodes": [[["dropout_1", 0, 0, {}]]]}, {"name": "max_pooling2d_1", "config": {"pool_size": [2, 2], "trainable": true, "strides": [2, 2], "name": "max_pooling2d_1", "padding": "valid", "data_format": "channels_last"}, "class_name": "MaxPooling2D", "inbound_nodes": [[["conv2d_2", 0, 0, {}]]]}, {"name": "conv2d_3", "config": {"activity_regularizer": null, "dilation_rate": [1, 1], "trainable": true, "activation": "elu", "kernel_size": [3, 3], "strides": [1, 1], "filters": 32, "bias_constraint": null, "padding": "same", "kernel_initializer": {"config": {"scale": 2.0, "mode": "fan_in", "distribution": "normal", "seed": null}, "class_name": "VarianceScaling"}, "data_format": "channels_last", "use_bias": true, "kernel_regularizer": null, "bias_initializer": {"config": {}, "class_name": "Zeros"}, "name": "conv2d_3", "kernel_constraint": null, "bias_regularizer": null}, "class_name": "Conv2D", "inbound_nodes": [[["max_pooling2d_1", 0, 0, {}]]]}, {"name": "dropout_2", "config": {"name": "dropout_2", "rate": 0.1, "trainable": true, "seed": null, "noise_shape": null}, "class_name": "Dropout", "inbound_nodes": [[["conv2d_3", 0, 0, {}]]]}, {"name": "conv2d_4", "config": {"activity_regularizer": null, "dilation_rate": [1, 1], "trainable": true, "activation": "elu", "kernel_size": [3, 3], "strides": [1, 1], "filters": 32, "bias_constraint": null, "padding": "same", "kernel_initializer": {"config": {"scale": 2.0, "mode": "fan_in", "distribution": "normal", "seed": null}, "class_name": "VarianceScaling"}, "data_format": "channels_last", "use_bias": true, "kernel_regularizer": null, "bias_initializer": {"config": {}, "class_name": "Zeros"}, "name": "conv2d_4", "kernel_constraint": null, "bias_regularizer": null}, "class_name": "Conv2D", "inbound_nodes": [[["dropout_2", 0, 0, {}]]]}, {"name": "max_pooling2d_2", "config": {"pool_size": [2, 2], "trainable": true, "strides": [2, 2], "name": "max_pooling2d_2", "padding": "valid", "data_format": "channels_last"}, "class_name": "MaxPooling2D", "inbound_nodes": [[["conv2d_4", 0, 0, {}]]]}, {"name": "conv2d_5", "config": {"activity_regularizer": null, "dilation_rate": [1, 1], "trainable": true, "activation": "elu", "kernel_size": [3, 3], "strides": [1, 1], "filters": 64, "bias_constraint": null, "padding": "same", "kernel_initializer": {"config": {"scale": 2.0, "mode": "fan_in", "distribution": "normal", "seed": null}, "class_name": "VarianceScaling"}, "data_format": "channels_last", "use_bias": true, "kernel_regularizer": null, "bias_initializer": {"config": {}, "class_name": "Zeros"}, "name": "conv2d_5", "kernel_constraint": null, "bias_regularizer": null}, "class_name": "Conv2D", "inbound_nodes": [[["max_pooling2d_2", 0, 0, {}]]]}, {"name": "dropout_3", "config": {"name": "dropout_3", "rate": 0.2, "trainable": true, "seed": null, "noise_shape": null}, "class_name": "Dropout", "inbound_nodes": [[["conv2d_5", 0, 0, {}]]]}, {"name": "conv2d_6", "config": {"activity_regularizer": null, "dilation_rate": [1, 1], "trainable": true, "activation": "elu", "kernel_size": [3, 3], "strides": [1, 1], "filters": 64, "bias_constraint": null, "padding": "same", "kernel_initializer": {"config": {"scale": 2.0, "mode": "fan_in", "distribution": "normal", "seed": null}, "class_name": "VarianceScaling"}, "data_format": "channels_last", "use_bias": true, "kernel_regularizer": null, "bias_initializer": {"config": {}, "class_name": "Zeros"}, "name": "conv2d_6", "kernel_constraint": null, "bias_regularizer": null}, "class_name": "Conv2D", "inbound_nodes": [[["dropout_3", 0, 0, {}]]]}, {"name": "max_pooling2d_3", "config": {"pool_size": [2, 2], "trainable": true, "strides": [2, 2], "name": "max_pooling2d_3", "padding": "valid", "data_format": "channels_last"}, "class_name": "MaxPooling2D", "inbound_nodes": [[["conv2d_6", 0, 0, {}]]]}, {"name": "conv2d_7", "config": {"activity_regularizer": null, "dilation_rate": [1, 1], "trainable": true, "activation": "elu", "kernel_size": [3, 3], "strides": [1, 1], "filters": 128, "bias_constraint": null, "padding": "same", "kernel_initializer": {"config": {"scale": 2.0, "mode": "fan_in", "distribution": "normal", "seed": null}, "class_name": "VarianceScaling"}, "data_format": "channels_last", "use_bias": true, "kernel_regularizer": null, "bias_initializer": {"config": {}, "class_name": "Zeros"}, "name": "conv2d_7", "kernel_constraint": null, "bias_regularizer": null}, "class_name": "Conv2D", "inbound_nodes": [[["max_pooling2d_3", 0, 0, {}]]]}, {"name": "dropout_4", "config": {"name": "dropout_4", "rate": 0.2, "trainable": true, "seed": null, "noise_shape": null}, "class_name": "Dropout", "inbound_nodes": [[["conv2d_7", 0, 0, {}]]]}, {"name": "conv2d_8", "config": {"activity_regularizer": null, "dilation_rate": [1, 1], "trainable": true, "activation": "elu", "kernel_size": [3, 3], "strides": [1, 1], "filters": 128, "bias_constraint": null, "padding": "same", "kernel_initializer": {"config": {"scale": 2.0, "mode": "fan_in", "distribution": "normal", "seed": null}, "class_name": "VarianceScaling"}, "data_format": "channels_last", "use_bias": true, "kernel_regularizer": null, "bias_initializer": {"config": {}, "class_name": "Zeros"}, "name": "conv2d_8", "kernel_constraint": null, "bias_regularizer": null}, "class_name": "Conv2D", "inbound_nodes": [[["dropout_4", 0, 0, {}]]]}, {"name": "max_pooling2d_4", "config": {"pool_size": [2, 2], "trainable": true, "strides": [2, 2], "name": "max_pooling2d_4", "padding": "valid", "data_format": "channels_last"}, "class_name": "MaxPooling2D", "inbound_nodes": [[["conv2d_8", 0, 0, {}]]]}, {"name": "conv2d_9", "config": {"activity_regularizer": null, "dilation_rate": [1, 1], "trainable": true, "activation": "elu", "kernel_size": [3, 3], "strides": [1, 1], "filters": 256, "bias_constraint": null, "padding": "same", "kernel_initializer": {"config": {"scale": 2.0, "mode": "fan_in", "distribution": "normal", "seed": null}, "class_name": "VarianceScaling"}, "data_format": "channels_last", "use_bias": true, "kernel_regularizer": null, "bias_initializer": {"config": {}, "class_name": "Zeros"}, "name": "conv2d_9", "kernel_constraint": null, "bias_regularizer": null}, "class_name": "Conv2D", "inbound_nodes": [[["max_pooling2d_4", 0, 0, {}]]]}, {"name": "dropout_5", "config": {"name": "dropout_5", "rate": 0.3, "trainable": true, "seed": null, "noise_shape": null}, "class_name": "Dropout", "inbound_nodes": [[["conv2d_9", 0, 0, {}]]]}, {"name": "conv2d_10", "config": {"activity_regularizer": null, "dilation_rate": [1, 1], "trainable": true, "activation": "elu", "kernel_size": [3, 3], "strides": [1, 1], "filters": 256, "bias_constraint": null, "padding": "same", "kernel_initializer": {"config": {"scale": 2.0, "mode": "fan_in", "distribution": "normal", "seed": null}, "class_name": "VarianceScaling"}, "data_format": "channels_last", "use_bias": true, "kernel_regularizer": null, "bias_initializer": {"config": {}, "class_name": "Zeros"}, "name": "conv2d_10", "kernel_constraint": null, "bias_regularizer": null}, "class_name": "Conv2D", "inbound_nodes": [[["dropout_5", 0, 0, {}]]]}, {"name": "conv2d_transpose_1", "config": {"activity_regularizer": null, "dilation_rate": [1, 1], "trainable": true, "activation": "linear", "kernel_size": [2, 2], "strides": [2, 2], "filters": 128, "bias_constraint": null, "padding": "same", "kernel_initializer": {"config": {"scale": 1.0, "mode": "fan_avg", "distribution": "uniform", "seed": null}, "class_name": "VarianceScaling"}, "data_format": "channels_last", "use_bias": true, "kernel_regularizer": null, "bias_initializer": {"config": {}, "class_name": "Zeros"}, "name": "conv2d_transpose_1", "kernel_constraint": null, "bias_regularizer": null, "output_padding": null}, "class_name": "Conv2DTranspose", "inbound_nodes": [[["conv2d_10", 0, 0, {}]]]}, {"name": "concatenate_1", "config": {"name": "concatenate_1", "trainable": true, "axis": -1}, "class_name": "Concatenate", "inbound_nodes": [[["conv2d_transpose_1", 0, 0, {}], ["conv2d_8", 0, 0, {}]]]}, {"name": "conv2d_11", "config": {"activity_regularizer": null, "dilation_rate": [1, 1], "trainable": true, "activation": "elu", "kernel_size": [3, 3], "strides": [1, 1], "filters": 128, "bias_constraint": null, "padding": "same", "kernel_initializer": {"config": {"scale": 2.0, "mode": "fan_in", "distribution": "normal", "seed": null}, "class_name": "VarianceScaling"}, "data_format": "channels_last", "use_bias": true, "kernel_regularizer": null, "bias_initializer": {"config": {}, "class_name": "Zeros"}, "name": "conv2d_11", "kernel_constraint": null, "bias_regularizer": null}, "class_name": "Conv2D", "inbound_nodes": [[["concatenate_1", 0, 0, {}]]]}, {"name": "dropout_6", "config": {"name": "dropout_6", "rate": 0.2, "trainable": true, "seed": null, "noise_shape": null}, "class_name": "Dropout", "inbound_nodes": [[["conv2d_11", 0, 0, {}]]]}, {"name": "conv2d_12", "config": {"activity_regularizer": null, "dilation_rate": [1, 1], "trainable": true, "activation": "elu", "kernel_size": [3, 3], "strides": [1, 1], "filters": 128, "bias_constraint": null, "padding": "same", "kernel_initializer": {"config": {"scale": 2.0, "mode": "fan_in", "distribution": "normal", "seed": null}, "class_name": "VarianceScaling"}, "data_format": "channels_last", "use_bias": true, "kernel_regularizer": null, "bias_initializer": {"config": {}, "class_name": "Zeros"}, "name": "conv2d_12", "kernel_constraint": null, "bias_regularizer": null}, "class_name": "Conv2D", "inbound_nodes": [[["dropout_6", 0, 0, {}]]]}, {"name": "conv2d_transpose_2", "config": {"activity_regularizer": null, "dilation_rate": [1, 1], "trainable": true, "activation": "linear", "kernel_size": [2, 2], "strides": [2, 2], "filters": 64, "bias_constraint": null, "padding": "same", "kernel_initializer": {"config": {"scale": 1.0, "mode": "fan_avg", "distribution": "uniform", "seed": null}, "class_name": "VarianceScaling"}, "data_format": "channels_last", "use_bias": true, "kernel_regularizer": null, "bias_initializer": {"config": {}, "class_name": "Zeros"}, "name": "conv2d_transpose_2", "kernel_constraint": null, "bias_regularizer": null, "output_padding": null}, "class_name": "Conv2DTranspose", "inbound_nodes": [[["conv2d_12", 0, 0, {}]]]}, {"name": "concatenate_2", "config": {"name": "concatenate_2", "trainable": true, "axis": -1}, "class_name": "Concatenate", "inbound_nodes": [[["conv2d_transpose_2", 0, 0, {}], ["conv2d_6", 0, 0, {}]]]}, {"name": "conv2d_13", "config": {"activity_regularizer": null, "dilation_rate": [1, 1], "trainable": true, "activation": "elu", "kernel_size": [3, 3], "strides": [1, 1], "filters": 64, "bias_constraint": null, "padding": "same", "kernel_initializer": {"config": {"scale": 2.0, "mode": "fan_in", "distribution": "normal", "seed": null}, "class_name": "VarianceScaling"}, "data_format": "channels_last", "use_bias": true, "kernel_regularizer": null, "bias_initializer": {"config": {}, "class_name": "Zeros"}, "name": "conv2d_13", "kernel_constraint": null, "bias_regularizer": null}, "class_name": "Conv2D", "inbound_nodes": [[["concatenate_2", 0, 0, {}]]]}, {"name": "dropout_7", "config": {"name": "dropout_7", "rate": 0.2, "trainable": true, "seed": null, "noise_shape": null}, "class_name": "Dropout", "inbound_nodes": [[["conv2d_13", 0, 0, {}]]]}, {"name": "conv2d_14", "config": {"activity_regularizer": null, "dilation_rate": [1, 1], "trainable": true, "activation": "elu", "kernel_size": [3, 3], "strides": [1, 1], "filters": 64, "bias_constraint": null, "padding": "same", "kernel_initializer": {"config": {"scale": 2.0, "mode": "fan_in", "distribution": "normal", "seed": null}, "class_name": "VarianceScaling"}, "data_format": "channels_last", "use_bias": true, "kernel_regularizer": null, "bias_initializer": {"config": {}, "class_name": "Zeros"}, "name": "conv2d_14", "kernel_constraint": null, "bias_regularizer": null}, "class_name": "Conv2D", "inbound_nodes": [[["dropout_7", 0, 0, {}]]]}, {"name": "conv2d_transpose_3", "config": {"activity_regularizer": null, "dilation_rate": [1, 1], "trainable": true, "activation": "linear", "kernel_size": [2, 2], "strides": [2, 2], "filters": 32, "bias_constraint": null, "padding": "same", "kernel_initializer": {"config": {"scale": 1.0, "mode": "fan_avg", "distribution": "uniform", "seed": null}, "class_name": "VarianceScaling"}, "data_format": "channels_last", "use_bias": true, "kernel_regularizer": null, "bias_initializer": {"config": {}, "class_name": "Zeros"}, "name": "conv2d_transpose_3", "kernel_constraint": null, "bias_regularizer": null, "output_padding": null}, "class_name": "Conv2DTranspose", "inbound_nodes": [[["conv2d_14", 0, 0, {}]]]}, {"name": "concatenate_3", "config": {"name": "concatenate_3", "trainable": true, "axis": -1}, "class_name": "Concatenate", "inbound_nodes": [[["conv2d_transpose_3", 0, 0, {}], ["conv2d_4", 0, 0, {}]]]}, {"name": "conv2d_15", "config": {"activity_regularizer": null, "dilation_rate": [1, 1], "trainable": true, "activation": "elu", "kernel_size": [3, 3], "strides": [1, 1], "filters": 32, "bias_constraint": null, "padding": "same", "kernel_initializer": {"config": {"scale": 2.0, "mode": "fan_in", "distribution": "normal", "seed": null}, "class_name": "VarianceScaling"}, "data_format": "channels_last", "use_bias": true, "kernel_regularizer": null, "bias_initializer": {"config": {}, "class_name": "Zeros"}, "name": "conv2d_15", "kernel_constraint": null, "bias_regularizer": null}, "class_name": "Conv2D", "inbound_nodes": [[["concatenate_3", 0, 0, {}]]]}, {"name": "dropout_8", "config": {"name": "dropout_8", "rate": 0.1, "trainable": true, "seed": null, "noise_shape": null}, "class_name": "Dropout", "inbound_nodes": [[["conv2d_15", 0, 0, {}]]]}, {"name": "conv2d_16", "config": {"activity_regularizer": null, "dilation_rate": [1, 1], "trainable": true, "activation": "elu", "kernel_size": [3, 3], "strides": [1, 1], "filters": 32, "bias_constraint": null, "padding": "same", "kernel_initializer": {"config": {"scale": 2.0, "mode": "fan_in", "distribution": "normal", "seed": null}, "class_name": "VarianceScaling"}, "data_format": "channels_last", "use_bias": true, "kernel_regularizer": null, "bias_initializer": {"config": {}, "class_name": "Zeros"}, "name": "conv2d_16", "kernel_constraint": null, "bias_regularizer": null}, "class_name": "Conv2D", "inbound_nodes": [[["dropout_8", 0, 0, {}]]]}, {"name": "conv2d_transpose_4", "config": {"activity_regularizer": null, "dilation_rate": [1, 1], "trainable": true, "activation": "linear", "kernel_size": [2, 2], "strides": [2, 2], "filters": 16, "bias_constraint": null, "padding": "same", "kernel_initializer": {"config": {"scale": 1.0, "mode": "fan_avg", "distribution": "uniform", "seed": null}, "class_name": "VarianceScaling"}, "data_format": "channels_last", "use_bias": true, "kernel_regularizer": null, "bias_initializer": {"config": {}, "class_name": "Zeros"}, "name": "conv2d_transpose_4", "kernel_constraint": null, "bias_regularizer": null, "output_padding": null}, "class_name": "Conv2DTranspose", "inbound_nodes": [[["conv2d_16", 0, 0, {}]]]}, {"name": "concatenate_4", "config": {"name": "concatenate_4", "trainable": true, "axis": 3}, "class_name": "Concatenate", "inbound_nodes": [[["conv2d_transpose_4", 0, 0, {}], ["conv2d_2", 0, 0, {}]]]}, {"name": "conv2d_17", "config": {"activity_regularizer": null, "dilation_rate": [1, 1], "trainable": true, "activation": "elu", "kernel_size": [3, 3], "strides": [1, 1], "filters": 16, "bias_constraint": null, "padding": "same", "kernel_initializer": {"config": {"scale": 2.0, "mode": "fan_in", "distribution": "normal", "seed": null}, "class_name": "VarianceScaling"}, "data_format": "channels_last", "use_bias": true, "kernel_regularizer": null, "bias_initializer": {"config": {}, "class_name": "Zeros"}, "name": "conv2d_17", "kernel_constraint": null, "bias_regularizer": null}, "class_name": "Conv2D", "inbound_nodes": [[["concatenate_4", 0, 0, {}]]]}, {"name": "dropout_9", "config": {"name": "dropout_9", "rate": 0.1, "trainable": true, "seed": null, "noise_shape": null}, "class_name": "Dropout", "inbound_nodes": [[["conv2d_17", 0, 0, {}]]]}, {"name": "conv2d_18", "config": {"activity_regularizer": null, "dilation_rate": [1, 1], "trainable": true, "activation": "elu", "kernel_size": [3, 3], "strides": [1, 1], "filters": 16, "bias_constraint": null, "padding": "same", "kernel_initializer": {"config": {"scale": 2.0, "mode": "fan_in", "distribution": "normal", "seed": null}, "class_name": "VarianceScaling"}, "data_format": "channels_last", "use_bias": true, "kernel_regularizer": null, "bias_initializer": {"config": {}, "class_name": "Zeros"}, "name": "conv2d_18", "kernel_constraint": null, "bias_regularizer": null}, "class_name": "Conv2D", "inbound_nodes": [[["dropout_9", 0, 0, {}]]]}, {"name": "conv2d_19", "config": {"activity_regularizer": null, "dilation_rate": [1, 1], "trainable": true, "activation": "sigmoid", "kernel_size": [1, 1], "strides": [1, 1], "filters": 1, "bias_constraint": null, "padding": "valid", "kernel_initializer": {"config": {"scale": 1.0, "mode": "fan_avg", "distribution": "uniform", "seed": null}, "class_name": "VarianceScaling"}, "data_format": "channels_last", "use_bias": true, "kernel_regularizer": null, "bias_initializer": {"config": {}, "class_name": "Zeros"}, "name": "conv2d_19", "kernel_constraint": null, "bias_regularizer": null}, "class_name": "Conv2D", "inbound_nodes": [[["conv2d_18", 0, 0, {}]]]}]}, "class_name": "Model", "backend": "tensorflow"}