{"keras_version": "2.2.4", "class_name": "Model", "backend": "tensorflow", "config": {"layers": [{"config": {"dtype": "float32", "sparse": false, "name": "input_1", "batch_input_shape": [null, 224, 224, 3]}, "class_name": "InputLayer", "name": "input_1", "inbound_nodes": []}, {"config": {"arguments": {}, "trainable": true, "name": "lambda_1", "output_shape_type": "raw", "function_type": "lambda", "function": ["4wEAAAAAAAAAAQAAAAEAAABTAAAAcwQAAAB8AABTKQFOqQApAdoBeHIBAAAAcgEAAAD6Wi9ob21l\nL2FqdXNrYS9Eb2t1bWVudHkvU2tvbGEvdW5ldF9pbXBsZW1lbnRhdGlvbi92ZXNzZWxfc2VnbWVu\ndGF0aW9uL3VuZXRfcHJvamVjdC91X25ldC5wedoIPGxhbWJkYT4UAAAA8wAAAAA=\n", null, null], "output_shape": null}, "class_name": "Lambda", "name": "lambda_1", "inbound_nodes": [[["input_1", 0, 0, {}]]]}, {"config": {"activation": "elu", "use_bias": true, "name": "conv2d_1", "kernel_constraint": null, "bias_initializer": {"class_name": "Zeros", "config": {}}, "padding": "same", "kernel_size": [3, 3], "kernel_initializer": {"class_name": "VarianceScaling", "config": {"distribution": "normal", "mode": "fan_in", "seed": null, "scale": 2.0}}, "kernel_regularizer": null, "filters": 16, "trainable": true, "bias_constraint": null, "data_format": "channels_last", "activity_regularizer": null, "dilation_rate": [1, 1], "bias_regularizer": null, "strides": [1, 1]}, "class_name": "Conv2D", "name": "conv2d_1", "inbound_nodes": [[["lambda_1", 0, 0, {}]]]}, {"config": {"trainable": true, "noise_shape": null, "rate": 0.1, "seed": null, "name": "dropout_1"}, "class_name": "Dropout", "name": "dropout_1", "inbound_nodes": [[["conv2d_1", 0, 0, {}]]]}, {"config": {"activation": "elu", "use_bias": true, "name": "conv2d_2", "kernel_constraint": null, "bias_initializer": {"class_name": "Zeros", "config": {}}, "padding": "same", "kernel_size": [3, 3], "kernel_initializer": {"class_name": "VarianceScaling", "config": {"distribution": "normal", "mode": "fan_in", "seed": null, "scale": 2.0}}, "kernel_regularizer": null, "filters": 16, "trainable": true, "bias_constraint": null, "data_format": "channels_last", "activity_regularizer": null, "dilation_rate": [1, 1], "bias_regularizer": null, "strides": [1, 1]}, "class_name": "Conv2D", "name": "conv2d_2", "inbound_nodes": [[["dropout_1", 0, 0, {}]]]}, {"config": {"strides": [2, 2], "trainable": true, "name": "max_pooling2d_1", "pool_size": [2, 2], "data_format": "channels_last", "padding": "valid"}, "class_name": "MaxPooling2D", "name": "max_pooling2d_1", "inbound_nodes": [[["conv2d_2", 0, 0, {}]]]}, {"config": {"activation": "elu", "use_bias": true, "name": "conv2d_3", "kernel_constraint": null, "bias_initializer": {"class_name": "Zeros", "config": {}}, "padding": "same", "kernel_size": [3, 3], "kernel_initializer": {"class_name": "VarianceScaling", "config": {"distribution": "normal", "mode": "fan_in", "seed": null, "scale": 2.0}}, "kernel_regularizer": null, "filters": 32, "trainable": true, "bias_constraint": null, "data_format": "channels_last", "activity_regularizer": null, "dilation_rate": [1, 1], "bias_regularizer": null, "strides": [1, 1]}, "class_name": "Conv2D", "name": "conv2d_3", "inbound_nodes": [[["max_pooling2d_1", 0, 0, {}]]]}, {"config": {"trainable": true, "noise_shape": null, "rate": 0.1, "seed": null, "name": "dropout_2"}, "class_name": "Dropout", "name": "dropout_2", "inbound_nodes": [[["conv2d_3", 0, 0, {}]]]}, {"config": {"activation": "elu", "use_bias": true, "name": "conv2d_4", "kernel_constraint": null, "bias_initializer": {"class_name": "Zeros", "config": {}}, "padding": "same", "kernel_size": [3, 3], "kernel_initializer": {"class_name": "VarianceScaling", "config": {"distribution": "normal", "mode": "fan_in", "seed": null, "scale": 2.0}}, "kernel_regularizer": null, "filters": 32, "trainable": true, "bias_constraint": null, "data_format": "channels_last", "activity_regularizer": null, "dilation_rate": [1, 1], "bias_regularizer": null, "strides": [1, 1]}, "class_name": "Conv2D", "name": "conv2d_4", "inbound_nodes": [[["dropout_2", 0, 0, {}]]]}, {"config": {"strides": [2, 2], "trainable": true, "name": "max_pooling2d_2", "pool_size": [2, 2], "data_format": "channels_last", "padding": "valid"}, "class_name": "MaxPooling2D", "name": "max_pooling2d_2", "inbound_nodes": [[["conv2d_4", 0, 0, {}]]]}, {"config": {"activation": "elu", "use_bias": true, "name": "conv2d_5", "kernel_constraint": null, "bias_initializer": {"class_name": "Zeros", "config": {}}, "padding": "same", "kernel_size": [3, 3], "kernel_initializer": {"class_name": "VarianceScaling", "config": {"distribution": "normal", "mode": "fan_in", "seed": null, "scale": 2.0}}, "kernel_regularizer": null, "filters": 64, "trainable": true, "bias_constraint": null, "data_format": "channels_last", "activity_regularizer": null, "dilation_rate": [1, 1], "bias_regularizer": null, "strides": [1, 1]}, "class_name": "Conv2D", "name": "conv2d_5", "inbound_nodes": [[["max_pooling2d_2", 0, 0, {}]]]}, {"config": {"trainable": true, "noise_shape": null, "rate": 0.2, "seed": null, "name": "dropout_3"}, "class_name": "Dropout", "name": "dropout_3", "inbound_nodes": [[["conv2d_5", 0, 0, {}]]]}, {"config": {"activation": "elu", "use_bias": true, "name": "conv2d_6", "kernel_constraint": null, "bias_initializer": {"class_name": "Zeros", "config": {}}, "padding": "same", "kernel_size": [3, 3], "kernel_initializer": {"class_name": "VarianceScaling", "config": {"distribution": "normal", "mode": "fan_in", "seed": null, "scale": 2.0}}, "kernel_regularizer": null, "filters": 64, "trainable": true, "bias_constraint": null, "data_format": "channels_last", "activity_regularizer": null, "dilation_rate": [1, 1], "bias_regularizer": null, "strides": [1, 1]}, "class_name": "Conv2D", "name": "conv2d_6", "inbound_nodes": [[["dropout_3", 0, 0, {}]]]}, {"config": {"strides": [2, 2], "trainable": true, "name": "max_pooling2d_3", "pool_size": [2, 2], "data_format": "channels_last", "padding": "valid"}, "class_name": "MaxPooling2D", "name": "max_pooling2d_3", "inbound_nodes": [[["conv2d_6", 0, 0, {}]]]}, {"config": {"activation": "elu", "use_bias": true, "name": "conv2d_7", "kernel_constraint": null, "bias_initializer": {"class_name": "Zeros", "config": {}}, "padding": "same", "kernel_size": [3, 3], "kernel_initializer": {"class_name": "VarianceScaling", "config": {"distribution": "normal", "mode": "fan_in", "seed": null, "scale": 2.0}}, "kernel_regularizer": null, "filters": 128, "trainable": true, "bias_constraint": null, "data_format": "channels_last", "activity_regularizer": null, "dilation_rate": [1, 1], "bias_regularizer": null, "strides": [1, 1]}, "class_name": "Conv2D", "name": "conv2d_7", "inbound_nodes": [[["max_pooling2d_3", 0, 0, {}]]]}, {"config": {"trainable": true, "noise_shape": null, "rate": 0.2, "seed": null, "name": "dropout_4"}, "class_name": "Dropout", "name": "dropout_4", "inbound_nodes": [[["conv2d_7", 0, 0, {}]]]}, {"config": {"activation": "elu", "use_bias": true, "name": "conv2d_8", "kernel_constraint": null, "bias_initializer": {"class_name": "Zeros", "config": {}}, "padding": "same", "kernel_size": [3, 3], "kernel_initializer": {"class_name": "VarianceScaling", "config": {"distribution": "normal", "mode": "fan_in", "seed": null, "scale": 2.0}}, "kernel_regularizer": null, "filters": 128, "trainable": true, "bias_constraint": null, "data_format": "channels_last", "activity_regularizer": null, "dilation_rate": [1, 1], "bias_regularizer": null, "strides": [1, 1]}, "class_name": "Conv2D", "name": "conv2d_8", "inbound_nodes": [[["dropout_4", 0, 0, {}]]]}, {"config": {"strides": [2, 2], "trainable": true, "name": "max_pooling2d_4", "pool_size": [2, 2], "data_format": "channels_last", "padding": "valid"}, "class_name": "MaxPooling2D", "name": "max_pooling2d_4", "inbound_nodes": [[["conv2d_8", 0, 0, {}]]]}, {"config": {"activation": "elu", "use_bias": true, "name": "conv2d_9", "kernel_constraint": null, "bias_initializer": {"class_name": "Zeros", "config": {}}, "padding": "same", "kernel_size": [3, 3], "kernel_initializer": {"class_name": "VarianceScaling", "config": {"distribution": "normal", "mode": "fan_in", "seed": null, "scale": 2.0}}, "kernel_regularizer": null, "filters": 256, "trainable": true, "bias_constraint": null, "data_format": "channels_last", "activity_regularizer": null, "dilation_rate": [1, 1], "bias_regularizer": null, "strides": [1, 1]}, "class_name": "Conv2D", "name": "conv2d_9", "inbound_nodes": [[["max_pooling2d_4", 0, 0, {}]]]}, {"config": {"trainable": true, "noise_shape": null, "rate": 0.3, "seed": null, "name": "dropout_5"}, "class_name": "Dropout", "name": "dropout_5", "inbound_nodes": [[["conv2d_9", 0, 0, {}]]]}, {"config": {"activation": "elu", "use_bias": true, "name": "conv2d_10", "kernel_constraint": null, "bias_initializer": {"class_name": "Zeros", "config": {}}, "padding": "same", "kernel_size": [3, 3], "kernel_initializer": {"class_name": "VarianceScaling", "config": {"distribution": "normal", "mode": "fan_in", "seed": null, "scale": 2.0}}, "kernel_regularizer": null, "filters": 256, "trainable": true, "bias_constraint": null, "data_format": "channels_last", "activity_regularizer": null, "dilation_rate": [1, 1], "bias_regularizer": null, "strides": [1, 1]}, "class_name": "Conv2D", "name": "conv2d_10", "inbound_nodes": [[["dropout_5", 0, 0, {}]]]}, {"config": {"activation": "linear", "use_bias": true, "name": "conv2d_transpose_1", "kernel_constraint": null, "bias_initializer": {"class_name": "Zeros", "config": {}}, "padding": "same", "kernel_size": [2, 2], "kernel_initializer": {"class_name": "VarianceScaling", "config": {"distribution": "uniform", "mode": "fan_avg", "seed": null, "scale": 1.0}}, "kernel_regularizer": null, "filters": 128, "trainable": true, "bias_constraint": null, "data_format": "channels_last", "activity_regularizer": null, "dilation_rate": [1, 1], "bias_regularizer": null, "strides": [2, 2], "output_padding": null}, "class_name": "Conv2DTranspose", "name": "conv2d_transpose_1", "inbound_nodes": [[["conv2d_10", 0, 0, {}]]]}, {"config": {"axis": -1, "trainable": true, "name": "concatenate_1"}, "class_name": "Concatenate", "name": "concatenate_1", "inbound_nodes": [[["conv2d_transpose_1", 0, 0, {}], ["conv2d_8", 0, 0, {}]]]}, {"config": {"activation": "elu", "use_bias": true, "name": "conv2d_11", "kernel_constraint": null, "bias_initializer": {"class_name": "Zeros", "config": {}}, "padding": "same", "kernel_size": [3, 3], "kernel_initializer": {"class_name": "VarianceScaling", "config": {"distribution": "normal", "mode": "fan_in", "seed": null, "scale": 2.0}}, "kernel_regularizer": null, "filters": 128, "trainable": true, "bias_constraint": null, "data_format": "channels_last", "activity_regularizer": null, "dilation_rate": [1, 1], "bias_regularizer": null, "strides": [1, 1]}, "class_name": "Conv2D", "name": "conv2d_11", "inbound_nodes": [[["concatenate_1", 0, 0, {}]]]}, {"config": {"trainable": true, "noise_shape": null, "rate": 0.2, "seed": null, "name": "dropout_6"}, "class_name": "Dropout", "name": "dropout_6", "inbound_nodes": [[["conv2d_11", 0, 0, {}]]]}, {"config": {"activation": "elu", "use_bias": true, "name": "conv2d_12", "kernel_constraint": null, "bias_initializer": {"class_name": "Zeros", "config": {}}, "padding": "same", "kernel_size": [3, 3], "kernel_initializer": {"class_name": "VarianceScaling", "config": {"distribution": "normal", "mode": "fan_in", "seed": null, "scale": 2.0}}, "kernel_regularizer": null, "filters": 128, "trainable": true, "bias_constraint": null, "data_format": "channels_last", "activity_regularizer": null, "dilation_rate": [1, 1], "bias_regularizer": null, "strides": [1, 1]}, "class_name": "Conv2D", "name": "conv2d_12", "inbound_nodes": [[["dropout_6", 0, 0, {}]]]}, {"config": {"activation": "linear", "use_bias": true, "name": "conv2d_transpose_2", "kernel_constraint": null, "bias_initializer": {"class_name": "Zeros", "config": {}}, "padding": "same", "kernel_size": [2, 2], "kernel_initializer": {"class_name": "VarianceScaling", "config": {"distribution": "uniform", "mode": "fan_avg", "seed": null, "scale": 1.0}}, "kernel_regularizer": null, "filters": 64, "trainable": true, "bias_constraint": null, "data_format": "channels_last", "activity_regularizer": null, "dilation_rate": [1, 1], "bias_regularizer": null, "strides": [2, 2], "output_padding": null}, "class_name": "Conv2DTranspose", "name": "conv2d_transpose_2", "inbound_nodes": [[["conv2d_12", 0, 0, {}]]]}, {"config": {"axis": -1, "trainable": true, "name": "concatenate_2"}, "class_name": "Concatenate", "name": "concatenate_2", "inbound_nodes": [[["conv2d_transpose_2", 0, 0, {}], ["conv2d_6", 0, 0, {}]]]}, {"config": {"activation": "elu", "use_bias": true, "name": "conv2d_13", "kernel_constraint": null, "bias_initializer": {"class_name": "Zeros", "config": {}}, "padding": "same", "kernel_size": [3, 3], "kernel_initializer": {"class_name": "VarianceScaling", "config": {"distribution": "normal", "mode": "fan_in", "seed": null, "scale": 2.0}}, "kernel_regularizer": null, "filters": 64, "trainable": true, "bias_constraint": null, "data_format": "channels_last", "activity_regularizer": null, "dilation_rate": [1, 1], "bias_regularizer": null, "strides": [1, 1]}, "class_name": "Conv2D", "name": "conv2d_13", "inbound_nodes": [[["concatenate_2", 0, 0, {}]]]}, {"config": {"trainable": true, "noise_shape": null, "rate": 0.2, "seed": null, "name": "dropout_7"}, "class_name": "Dropout", "name": "dropout_7", "inbound_nodes": [[["conv2d_13", 0, 0, {}]]]}, {"config": {"activation": "elu", "use_bias": true, "name": "conv2d_14", "kernel_constraint": null, "bias_initializer": {"class_name": "Zeros", "config": {}}, "padding": "same", "kernel_size": [3, 3], "kernel_initializer": {"class_name": "VarianceScaling", "config": {"distribution": "normal", "mode": "fan_in", "seed": null, "scale": 2.0}}, "kernel_regularizer": null, "filters": 64, "trainable": true, "bias_constraint": null, "data_format": "channels_last", "activity_regularizer": null, "dilation_rate": [1, 1], "bias_regularizer": null, "strides": [1, 1]}, "class_name": "Conv2D", "name": "conv2d_14", "inbound_nodes": [[["dropout_7", 0, 0, {}]]]}, {"config": {"activation": "linear", "use_bias": true, "name": "conv2d_transpose_3", "kernel_constraint": null, "bias_initializer": {"class_name": "Zeros", "config": {}}, "padding": "same", "kernel_size": [2, 2], "kernel_initializer": {"class_name": "VarianceScaling", "config": {"distribution": "uniform", "mode": "fan_avg", "seed": null, "scale": 1.0}}, "kernel_regularizer": null, "filters": 32, "trainable": true, "bias_constraint": null, "data_format": "channels_last", "activity_regularizer": null, "dilation_rate": [1, 1], "bias_regularizer": null, "strides": [2, 2], "output_padding": null}, "class_name": "Conv2DTranspose", "name": "conv2d_transpose_3", "inbound_nodes": [[["conv2d_14", 0, 0, {}]]]}, {"config": {"axis": -1, "trainable": true, "name": "concatenate_3"}, "class_name": "Concatenate", "name": "concatenate_3", "inbound_nodes": [[["conv2d_transpose_3", 0, 0, {}], ["conv2d_4", 0, 0, {}]]]}, {"config": {"activation": "elu", "use_bias": true, "name": "conv2d_15", "kernel_constraint": null, "bias_initializer": {"class_name": "Zeros", "config": {}}, "padding": "same", "kernel_size": [3, 3], "kernel_initializer": {"class_name": "VarianceScaling", "config": {"distribution": "normal", "mode": "fan_in", "seed": null, "scale": 2.0}}, "kernel_regularizer": null, "filters": 32, "trainable": true, "bias_constraint": null, "data_format": "channels_last", "activity_regularizer": null, "dilation_rate": [1, 1], "bias_regularizer": null, "strides": [1, 1]}, "class_name": "Conv2D", "name": "conv2d_15", "inbound_nodes": [[["concatenate_3", 0, 0, {}]]]}, {"config": {"trainable": true, "noise_shape": null, "rate": 0.1, "seed": null, "name": "dropout_8"}, "class_name": "Dropout", "name": "dropout_8", "inbound_nodes": [[["conv2d_15", 0, 0, {}]]]}, {"config": {"activation": "elu", "use_bias": true, "name": "conv2d_16", "kernel_constraint": null, "bias_initializer": {"class_name": "Zeros", "config": {}}, "padding": "same", "kernel_size": [3, 3], "kernel_initializer": {"class_name": "VarianceScaling", "config": {"distribution": "normal", "mode": "fan_in", "seed": null, "scale": 2.0}}, "kernel_regularizer": null, "filters": 32, "trainable": true, "bias_constraint": null, "data_format": "channels_last", "activity_regularizer": null, "dilation_rate": [1, 1], "bias_regularizer": null, "strides": [1, 1]}, "class_name": "Conv2D", "name": "conv2d_16", "inbound_nodes": [[["dropout_8", 0, 0, {}]]]}, {"config": {"activation": "linear", "use_bias": true, "name": "conv2d_transpose_4", "kernel_constraint": null, "bias_initializer": {"class_name": "Zeros", "config": {}}, "padding": "same", "kernel_size": [2, 2], "kernel_initializer": {"class_name": "VarianceScaling", "config": {"distribution": "uniform", "mode": "fan_avg", "seed": null, "scale": 1.0}}, "kernel_regularizer": null, "filters": 16, "trainable": true, "bias_constraint": null, "data_format": "channels_last", "activity_regularizer": null, "dilation_rate": [1, 1], "bias_regularizer": null, "strides": [2, 2], "output_padding": null}, "class_name": "Conv2DTranspose", "name": "conv2d_transpose_4", "inbound_nodes": [[["conv2d_16", 0, 0, {}]]]}, {"config": {"axis": 3, "trainable": true, "name": "concatenate_4"}, "class_name": "Concatenate", "name": "concatenate_4", "inbound_nodes": [[["conv2d_transpose_4", 0, 0, {}], ["conv2d_2", 0, 0, {}]]]}, {"config": {"activation": "elu", "use_bias": true, "name": "conv2d_17", "kernel_constraint": null, "bias_initializer": {"class_name": "Zeros", "config": {}}, "padding": "same", "kernel_size": [3, 3], "kernel_initializer": {"class_name": "VarianceScaling", "config": {"distribution": "normal", "mode": "fan_in", "seed": null, "scale": 2.0}}, "kernel_regularizer": null, "filters": 16, "trainable": true, "bias_constraint": null, "data_format": "channels_last", "activity_regularizer": null, "dilation_rate": [1, 1], "bias_regularizer": null, "strides": [1, 1]}, "class_name": "Conv2D", "name": "conv2d_17", "inbound_nodes": [[["concatenate_4", 0, 0, {}]]]}, {"config": {"trainable": true, "noise_shape": null, "rate": 0.1, "seed": null, "name": "dropout_9"}, "class_name": "Dropout", "name": "dropout_9", "inbound_nodes": [[["conv2d_17", 0, 0, {}]]]}, {"config": {"activation": "elu", "use_bias": true, "name": "conv2d_18", "kernel_constraint": null, "bias_initializer": {"class_name": "Zeros", "config": {}}, "padding": "same", "kernel_size": [3, 3], "kernel_initializer": {"class_name": "VarianceScaling", "config": {"distribution": "normal", "mode": "fan_in", "seed": null, "scale": 2.0}}, "kernel_regularizer": null, "filters": 16, "trainable": true, "bias_constraint": null, "data_format": "channels_last", "activity_regularizer": null, "dilation_rate": [1, 1], "bias_regularizer": null, "strides": [1, 1]}, "class_name": "Conv2D", "name": "conv2d_18", "inbound_nodes": [[["dropout_9", 0, 0, {}]]]}, {"config": {"activation": "sigmoid", "use_bias": true, "name": "conv2d_19", "kernel_constraint": null, "bias_initializer": {"class_name": "Zeros", "config": {}}, "padding": "valid", "kernel_size": [1, 1], "kernel_initializer": {"class_name": "VarianceScaling", "config": {"distribution": "uniform", "mode": "fan_avg", "seed": null, "scale": 1.0}}, "kernel_regularizer": null, "filters": 1, "trainable": true, "bias_constraint": null, "data_format": "channels_last", "activity_regularizer": null, "dilation_rate": [1, 1], "bias_regularizer": null, "strides": [1, 1]}, "class_name": "Conv2D", "name": "conv2d_19", "inbound_nodes": [[["conv2d_18", 0, 0, {}]]]}], "output_layers": [["conv2d_19", 0, 0]], "input_layers": [["input_1", 0, 0]], "name": "model_1"}}